model/checkpoint_3000.pth (torch, 21912 bytes, 6 tensors)

fc1.weight f4 [64, 6]
00000000: d318 de3e 8aa1 423f e6bc bdbe f413 5ebf
00000010: c3b4 37bd 1129 953e f43c f73e b272 0f3f
00000020: b282 f6be 54ce ea3d b2f4 b2bd 8ce5 343d
00000030: 8ac6 7abf 5013 93be 6078 4fbf e59b 743e
00000040: ee8d f33d a0bd 2d3e 47bc a3be 4fb7 2ebf
00000050: 637d fdbd 7d95 703f 63ad 5c3e 3bc0 6b3e
00000060: a9e0 42be 923a 403f edc9 313f 6d1c 26bf
00000070: 1d30 bbbe eaf7 f23d 3d1f f6be 0852 6c3f
00000080: 5269 58bf c850 a7be bbbd d4be a332 9bbe
00000090: 4b1c b9bf 325d 2bbe 2765 ed3e ef59 94be
000000a0: 2ab2 20be 4560 01bd ca0c 4ebe d4c2 7cbf
000000b0: 10bb 58bf 5be5 b3be 4bc6 183e 2342 46be
000000c0: 7467 32bf a69f 7dbf fd57 3c3f 6255 1e3f
000000d0: 9ffc d93d 508b 47bc 5612 58bd e7a6 80bf
000000e0: 7057 91bd fba1 8ebd de5a 9bbe 895a dfbe
000000f0: 0f7b b53e f60d 62be 308d 433f 9b99 fa3d
00000100: 4705 203f 2504 583e 373a c03e ffca e3be
00000110: 016c 833e 314a 023f 1dae a0be f52f 1dbe
00000120: 961a e93e dfe8 293e 8f75 1b3f dd89 a53f
00000130: c9ab 5cbe a210 d7be ec7d 5b3e 0e3b a7bf
00000140: 5aec 82bf 0e15 773f a066 b73d 59fe d3be
00000150: ed3a 3fbd f95f cd3e 7e17 ffbe 338c 083f
00000160: 89d4 923e 7b3a 25be ad18 823f f2d6 893e
00000170: cccb 783e 6b26 ebbd dc4b cabe f4d1 2dbe
00000180: 1bd0 363f 706d c33e 4a8a 11bf 97ae 13bf
00000190: bb43 143f 1fd5 523e aa8a 9bbf 09bb 3e3b
000001a0: 2293 67bf fb38 d63b aa87 5abe 2d44 79be
000001b0: 8daf a9be bf8a 00be 20cb 933d 0f99 74bf
000001c0: 5dce fabe e883 c03e ea88 463f 6122 db3c
000001d0: 895d 74be 7f53 eabd 7a06 7d3e ba4f 5b3e
000001e0: 87bc 3d3f bab0 173e cb5b a5be f51c a83e
000001f0: 6f04 e1be b826 6dbe 0dc1 29bf 0427 3cbf
00000200: 4d97 f03d 3624 b7be 552b 16be 6b18 00be
00000210: afee acbb 8f87 16bf 848d a63e 335f 7bbe
00000220: 36b8 3a3e 45ea 253c 3df1 df3e 28c3 693e
00000230: 5db5 283f ea87 bc3e a687 483e 909e 583e
00000240: 9caf 2cbf 6a96 b03e 254e 67be f322 c43e
00000250: a641 c6be 5256 c8be 7b9b da3d 09d0 66bf
00000260: efcc 023e 2a41 b23f d8b0 55be 34c8 abbe
00000270: 31a7 54bd 5f0e 7dbf 9596 a0bd 0375 8bbe
00000280: 486d 89be b81f a6be 6e2d 2dbf a31b f0be
00000290: 6355 17bf 6612 01bf a846 b3be 93ac 1a3e
000002a0: 62f0 88bc 2761 6fbe cd12 9c3e e455 0fbf
000002b0: 76f6 fd3d ebb8 3d3e c243 21bf b4a4 983e
000002c0: 40ad cebe 942b 883f 2684 d33e ce99 8ebe
000002d0: 0faf d0be 2c62 033e 461a 0d3f 4ef7 df3d
000002e0: 257e 113f ace2 a43e 9f1d cfbe 9234 c33e
000002f0: 5835 8ebf 9198 f73e 7f75 c43e be03 b23e
00000300: 4ad2 a43d 5261 7d3f f209 84bf 91ae 06bf
00000310: b043 8bbc b669 a23e 1b0c c1be a8ac 6c3e
00000320: 8c52 b23e 9cd1 b9bb c4aa 29bf 15f2 c8be
00000330: df5b a5be f851 1cbf 8a4e 9ebe 7c71 2e3f
00000340: ab8c 8d3c 4e24 18be c440 a13e 3773 863d
00000350: e9e7 49be fa28 c33d 8a36 3a3e 7c8d 3b3e
00000360: 1a9f 7a3f 9b35 0c3f 6bda 8f3f 6271 bcbf
00000370: a473 653e 762b 113f 0862 023f e3a9 9dbe
00000380: 2893 92bf 4659 8ebe 2042 03bd fb95 e8bc
00000390: ad88 75bf 42c0 fc3e 481a 8fbe 1715 213f
000003a0: d96b b83e 0ee1 b03e 0b59 2f3f 5c97 64bd
000003b0: 793e 1a3f 479f e5be 79ab 34be 3ed5 45be
000003c0: 1cd9 c9be 7262 f63e 22aa 36be 482d b6be
000003d0: e0ea f33d 6546 a1be 29a4 2f3f c416 26bf
000003e0: fc39 fe3e 02bf 1bbf 88f0 fcbe f5a9 e7bd
000003f0: 64f8 5b3f 1d3f eabe 9ff1 9dbe 8dd7 c3be
0.43378314 0.7602774 -0.3705818 -0.86749196 -0.044850122 0.29132894 0.4828869 0.56034386
-0.48146588 0.11465135 -0.08738078 0.044164225 -0.97959197 -0.28725672 -0.8104305 0.23887594
0.11892305 0.16966867 -0.31979582 -0.68248457 -0.12377431 0.939781 0.21550517 0.23022549
-0.19031014 0.7508937 0.6944874 -0.64887124 -0.36560145 0.11863692 -0.48070708 0.9231267
-0.84535706 -0.3267882 -0.41551003 -0.3031207 -1.4461759 -0.1673477 0.46366236 -0.28974864
-0.15692964 -0.03158595 -0.20122066 -0.98734784 -0.84660435 -0.35135922 0.14919393 -0.19361167
-0.69689107 -0.9907173 0.7357176 0.61849034 0.10643887 -0.012179211 -0.05275186 -1.0050935
-0.070967555 -0.06964489 -0.30342764 -0.4362376 0.3544545 -0.22075638 0.7638731 0.12236329
0.6250805 0.21095331 0.37544414 -0.4449081 0.25668338 0.5089446 -0.31382838 -0.15350325
0.45528096 0.1659274 0.60726255 1.2932698 -0.21549906 -0.42004877 0.21434754 -1.3064897
-1.0228379 0.965165 0.08955121 -0.4140499 -0.046687055 0.40112284 -0.4982261 0.5333893
0.28677776 -0.1613559 1.016378 0.26921803 0.24296492 -0.11481937 -0.39511 -0.16974622
0.71411294 0.38169432 -0.5685164 -0.5768828 0.5791585 0.20589112 -1.2151692 0.002910318
-0.9045888 0.0065375543 -0.21340814 -0.24342413 -0.33141747 -0.12552927 0.072164774 -0.9554605
-0.48985568 0.37600636 0.77552664 0.026749792 -0.23863806 -0.11441707 0.24709502 0.21417132
0.74115795 0.1481351 -0.32296595 0.32834592 -0.43948695 -0.23159301 -0.663102 -0.73497033
0.11747608 -0.35769814 -0.14664967 -0.12509315 -0.0052774767 -0.58800596 0.32529843 -0.24548034
0.18234333 0.010126655 0.43738738 0.22828352 0.6590174 0.36822444 0.19582996 0.21154237
-0.6745546 0.34489757 -0.22588404 0.38307914 -0.3872196 -0.39128357 0.10674187 -0.90161186
0.12773488 1.3926136 -0.20868242 -0.3355118 -0.05191726 -0.98850054 -0.07841221 -0.2723771
-0.26841187 -0.32446074 -0.67647445 -0.46896085 -0.59114665 -0.504187 -0.35014844 0.15104894
-0.016716186 -0.23376904 0.30483094 -0.55990434 0.12400524 0.18527572 -0.62994015 0.2981316
-0.40366554 1.0638299 0.4131176 -0.2785172 -0.4075856 0.12830418 0.55118215 0.109358415
0.56833106 0.32204187 -0.40452287 0.38126045 -1.1110029 0.48358586 0.38370892 0.3476848
0.08047922 0.98976624 -1.0315535 -0.5261012 -0.01700005 0.31721276 -0.37704548 0.23112738
0.34828603 -0.0056707393 -0.6627619 -0.39247194 -0.32296655 -0.61062574 -0.30919296 0.68141913
0.01727899 -0.14857599 0.31494725 0.06564944 -0.19717373 0.095293 0.18184868 0.18315691
0.9789902 0.54769295 1.1238531 -1.4722102 0.22407395 0.5670694 0.50930834 -0.30793676
-1.1451159 -0.27802485 -0.032045484 -0.028391829 -0.95911676 0.4936543 -0.27949739 0.62922806
0.3601978 0.34546703 0.68495244 -0.05580841 0.60251576 -0.4484808 -0.17643537 -0.19319627
-0.39423454 0.48121983 -0.17838338 -0.35581422 0.11910033 -0.3149902 0.68609864 -0.6487849
0.49653614 -0.6083833 -0.4940226 -0.113117136 0.8592589 -0.45751277 -0.30848405 -0.3825039

fc1.bias f4 [64]
00000000: 3654 7f3e 37f7 1a3f 0ee2 543e 0ca3 24bd
00000010: b0b4 b53e 26d7 b33e a7f0 2cbf fb1e 333d
00000020: 8ed5 84be 3488 3c3c 699c 32bf 6d23 533f
00000030: 8cf3 473d 8610 97bd f87d 76bf 9111 d43e
00000040: c3d0 5e3f 2d58 edbd e72d 30be f6c2 3d3f
00000050: f104 4b3f 5c92 47bf 63a6 353f ffcf 423f
00000060: 570a 9fbe a74c 7f3d 9d83 0d3c cd62 c5be
00000070: a526 7c3f b877 a3be d1a7 18bf 7e31 083c
00000080: db4d cdbe ff21 33bf 98f3 e63d 0000 483f
00000090: d0cf f73e 0d5e c23d 9b62 31be f86d d83e
000000a0: 9d61 ae3e 9d9c c5be c455 783e fb7b afbe
000000b0: d430 cd3e 0ac9 45be c1a1 efbe f1f2 3bbd
000000c0: fd4b 2a3f 5e10 b43e bcce a7be 083d bebd
000000d0: 5d9f 833e 16c9 6dbf 7b73 c53e f028 29bf
000000e0: 364f 3ebf 149d 05bf a1c2 d8be a513 203f
000000f0: 5926 0dbf 5607 1c3f cc9c 74be a431 ed3e
0.24934468 0.6053347 0.20789358 -0.040194556 0.35489416 0.35125083 -0.67554706 0.043730717
-0.2594418 0.011507083 -0.6976991 0.8247593 0.04881625 -0.073761985 -0.96285963 0.41419652
0.87037295 -0.11589084 -0.1720501 0.7412561 0.79304415 -0.779577 0.7095701 0.76098627
-0.31062576 0.06232896 0.008637336 -0.38551942 0.98496467 -0.31927276 -0.5963107 0.008312581
-0.40098462 -0.6997375 0.112769306 0.78125 0.48400736 0.09490595 -0.17322771 0.422714
0.34058848 -0.3859605 0.24251467 -0.34274277 0.40076315 -0.19314972 -0.46803096 -0.045885984
0.665222 0.35168737 -0.32774913 -0.092889845 0.25707522 -0.9288496 0.38564667 -0.6607809
-0.74339616 -0.5219281 -0.4233599 0.62529975 -0.5513664 0.60948694 -0.23887938 0.46326935

fc2.weight f4 [64, 64]
00000000: c6e2 45bd eb6b 23be 4b5e a03d 9d6a 003d
00000010: dce2 943d 3426 2e3d d1c5 a8bd 19d8 863d
00000020: 5394 3abc 69af f33c 73a2 edbd 5d37 adbd
00000030: 9b6b 18be 6e3b 84bd a6a9 353c d04b 0abe
00000040: 3880 c53a c0d6 513d 9cf0 c0bc 7bc7 f8bd
00000050: 6ac1 12be 5158 63bd 7503 453b 160b b23d
00000060: 3d62 653d d59a f3bc fcf1 f53c 56c8 20be
00000070: 55f3 25be abdb 2d3d 8478 dabd 526a a53c
00000080: 3c0f ffbd ca4c 9fbd ec7b ebbd fe2a d73c
00000090: 8f2d 4fbd e485 a43d b153 153d 77d1 8d3c
000000a0: 9e50 a7bc 65a2 9cbd 806c 89bd fea2 8cbc
000000b0: bf1d bd3c ead9 d3bd fa54 b63d 1fc1 5abd
000000c0: b7d3 0dbe 5b3e c8bd 92fd c13d 7ac2 a53d
000000d0: 3a9e 08be df30 4d3d 6345 883c 33ca 0f3d
000000e0: 8da0 a73d 05ca c7bd 446b a83a 6f08 dcba
000000f0: a76e 99bd a74b 353b bdfc 5ebd ef3f 243d
00000100: 0f99 9abd 7b82 afbd 8d87 cb3b 7c35 fb3b
00000110: 5908 e6bd bb5b 0cbd 2d8d 273d 2863 92bc
00000120: 5fdb 2a3c 86a3 23bd b8de bd3c 3f3e e1bd
00000130: 7049 b0bd 28a1 acbd 830a cc3d d208 8bbd
00000140: deb9 b5bc a38d 9cbd 2986 b03d 39ed a93d
00000150: d5c4 f0bd ea58 16be 65c6 04be 3f28 18bd
00000160: c482 02bd 6b07 cfbd 0b60 83bd f3a2 9fbc
00000170: 3442 b2bd 2d6a da3b 76b5 e5bc 1ad7 97bd
00000180: 6b35 fabc edf9 b13d 43aa ffbd 9e46 03bd
00000190: 02fc a9bd 5536 d23d c864 1fbe d84c 10be
000001a0: 5bfa d93d 16de b8bd 7d4a 78bc bcd6 5bbd
000001b0: 0418 0cbd 6e3e febc 2c24 7b3d 24c1 f2bc
000001c0: 1ac7 36be daec a5bd 45f4 5ebd 90b8 fd3c
000001d0: 1ada d1bd dea5 a43d ae4b 23bd 05b4 75bd
000001e0: 63ed a93d 23f4 d43c 7fb4 893d efbd 103d
000001f0: 5589 a9bd 6076 f9bd ca87 eebc ea36 863d
00000200: 4252 423e f94a ad3d 47bc 843e 2cc9 cb3d
00000210: cce0 933d 8c6d d93d 165f 93be 14a6 6dbe
00000220: f5a7 0cbd 3adc 0abf 3c05 3fbe 6742 983e
00000230: 2a94 b43e f34d a83d e4f2 2ebf 3ca2 8dbc
00000240: 2a37 883d 1666 143f 13f5 ecbc 7db7 6a3e
00000250: 0430 fa3d cc38 2ebe 8678 3b3e 0cd2 c13e
00000260: 860f 04bf 263f dc3d 9fee b33d fd2f bdbd
00000270: 959f 293e 5bfd 59be c66f 80bd 6a62 953d
00000280: f882 593e 7977 20bf 22cc 983e c1d9 2d3e
00000290: ebfd 903d 01e9 76be 225f 70be cc64 5a3e
000002a0: 087d 17bd abcd 6fbe 8416 32be 02b5 e6bd
000002b0: f75c 433b 70df 0b3e 7e4c 8fbe 9567 2fbc
000002c0: 2fdd 6e3e bd91 613d 79ea edbc 0993 7bbe
000002d0: bace 1e3e d67a 83be e95d 893e af76 99bd
000002e0: c798 813e 3471 0dbe c855 c23c ca29 993d
000002f0: 1d2d 0bbe 0749 93bc 3bd2 b3be 9637 fd3d
00000300: 1178 ddbf 639b c6bd c3a8 a2bf b330 c3be
00000310: 2918 e2bf 841f 5b3e a8f4 623f 2bfe c0be
00000320: 8099 5abf 0cba bf3e 3349 c83e 494d 9cbe
00000330: 6b31 463e febc 193e 2799 0f3d 73a4 1fbf
00000340: 5700 af3e 4a88 8a3e 7931 1ebf 0480 2abf
00000350: 5128 fd3d 9e96 f1be d7e1 fc3d 4344 d2bd
00000360: caff a53d ffdb eb3d 066a a9be 2607 26be
00000370: 521e bdbe 2fb9 873e 1a18 d1bd 5f43 743c
00000380: 00b2 12c0 ecf6 6cbe dd5d 023f c941 d0be
00000390: 5ce6 cbbf 40ca 5f3d 9e35 b13f e504 d9be
000003a0: 6ebb 643e 86f3 9fbf a8f6 f6bd fa85 c1bf
000003b0: 109c 093f 4511 763e 3a94 dc3c e24c e43e
000003c0: ad57 343e 9799 09be da35 9d3e e6ae 9fbd
000003d0: b768 91be c8b1 943d 2c80 413d 271e ec3e
000003e0: 4caf 90bf 23bf cbbd c7b2 92be 06d9 97bf
000003f0: 28ae 23c0 4380 66bf 57d5 113e 83e7 9bbe
-0.04831197 -0.15959136 0.07830485 0.031351674 0.072698325 0.042516902 -0.082408555 0.06584186
-0.011387902 0.029746728 -0.1160325 -0.08457825 -0.14884798 -0.06456648 0.011087811 -0.13505483
0.0015068119 0.051230192 -0.023552231 -0.12147423 -0.14331594 -0.055504147 0.0030061875 0.08693521
0.05600189 -0.029736916 0.030022614 -0.15701422 -0.16206105 0.04244582 -0.10667518 0.020192299
-0.124540776 -0.07778318 -0.114982456 0.026265617 -0.050580557 0.0803335 0.036456767 0.017311795
-0.020424183 -0.07648162 -0.06710148 -0.017167564 0.023085473 -0.10344298 0.08902927 -0.05340683
-0.13850294 -0.09777518 0.09472193 0.08093734 -0.13341609 0.050095435 0.016634649 0.03510494
0.081849195 -0.09755329 0.001284935 -0.0016787181 -0.074918084 0.00276635 -0.05444025 0.040100034
-0.07548725 -0.08569809 0.0062112273 0.007666288 -0.11232061 -0.03426717 0.04090612 -0.017869547
0.010428279 -0.03995087 0.02317749 -0.109982006 -0.08607757 -0.084291756 0.099629425 -0.06788792
-0.022183355 -0.076442026 0.08619339 0.082972 -0.11756293 -0.14682356 -0.12966307 -0.037147757
-0.03186299 -0.10108837 -0.06414803 -0.01948688 -0.087040335 0.006665489 -0.028040629 -0.07414074
-0.03054305 0.08690248 -0.12483647 -0.032049768 -0.0830002 0.10264269 -0.15565789 -0.14091814
0.10643455 -0.090267345 -0.015154478 -0.053671584 -0.03420259 -0.031035628 0.061313793 -0.029633112
-0.17849389 -0.081018165 -0.054432172 0.030971795 -0.10246678 0.08039449 -0.039867096 -0.059986133
0.08297231 0.02599532 0.0672388 0.035337385 -0.08278147 -0.12180781 -0.029117484 0.06553443
0.18976691 0.084615655 0.25924894 0.0995048 0.07220611 0.106165975 -0.28783482 -0.23207885
-0.034339864 -0.5424229 -0.1865434 0.2973816 0.3526929 0.08217993 -0.6833937 -0.017289273
0.06651147 0.5796827 -0.028925454 0.22921558 0.122161895 -0.17013854 0.18307695 0.37855566
-0.51586187 0.10754232 0.08785748 -0.09237669 0.16564782 -0.21288054 -0.06271319 0.072941616
0.21241367 -0.626823 0.2984324 0.16977598 0.07079681 -0.24112321 -0.2347379 0.21327513
-0.036984473 -0.234183 -0.17391402 -0.11264993 0.002981005 0.13659453 -0.27988046 -0.010705848
0.23326562 0.055070627 -0.02904247 -0.24567808 0.15508547 -0.25679654 0.2682946 -0.0749334
0.25311872 -0.13812715 0.023722544 0.07478674 -0.13591428 -0.017979158 -0.3512133 0.12364118
-1.7302266 -0.096976064 -1.2707752 -0.38123092 -1.7663623 0.21398741 0.88654566 -0.37693915
-0.8539047 0.3744663 0.39118347 -0.30527714 0.19354789 0.15013501 0.035058167 -0.62360305
0.34179947 0.27057105 -0.6179424 -0.66601586 0.12361205 -0.47185224 0.12347763 -0.10266926
0.081054285 0.1151657 -0.33088702 -0.16213664 -0.36937195 0.2650847 -0.10209675 0.014908641
-2.2921143 -0.23141068 0.50924474 -0.4067519 -1.5929675 0.05463624 1.3844488 -0.42386547
0.22337124 -1.2496192 -0.12058765 -1.5119011 0.5375376 0.24030025 0.026926149 0.44589907
0.1761157 -0.13437496 0.30705148 -0.07797031 -0.28400204 0.072604716 0.047241375 0.46116754
-1.1303496 -0.09948566 -0.2865202 -1.1863105 -2.5575047 -0.9003946 0.14241539 -0.30450067

fc2.bias f4 [64]
00000000: 422c 21be 64d2 c43c be7e 593e 1661 b43d
00000010: 027c a3bb e3b6 2c3e defe ce3e c37f 243d
00000020: 88c4 b43c 5231 cb3d acdb 843e b560 c33d
00000030: 5302 663e e224 df3c c0a0 a53d 9ba1 e2bd
00000040: 0aeb 563c efef 5c3e 82cf 3e3e 30f3 c83a
00000050: 70ef 7bbb 5ec3 823e f55b b23c 414b e73e
00000060: 12e6 9a3c 028b 13be 70e2 5d3e 3258 7b3d
00000070: c02a bc3e 3f16 053e 1e8b cb3e 0169 e03d
00000080: 33d1 3c3e 1582 e6bc af11 9d3d 05cc 063f
00000090: 1358 21bd ca03 dabd 438e 513c e63e 233e
000000a0: 13c4 883e da0e 88bd 1d02 8b3e 9ee3 a23e
000000b0: 9cce 433e 85e3 573d 1dfc 963e 556f 26bc
000000c0: e364 b8be f8d5 78bd 96d6 9fbe e267 5a3e
000000d0: 3587 d63d 07bd af3c e19e 833d c3bb 7fbd
000000e0: a5ed e73d 928d 923e aa8d 263e 2d95 003e
000000f0: 8183 6f3e bb72 bd3e 8db2 7a3e e5b5 103e
-0.1573954 0.024026103 0.21239755 0.0880758 -0.004989148 0.16866641 0.40428823 0.040160906
0.02206637 0.099215165 0.25948846 0.0953993 0.22461824 0.027239267 0.08087301 -0.1106598
0.013117561 0.21575902 0.18633845 0.0015331265 -0.0038442276 0.25539678 0.021772364 0.45174602
0.018908534 -0.14408496 0.2166841 0.061363406 0.36751366 0.12996767 0.39754575 0.10957528
0.18439178 -0.0281382 0.076693885 0.5265506 -0.039390635 -0.10645254 0.0127902655 0.15941963
0.26712093 -0.06643458 0.2715005 0.31814283 0.19121784 0.052707214 0.29489222 -0.01015838
-0.3601447 -0.06075093 -0.31218404 0.2132869 0.104750074 0.02145244 0.06426788 -0.062434923
0.11324624 0.28623635 0.16264978 0.12556906 0.23390009 0.37001595 0.24482174 0.14131887

fc3.weight f4 [3, 64]
00000000: 58bf bd3d 57f9 a83d f4b3 d9be efd4 bd3f
00000010: 2e79 923f 17a2 5fbe ef26 62bf e0f2 a6bf
00000020: 2711 2abe ae89 23be 47bf ea3f 9ea7 29be
00000030: f725 0abf 1a5f cabd e888 7bbe cfa0 7a3d
00000040: 39a0 d13f 2180 0cbe a8a8 38be 3793 bc3f
00000050: d761 75be 9d56 0340 6bf3 933d 3a52 96bd
00000060: c9fc ac3f 1281 a53d 2c24 1ebe c87c 4cbe
00000070: f0a5 6ebd 4cd3 7cbe e068 383f 5a8b ea3f
00000080: 583b edbe f3a6 513f bb96 883d 73aa 5ebf
00000090: 5dd7 b6bf dce9 8ebb e203 0abe 13bd 86bf
000000a0: 58af a53f 498c 8a3e 7a28 0340 fba3 82be
000000b0: 1909 cebe 07f8 fabe afa4 32bf 6abc b5bd
000000c0: 82ef a6bf 9388 7ebf ac70 08c0 7dbf 8dbd
000000d0: b5c2 b23f 4485 a43f 7aa6 98be 47af 92be
000000e0: 9c68 10be a123 37bf 1dfc 40be bfde 68be
000000f0: 2bbc 1cbd 9b4b b5be 2e07 29bf e59b 9dbd
00000100: a373 1a3c 57a5 0dbe 3d74 fbbe e23b 2e3f
00000110: 3698 3d3f c40c 3bbe 6213 debe 43dd 94bf
00000120: 67ed eebd eb70 afbe f5b2 dc3f 3e78 b6be
00000130: c1a8 0cbf 5902 dfbd 55f4 98bd ba3a c83d
00000140: 57dc a93f 0a70 07be 9832 a4bd 927b 0340
00000150: 423a 1abe 15c2 6d3f e7d0 6cbd e4ed 11bf
00000160: 6125 723f a45c d0bd c44f 63be 607c 54be
00000170: 3f2d cabe cd46 03bf 1f26 4a3f b093 613f
00000180: cce9 d3be 0d75 0b3f f230 48bd 0f00 8ebf
00000190: 5d72 43bf c145 573d 15ed 93be 6523 40bf
000001a0: b2d7 593f bca8 ca3d a200 8b3f d713 59be
000001b0: fa9c afbe a7f2 933d 9274 c8be 5c9c 483c
000001c0: d5bb 21bf 518d 26bf 120d a3bf 5d29 9cbe
000001d0: 44fe 473f d394 553f a487 37bd adee f4be
000001e0: 5308 1dbd 25cb b6be 1300 5cbe 0fad e2bd
000001f0: 05a6 c6be 3f16 eabe 9676 d7be 550d 6ebc
00000200: 70c5 32bc 9122 dbb9 6f32 e9bd 9bfa b83f
00000210: bb33 9d3f dd0d 80be 54a9 c1be 27ae 85bf
00000220: 9b0d 74be 5d57 95bd ec7c 8e3f 9688 93be
00000230: 58bc 49bf 8136 68be 8d10 dbbd c0e9 963c
00000240: 113c 0240 628b 16be cd80 bebd 5c4e a53f
00000250: a63f cdbd 3b1c 8d3f 6b1c b63d 9354 55bf
00000260: 6d54 893f f099 b53d e7b9 043f 0c70 1cbe
00000270: 44b1 4dbf 1d7b 91be f234 8f3f c507 0840
00000280: e189 1dbf 9cad 823f a9ed 08bc 0102 8bbf
00000290: 648c 9fbf d52d 473d ebd8 aabd 76fb 83bf
000002a0: 82e2 8e3f e71c ba3d f656 ce3f f7c7 bfbd
000002b0: 62af 8bbe 11bd fcbd 89e5 80bd 6065 49bd
000002c0: 4992 85bf 0383 6fbf d822 12c0 deb6 c1bd
000002d0: caa1 d03f c2d3 703f 7b7f 72bd 098f 2fbf
000002e0: 2b11 33be a7dd dabe f35b 13be 4d6a 3bbe
000002f0: 2d2f 00be 7325 ddbe d9b9 76bf bb6e 7bbe
0.092650115 0.08250683 -0.42520106 1.4830607 1.1443231 -0.21839176 -0.8834066 -1.304287
-0.16608106 -0.1597049 1.8339623 -0.16567847 -0.5396418 -0.098814204 -0.24563944 0.061188515
1.6377021 -0.13720752 -0.18033087 1.4732426 -0.23963104 2.0521615 0.07224163 -0.07339902
1.3514644 0.08081259 -0.15443486 -0.19969475 -0.05826372 -0.24689978 0.72035027 1.8323777
-0.46334338 0.8189537 0.066693746 -0.86978835 -1.4284474 -0.0043613743 -0.13478044 -1.0526451
1.2944136 0.27060154 2.0493455 -0.25515732 -0.40241316 -0.49017355 -0.6978254 -0.08873828
-1.3041842 -0.99427146 -2.131877 -0.06921289 1.396567 1.285317 -0.29814512 -0.2864935
-0.14102405 -0.7153874 -0.18846174 -0.22741221 -0.03826539 -0.35409245 -0.6602658 -0.0769575
0.009426984 -0.13832603 -0.4911212 0.68060124 0.7406038 -0.18266588 -0.43374163 -1.1630024
-0.11666375 -0.34265837 1.7242113 -0.35638613 -0.54945 -0.1088912 -0.07468478 0.09776826
1.3270367 -0.13226333 -0.080174625 2.0544171 -0.15061286 0.9287427 -0.057816412 -0.5700362
0.94588286 -0.1017392 -0.22198397 -0.2075057 -0.39487645 -0.5127991 0.7896442 0.8811598
-0.4138931 0.5447548 -0.048874803 -1.1093768 -0.7634638 0.052556757 -0.28891817 -0.7505401
0.8509475 0.09895465 1.0859568 -0.21198975 -0.3429945 0.07224017 -0.39151436 0.01224431
-0.63177234 -0.6505938 -1.2738364 -0.30500308 0.78122354 0.8343021 -0.04480709 -0.47838345
-0.038338017 -0.35701862 -0.21484403 -0.110681646 -0.38798538 -0.45720097 -0.4208266 -0.014529546
-0.010911331 -0.0004179669 -0.113865726 1.4451479 1.2281412 -0.25010577 -0.378245 -1.0443772
-0.23833315 -0.07292054 1.1131873 -0.28815144 -0.78803015 -0.22677042 -0.10696516 0.018422008
2.0349162 -0.14701608 -0.093019105 1.2914538 -0.100219056 1.102424 0.08892139 -0.83332175
1.072889 0.08867252 0.51846164 -0.15277117 -0.8034861 -0.2841424 1.1188033 2.1254742
-0.6153851 1.0209231 -0.008357444 -1.0859987 -1.2464719 0.048627693 -0.08342155 -1.0311115
1.1162875 0.09087544 1.6120288 -0.09364312 -0.27282244 -0.12340749 -0.0629378 -0.049168944
-1.0435268 -0.93559283 -2.2833767 -0.09458707 1.6299374 0.94073117 -0.059203606 -0.6857763
-0.17487018 -0.42747232 -0.14390545 -0.1830227 -0.12517996 -0.43192634 -0.9637733 -0.24553959

fc3.bias f4 [3]
00000000: 40b9 703d af03 cabe 61f6 823d
0.05877042 -0.39455935 0.06394649
