model/checkpoint_2000.pth (torch, 21912 bytes, 6 tensors)

fc1.weight f4 [64, 6]
0.34703746 0.74030536 -0.3563039 -0.83902156 -0.044977248 0.26581034 0.34798142 0.5578918
-0.41011992 0.059948917 -0.0906343 0.031963676 -0.7641296 -0.34505844 -0.87518924 0.1655523
0.21411867 0.24664873 -0.38531876 -0.61442256 -0.16754185 0.7299439 0.14080544 0.23376423
0.05291211 0.81818825 0.59856695 -0.49597222 -0.37712085 0.04445264 -0.4216784 0.8536932
-0.6565501 -0.3753826 -0.410733 -0.32419258 -1.3629316 -0.061457254 0.5701139 -0.38126817
-0.10829297 -0.025738202 -0.2491149 -1.033607 -0.7756833 -0.4568845 0.21935584 -0.17155544
-0.4903545 -0.83430934 0.49173167 0.59370667 0.1568095 0.102094226 0.016484205 -1.0084702
0.031360675 -0.12449507 -0.2690875 -0.41918316 0.26294267 -0.27429816 0.5656225 0.0066199107
0.56833136 0.13748145 0.36087328 -0.37071848 0.20659581 0.54044914 -0.2980933 -0.12826386
0.32163984 0.12531048 0.5427778 1.027153 -0.19193593 -0.38292313 0.124322064 -1.2025086
-1.0790616 0.89848447 0.09282322 -0.4067381 -0.03916449 0.43065378 -0.51380545 0.37059817
0.27065265 -0.13328795 0.9924727 0.26675263 0.21797828 -0.13955712 -0.366468 -0.1479602
0.84343135 0.31834042 -0.44290915 -0.5784194 0.5738596 0.17281269 -1.1319568 0.031762052
-0.83471 -0.044089586 -0.20278761 -0.24348144 -0.3873818 -0.16674696 -0.037358683 -0.79829586
-0.41326088 0.3478437 0.60573393 -0.12711369 -0.24233279 -0.087143295 0.23298413 0.20547205
0.7081923 0.124218196 -0.20719357 0.2041817 -0.3967419 -0.2212878 -0.6151339 -0.73167783
0.09549745 -0.34659758 -0.11544965 -0.10378556 -0.084154084 -0.3004774 0.36068735 -0.26058498
0.12484823 -0.004836447 0.5559449 0.23802124 0.6300246 0.37161377 0.20062402 0.22114538
-0.6598432 0.27528545 -0.31852633 0.35340074 -0.36900827 -0.4136227 0.054503173 -0.873559
-0.004449313 1.3402572 -0.18849878 -0.31598178 0.026657525 -0.92300767 -0.048183437 -0.42357293
-0.19888693 -0.2620011 -0.6121415 -0.5132115 -0.51116055 -0.48367652 -0.32048133 0.15800685
-0.12607157 -0.20459375 0.321617 -0.5377702 0.13385303 0.16015139 -0.66357404 0.36523473
-0.47441205 0.8916942 0.43688744 -0.2514365 -0.4123313 0.10056084 0.56693524 0.13799837
0.5419878 0.30790037 -0.33498877 0.3413474 -0.9668926 0.58840925 0.41968596 0.3854303
0.07655845 0.9651239 -0.99062383 -0.52248 -0.041858483 0.29326156 -0.29489908 0.2212693
0.36948863 -0.100145325 -0.61380625 -0.36815614 -0.2843829 -0.5720508 -0.30859804 0.6572927
0.01721091 -0.102588244 0.29687205 0.08353945 -0.07910382 0.12743625 0.13567415 0.16770205
0.8387742 0.4274168 1.0709198 -1.3491249 0.25361478 0.4883753 0.46439797 -0.4408118
-1.0007422 -0.1575562 -0.018270057 -0.04086655 -0.943143 0.43485773 -0.18853277 0.5750365
0.37670437 0.3637987 0.6840227 0.0028508303 0.5570986 -0.34654182 -0.15125419 -0.18760085
-0.027840616 0.52381307 -0.06272701 -0.21705905 0.08025934 -0.36294368 0.6494617 -0.6205084
0.3847842 -0.52103096 -0.4714158 -0.13571131 0.7854972 -0.38473403 -0.3354005 -0.40668848
00000000: e5ae b13e a784 3d3f 776d b6be 1eca 56bf
00000010: 103a 38bd 4b18 883e 9f2a b23e ffd1 0e3f
00000020: 3dfb d1be ff8c 753d 7a9e b9bd 58ec 023d
00000030: ff9d 43bf 80ab b0be 670c 60bf 8b86 293e
00000040: ed41 5b3e 7c91 7c3e 8048 c5be cc4a 1dbf
00000050: 1790 2bbe 9add 3a3f 4d2f 103e e45f 6f3e
00000060: 5eba 583d c974 513f af3b 193f 12f0 fdbe
00000070: fc15 c1be f913 363d 3be6 d7be a38b 5a3f
00000080: ab13 28bf 2632 c0be 994b d2be 92fc a5be
00000090: 8b74 aebf 9aba 7bbd fcf2 113f 9535 c3be
000000a0: b4c8 ddbd ecd8 d2bc fa17 7fbe 3c4d 84bf
000000b0: 2e93 46bf c4ec e9be d19e 603e 3bac 2fbe
000000c0: bf0f fbbe 4c95 55bf 41c4 fb3e 29fd 173f
000000d0: ab92 203e c716 d13d e209 873c 8d15 81bf
000000e0: 0d74 003d 45f7 febd d6c5 89be 2d9f d6be
000000f0: 6ca0 863e cf70 8cbe a3cc 103f d6eb d83b
00000100: 2a7e 113f f0c7 0c3e 62c4 b83e d0ce bdbe
00000110: da8d 533e e05a 0a3f af9f 98be 9a57 03be
00000120: faad a43e 6451 003e 7cf3 0a3f c079 833f
00000130: da8a 44be 800e c4be 919c fe3d cdeb 99bf
00000140: b11e 8abf 1403 663f 1a1a be3d fa3f d0be
00000150: f26a 20bd a77e dc3e c188 03bf 0bbf bd3e
00000160: fc92 8a3e a37c 08be b112 7e3f cd93 883e
00000170: b335 5f3e 10e8 0ebe b2a1 bbbe e182 17be
00000180: 1eeb 573f 84fd a23e fdc4 e2be 4b13 14bf
00000190: 76e8 123f cff5 303e f6e3 90bf ed18 023d
000001a0: 8eaf 55bf 4897 34bd 8ea7 4fbe 3353 79be
000001b0: e856 c6be b7bf 2abe 6b05 19bd 1e5d 4cbf
000001c0: ee96 d3be 9218 b23e 6111 1b3f 172a 02be
000001d0: 1626 78be 2f78 b2bd 6493 6e3e 4467 523e
000001e0: 174c 353f 1c66 fe3d 8d2a 54be 0215 513e
000001f0: c121 cbbe 4599 62be 6a79 1dbf 3d4f 3bbf
00000200: 2b94 c33d 3d75 b1be de70 ecbd 868d d4bd
00000210: fa58 acbd 2cd8 99be 03ac b83e 656b 85be
00000220: 6eb0 ff3d 0f7b 9ebb 6852 0e3f d7bb 733e
00000230: 4b49 213f 2944 be3e 6270 4d3e ef73 623e
00000240: 7ceb 28bf 37f2 8c3e e215 a3be f1f0 b43e
00000250: a7ee bcbe 5bc6 d3be b83e 5f3d 90a1 5fbf
00000260: 8bcb 91bb 8c8d ab3f d305 41be 5dc8 a1be
00000270: e260 da3c 3b4a 6cbf ff5b 45bd 8dde d8be
00000280: 04a9 4bbe 0225 86be 4eb5 1cbf d461 03bf
00000290: 6bdb 02bf 73a4 f7be 2116 a4be 8ccc 213e
000002a0: e818 01be 0681 51be fcaa a43e 4fab 09bf
000002b0: c510 093e bafe 233e fddf 29bf 0c00 bb3e
000002c0: 23e6 f2be 1246 643f b6af df3e 49bc 80be
000002d0: 171d d3be d7f2 cd3d ab22 113f 724f 0d3e
000002e0: b6bf 0a3f 1ea5 9d3e a683 abbe 16c5 ae3e
000002f0: 4686 77bf fda1 163f 14e1 d63e 1f57 c53e
00000300: adca 9c3d 5c12 773f 8699 7dbf 40c1 05bf
00000310: cd73 2bbd 6126 963e 03fd 96be 6b94 623e
00000320: 9d2d bd3e fe18 cdbd 6822 1dbf f67e bcbe
00000330: a39a 91be ec71 12bf 9000 9ebe 5644 283f
00000340: e5fd 8c3c c919 d2bd 9dff 973e bb16 ab3d
00000350: 2f01 a2bd a67e 023e 2aee 0a3e 16ba 2b3e
00000360: e8b9 563f 60d6 da3e e613 893f 20b0 acbf
00000370: ccd9 813e 540c fa3e 92c5 ed3e 16b2 e1be
00000380: 5218 80bf 6a56 21be 16ab 95bc af63 27bd
00000390: d271 71bf aca5 de3e bc0e 41be 9835 133f
000003a0: 65df c03e d343 ba3e 1d1c 2f3f ffd4 3a3b
000003b0: 049e 0e3f ee6d b1be 61e2 1abe 701a 40be
000003c0: 0112 e4bc 9d18 063f 0577 80bd ba44 5ebe
000003d0: 025f a43d c1d3 b9be 1f43 263f a3d9 1ebf
000003e0: 6f02 c53e 4962 05bf 695d f1be e8f7 0abe
000003f0: 5816 493f dcfb c4be 9db9 abbe 7939 d0be

fc1.bias f4 [64]
0.26280105 0.6229835 0.14522506 0.10747826 0.27488372 0.38511845 -0.5798127 0.2199499
-0.27868754 -0.02213546 -0.7970397 0.7625516 0.16842265 -0.05239238 -0.89782035 0.4787705
0.85063815 -0.13176 -0.16137557 0.73025763 0.7207734 -0.66152465 0.747594 0.68094873
-0.3683959 0.026333846 0.037965514 -0.41224968 0.88897383 -0.28660125 -0.5285434 -0.13020414
-0.25414926 -0.5911833 0.12093504 0.7184955 0.27959728 0.14859389 -0.10493799 0.39950314
0.4313165 -0.4096645 0.16917321 -0.3090433 0.311049 -0.087091126 -0.41366234 0.083797514
0.6543558 0.28030497 -0.32620013 -0.11937924 0.18531282 -0.9099188 0.44190973 -0.6254426
-0.6528173 -0.46454024 -0.2569517 0.59760445 -0.5036107 0.6855417 -0.19363725 0.5525853
00000000: dc8d 863e d97b 1f3f e1b5 143e 901d dc3d
00000010: 8fbd 8c3e 3f2e c53e 9b6e 14bf 8c3a 613e
00000020: 22b0 8ebe 6d55 b5bc cb0a 4cbf 9536 433f
00000030: fd76 2c3e 6499 56bd 8ed7 65bf 6821 f53e
00000040: 6cc3 593f 18ec 06be a33f 25be 2af2 3a3f
00000050: 9b84 383f ae59 29bf 5262 3f3f a852 2e3f
00000060: 639e bcbe 14ba d73c ba81 1b3d 6412 d3be
00000070: ca93 633f 66bd 92be 9f4e 07bf 3c54 05be
00000080: da1f 82be ca57 17bf caac f73d 52ef 373f
00000090: 6027 8f3e ff28 183e bbe9 d6bd ad8b cc3e
000000a0: 84d5 dc3e 8cbf d1be be3b 2d3e ec3a 9ebe
000000b0: d141 9f3e d55c b2bd 8dcb d3be 089e ab3d
000000c0: dd83 273f 2284 8f3e b403 a7be 1a7d f4bd
000000d0: a5c2 3d3e 70f0 68bf fe41 e23e 021d 20bf
000000e0: 091f 27bf 38d8 edbe 2c8f 83be 9bfc 183f
000000f0: a1ec 00bf a97f 2f3f d848 46be 3b76 0d3f

fc2.weight f4 [64, 64]
-0.04831197 -0.15959136 0.07830485 0.031351674 0.072698325 0.042516902 -0.082408555 0.06584186
-0.011387902 0.029746728 -0.1160325 -0.08457825 -0.14884798 -0.06456648 0.011087811 -0.13505483
0.0015068119 0.051230192 -0.023552231 -0.12147423 -0.14331594 -0.055504147 0.0030061875 0.08693521
0.05600189 -0.029736916 0.030022614 -0.15701422 -0.16206105 0.04244582 -0.10667518 0.020192299
-0.124540776 -0.07778318 -0.114982456 0.026265617 -0.050580557 0.0803335 0.036456767 0.017311795
-0.020424183 -0.07648162 -0.06710148 -0.017167564 0.023085473 -0.10344298 0.08902927 -0.05340683
-0.13850294 -0.09777518 0.09472193 0.08093734 -0.13341609 0.050095435 0.016634649 0.03510494
0.081849195 -0.09755329 0.001284935 -0.0016787181 -0.074918084 0.00276635 -0.05444025 0.040100034
-0.07548725 -0.08569809 0.0062112273 0.007666288 -0.11232061 -0.03426717 0.04090612 -0.017869547
0.010428279 -0.03995087 0.02317749 -0.109982006 -0.08607757 -0.084291756 0.099629425 -0.06788792
-0.022183355 -0.076442026 0.08619339 0.082972 -0.11756293 -0.14682356 -0.12966307 -0.037147757
-0.03186299 -0.10108837 -0.06414803 -0.01948688 -0.087040335 0.006665489 -0.028040629 -0.07414074
-0.03054305 0.08690248 -0.12483647 -0.032049768 -0.0830002 0.10264269 -0.15565789 -0.14091814
0.10643455 -0.090267345 -0.015154478 -0.053671584 -0.03420259 -0.031035628 0.061313793 -0.029633112
-0.17849389 -0.081018165 -0.054432172 0.030971795 -0.10246678 0.08039449 -0.039867096 -0.059986133
0.08297231 0.02599532 0.0672388 0.035337385 -0.08278147 -0.12180781 -0.029117484 0.06553443
0.21048455 0.08726975 0.23561713 0.17657636 0.12339721 0.067670055 -0.15582474 -0.15263093
-0.07923486 -0.50596416 -0.1978618 0.21974745 0.20540492 0.09390902 -0.6565654 0.012582769
0.08302185 0.50700533 0.011424568 0.21965486 0.046303596 -0.18463038 0.21945201 0.34059054
-0.5348567 0.035316784 0.15365872 -0.05600042 0.14779174 -0.28634658 -0.15882798 0.022425925
0.16836016 -0.38499078 0.1976363 0.13916957 0.04557332 -0.08597317 -0.22720209 0.26475492
0.043517616 0.07476509 0.027508633 -0.1298288 0.038134135 0.08599714 -0.2641427 -0.051810544
0.24442416 0.0722713 -0.19996905 -0.16887183 0.030275535 -0.17245024 0.22149582 -0.022906367
0.23352069 -0.1427737 -0.0036966403 0.106561415 -0.18305936 0.02904953 -0.30641913 0.16003753
-1.6170077 0.03945514 -1.5199895 -0.43369594 -1.6873896 0.11688794 0.83114564 -0.44542867
-0.8271628 0.2671379 0.34752697 -0.24074122 0.23438825 0.1602852 0.08889355 -0.62703216
0.3657625 0.16232038 -0.62478536 -0.61399984 0.11931223 -0.4059304 0.08158867 -0.10562716
0.09281674 0.111408755 -0.3889706 0.037492063 -0.35780445 0.2841592 -0.13307038 -0.040773608
-2.0358012 -0.31305063 0.43116274 -0.36521614 -1.3301468 0.12863646 1.2591618 -0.39310816
0.21760193 -1.1721953 -0.12139191 -1.430871 0.04375639 0.21325846 0.07487526 0.381257
0.16739754 -0.13348256 0.3211036 -0.22628935 -0.3029431 0.072604716 0.09330558 0.40307924
-1.0078962 -0.31451315 -0.18288912 -0.93096894 -2.3054242 -1.081262 0.13804156 -0.33500925
00000000: c6e2 45bd eb6b 23be 4b5e a03d 9d6a 003d
00000010: dce2 943d 3426 2e3d d1c5 a8bd 19d8 863d
00000020: 5394 3abc 69af f33c 73a2 edbd 5d37 adbd
00000030: 9b6b 18be 6e3b 84bd a6a9 353c d04b 0abe
00000040: 3880 c53a c0d6 513d 9cf0 c0bc 7bc7 f8bd
00000050: 6ac1 12be 5158 63bd 7503 453b 160b b23d
00000060: 3d62 653d d59a f3bc fcf1 f53c 56c8 20be
00000070: 55f3 25be abdb 2d3d 8478 dabd 526a a53c
00000080: 3c0f ffbd ca4c 9fbd ec7b ebbd fe2a d73c
00000090: 8f2d 4fbd e485 a43d b153 153d 77d1 8d3c
000000a0: 9e50 a7bc 65a2 9cbd 806c 89bd fea2 8cbc
000000b0: bf1d bd3c ead9 d3bd fa54 b63d 1fc1 5abd
000000c0: b7d3 0dbe 5b3e c8bd 92fd c13d 7ac2 a53d
000000d0: 3a9e 08be df30 4d3d 6345 883c 33ca 0f3d
000000e0: 8da0 a73d 05ca c7bd 446b a83a 6f08 dcba
000000f0: a76e 99bd a74b 353b bdfc 5ebd ef3f 243d
00000100: 0f99 9abd 7b82 afbd 8d87 cb3b 7c35 fb3b
00000110: 5908 e6bd bb5b 0cbd 2d8d 273d 2863 92bc
00000120: 5fdb 2a3c 86a3 23bd b8de bd3c 3f3e e1bd
00000130: 7049 b0bd 28a1 acbd 830a cc3d d208 8bbd
00000140: deb9 b5bc a38d 9cbd 2986 b03d 39ed a93d
00000150: d5c4 f0bd ea58 16be 65c6 04be 3f28 18bd
00000160: c482 02bd 6b07 cfbd 0b60 83bd f3a2 9fbc
00000170: 3442 b2bd 2d6a da3b 76b5 e5bc 1ad7 97bd
00000180: 6b35 fabc edf9 b13d 43aa ffbd 9e46 03bd
00000190: 02fc a9bd 5536 d23d c864 1fbe d84c 10be
000001a0: 5bfa d93d 16de b8bd 7d4a 78bc bcd6 5bbd
000001b0: 0418 0cbd 6e3e febc 2c24 7b3d 24c1 f2bc
000001c0: 1ac7 36be daec a5bd 45f4 5ebd 90b8 fd3c
000001d0: 1ada d1bd dea5 a43d ae4b 23bd 05b4 75bd
000001e0: 63ed a93d 23f4 d43c 7fb4 893d efbd 103d
000001f0: 5589 a9bd 6076 f9bd ca87 eebc ea36 863d
00000200: 4389 573e 7cba b23d 9e45 713e 6fd0 343e
00000210: adb7 fc3d 9996 8a3d 8590 1fbe 484b 1cbe
00000220: e345 a2bd de86 01bf 499c 4abe 7a05 613e
00000230: ab55 523e 5f53 c03d ac14 28bf f527 4e3c
00000240: 5c07 aa3d 1acb 013f 1c2e 3b3c 34ed 603e
00000250: d7a8 3d3d bf0f 3dbe 07b8 603e e261 ae3e
00000260: 5eec 08bf 55a8 103d b658 1d3e b260 65bd
00000270: b856 173e 059c 92be cda3 22be 93b6 b73c
00000280: 9b66 2c3e 831d c5be 2c61 4a3e 7882 0e3e
00000290: 17ab 3a3d b412 b0bd aaa7 68be f58d 873e
000002a0: 873f 323d 711e 993d c959 e13c d7f1 04be
000002b0: 8a32 1c3d 451f b03d b63d 87be 4b37 54bd
000002c0: 544a 7a3e fa02 943d b0c4 4cbe bdec 2cbe
000002d0: 6604 f83c cc96 30be cdcf 623e 22a6 bbbc
000002e0: 0c20 6f3e 4533 12be 5543 72bb df3c da3d
000002f0: ea73 3bbe 48f9 ed3c f8e2 9cbe e1e0 233e
00000300: 1cfa cebf b69b 213d 048f c2bf 650d debe
00000310: 62fc d7bf f262 ef3d f6c5 543f 3a0f e4be
00000320: f1c0 53bf 4dc6 883e 0eef b13e de84 76be
00000330: 7903 703e ce21 243e d20d b63d 2e85 20bf
00000340: 3945 bb3e 5037 263e eff1 1fbf 182f 1dbf
00000350: f859 f43d 1cd6 cfbe f617 a73d 0d53 d8bd
00000360: b416 be3d 462a e43d 2827 c7be 4791 193d
00000370: 2532 b7be 517d 913e 9a43 08be 3a02 27bd
00000380: 914a 02c0 2c48 a0be 5dc1 dc3e 9cfd babe
00000390: 4042 aabf 47b9 033e 372c a13f 7945 c9be
000003a0: 0ad3 5e3e 7f0a 96bf 529c f8bd c826 b7bf
000003b0: e739 333d 6d60 5a3e 3358 993d 1e34 c33e
000003c0: 436a 2b3e a7af 08be b167 a43e 65b8 67be
000003d0: 5c1b 9bbe c8b1 943d ff16 bf3d 6760 ce3e
000003e0: be02 81bf de07 a1be 4947 3bbe fb53 6ebf
000003f0: 128c 13c0 cb66 8abf c45a 0d3e 5586 abbe

fc2.bias f4 [64]
-0.1573954 0.024026103 0.16545376 0.06934307 0.01839704 0.22212416 0.37963584 0.017337402
0.08836966 0.14775334 0.15659276 0.18875362 0.18074638 0.10809524 0.14806417 -0.1106598
-0.05670245 0.30254182 0.27298442 -0.048810653 0.041397367 0.2356469 0.021772364 0.44990087
-0.014560624 -0.1362805 0.17689782 0.1431437 0.35507804 0.15525009 0.42853096 0.09809595
0.2407686 -0.07538293 0.076693885 0.46467233 -0.019747399 -0.10645254 0.081798 0.12469464
0.10161708 -0.06643458 0.20759189 0.3437135 0.27383044 0.121826336 0.32633382 -0.01015838
-0.3250475 0.014078184 -0.21535668 0.2839523 0.07401724 0.02840084 0.12554641 -0.014333981
0.19629113 0.2604502 0.21565251 0.20848446 0.29730356 0.36606172 0.21496509 0.18731703
00000000: 422c 21be 64d2 c43c b66c 293e bd03 8e3d
00000010: 64b5 963c 8474 633e a15f c23e 2b07 8e3c
00000020: 27fb b43d a74c 173e da59 203e a148 413e
00000030: 9415 393e 0a61 dd3d 229e 173e 9ba1 e2bd
00000040: d440 68bd c3e6 9a3e 9dc4 8b3e aeed 47bd
00000050: 4990 293d 6c4d 713e f55b b23c 6859 e63e
00000060: af8f 6ebc 1e8d 0bbe b424 353e 4394 123e
00000070: cacc b53e e1f9 1e3e 6968 db3e 88e6 c83d
00000080: 0b8c 763e 5e62 9abd af11 9d3d 88e9 ed3e
00000090: 4cc5 a1bc ca03 dabd b685 a73d e75f ff3d
000000a0: 9e1c d03d da0e 88bd f892 543e 37fb af3e
000000b0: 8133 8c3e 1680 f93d 3a15 a73e 556f 26bc
000000c0: a06c a6be 2fa8 663c 7686 5cbe 3262 913e
000000d0: 5a96 973d e1a8 e83c 3d8f 003e 13d9 6abc
000000e0: 8b00 493e bb59 853e 03d4 5c3e f37c 553e
000000f0: 2c38 983e 716c bb3e cf1f 5c3e 09d0 3f3e

fc3.weight f4 [3, 64]
0.092650115 0.08250683 -0.29272035 1.3304003 1.153024 -0.27421466 -0.77331805 -1.2813667
-0.20361222 -0.18364269 1.5598722 -0.21142565 -0.39033058 -0.17578022 -0.24180295 0.061188515
1.5432482 -0.18077695 -0.20682433 1.4927921 -0.27105072 1.8415112 0.07224163 -0.13625017
1.1761087 0.09381843 -0.2224612 -0.23037922 -0.114082925 -0.24114269 0.6378531 1.428383
-0.37913835 0.805635 0.066693746 -0.7201159 -1.3595319 -0.0043613743 -0.17259713 -0.9533052
1.0845938 0.27060154 1.7739397 -0.23015085 -0.41777483 -0.36759648 -0.56047076 -0.08873828
-1.2470872 -0.83294547 -1.9592203 -0.12833607 1.4017702 1.0592178 -0.29518175 -0.1885309
-0.18158564 -0.6512651 -0.20679449 -0.27229872 -0.09897698 -0.3059052 -0.5959266 -0.13957441
0.009426984 -0.13832603 -0.37599406 0.92109406 0.84542555 -0.17900626 -0.3733562 -1.0592729
-0.13934241 -0.31004956 1.5294704 -0.34639952 -0.52257544 -0.1565324 -0.13877149 0.09776826
1.1342686 -0.17533262 -0.1522803 1.9064643 -0.1755841 0.72266024 -0.057816412 -0.43116063
0.8980154 -0.09765471 -0.2666799 -0.23143134 -0.23993433 -0.40729347 0.7499904 1.0688517
-0.38532025 0.5995075 -0.048874803 -0.90365654 -0.91318625 0.052556757 -0.29557523 -0.8420736
0.79954696 0.09895465 1.1922659 -0.25902385 -0.37331808 0.02627309 -0.41042277 0.01224431
-0.5700693 -0.7252729 -1.1626779 -0.29137874 0.8149099 0.59205955 -0.11652267 -0.46964693
-0.10696707 -0.31140208 -0.27910993 -0.17660531 -0.33767536 -0.4449979 -0.47658375 -0.013984429
-0.010911331 -0.0004179669 -0.17453317 1.2061876 0.97613555 -0.24997555 -0.3392029 -0.97244006
-0.264497 -0.103130914 1.1396387 -0.31815538 -0.46117184 -0.22202443 -0.17080966 0.018422008
1.6868668 -0.18055142 -0.12921369 1.1507107 -0.12050391 1.1527798 0.08892139 -0.75559103
0.85211813 0.09165919 0.14357351 -0.19307151 -0.70379335 -0.29401225 1.049025 1.7832952
-0.4505729 0.9360175 -0.008357444 -1.0088937 -1.1363944 0.048627693 -0.12715454 -0.9290995
0.8609544 0.09087544 1.4618808 -0.15015213 -0.31997228 -0.16112272 -0.10105678 -0.049168944
-0.79013234 -0.88779247 -1.8878117 -0.13057804 1.3923835 0.7787577 -0.12294186 -0.65445244
-0.20424056 -0.33872193 -0.18421727 -0.21759084 -0.17579578 -0.3036813 -0.7556671 -0.26096946
00000000: 58bf bd3d 57f9 a83d 71df 95be 8f4a aa3f
00000010: 4a96 933f dd65 8cbe 2cf8 45bf d303 a4bf
00000020: b97f 50be d40c 3cbe e4a9 c73f f77f 58be
00000030: 69d9 c7be bbff 33be 319b 77be cfa0 7a3d
00000040: 2889 c53f 981d 39be c2c9 53be d013 bf3f
00000050: 29c7 8abe a4b6 eb3f 6bf3 933d 2a85 0bbe
00000060: bb8a 963f e123 c03d decc 63be 88e8 6bbe
00000070: 4fa4 e9bd 1cee 76be 574a 233f 41d5 b63f
00000080: 6c1e c2be 183e 4e3f bb96 883d 8459 38bf
00000090: 2405 aebf dce9 8ebb 4dbd 30be cf0b 74bf
000000a0: f8d3 8a3f 498c 8a3e 7510 e33f aaac 6bbe
000000b0: 95e6 d5be 9b35 bcbe 037b 0fbf 6abc b5bd
000000c0: 8ea0 9fbf ea3b 55bf bbc7 fabf 886a 03be
000000d0: 356d b33f 7394 873f 1022 97be 3f0e 41be
000000e0: 96f1 39be 4fb9 26bf efc1 53be bd6a 8bbe
000000f0: 71b4 cabd 9b9f 9cbe a58e 18bf 98ec 0ebe
00000100: a373 1a3c 57a5 0dbe 4b82 c0be d2cc 6b3f
00000110: cf6d 583f 6b4d 37be 8b28 bfbe 4196 87bf
00000120: c7af 0ebe d1be 9ebe b0c5 c33f 475b b1be
00000130: 81c7 05bf 084a 20be 1d1a 0ebe ba3a c83d
00000140: b72f 913f 658a 33be 5eef 1bbe 0607 f43f
00000150: 51cc 33be 4300 393f e7d0 6cbd 16c1 dcbe
00000160: 56e4 653f 31ff c7bd 458a 88be 56fc 6cbe
00000170: 58b1 75be c588 d0be 5fff 3f3f 22d0 883f
00000180: b248 c5be 5379 193f f230 48bd 0956 67bf
00000190: 93c6 69bf c145 573d a355 97be 2392 57bf
000001a0: 1caf 4c3f bca8 ca3d 2b9c 983f c69e 84be
000001b0: 8c23 bfbe aa3a d73c ef22 d2be 5c9c 483c
000001c0: 10f0 11bf 7cab 39bf a1d2 94bf 982f 95be
000001d0: ef9d 503f 3791 173f 70a3 eebd 9075 f0be
000001e0: 8d11 dbbd 1870 9fbe 7fe7 8ebe 06d8 34be
000001f0: c9e3 acbe c4d6 e3be c902 f4be f21e 65bc
00000200: 70c5 32bc 9122 dbb9 d3b8 32be 5b64 9a3f
00000210: 05e4 793f 97f9 7fbe 01ac adbe d5f1 78bf
00000220: 276c 87be 4d36 d3bd aedf 913f 43e5 a2be
00000230: b71e ecbe 5f5a 63be bae8 2ebe c0e9 963c
00000240: 40eb d73f 79e2 38be 9850 04be 7d4a 933f
00000250: c1ca f6bd 4a8e 933f 6b1c b63d 6a6e 41bf
00000260: 6a24 5a3f d0b7 bb3d ef04 133e 8ab4 45be
00000270: cd2b 34bf c688 96be 7446 863f 0443 e43f
00000280: 7eb1 e6be d89e 6f3f a9ed 08bc 6e23 81bf
00000290: 5f75 91bf d52d 473d cd34 02be 77d9 6dbf
000002a0: 8267 5c3f e71c ba3d e91e bb3f 7bc1 19be
000002b0: 68d3 a3be 5bfd 24be dbf6 cebd 6065 49bd
000002c0: 1d46 4abf 5e46 63bf d0a3 f1bf 40b6 05be
000002d0: 9f39 b23f aa5c 473f f1c8 fbbd 328a 27bf
000002e0: 7024 51be f66c adbe 74a3 3cbe 22d0 5ebe
000002f0: cf03 34be 1e7c 9bbe 6673 41bf ca9d 85be

fc3.bias f4 [3]
0.020705337 -0.35521767 -0.032686867
00000000: 3d9e a93c 17df b5be aae2 05bd
