model/checkpoint_6600.pth (torch, 21912 bytes, 6 tensors)

fc1.weight f4 [64, 6]
000000 10 f8 a3 3e d9 6a 5a 3f 35 bb 82 be 34 23 29 bf
       0.32025194 0.85319287 -0.25533453 -0.6606934
000010 ef 93 a4 bd 54 30 8d 3e 9d 1a da 3e ee c0 7f 3f
       -0.080360286 0.27575934 0.4259843 0.9990376
000020 8e b8 ae be 1d b6 93 3d ae 2f ab bd e2 b0 9c 3d
       -0.3412518 0.0721247 -0.083587036 0.07650925
000030 83 da 4a bf e0 22 96 be e0 66 85 bf 15 60 76 3d
       -0.7923967 -0.29323483 -1.042202 0.060150225
000040 df 04 0f 3e 0e 41 42 3e 2a cf 4b bd e5 5e 4b bf
       0.13966702 0.18970129 -0.049758114 -0.7944167
000050 cb f6 64 bd 31 c0 89 3f 8b 6f 87 3e 87 5a 8b 3e
       -0.055899423 1.0761777 0.26452288 0.27217504
000060 5b ae a1 be e3 52 89 3f db d3 45 3f 64 30 db be
       -0.31578335 1.072842 0.7727639 -0.42810357
000070 78 43 c0 be de 12 0f 3e ee 1e 0e bf cb 99 5f 3f
       -0.37551475 0.13972041 -0.55515945 0.87344044
000080 06 4f 35 bf e6 c8 b0 be 97 22 e9 be 6d 05 b5 be
       -0.70823705 -0.34528273 -0.45534202 -0.35355702
000090 20 e6 c3 bf 99 cb a3 be 56 66 38 3f da 85 47 be
       -1.5304604 -0.3199127 0.7203115 -0.19484654
0000a0 5e f6 b4 be dc 65 94 bd c5 19 88 be a3 45 82 bf
       -0.35344213 -0.07245991 -0.2658216 -1.0177501
0000b0 64 cf 4a bf a0 44 a6 be 90 18 10 3e 8e 94 4e be
       -0.792227 -0.32474232 0.1407187 -0.20173857
0000c0 ee 11 39 bf cf a8 c3 bf b3 40 aa 3f 6c 6b b8 3e
       -0.72292984 -1.5285891 1.3300995 0.36019456
0000d0 1d 6b 7f 3e 0c 42 15 3d 0b de 7a be f7 18 74 bf
       0.24943204 0.03643994 -0.24498765 -0.95350593
0000e0 27 72 9d bd fc 55 53 3c d7 ce a8 be 32 ce e7 be
       -0.076877885 0.012898918 -0.32970306 -0.45274502
0000f0 3a 7c 95 3e 34 1b 66 be 7f 3c 54 3f b9 15 12 3d
       0.2919634 -0.22471315 0.8290481 0.035665248
000100 bf 62 31 3f e1 b5 8a 3e 17 64 be 3e a9 da fb be
       0.692913 0.27091888 0.37185737 -0.49190262
000110 ce 05 67 3e 12 7c 94 3e aa c4 b4 be 4b 07 3f be
       0.22560808 0.29000908 -0.35306293 -0.18655126
000120 00 c5 49 3f b7 89 f8 3d 43 7d 0f 3f 56 34 a3 3f
       0.78816223 0.12135642 0.5605051 1.2750347
000130 1f 0f 5b be 72 04 f5 be c0 dc 31 3d 5f d7 bc bf
       -0.21392487 -0.47854954 0.043423414 -1.4753226
000140 cc bd 54 bf 17 e4 88 3f 28 07 b0 3d d9 0f eb be
       -0.8310211 1.0694607 0.08595115 -0.45910528
000150 3c 25 9a bd 03 44 c3 3e 11 d7 27 bf ee c6 06 3f
       -0.07526633 0.38137826 -0.6556254 0.5264729
000160 12 9c a1 3e 60 07 3c be 59 9d 89 3f c3 b3 e3 3e
       0.31564385 -0.18362188 1.0751144 0.44473085
000170 fc e9 45 3e 30 95 42 3d d7 d6 df be d5 26 3d be
       0.19327539 0.047505558 -0.43718597 -0.18471844
000180 63 72 c0 3e 99 86 16 3f 90 73 35 bf 6c e0 5a bf
       0.3758727 0.5879913 -0.7087946 -0.8549869
000190 b1 7e 1a 3f cf 96 af 3e 10 80 8f bf 27 bf 3a bd
       0.60349566 0.34294745 -1.1210957 -0.045592453
0001a0 5f 8c 7c bf 1a ef 8f 3c d5 3b 59 be aa 96 89 be
       -0.9865169 0.017570067 -0.2121423 -0.2687276
0001b0 61 f3 70 be f1 83 6c 3e 7d 0f 21 3e db d4 6d bf
       -0.23530342 0.23097207 0.15728565 -0.92902917
0001c0 68 a1 fa be 30 d5 b6 3e 69 5d 80 3f e3 57 95 3b
       -0.48951268 0.35709524 1.0028507 0.004557596
0001d0 44 2d 93 be 0f 07 ab be 98 58 96 3e d5 a8 6d 3e
       -0.28745472 -0.33403823 0.29364467 0.23208936
0001e0 b2 cf 38 3f c6 ae 83 3e 97 10 ae be 7b a1 1e 3f
       0.7219192 0.2571928 -0.33997032 0.6196515
0001f0 42 59 d2 be ec 6a 6c be 2e e3 3b bf ab aa 5b bf
       -0.41083723 -0.23087662 -0.73393524 -0.85807294
000200 79 03 52 bd 06 94 e7 be 75 cb 4e be bb 94 34 be
       -0.051272843 -0.4523012 -0.201948 -0.17634861
000210 f0 82 8e be 7b 4c 46 bf 8d 8f 92 3e ff 42 f1 be
       -0.27834272 -0.7746045 0.28625146 -0.47121426
000220 4e 9c 70 3e 44 be 94 3c b7 9e 91 3e 05 e8 5e 3e
       0.23497126 0.018157132 0.28441402 0.21768196
000230 93 6b 28 3f 72 54 e1 3e af 6c 51 3e 56 9d 6d 3e
       0.65789145 0.4400974 0.20451616 0.2320455
000240 32 52 3b bf 1f 1c 26 3f 21 ea 7b be e8 01 fa 3e
       -0.73172295 0.6488666 -0.24601032 0.4882958
000250 88 44 a3 be 50 9e a5 be 47 4f 7e 3e 2d a8 5d bf
       -0.31888223 -0.32347345 0.2483493 -0.8658474
000260 c3 21 0b 3e 8b 87 c6 3f 6f 3a 67 be a5 3a b7 be
       0.13587098 1.5510114 -0.22580884 -0.3578693
000270 21 3a 73 bd b7 a6 82 bf 46 82 1d be 81 cb d8 bc
       -0.059381608 -1.0207127 -0.15381727 -0.026464226
000280 b2 66 da be f6 73 e9 be 2a 7a 30 bf 4e 60 02 bf
       -0.42656475 -0.45596284 -0.6893641 -0.509282
000290 24 86 4f bf 79 dd 25 bf ae d5 c1 be cb 0c 50 3e
       -0.8106406 -0.64791065 -0.37858337 0.2031738
0002a0 69 24 85 3c f5 89 57 be ce 76 bb 3e 22 a2 1a bf
       0.016252713 -0.2104872 0.36614078 -0.60403645
0002b0 77 a3 f8 3d 37 c6 63 3e 03 e8 db be 50 f8 31 3e
       0.121405534 0.22243582 -0.42950448 0.1737988
0002c0 86 a2 14 bf dd d3 a2 3f 7e 34 bf 3e 96 72 a1 be
       -0.5806049 1.2720906 0.37344736 -0.31532735
0002d0 7d 35 9d be e7 dc c4 bd 70 c5 f0 3e db 9c 39 3d
       -0.3070487 -0.09612446 0.47025633 0.045315605
0002e0 b2 15 2e 3f b2 aa ce 3e b7 fc cc be 71 e4 22 3e
       0.68001854 0.40364605 -0.40036556 0.15907456
0002f0 7e c5 6a bf fd 41 d1 3e 10 04 e5 3e aa e5 dd 3e
       -0.917076 0.40870658 0.44729662 0.43339282
000300 53 f6 a1 bc a5 11 83 3f b6 b4 8a bf 19 20 03 bf
       -0.019770777 1.023976 -1.0836399 -0.5122085
000310 ac 5b d3 3a ca 77 ab 3e 00 a2 10 bf 40 f5 17 3f
       0.0016125343 0.3348983 -0.5649719 0.59358597
000320 26 ee 8a 3e ad 07 2f bc 1c e7 42 bf e7 98 cc be
       0.27134818 -0.010682982 -0.76133895 -0.39960405
000330 d0 e8 e9 be 36 3b 17 bf 5d 15 a5 be 7a 7d 6b 3f
       -0.45685434 -0.59074724 -0.3224286 0.9198834
000340 6d 72 7b 3c 7a 07 59 be c6 dc 2d 3e 30 88 04 3d
       0.015347105 -0.21194258 0.1697875 0.03235644
000350 cd 31 c5 be fa 64 14 3e 80 d2 5a 3e a1 fd 65 3e
       -0.38514557 0.14491645 0.21369362 0.22460033
000360 bd 90 74 3f 29 d1 7e 3f 1f 79 97 3f f0 30 c1 bf
       0.95533353 0.99537903 1.1833838 -1.509306
000370 c4 9b 93 3e 22 0a 33 3f fb 64 6b 3f dd d7 b3 be
       0.28829777 0.69937336 0.9195096 -0.35125628
000380 0d 32 b3 bf 63 4c 0c be 0a c1 19 be 3a 42 55 bd
       -1.3999649 -0.13701014 -0.15015045 -0.05206511
000390 00 f2 98 bf cd 0c 27 3f 87 e8 ac be 99 a2 1c 3f
       -1.1948853 0.6525391 -0.33771154 0.61185604
0003a0 8e f0 d0 3e d1 44 c0 3e 77 a7 37 3f 5d 49 82 3d
       0.4080853 0.37552503 0.71739906 0.06361649
0003b0 0e bf 20 3f b0 7f 0c bf d5 b2 61 be 33 44 54 be
       0.62791526 -0.54882336 -0.22040875 -0.20729141
0003c0 fd 93 d2 be 43 f4 23 3f 3e 6b 2e be d7 0b 9c bd
       -0.4112853 0.6404459 -0.17033097 -0.07619446
0003d0 dc 2a 8d 3d d2 0d 88 be cf 9d 68 3f b4 83 39 bf
       0.068929404 -0.26573044 0.90865797 -0.7246659
0003e0 79 e4 18 3f 5a f5 f4 be 7e d0 0d bf 07 b0 29 be
       0.5972362 -0.47843438 -0.5539626 -0.16571055
0003f0 d2 01 59 3f 88 a3 ea be 94 7f 14 bf cb 40 0e bf
       0.847684 -0.4582789 -0.5800717 -0.55567616

fc1.bias f4 [64]
000000 0e 8f 9e 3e 85 ff e4 3e ca a2 c5 3e 1b 0a 14 bd
       0.30968517 0.44726196 0.3860076 -0.03614245
000010 15 66 d6 3e 06 c3 d8 3e 25 02 49 bf 22 af 52 bd
       0.41874757 0.4233629 -0.785189 -0.05143655
000020 5b 49 fc be ba 3e 57 3e 8f 71 fb be 08 b3 6a 3f
       -0.49274716 0.21020022 -0.49110076 0.9167943
000030 18 fc 6d 3c b5 63 e9 bc a5 e3 a2 bf f6 e1 bb 3e
       0.014525436 -0.028489927 -1.2725722 0.36695832
000040 67 7a 31 3f 8f d9 2f be b3 25 95 3d 2b 8b 28 3f
       0.69327396 -0.17172836 0.07282581 0.65837353
000050 5c f8 5e 3f e2 96 4a bf 01 53 30 3f e4 3b 54 3f
       0.87097716 -0.7913648 0.68876654 0.82903886
000060 68 2e 5e be e7 5e 9e 3c 4d f2 63 3d 32 5a ec be
       -0.2169739 0.019332362 0.055650998 -0.46162564
000070 33 6f 8a 3f c6 a5 05 bf 16 f9 40 bf 01 62 4b be
       1.0815185 -0.52206075 -0.75380075 -0.19861604
000080 55 6e ea be a4 cc 42 bf a5 be 8c 3e de 79 50 3f
       -0.45787302 -0.76093507 0.274892 0.81435955
000090 b1 5e 41 3f 8f c7 40 bc eb cc 90 be 3d d8 fb 3e
       0.7553511 -0.0117663285 -0.2828134 0.49188414
0000a0 93 2b f1 3e 3c d5 f9 be df 88 0c 3e 6e 27 12 bf
       0.47103557 -0.48795497 0.13724087 -0.57091415
0000b0 7b 4f e9 3e 43 ef 24 be a2 06 03 bf 0c 9e be 3c
       0.4556845 -0.16106896 -0.51181996 0.023268722
0000c0 21 ae 3f 3f dd c2 b1 3e 5a 04 7e be 9a 89 5f bd
       0.74875075 0.3471898 -0.24806347 -0.054574586
0000d0 1e bd cf 3e 47 5f 5c bf a8 2e ac 3e 05 d6 f6 be
       0.40573972 -0.8608288 0.33629346 -0.4821016
0000e0 0f d6 48 bf 20 e9 29 bf 84 e9 52 bf 18 5b 3f 3f
       -0.7845163 -0.66371346 -0.82387567 0.74748373
0000f0 77 67 41 bf 62 2a 37 3f 19 e9 47 bd 8f 75 f5 3e
       -0.755485 0.71549046 -0.048806284 0.47941253

fc2.weight f4 [64, 64]
000000 c6 e2 45 bd eb 6b 23 be 4b 5e a0 3d 9d 6a 00 3d
       -0.04831197 -0.15959136 0.07830485 0.031351674
000010 dc e2 94 3d 34 26 2e 3d d1 c5 a8 bd 19 d8 86 3d
       0.072698325 0.042516902 -0.082408555 0.06584186
000020 53 94 3a bc 69 af f3 3c 73 a2 ed bd 5d 37 ad bd
       -0.011387902 0.029746728 -0.1160325 -0.08457825
000030 9b 6b 18 be 6e 3b 84 bd a6 a9 35 3c d0 4b 0a be
       -0.14884798 -0.06456648 0.011087811 -0.13505483
000040 38 80 c5 3a c0 d6 51 3d 9c f0 c0 bc 7b c7 f8 bd
       0.0015068119 0.051230192 -0.023552231 -0.12147423
000050 6a c1 12 be 51 58 63 bd 75 03 45 3b 16 0b b2 3d
       -0.14331594 -0.055504147 0.0030061875 0.08693521
000060 3d 62 65 3d d5 9a f3 bc fc f1 f5 3c 56 c8 20 be
       0.05600189 -0.029736916 0.030022614 -0.15701422
000070 55 f3 25 be ab db 2d 3d 84 78 da bd 52 6a a5 3c
       -0.16206105 0.04244582 -0.10667518 0.020192299
000080 3c 0f ff bd ca 4c 9f bd ec 7b eb bd fe 2a d7 3c
       -0.124540776 -0.07778318 -0.114982456 0.026265617
000090 8f 2d 4f bd e4 85 a4 3d b1 53 15 3d 77 d1 8d 3c
       -0.050580557 0.0803335 0.036456767 0.017311795
0000a0 9e 50 a7 bc 65 a2 9c bd 80 6c 89 bd fe a2 8c bc
       -0.020424183 -0.07648162 -0.06710148 -0.017167564
0000b0 bf 1d bd 3c ea d9 d3 bd fa 54 b6 3d 1f c1 5a bd
       0.023085473 -0.10344298 0.08902927 -0.05340683
0000c0 b7 d3 0d be 5b 3e c8 bd 92 fd c1 3d 7a c2 a5 3d
       -0.13850294 -0.09777518 0.09472193 0.08093734
0000d0 3a 9e 08 be df 30 4d 3d 63 45 88 3c 33 ca 0f 3d
       -0.13341609 0.050095435 0.016634649 0.03510494
0000e0 8d a0 a7 3d 05 ca c7 bd 44 6b a8 3a 6f 08 dc ba
       0.081849195 -0.09755329 0.001284935 -0.0016787181
0000f0 a7 6e 99 bd a7 4b 35 3b bd fc 5e bd ef 3f 24 3d
       -0.074918084 0.00276635 -0.05444025 0.040100034
000100 0f 99 9a bd 7b 82 af bd 8d 87 cb 3b 7c 35 fb 3b
       -0.07548725 -0.08569809 0.0062112273 0.007666288
000110 59 08 e6 bd bb 5b 0c bd 2d 8d 27 3d 28 63 92 bc
       -0.11232061 -0.03426717 0.04090612 -0.017869547
000120 5f db 2a 3c 86 a3 23 bd b8 de bd 3c 3f 3e e1 bd
       0.010428279 -0.03995087 0.02317749 -0.109982006
000130 70 49 b0 bd 28 a1 ac bd 83 0a cc 3d d2 08 8b bd
       -0.08607757 -0.084291756 0.099629425 -0.06788792
000140 de b9 b5 bc a3 8d 9c bd 29 86 b0 3d 39 ed a9 3d
       -0.022183355 -0.076442026 0.08619339 0.082972
000150 d5 c4 f0 bd ea 58 16 be 65 c6 04 be 3f 28 18 bd
       -0.11756293 -0.14682356 -0.12966307 -0.037147757
000160 c4 82 02 bd 6b 07 cf bd 0b 60 83 bd f3 a2 9f bc
       -0.03186299 -0.10108837 -0.06414803 -0.01948688
000170 34 42 b2 bd 2d 6a da 3b 76 b5 e5 bc 1a d7 97 bd
       -0.087040335 0.006665489 -0.028040629 -0.07414074
000180 6b 35 fa bc ed f9 b1 3d 43 aa ff bd 9e 46 03 bd
       -0.03054305 0.08690248 -0.12483647 -0.032049768
000190 02 fc a9 bd 55 36 d2 3d c8 64 1f be d8 4c 10 be
       -0.0830002 0.10264269 -0.15565789 -0.14091814
0001a0 5b fa d9 3d 16 de b8 bd 7d 4a 78 bc bc d6 5b bd
       0.10643455 -0.090267345 -0.015154478 -0.053671584
0001b0 04 18 0c bd 6e 3e fe bc 2c 24 7b 3d 24 c1 f2 bc
       -0.03420259 -0.031035628 0.061313793 -0.029633112
0001c0 1a c7 36 be da ec a5 bd 45 f4 5e bd 90 b8 fd 3c
       -0.17849389 -0.081018165 -0.054432172 0.030971795
0001d0 1a da d1 bd de a5 a4 3d ae 4b 23 bd 05 b4 75 bd
       -0.10246678 0.08039449 -0.039867096 -0.059986133
0001e0 63 ed a9 3d 23 f4 d4 3c 7f b4 89 3d ef bd 10 3d
       0.08297231 0.02599532 0.0672388 0.035337385
0001f0 55 89 a9 bd 60 76 f9 bd ca 87 ee bc ea 36 86 3d
       -0.08278147 -0.12180781 -0.029117484 0.06553443
000200 db 1c ec 3d 73 2d e9 ba 80 cf ab 3e 04 34 3c 3e
       0.11528941 -0.0017790034 0.33556747 0.18379217
000210 fb 42 85 3b 9a 8c 84 3e e5 cc c3 be 8a 3d 74 be
       0.0040668226 0.2588852 -0.3824226 -0.238516
000220 4c ea fb 3c 95 bf 29 bf 58 87 23 be 3f 62 cf 3e
       0.03075137 -0.66307956 -0.15969598 0.40504643
000230 3f 3c d3 3e 0a 8e 1f 3e 82 69 23 bf 20 f5 8c be
       0.41256902 0.15581527 -0.6383287 -0.27530766
000240 83 13 f0 3d d4 4a 37 3f 5c 43 06 3e ca 28 a7 3e
       0.117224716 0.71598554 0.13111633 0.32648307
000250 4c 83 86 3e dd 96 49 be 59 fa 8e 3d 4e 00 a8 3e
       0.26272047 -0.19686456 0.06981344 0.32812732
000260 6a 78 c2 be 0a 8e 13 3d f0 82 cf bb 97 6e c0 bc
       -0.37982494 0.03602413 -0.0063327476 -0.023490233
000270 e1 10 43 3e 83 ed a5 bd e4 06 9e bc 17 c5 80 bd
       0.19049408 -0.081019424 -0.019290395 -0.06287592
000280 63 d0 89 3e 6c 5d 6e bf 83 83 f7 3e 91 a1 99 3e
       0.269168 -0.931113 0.48342523 0.30006078
000290 22 3e 24 3e bf 64 d0 be 59 91 78 be 70 c1 40 3d
       0.16039327 -0.40701863 -0.24274196 0.047059476
0002a0 08 db 61 bb 67 32 33 bf 69 d5 72 be 83 8d 27 3e
       -0.0034462828 -0.6999878 -0.23714222 0.16362576
0002b0 5b a8 92 bd a7 08 2f 3e 6e f4 c1 be ad 3c 1b 3d
       -0.071610175 0.17093144 -0.37881798 0.03789966
0002c0 bd 8f 7f 3e f2 f2 fa bd 81 22 9a 3d cb 1d a4 be
       0.24957176 -0.122533694 0.07526112 -0.3205398
0002d0 b3 1f 33 3e d3 16 b7 bd 62 f0 8f 3e 4d 51 42 bc
       0.17492561 -0.089399 0.28113085 -0.011860204
0002e0 d7 78 bf 3d 09 cc 19 bf 71 91 f6 3d 0b be 20 be
       0.0934922 -0.6007696 0.120394595 -0.15697496
0002f0 14 02 4f be f3 ee 3b 3e c8 fc ce be df ee 55 bc
       -0.20215636 0.1835287 -0.40427232 -0.01305744
000300 24 7d 17 c0 a9 7b 8d be 34 dc 64 bf 54 6e 02 bf
       -2.367013 -0.27633408 -0.89398503 -0.509496
000310 13 d4 8b bf 4c 45 2c 3e b1 2a 6c 3f ec 6b b2 be
       -1.0924095 0.1682331 0.9225264 -0.34847963
000320 ff 62 e3 bf 01 81 d4 3e 59 e3 aa 3e 64 cd a2 be
       -1.7764586 0.41504672 0.33376577 -0.31797326
000330 7c 9f 59 3e de 29 a9 3d f6 58 ff 3d 67 8a 03 bf
       0.21252245 0.08259939 0.1246814 -0.5138306
000340 6f 8a df 3e d4 60 92 3e 57 d5 41 bf 6c 16 12 bf
       0.43660304 0.285895 -0.75716156 -0.57065463
000350 e8 cb 8a 3d 7e 0a 6c bf d6 e5 4d 3e a4 ae 23 bd
       0.06777173 -0.9220351 0.20107207 -0.039961472
000360 60 de d5 bd d2 b4 8b 3d ab 2f bb be 75 92 05 bf
       -0.10442805 0.06821598 -0.36559805 -0.521766
000370 17 d9 43 bf 53 c6 80 3e 88 ff f4 be a8 0c a8 3d
       -0.7650313 0.2515131 -0.47851205 0.08205539
000380 37 0f 3f c0 1c 24 d3 bd 5c 28 eb 3e 2e 1b 95 be
       -2.9853036 -0.10309622 0.4592923 -0.291223
000390 22 8c e3 bf 1a 78 c5 bc cb 46 e0 3f 75 9c dc be
       -1.777714 -0.02410512 1.7521604 -0.43088117
0003a0 25 78 7e 3e fc 27 32 bf 24 a1 c3 3d e8 02 37 bf
       0.24850519 -0.6959226 0.095522195 -0.7148881
0003b0 18 51 38 3f c6 8b 75 3d c5 ab 87 3d 4c 6b 2b 3f
       0.7199874 0.05994775 0.06624559 0.669606
0003c0 41 57 11 3e a1 bb c7 bd 61 22 75 3e a7 94 d8 b8
       0.14193441 -0.09752584 0.23938896 -0.00010327371
0003d0 8b 8d 84 be c8 b1 94 3d b3 e2 49 3e 98 77 e9 3e
       -0.2588924 0.072604716 0.19715385 0.45599055
0003e0 8f 15 6f bf 7b ad 3e 3e 4d 55 4e bf f1 ac b1 bf
       -0.9339227 0.18620865 -0.8059891 -1.3880903
0003f0 d4 08 4a c0 1e 54 4e bf 52 fb 71 3e 09 56 a2 be
       -3.1567888 -0.805971 0.23631027 -0.31706265

fc2.bias f4 [64]
000000 42 2c 21 be 64 d2 c4 3c dd d5 a6 3e b4 65 5e 3d
       -0.1573954 0.024026103 0.3258504 0.05429621
000010 85 b5 a7 bc 26 ca 5b 3e 77 65 e9 3e a6 5e d3 3c
       -0.020472297 0.21463832 0.45585224 0.025801968
000020 6f 4f 04 bd 01 08 f7 3d 18 ca ce 3e 52 11 be 3d
       -0.032302316 0.120620735 0.4038856 0.09280647
000030 7b 78 90 3e 71 f5 68 ba d9 e9 91 3d 9b a1 e2 bd
       0.2821692 -0.0008886671 0.07124681 -0.1106598
000040 38 b8 54 3d c5 7b 46 3e ae cb a5 3d b9 fc 4b bd
       0.051933497 0.19383152 0.080954894 -0.049801562
000050 30 37 da bb 62 91 5b 3e f5 5b b2 3c 35 be 08 3f
       -0.006659411 0.21442178 0.021772364 0.5341523
000060 24 4f b9 3c 02 8b 13 be b0 c8 9c 3e fa af af 3c
       0.022620745 -0.14408496 0.30621862 0.021446217
000070 37 99 e2 3e ca b6 02 3e ed b6 8c 3e 8b ec 18 3e
       0.4425752 0.12765041 0.2748331 0.14933984
000080 99 0d 15 3e 8d ad a1 bd af 11 9d 3d 47 97 fe 3e
       0.14555968 -0.0789443 0.076693885 0.4972479
000090 75 7f 5f 3d ca 03 da bd da 08 64 3c 45 4a 48 3e
       0.054564912 -0.10645254 0.013918126 0.19559582
0000a0 bb c6 cb 3e da 0e 88 bd d8 15 b2 3e 44 7c a3 3e
       0.39800057 -0.06643458 0.3478229 0.31930745
0000b0 ba a4 42 3e 7c 7c 05 3d 31 d1 8f 3e 55 6f 26 bc
       0.1900815 0.03258942 0.28089288 -0.01015838
0000c0 db 52 9e be b5 1a 44 be e3 f5 64 be 20 1d 64 3e
       -0.3092259 -0.19150813 -0.22359423 0.22276735
0000d0 51 c6 7b 3d bf 70 c5 bd e6 92 72 3c dc 8e 2f 3d
       0.061468426 -0.09640645 0.014805531 0.04286085
0000e0 59 0b b0 3d 50 f1 bc 3e ef 24 50 3e 32 ee 87 3d
       0.085959144 0.36902857 0.20326589 0.06637229
0000f0 a4 71 80 3e 97 f2 bf 3e b6 45 84 3e 58 91 04 3e
       0.250867 0.3748977 0.25834435 0.12946069

fc3.weight f4 [3, 64]
000000 58 bf bd 3d 57 f9 a8 3d 54 c6 2f bf f4 44 d5 3f
       0.092650115 0.08250683 -0.68662 1.6661668
000010 15 76 9a 3f a6 b2 4e be b5 2b 72 bf de 3d f0 bf
       1.2067286 -0.20185336 -0.9459794 -1.876888
000020 6f c0 7a bd 38 88 b8 be fe 4d 28 40 57 a6 49 bd
       -0.061218675 -0.36041427 2.6297603 -0.0492309
000030 5e 09 49 bf e1 d2 8b bb 1f 5e 6d be cf a0 7a 3d
       -0.7852992 -0.004267082 -0.23180436 0.061188515
000040 58 c6 e6 3f 07 dd 4b be fd 98 03 be 07 53 ac 3f
       1.802928 -0.19908534 -0.12851329 1.3462838
000050 b7 07 67 be 3c 3e 0a 40 6b f3 93 3d 65 81 5b bd
       -0.22561537 2.1600485 0.07224163 -0.053590197
000060 4d 18 c3 3f 12 81 a5 3d 1a ff 5d bd e7 b6 ec bd
       1.5241791 0.08081259 -0.054198362 -0.11558323
000070 9b 2c 4b bd 17 15 ae be e7 8f 5b 3f 1c ed e1 3f
       -0.049603086 -0.34000465 0.8576645 1.7650485
000080 cf c1 84 be a7 8b 74 3f bb 96 88 3d b8 2a 7a bf
       -0.25929114 0.9552559 0.066693746 -0.97721434
000090 37 c2 d5 bf dc e9 8e bb 76 29 e6 bd 3f b7 8d bf
       -1.6699895 -0.0043613743 -0.11238377 -1.1071547
0000a0 f2 73 f9 3f 49 8c 8a 3e a3 7d 07 40 ff b6 ad be
       1.9488509 0.27060154 2.1170433 -0.33928677
0000b0 a9 26 b0 be 5f fb 78 bf 05 d6 63 bf 6a bc b5 bd
       -0.34404495 -0.9725856 -0.8899844 -0.08873828
0000c0 46 68 ba bf 1d 86 85 bf df 84 14 c0 58 12 60 3d
       -1.4563072 -1.0431553 -2.3206098 0.054704994
0000d0 3e 39 b9 3f 42 b8 b9 3f 6e 90 89 be 97 70 a9 be
       1.4470594 1.4509356 -0.26868004 -0.33093712
0000e0 61 65 9c bd 46 72 35 bf 4d 8d f5 be 3e 09 e7 bd
       -0.07636524 -0.7087749 -0.47959366 -0.1128106
0000f0 c5 f8 65 3d 3c 96 ad be 7b 26 18 bf 7a 8f 67 3d
       0.05614545 -0.33903682 -0.59433717 0.056533314
000100 a3 73 1a 3c 57 a5 0d be d2 32 bd be 09 29 61 3f
       0.009426984 -0.13832603 -0.36952835 0.8795324
000110 f2 37 2e 3f 32 52 02 be 1d fd c5 be 2a 0f 98 bf
       0.68054116 -0.12726668 -0.38669673 -1.1879628
000120 fc e1 17 3d 52 7e f0 be bc b3 eb 3f 3e b2 85 be
       0.03708075 -0.46971375 1.8414226 -0.2611255
000130 28 f7 32 bf a6 68 87 bd c5 c7 d3 3b ba 3a c8 3d
       -0.6990838 -0.06611757 0.0064630234 0.09776826
000140 5c 5c da 3f bf ad 1e be 86 ae 83 3d 1d cb 11 40
       1.7059436 -0.15495966 0.06429772 2.278022
000150 4a 65 01 be d3 07 bb 3f e7 d0 6c bd 1e 65 33 bf
       -0.12636295 1.4611763 -0.057816412 -0.7007617
000160 92 00 8d 3f a4 5c d0 bd c5 4d 5d be af f3 14 be
       1.1015799 -0.1017392 -0.21611698 -0.14546083
000170 4c 32 e9 be bd e5 2e bf 25 90 56 3f cb 41 a8 3f
       -0.45546186 -0.683193 0.838137 1.3145078
000180 ab 51 ad be 8b f8 1e 3f f2 30 48 bd 18 52 b5 bf
       -0.3385137 0.62097996 -0.048874803 -1.4165678
000190 b5 8d 3d bf c1 45 57 3d ae f2 0b bf 1f b1 26 bf
       -0.7404435 0.052556757 -0.54667175 -0.65114015
0001a0 42 4f a4 3f bc a8 ca 3d ca 39 56 3f 5f 71 38 be
       1.2836688 0.09895465 0.8368193 -0.18011998
0001b0 89 60 a3 be d3 8b a2 3d 1c ba b4 be 5c 9c 48 3c
       -0.31909588 0.079368256 -0.3529824 0.01224431
0001c0 aa f0 3f bf 2d 94 08 bf 29 59 ac bf f3 9c b1 be
       -0.749766 -0.533511 -1.346471 -0.34690055
0001d0 b3 6f e6 3f 06 ef 62 3f be 5a 7e bd 43 8b 21 bf
       1.8002838 0.8864597 -0.062098257 -0.6310312
0001e0 d8 70 9a 3d 29 12 0b bf 61 14 6a be f2 5a 75 3c
       0.075410545 -0.54324585 -0.22859336 0.014975296
0001f0 f7 c5 e1 be cb 81 36 bf 4c 26 f0 bd 8f 8e bb 3e
       -0.44096348 -0.712918 -0.117260545 0.366322
000200 70 c5 32 bc 91 22 db b9 c7 f8 13 3c 4e 08 9a 3f
       -0.010911331 -0.0004179669 0.009031481 1.2033784
000210 90 91 c8 3f 14 ff a3 be 59 7c dc be a5 0e a6 bf
       1.5669422 -0.32030547 -0.4306362 -1.2973219
000220 65 01 11 be 3a 3b e9 bd 5b 47 ee 3f 9f ec 70 be
       -0.14160688 -0.1138825 1.8615526 -0.23527764
000230 8b ff 96 bf 4f 44 1a be 67 4b 5a 3c c0 e9 96 3c
       -1.1796736 -0.1506512 0.013323641 0.018422008
000240 db 5b 12 40 b4 7e a6 bd 86 5d 1f be 8f ac 9f 3f
       2.2868564 -0.081296355 -0.1556302 1.2474536
000250 be a6 d4 3c 4e 23 d1 3f 6b 1c b6 3d db 62 6d bf
       0.025958415 1.6338899 0.08892139 -0.92728966
000260 8b 2e a6 3f f0 99 b5 3d 54 9d 5e 3f 2d 80 0a bd
       1.2982954 0.08867252 0.86958814 -0.033813644
000270 ab 35 6b bf 9f 7e 93 be 54 ee 9d 3f 02 a3 3d 40
       -0.91878766 -0.28807542 1.2338357 2.9630742
000280 fa fa 64 bf 27 84 82 3f a9 ed 08 bc 5c bc 7d bf
       -0.8944546 1.019658 -0.008357444 -0.9911554
000290 aa 91 ac bf d5 2d 47 3d b8 8f 23 3d 01 fc 91 bf
       -1.3481953 0.048627693 0.039931983 -1.140503
0002a0 5a 26 e4 3f e7 1c ba 3d 5d 70 f0 3f d6 8a 0a be
       1.7824204 0.09087544 1.878429 -0.13529524
0002b0 7a 68 2d be 69 84 23 be c6 e8 08 3c 60 65 49 bd
       -0.16934386 -0.15968479 0.008356279 -0.049168944
0002c0 c0 29 a9 bf e0 3e 41 bf f6 4e 38 c0 aa 86 7f bd
       -1.3215866 -0.75486565 -2.8798194 -0.062384285
0002d0 4a 59 d9 3f cb b5 a5 3f 43 ca 0f 3d 4f d5 84 bf
       1.6980374 1.2946104 0.035105 -1.0377597
0002e0 9f 40 fe bd ee 09 0d bf 6b fb bc bc e7 fa 6a bd
       -0.12414669 -0.55093277 -0.023069104 -0.057368185
0002f0 72 65 dd bd d2 04 0c bf 6f 03 a0 bf b4 0b 70 be
       -0.10810365 -0.54694855 -1.2501048 -0.23441964

fc3.bias f4 [3]
000000 64 01 a4 3d 10 4b cb be da b7 12 3e
       0.08008078 -0.39705706 0.14327946
