model/checkpoint_600.pth (torch, 21902 bytes, 6 tensors)

fc1.weight f4 [64, 6]
000000 99 7e 7b 3e d7 68 23 3f 00 22 ef be 44 8f 0e bf
       0.24560012 0.6383185 -0.46705627 -0.55687356
000010 64 6a a8 bd 0b 1d 29 3e ee 45 20 3e 25 a6 b1 3e
       -0.082234174 0.16514985 0.15651676 0.3469707
000020 00 96 ca bd 46 fa f1 3d a5 c7 19 be 0d e3 11 bd
       -0.098918915 0.11815314 -0.15017565 -0.035616923
000030 83 df e7 be ab d7 1e bf de 98 2f bf 89 b3 be 3d
       -0.45287713 -0.62047833 -0.6859263 0.09311587
000040 07 37 40 3e a6 e6 5f 3e 72 36 7f be 38 e9 e6 be
       0.18770991 0.21865329 -0.24923113 -0.45099807
000050 c4 4b 7d be db 7e 22 3f e3 2c 06 3d 6e 15 3a 3e
       -0.24735934 0.63474816 0.03275765 0.18172237
000060 48 37 ab 3e 58 f0 44 3f 02 9b f6 3e 1f cb 10 bf
       0.33440614 0.76929235 0.48165137 -0.5655994
000070 9b 0a 47 be 7d e8 4d bd 22 69 2d 3c bb 1a 57 3f
       -0.1943764 -0.050270546 0.010584148 0.8402516
000080 2c 97 22 bf cc 16 df be 5c 1d 9f be 0e b7 85 be
       -0.6351192 -0.4357208 -0.31077087 -0.26116222
000090 4f 7a bd bf c3 37 84 3e fb 62 e3 3e 95 6c 8b bc
       -1.4802951 0.25823793 0.44411454 -0.01701955
0000a0 ee 17 65 be de 95 2a bd 56 94 3e be 29 66 54 bf
       -0.2237241 -0.04164683 -0.18611273 -0.82968384
0000b0 ba 8e 29 bf e3 60 91 be 3b 51 ba 3d 08 5b c6 bd
       -0.6623341 -0.2839423 0.09097525 -0.096853316
0000c0 5b 84 87 be 05 43 28 bf 5d 38 b5 3e 29 69 ff 3e
       -0.26468167 -0.65727264 0.35394564 0.49884918
0000d0 42 a0 ff 3d 9b 6f b3 3d 60 1f c3 bd 67 25 34 bf
       0.124817386 0.087615214 -0.09527469 -0.7036957
0000e0 fa 2a ed 3d c4 28 89 be 66 71 92 be d9 da b6 be
       0.11580463 -0.26788914 -0.2860214 -0.35713843
0000f0 65 2e f5 bb ee d1 26 3d 95 09 61 3e 9a 2e 95 3e
       -0.0074823373 0.04072755 0.21976312 0.29137117
000100 83 8e c5 3e fb f9 65 3d 8b ec 6c 3e fa 6c 63 be
       0.3858529 0.056146603 0.23137109 -0.2220954
000110 54 13 bf 3e f6 b3 15 3f 47 63 6f be cd c5 09 be
       0.37319434 0.58477724 -0.23377715 -0.13454361
000120 19 41 f5 3e 69 bc 11 3e 01 36 fb 3e ca 64 17 3f
       0.47901228 0.14232029 0.4906464 0.59138167
000130 30 80 36 be 5d 2b 95 be 16 e2 60 3e 38 b6 70 bf
       -0.17822337 -0.29134646 0.21961245 -0.94028044
000140 f6 ba 81 bf 96 a9 12 3f 27 01 a7 3d cc cb 96 be
       -1.0135181 0.5729002 0.08154517 -0.2945236
000150 97 cd 63 be f8 ee 37 3e 46 ae e5 be b6 16 9a 3e
       -0.22246395 0.17962253 -0.44859523 0.30095452
000160 91 95 51 3e b7 90 c5 bd 90 39 2f 3f ce d0 2f 3e
       0.20467211 -0.09646743 0.6844721 0.17169496
000170 7f 60 fb 3e 39 88 91 bd 16 8d 97 be db ee 00 be
       0.49097058 -0.071060605 -0.29599828 -0.12591116
000180 6f 31 3e 3f 45 fe 88 3e b4 3f a1 bd fb fa 1e bf
       0.7429418 0.26756492 -0.078734785 -0.62101716
000190 e1 2e d4 3e 79 e8 09 3e 04 45 83 bf db 4f 46 3e
       0.41442016 0.13467588 -1.0255437 0.193664
0001a0 00 17 34 bf ce db 35 bd 9b 88 55 be bf 70 49 be
       -0.70347595 -0.044399075 -0.20852892 -0.19671915
0001b0 af 1f 65 be bb 01 c1 bd 74 4a 52 be 00 68 65 be
       -0.22375368 -0.09424158 -0.20536214 -0.22402954
0001c0 2b cc b6 be 20 ea 95 3e fd 54 b6 3e 61 06 c1 be
       -0.35702643 0.29280186 0.35611716 -0.3770018
0001d0 56 d8 8d be 11 21 1c 3c 89 ca e5 3d 6b ea 0f 3e
       -0.27704114 0.009529368 0.11220271 0.14054267
0001e0 ee 09 02 3f ef c3 80 bc 00 04 0a be 7e 62 a0 3e
       0.507964 -0.015718428 -0.13478088 0.31325144
0001f0 6e 01 8e be 2a 1b 89 be 4e c4 dc be 03 94 fe be
       -0.27735466 -0.26778537 -0.4311852 -0.497223
000200 b4 72 7d be df 10 8a be 47 59 ee bd be b5 d2 bc
       -0.24750787 -0.26965997 -0.11638122 -0.025721427
000210 96 68 aa bd b3 31 0b be fe b3 c9 3e fa b0 fc bd
       -0.083207294 -0.13593177 0.39395136 -0.12338443
000220 da b8 9f bc d2 d0 26 bd 07 11 dd 3e d8 61 8f 3e
       -0.019497324 -0.04072649 0.43177053 0.28004336
000230 31 94 17 3f 71 f4 48 3e c2 fd 33 3e bd 51 57 3e
       0.592105 0.19624497 0.1757727 0.21027274
000240 94 8d 06 bf f3 73 0c 3e 6e 0a 8c bc 01 3b 83 3e
       -0.5255978 0.13716106 -0.017094817 0.25630954
000250 48 6c a9 be 55 54 c2 be 83 e6 7d be 2e a2 3b bf
       -0.33090425 -0.37954965 -0.24794964 -0.7329434
000260 42 7d d1 bd a0 40 7a 3f 28 d6 16 be 02 90 63 be
       -0.10228969 0.9775486 -0.14730132 -0.22222903
000270 db b9 ce 3d 83 56 36 bf 7d 9d a0 bd a8 93 fe be
       0.10094043 -0.71225756 -0.078425385 -0.49722028
000280 33 c6 81 be f0 ae 0c be f6 93 42 bf 9f 82 85 be
       -0.25346527 -0.13738608 -0.7600702 -0.26076218
000290 d7 7a a6 be c3 57 8d be f1 de 91 be 1e 40 47 3e
       -0.32515594 -0.2760602 -0.28490403 0.19458053
0002a0 11 55 42 be 1e de 55 be 04 b7 b1 3e b1 0a c4 be
       -0.18977763 -0.20885512 0.34709942 -0.38289407
0002b0 d0 94 f8 3d 92 67 02 3e ef 91 43 bf eb 8d aa 3e
       0.12137759 0.12734821 -0.7639455 0.333114
0002c0 d8 4b 96 be 26 e6 3c 3e 70 ad b9 3e 8e 06 41 be
       -0.2935474 0.1844717 0.36265135 -0.18850157
0002d0 72 30 7d be 10 39 15 bd 35 bf e7 3e 5e f4 d4 3d
       -0.24725512 -0.036431372 0.45263067 0.10398172
0002e0 1e 57 c7 3e fc 0f 6a 3e 88 70 ef bd 80 bd 0f 3e
       0.38933653 0.2285766 -0.116913855 0.14037132
0002f0 04 71 2f bf fd dc 25 3f 9d 99 d8 3e 7f 47 84 3e
       -0.68531823 0.64790326 0.42304698 0.25835797
000300 72 ef 59 bd 78 69 3f 3f 89 b0 47 bf 15 ca 03 bf
       -0.05320687 0.7477031 -0.78003746 -0.5148023
000310 06 32 4f bd df b9 7d 3e 72 ee b5 be a7 ed fc 3d
       -0.050584815 0.24777935 -0.35533482 0.12350016
000320 70 50 c7 3d 24 56 8a 3e bb b5 ff be 7e 99 8f be
       0.09732139 0.27018845 -0.49943337 -0.28046793
000330 76 c6 86 be e5 e6 c8 be fa 62 16 be 1d 7e 0f 3f
       -0.2632329 -0.3923866 -0.14686194 0.5605181
000340 e2 54 34 bd 82 e4 8b bd 34 18 b0 3d 61 bb bd bd
       -0.044026263 -0.06830694 0.085983664 -0.09264255
000350 70 f1 4c 3c 88 14 d7 bd 46 37 c9 3d de f3 e4 3d
       0.012508735 -0.10501963 0.09824996 0.111793265
000360 a0 af fb 3a 4f 76 89 bd 55 1b 5e 3f 6c b4 73 bf
       0.0019202121 -0.06712019 0.86760455 -0.95197177
000370 b8 85 98 3e 81 7a a7 3e e5 c3 63 3e a2 2e 49 be
       0.2978952 0.3271065 0.22242697 -0.19646695
000380 35 13 55 bf 31 27 9a 3e 1a d6 e8 3b 56 04 8f bd
       -0.8323243 0.30108026 0.007105601 -0.06983249
000390 49 3e 2c bf 43 73 02 3f 19 bf 7b bc cf 67 0f 3f
       -0.6728254 0.50957125 -0.015365385 0.56017774
0003a0 52 8e 76 3e 33 b0 82 3e 67 93 1a 3f dc 8a d1 bb
       0.24077728 0.25525054 0.6038117 -0.006394727
0003b0 9c a7 e3 3e d1 42 b4 be eb 1d 8a bd f8 23 0d be
       0.44463813 -0.35207227 -0.06743988 -0.13783252
0003c0 4f 86 8a 3d 79 55 15 3f 5e c8 5b be b8 c7 31 bd
       0.067638986 0.58333546 -0.21463153 -0.043403357
0003d0 dd 6c 02 3e fb df b5 be ae dd 84 3e 26 cc 4f bf
       0.1273684 -0.35522446 0.25950378 -0.8117088
0003e0 38 78 46 3e c5 3b 16 be 3f 91 9a be bb 92 73 bd
       0.19381797 -0.14671238 -0.3018894 -0.059466105
0003f0 1f 81 c2 3e 54 d6 16 be 2a 68 13 bf 5e e2 6f be
       0.37989137 -0.14730197 -0.57580817 -0.23426196

fc1.bias f4 [64]
000000 50 18 80 3e c0 60 20 3f ff db a3 3e c0 f0 87 3e
       0.2501855 0.6264763 0.3200378 0.26550865
000010 8f 6a 10 3e 65 8c 02 3f 5d a6 5f be 85 3d 69 3e
       0.14103149 0.50995475 -0.21840806 0.22777374
000020 e9 c4 29 be 8a cb d7 bd b5 a1 20 bf 6b 51 0f 3f
       -0.16579022 -0.10536869 -0.62746745 0.5598361
000030 f1 d3 eb 3e 0e 99 06 3b 88 37 2a bf c8 f6 26 3f
       0.46060136 0.0020538005 -0.66490984 0.6522031
000040 f2 04 1e 3f 7a bf 4d bd 4b 3c 78 be d1 ea 38 3f
       0.61726296 -0.050231434 -0.2424175 0.722333
000050 06 b8 e0 3e 11 c1 0d bf 9e 1b 25 3f bb d7 23 3f
       0.438904 -0.5537272 0.64495265 0.64001054
000060 e4 dc f6 be 23 df 75 3e 28 79 11 be 8b 65 a0 bd
       -0.482154 0.24010901 -0.14206374 -0.07831868
000070 a0 b2 45 3f 09 df 87 be 6c 40 e1 be 0e 39 8d bd
       0.77225685 -0.2653735 -0.43994462 -0.06895648
000080 7e 36 0e 3e 8e 48 d0 be db 76 2c 3e fa a6 14 3f
       0.13887975 -0.40680355 0.16842215 0.58067286
000090 32 79 64 3e c4 a6 d1 3d 4d cf a0 3d 61 be c9 3e
       0.22311857 0.10236886 0.078520395 0.3940306
0000a0 47 ec fa 3e 5d 20 e4 be 89 58 c9 bd 37 12 94 be
       0.4900839 -0.4455594 -0.0983134 -0.28920147
0000b0 94 4f 54 3e 9d f0 38 bb 90 ce a1 be 82 6a b5 3e
       0.20733482 -0.0028219589 -0.31602907 0.35432822
0000c0 83 8f 2c 3f a1 ce 14 3e 56 8c 00 bf bb ab 8e be
       0.6740648 0.14531948 -0.50214136 -0.27865395
0000d0 9f 62 58 3e 64 03 14 bf c4 e5 de 3e 7a 97 bc be
       0.21131371 -0.57817674 0.43534672 -0.36834317
0000e0 f2 77 1b bf f4 50 b8 be 13 31 6b be 4b 6e d5 3e
       -0.607299 -0.35999262 -0.22967939 0.4168571
0000f0 16 2d ec be e4 4e 33 3f 6b 55 a4 bd 29 37 01 3f
       -0.46128148 0.7004225 -0.08024105 0.5047479

fc2.weight f4 [64, 64]
000000 5b ed f5 bc b4 5a 11 be 02 66 a5 3d 00 87 3f 3d
       -0.030020406 -0.14194757 0.08076097 0.046759605
000010 77 4f bc 3d 34 26 2e 3d 48 fa a8 bd 19 d8 86 3d
       0.09194844 0.042516902 -0.08250862 0.06584186
000020 5a 60 3b bc 69 af f3 3c 73 a2 ed bd de 76 87 bd
       -0.011436546 0.029746728 -0.1160325 -0.06614469
000030 9b 6b 18 be 6e 3b 84 bd a6 a9 35 3c a1 b5 00 be
       -0.14884798 -0.06456648 0.011087811 -0.12569286
000040 38 80 c5 3a c0 d6 51 3d d1 c8 95 bb 1f 36 d5 bd
       0.0015068119 0.051230192 -0.0045710583 -0.104107134
000050 4b 68 fe bd 51 58 63 bd f1 e5 ab 3c e6 10 d8 3d
       -0.12422236 -0.055504147 0.020983668 0.10550098
000060 3d 62 65 3d fc 62 f5 bc fc f1 f5 3c 78 61 14 be
       0.05600189 -0.029954426 0.030022614 -0.14490306
000070 3f 2a 12 be ab db 2d 3d ff f5 b9 bd dc da 1f 3d
       -0.14273928 0.04244582 -0.09080123 0.03902708
000080 e4 27 da bd ca 4c 9f bd 6e a9 eb bd 7a b5 3a 3d
       -0.1065214 -0.07778318 -0.115069255 0.045583226
000090 36 33 10 bd e4 85 a4 3d 2e 67 62 3d e4 b2 07 3d
       -0.03520509 0.0803335 0.05527418 0.033129588
0000a0 9e 50 a7 bc 86 f2 71 bd 06 11 44 bd 22 d9 95 bb
       -0.020424183 -0.05906918 -0.047867797 -0.0045730034
0000b0 4c 2e 2b 3d ea d9 d3 bd fa 54 b6 3d 3b 21 0a bd
       0.0417922 -0.10344298 0.08902927 -0.033723097
0000c0 b7 d3 0d be 5b 3e c8 bd 92 fd c1 3d c4 92 cd 3d
       -0.13850294 -0.09777518 0.09472193 0.10037759
0000d0 18 b1 09 be 70 c2 8c 3d 51 26 05 3d 5d 9b 59 3d
       -0.13446462 0.068730235 0.032507244 0.05312668
0000e0 8d a0 a7 3d d6 38 b5 bd be 19 9e 3c 89 fe 8a 3c
       0.081849195 -0.08848731 0.019299384 0.016967075
0000f0 47 7a 6d bd 40 15 ad 3c bd fc 5e bd 9c 8b 67 3d
       -0.05797794 0.021128297 -0.05444025 0.056529626
000100 0f 99 9a bd 7b 82 af bd 8d 87 cb 3b 7c 35 fb 3b
       -0.07548725 -0.08569809 0.0062112273 0.007666288
000110 59 08 e6 bd bb 5b 0c bd 2d 8d 27 3d 28 63 92 bc
       -0.11232061 -0.03426717 0.04090612 -0.017869547
000120 5f db 2a 3c 86 a3 23 bd b8 de bd 3c 3f 3e e1 bd
       0.010428279 -0.03995087 0.02317749 -0.109982006
000130 70 49 b0 bd 28 a1 ac bd 83 0a cc 3d d2 08 8b bd
       -0.08607757 -0.084291756 0.099629425 -0.06788792
000140 de b9 b5 bc a3 8d 9c bd 29 86 b0 3d 39 ed a9 3d
       -0.022183355 -0.076442026 0.08619339 0.082972
000150 d5 c4 f0 bd ea 58 16 be 65 c6 04 be 3f 28 18 bd
       -0.11756293 -0.14682356 -0.12966307 -0.037147757
000160 c4 82 02 bd 6b 07 cf bd 0b 60 83 bd f3 a2 9f bc
       -0.03186299 -0.10108837 -0.06414803 -0.01948688
000170 34 42 b2 bd 2d 6a da 3b 76 b5 e5 bc 1a d7 97 bd
       -0.087040335 0.006665489 -0.028040629 -0.07414074
000180 6b 35 fa bc ed f9 b1 3d 43 aa ff bd 9e 46 03 bd
       -0.03054305 0.08690248 -0.12483647 -0.032049768
000190 02 fc a9 bd 55 36 d2 3d c8 64 1f be d8 4c 10 be
       -0.0830002 0.10264269 -0.15565789 -0.14091814
0001a0 5b fa d9 3d 16 de b8 bd 7d 4a 78 bc bc d6 5b bd
       0.10643455 -0.090267345 -0.015154478 -0.053671584
0001b0 04 18 0c bd 6e 3e fe bc 2c 24 7b 3d 24 c1 f2 bc
       -0.03420259 -0.031035628 0.061313793 -0.029633112
0001c0 1a c7 36 be da ec a5 bd 45 f4 5e bd 90 b8 fd 3c
       -0.17849389 -0.081018165 -0.054432172 0.030971795
0001d0 1a da d1 bd de a5 a4 3d ae 4b 23 bd 05 b4 75 bd
       -0.10246678 0.08039449 -0.039867096 -0.059986133
0001e0 63 ed a9 3d 23 f4 d4 3c 7f b4 89 3d ef bd 10 3d
       0.08297231 0.02599532 0.0672388 0.035337385
0001f0 55 89 a9 bd 60 76 f9 bd ca 87 ee bc ea 36 86 3d
       -0.08278147 -0.12180781 -0.029117484 0.06553443
000200 58 58 41 3e 2c d4 61 3d f9 6c 54 3e 25 18 5f 3e
       0.18881357 0.055133983 0.20744695 0.21786554
000210 f3 85 a8 3d 43 3c 22 3c 6f 46 01 be 4c b1 ed 3d
       0.08228674 0.009902063 -0.12624525 0.11606082
000220 28 6d 2d 3e fe 3f 7e be 24 b4 25 be ef df 22 3e
       0.16936171 -0.24829099 -0.16182 0.15905736
000230 47 28 37 3e 5a db 5e 3e a1 1b 89 be 77 df c8 3b
       0.17886458 0.21763363 -0.26778892 0.0061301547
000240 d4 d4 52 3d 82 15 aa 3e cf 68 66 bc 26 53 7e 3e
       0.0514725 0.33219534 -0.014063074 0.24836406
000250 9f 67 57 bc 02 e8 21 be 45 e0 90 3e c0 9d 8f 3e
       -0.013147264 -0.1581116 0.28296104 0.2805004
000260 87 e8 d9 be 09 03 b0 bc 70 7b 04 3e 6f b4 52 bc
       -0.42560217 -0.021485822 0.12937713 -0.0128604015
000270 db 33 f1 3d 43 a8 0a be a7 fb 24 be ac bf 71 3d
       0.11777469 -0.13540749 -0.16111623 0.059020683
000280 2b 6d 84 3d 17 75 95 be cc 4e 30 3e ee e7 ca 3d
       0.06466135 -0.29190895 0.17217559 0.09907518
000290 e9 08 8c 3d ce c8 8c bc 81 89 7a bd 3b 5b 93 3e
       0.06837637 -0.017185595 -0.06116629 0.2878054
0002a0 d5 32 d4 3d ac d3 e8 3d 6c 0f 3d 3d bc d6 e0 bd
       0.10361258 0.11368498 0.046157286 -0.10978457
0002b0 10 47 a3 3d 42 71 05 3e 09 83 d5 bd 66 2f ef bc
       0.079725385 0.13031486 -0.104253836 -0.029197406
0002c0 f0 61 87 3e 75 dd e5 3d 3b b5 e3 bd de 6f 59 be
       0.26441908 0.1122388 -0.11118551 -0.2123408
0002d0 50 12 da 3c 21 bd b6 bd 0f ce 39 3e c4 95 94 bd
       0.02662006 -0.08922792 0.18145011 -0.07255128
0002e0 56 cf 34 3e 15 49 e3 bd d6 d4 e6 bd 4f 78 e6 3d
       0.17657217 -0.11097924 -0.11271064 0.11253416
0002f0 03 1d 06 be 79 e7 24 bc 34 55 50 be ed 35 4c 3e
       -0.13097005 -0.010064953 -0.20345002 0.19942446
000300 28 3f 2e bf 41 24 dd 3d 30 2f ce bf dc 02 94 be
       -0.6806512 0.107979305 -1.610815 -0.28908432
000310 e0 26 5e bf 9d 3c 62 3e 16 a2 0d 3f 21 4c 20 bf
       -0.8677807 0.22093435 0.5532545 -0.62616163
000320 f8 7b a8 be 8c d1 85 3d ed 49 f0 3e 8d a9 55 be
       -0.3290708 0.065341085 0.469314 -0.2086546
000330 6d 18 46 3e f3 c7 a2 bc 0f 6b 3e 3e 85 97 bf be
       0.19345255 -0.019870734 0.18595527 -0.37420288
000340 35 0a ad 3e fe c2 a0 3e 4a 63 af be 10 53 e6 be
       0.3379685 0.31398767 -0.3425544 -0.44985247
000350 2b f9 68 bd 4d f1 67 3d a2 4c 22 3c 0d d4 47 bc
       -0.05687825 0.056626607 0.009905966 -0.012196553
000360 31 4f 88 3e 12 82 46 3d a9 d4 e4 be d7 a5 44 3e
       0.26622918 0.04846389 -0.44693497 0.19203888
000370 b3 b5 71 be 79 00 af 3e 85 07 aa 3d 2f db 20 bd
       -0.23604469 0.34180048 0.083022155 -0.03927153
000380 59 74 cf bf 57 63 d7 3e 76 cd 82 3e b1 6d 99 be
       -1.6207381 0.42067978 0.2554738 -0.299665
000390 29 bb 17 bf 54 ff 07 be a6 74 40 3f 75 19 c4 be
       -0.5926996 -0.13280994 0.7517799 -0.38300672
0003a0 92 92 6f 3e 7c 36 de be 0d 58 dd be 36 d3 80 bf
       0.23395756 -0.43400943 -0.4323124 -1.0064456
0003b0 8a 68 04 bf 94 c4 8f 3e 23 f8 16 bd da e4 8b 3e
       -0.51722014 0.28079665 -0.036857735 0.27323037
0003c0 00 78 71 3d d2 52 37 be 7b 23 97 3e 52 2c 0e be
       0.05895233 -0.17902687 0.29519257 -0.13884094
0003d0 b8 18 05 bf 94 e3 83 3e 0a a8 dc 3d 35 30 25 3f
       -0.5199084 0.25759566 0.107742384 0.64526683
0003e0 7d 83 80 bf 78 dd 5b 3e 13 f9 f4 be e8 ec 28 bd
       -1.0040127 0.21471202 -0.4784628 -0.041241556
0003f0 ba 2a be bf 03 07 93 bf 8c 81 80 3e ee aa 85 bd
       -1.4856789 -1.1486515 0.25098836 -0.06526743

fc2.bias f4 [64]
000000 01 61 0d be 64 d2 c4 3c 01 0d 1f 3e 89 94 6d bd
       -0.13806535 0.024026103 0.15532304 -0.058002982
000010 c0 35 da bc 52 03 a6 3e 5d 8c 94 3e 4f c3 83 3c
       -0.026636958 0.32424408 0.2901334 0.016084341
000020 19 9c 4a 3e 45 1f 5f 3e 50 50 18 3d 70 84 84 3e
       0.19786109 0.21789272 0.037185967 0.25882292
000030 99 e7 a6 3d c7 8d 62 3e dc 9a 81 3e 9b a1 e2 bd
       0.081496425 0.22124396 0.2531346 -0.1106598
000040 fa f8 9f bd af da c8 3e cd c6 bd 3e b2 8c 89 bd
       -0.078111604 0.39229342 0.37065735 -0.067162886
000050 71 33 11 3e 1d 16 49 3d 91 25 e2 3c aa 85 a9 3e
       0.1417978 0.049093354 0.027605804 0.3310979
000060 8b da 24 bd 1e 8d 0b be 0c 6b 45 3e 90 6a 6a 3e
       -0.04024748 -0.1362805 0.19279116 0.22892213
000070 db 11 85 3e 24 52 4a 3e 6b 02 33 3e ff 1f ed bc
       0.25990185 0.19757897 0.17481391 -0.028945921
000080 62 d6 82 3e 64 74 16 be fe 94 bd 3d 2a ad ab 3e
       0.25554186 -0.14692837 0.09256934 0.3353055
000090 5d f8 d2 3d ca 03 da bd 6f ee 0f 3e 27 32 f4 3d
       0.10301278 -0.10645254 0.14055799 0.11923628
0000a0 6a a5 c2 bd da 0e 88 bd d3 45 09 3d a6 e0 cd 3e
       -0.095042065 -0.06643458 0.033513855 0.40210456
0000b0 88 c9 b4 3e 70 9f 8c 3e 63 d2 b8 3e 55 6f 26 bc
       0.35310006 0.2746539 0.36098012 -0.01015838
0000c0 4a 86 84 bd 67 ba 29 3e 7c 37 2b bc 4d 85 ab 3e
       -0.06470926 0.16575013 -0.01045024 0.33500138
0000d0 11 8e 11 bd 38 98 cf bd 1d 92 64 3e 22 db 72 bd
       -0.035535876 -0.10136455 0.22321363 -0.059291013
0000e0 8a 8b 9b 3e 7a e2 19 3e ba 7b 8f 3e 4b a7 99 3e
       0.30379897 0.150278 0.28024083 0.30010447
0000f0 f8 f0 b2 3e fa 66 c0 3e 8f f1 b4 3d 3a 18 a2 3e
       0.3494947 0.37578565 0.08835136 0.31659108

fc3.weight f4 [3, 64]
000000 58 bf bd 3d 57 f9 a8 3d 16 58 0b be 6d a9 80 3f
       0.092650115 0.08250683 -0.13607821 1.0051705
000010 c2 0a 44 3f fd da 92 be 19 31 92 be 21 04 74 bf
       0.76578915 -0.286827 -0.28553084 -0.953188
000020 4b 2a 7c be a5 5c 59 be 4f fb 87 3f c5 12 69 be
       -0.24625508 -0.21226747 1.0623568 -0.22761066
000030 c9 3d fd bc 3c c8 50 be f3 e8 61 be cf a0 7a 3d
       -0.03091325 -0.20388883 -0.2206152 0.061188515
000040 45 a4 77 3f 50 27 4c be a8 b2 6c be 40 ea 0c 3f
       0.9673503 -0.19936872 -0.23115027 0.5504494
000050 31 bf 8a be 76 82 3b 3f c0 78 b4 3d 72 67 49 be
       -0.27098992 0.7324594 0.08812094 -0.19668368
000060 f0 31 26 3f e1 23 c0 3d 5a 7c 64 be 21 12 83 be
       0.6491995 0.09381843 -0.22313061 -0.2559977
000070 59 49 23 be ca 3c ea bd 6e 25 01 3f 7d 1c 33 3f
       -0.15945949 -0.11437376 0.5044774 0.69965345
000080 ea a2 11 be cc d8 1a 3f bb 96 88 3d cd f4 b8 be
       -0.14222303 0.60487056 0.066693746 -0.36124268
000090 be e5 67 bf dc e9 8e bb ab ca 4d be c3 6a 19 bf
       -0.90584934 -0.0043613743 -0.20096843 -0.5992853
0000a0 82 8f 2c 3f 49 8c 8a 3e ae d4 7e 3f 9c 79 46 be
       0.67406476 0.27060154 0.99543273 -0.19382328
0000b0 02 f1 cf be a9 28 98 be cc 79 54 be 6a bc b5 bd
       -0.40613562 -0.2971852 -0.20749587 -0.08873828
0000c0 e5 6e 25 bf 44 ea 06 bf e9 0f 90 bf 01 ca 36 be
       -0.64622337 -0.5270121 -1.1254855 -0.17850496
0000d0 fa 21 89 3f 0e 72 f5 3e 16 ca 94 be 2b b5 2a be
       1.0713494 0.4793858 -0.2906043 -0.16670673
0000e0 89 c5 47 be 4e 53 58 be 9d 67 47 be 28 14 89 be
       -0.19508947 -0.21125528 -0.19473119 -0.2677319
0000f0 3f 7a 09 be 12 4f 56 be ec d4 59 be 97 4d 22 be
       -0.1342554 -0.209286 -0.2127263 -0.1584991
000100 a3 73 1a 3c 57 a5 0d be 87 89 65 be d5 9c 34 3f
       0.009426984 -0.13832603 -0.22415744 0.70551807
000110 6f d5 1b 3f 26 9a 2e be 20 48 1d be fb 63 52 bf
       0.6087255 -0.1705099 -0.15359545 -0.8218381
000120 0d 41 1c be fc 55 79 be ed b7 6d 3f 22 28 a3 be
       -0.1525919 -0.24349207 0.92858773 -0.31866556
000130 25 d0 4a be 13 ce 48 be b3 a0 31 be ba 3a c8 3d
       -0.19805963 -0.19609861 -0.17346458 0.09776826
000140 08 a1 58 3f 1c 48 55 be fb 70 21 be 7d de 36 3f
       0.84620714 -0.20828289 -0.15765755 0.7143324
000150 dc 5f 2c be 1b c2 83 3e 52 ef 2e bd 26 43 97 be
       -0.16833442 0.25734028 -0.042708702 -0.29543418
000160 8a 46 0b 3f 31 ff c7 bd 4e 53 5c be 74 d2 66 be
       0.5440451 -0.09765471 -0.21516153 -0.22541219
000170 86 1c cd bd 8c d6 87 be ae ec 0c 3f c4 78 5e 3f
       -0.10015206 -0.26530874 0.55048645 0.86903024
000180 9f fa 61 be 73 b5 15 3f f2 30 48 bd a3 77 dd be
       -0.2206826 0.58479995 -0.048874803 -0.43255338
000190 33 71 42 bf c1 45 57 3d 1c 43 8c be 05 62 00 bf
       -0.7595398 0.052556757 -0.2739495 -0.50149566
0001a0 6e 03 0c 3f bc a8 ca 3d c9 0c 75 3f 09 83 79 be
       0.54692733 0.09895465 0.95722634 -0.24366392
0001b0 45 55 c0 be 63 dd c1 bd 2f b8 80 be 5c 9c 48 3c
       -0.37565055 -0.09466054 -0.2514052 0.01224431
0001c0 87 ba f8 be 1c 1e 1f bf 44 82 53 bf 0a 5a 87 be
       -0.4857981 -0.6215532 -0.82620645 -0.26435882
0001d0 27 69 3f 3f 00 ce 00 3f 10 0a 38 be 28 d7 c3 be
       0.74769825 0.5031433 -0.17972589 -0.3825009
0001e0 b9 8b 17 be 91 4e fc bd 08 09 88 be 23 e4 6f be
       -0.14799394 -0.12319673 -0.2656939 -0.23426871
0001f0 5b a9 8d be ba af 92 be 8b a3 21 be 95 75 b2 bd
       -0.2766827 -0.28649694 -0.15785043 -0.08713833
000200 ff 70 40 bb 91 22 db b9 a6 f6 3d be 3b 15 29 3f
       -0.0029364226 -0.0004179669 -0.1855112 0.6604802
000210 24 81 04 3f f9 90 82 be 99 8f d4 bd 79 8a 54 bf
       0.5175955 -0.2550123 -0.103789516 -0.8302379
000220 3b cb 8a be be f8 2a be d3 5c 55 3f f8 c1 b1 be
       -0.27108178 -0.1669645 0.83344764 -0.347183
000230 94 ae 1b be d9 5d 56 be 4e 62 66 be c0 e9 96 3c
       -0.15203315 -0.20934238 -0.22498438 0.018422008
000240 b6 2b 70 3f 90 d7 59 be f3 2f 26 be c5 3a 24 3f
       0.938167 -0.21273637 -0.16229229 0.64152175
000250 cf 5f 41 be 08 84 fc 3e b5 c7 cd 3d d3 20 99 be
       -0.18884204 0.49319482 0.10047857 -0.29907855
000260 15 b6 ac 3e d0 b7 bb 3d 6d ca a7 bd 2a d4 74 be
       0.33732668 0.09165919 -0.081929065 -0.23909059
000270 9a e3 79 be d1 92 8a be 98 45 11 3f e2 f1 91 3f
       -0.2440323 -0.27065137 0.56746817 1.1401942
000280 ef 13 84 be 2c 0f 38 3f 4e 86 f6 3b 4f 55 00 bf
       -0.25796458 0.7189815 0.0075233346 -0.5013017
000290 8a f4 57 bf d5 2d 47 3d f0 88 2f be 75 a9 0d bf
       -0.8435751 0.048627693 -0.17142081 -0.55336696
0002a0 c1 ac 08 3f e7 1c ba 3d d5 12 84 3f 06 e5 39 be
       0.533886 0.09087544 1.0318247 -0.18153772
0002b0 53 15 be be 80 8c 31 be 48 d0 04 be 60 65 49 bd
       -0.37125644 -0.17338753 -0.12970078 -0.049168944
0002c0 15 27 09 bf 83 d1 22 bf 5c c0 71 bf 9e 51 2a be
       -0.5357526 -0.6360094 -0.9443414 -0.16632697
0002d0 c1 75 7f 3f ed 45 ea 3e 23 87 29 be e8 8a c9 be
       0.99789053 0.45756474 -0.16555457 -0.3936379
0002e0 78 22 62 be 00 ed 23 be 25 bc 58 be 05 1d 81 be
       -0.22083461 -0.16008377 -0.21165521 -0.25217453
0002f0 81 1b 75 be 56 80 42 be e5 da 19 be e9 0d 63 be
       -0.23936273 -0.18994269 -0.15024908 -0.22173275

fc3.bias f4 [3]
000000 58 65 6c bd f7 df 4c be 47 89 00 be
       -0.057713836 -0.20007311 -0.12552367
