model/checkpoint_1600.pth (torch, 21912 bytes, 6 tensors)

fc1.weight f4 [64, 6]
000000 64 9c ab 3e 43 0f 37 3f 33 b4 b3 be b3 f0 4c bf
       0.33517754 0.7150766 -0.3509842 -0.8005478
000010 dd 85 5e bd ab 7b 7f 3e d9 f5 97 3e dd 51 08 3f
       -0.05432688 0.2494952 0.29679754 0.53249913
000020 42 d8 92 be 38 2b f5 3d 39 67 df bd 32 39 9f 3c
       -0.28680617 0.11971134 -0.1090836 0.019436453
000030 99 60 2a bf ad f7 d6 be 55 8f 56 bf a9 dd 18 3e
       -0.66553646 -0.41985837 -0.8381246 0.14928307
000040 fb ff 7d 3e 65 c7 8c 3e 23 87 b7 be af 73 10 bf
       0.2480468 0.27495876 -0.3584529 -0.5642652
000050 b2 ea 6f be ad 2d 34 3f 1c 80 e1 3d 48 01 6b 3e
       -0.23429373 0.70382196 0.11010763 0.22949708
000060 18 5b d0 3d f5 a4 57 3f c5 11 16 3f fb 6b 05 bf
       0.10173625 0.8423608 0.58620864 -0.5211789
000070 8a d5 bb be d8 8b f3 3c b7 28 a7 be ea 61 58 3f
       -0.36686355 0.029729769 -0.3264825 0.84524405
000080 65 b7 1c bf 65 ee bd be 62 b2 d8 be cc d3 a7 be
       -0.6121734 -0.37095943 -0.42323595 -0.32778776
000090 71 dd a8 bf a9 76 9a bd ce 79 1a 3f 85 91 cc be
       -1.3192579 -0.07542164 0.6034211 -0.39954773
0000a0 26 b2 d1 bd 18 c0 a4 bc b1 9f a9 be 0d b3 69 bf
       -0.10239057 -0.020111129 -0.33129647 -0.91288835
0000b0 f7 49 5a bf 68 f5 ca be 0c d1 2b 3e 95 71 3a be
       -0.8526911 -0.39640355 0.16778964 -0.1820739
0000c0 9b a0 a8 be fe 5a 48 bf c8 11 cb 3e 30 e0 05 3f
       -0.32935032 -0.78263843 0.39662004 0.5229521
0000d0 ce a8 15 3e 50 8f e1 3d 22 fc 74 3d e0 66 82 bf
       0.14615175 0.11013663 0.059810765 -1.0187645
0000e0 99 72 a7 3d db 17 18 be c4 4a 81 be 94 9e d2 be
       0.08176155 -0.1485285 -0.25252354 -0.4113661
0000f0 3a e5 31 3e 19 12 68 be 14 0f 0b 3f 24 7d c5 bc
       0.17372599 -0.22663154 0.5431988 -0.024107523
000100 32 05 05 3f 3b 5d d3 3d db a3 a7 3e c3 b5 be be
       0.5196105 0.10320517 0.327422 -0.37248048
000110 ae fd 50 3e e8 49 11 3f f9 fa 91 be 11 6a 08 be
       0.20409271 0.56753397 -0.2851179 -0.13321711
000120 e0 29 ae 3e 48 6e ea 3d 9a a3 08 3f 1c ef 61 3f
       0.34016323 0.11446816 0.53374636 0.88255477
000130 b0 b5 4a be bf dc b8 be e7 6d 0b 3e 52 a9 96 bf
       -0.19795871 -0.36105916 0.13616143 -1.1770422
000140 af a3 8d bf 58 08 50 3f ca 07 aa 3d fd 6b c1 be
       -1.1065577 0.8126273 0.08302267 -0.377777
000150 fc 85 b9 bd c7 09 e0 3e 60 8b fc be 18 68 98 3e
       -0.090587586 0.4375746 -0.49325085 0.29766917
000160 85 e3 82 3e 83 ac 02 be 0a c0 72 3f 10 20 8a 3e
       0.2556421 -0.1276112 0.9482428 0.26977587
000170 04 b4 8b 3e 58 13 0f be 7c 18 b2 be e3 48 f3 bd
       0.2728578 -0.13972223 -0.34784305 -0.118791364
000180 5d e9 55 3f 6c 1e a2 3e 2d 0d c1 be be 85 16 bf
       0.8355921 0.31663835 -0.37705365 -0.58797824
000190 a4 b4 0c 3f df c6 1c 3e b4 52 88 bf 56 f2 9a 3d
       0.54963136 0.15310238 -1.0650239 0.07565753
0001a0 22 72 53 bf 94 31 bf bd b8 18 4a be 75 3f 78 be
       -0.8259603 -0.09335628 -0.19735992 -0.24242957
0001b0 42 ea 98 be c9 38 f3 bd 78 d2 b2 bd 09 f8 22 bf
       -0.29866225 -0.11876065 -0.0873155 -0.6365972
0001c0 ca bc d1 be f8 c1 ab 3e c8 c6 f1 3e bd b4 5e be
       -0.40964347 0.33546424 0.4722197 -0.21748634
0001d0 b4 64 91 be 9d 4f aa bd d2 5b 6a 3e 57 7e 38 3e
       -0.28397143 -0.08315966 0.22886589 0.18016945
0001e0 da fe 2e 3f 32 d4 c4 3d 9c a4 49 be 66 bf 08 3e
       0.6835762 0.096107855 -0.196917 0.13354263
0001f0 0f 4e be be 29 9b 6a be 3e 18 1c bf d8 fc 2d bf
       -0.3716893 -0.22910751 -0.6097449 -0.67963934
000200 f2 fa 16 3d ca 53 ad be ab 8d 03 be f4 dc e4 bd
       0.036860414 -0.33852988 -0.12847011 -0.11174956
000210 a9 3e d4 bd b0 3a 71 be 24 3b af 3e f3 e5 90 be
       -0.10363514 -0.23557544 0.34224808 -0.28300437
000220 d2 8a e9 3d 93 c9 1e bc d8 e9 12 3f 92 d9 6c 3e
       0.11403431 -0.009691614 0.5738807 0.23129871
000230 b6 06 2d 3f ca a2 99 3e 09 87 50 3e 81 69 5b 3e
       0.67588365 0.3000701 0.20364012 0.21426965
000240 6e c6 26 bf 04 b0 7d 3e 5e 2c 9c be f5 c1 c5 3e
       -0.6514653 0.24774176 -0.305026 0.3862454
000250 64 e6 ba be d4 b4 d2 be ae de 72 3c d8 a2 58 bf
       -0.365039 -0.41153586 0.014823599 -0.8462348
000260 af a2 0b 3d 0c af a4 3f aa 77 49 be f9 a1 9a be
       0.034090694 1.286592 -0.19674554 -0.302017
000270 be 0f fe 3c 85 00 60 bf c7 2d ac bb 04 1c e4 be
       0.031013366 -0.8750079 -0.0052544805 -0.44552624
000280 a5 97 41 be 2e d5 69 be 79 5b 31 bf 9c 9e f3 be
       -0.18905504 -0.22835228 -0.692802 -0.47581947
000290 46 a3 f2 be e2 3b d2 be 74 11 9b be 4f f1 09 3e
       -0.47390193 -0.41061312 -0.30286753 0.13470958
0002a0 59 56 27 be 04 1a 35 be f5 8e a7 3e 37 45 09 bf
       -0.16341533 -0.17685705 0.32726255 -0.5362124
0002b0 49 d1 f6 3d f3 cb 1d 3e 80 db 37 bf 71 09 ae 3e
       0.12051637 0.15409832 -0.71819305 0.33991578
0002c0 ab 91 ef be 21 d0 47 3f ce 0a cd 3e e8 f8 79 be
       -0.46790823 0.78051955 0.40047306 -0.24411356
0002d0 92 4b aa be b7 af b2 3d e8 53 03 3f 31 bc 1f 3e
       -0.3326078 0.08724921 0.51299906 0.15599133
0002e0 dc 30 04 3f 73 73 a2 3e 28 7d c2 be aa ff 84 3e
       0.51637053 0.31728706 -0.37986112 0.25976306
0002f0 b1 57 64 bf d1 ea 1c 3f ae 6a d5 3e 2f 6d bf 3e
       -0.89196306 0.612958 0.41682953 0.37387988
000300 aa 93 62 3d a5 02 6e 3f ef 1a 72 bf 47 32 0d bf
       0.055316605 0.92972785 -0.9457235 -0.5515484
000310 ce a1 47 bd 18 a7 99 3e 9a 69 90 be bc cd 96 3e
       -0.048738293 0.30010295 -0.28205568 0.29453838
000320 53 93 af 3e 0d 60 85 bc 6c 3e 16 bf ae a2 b8 be
       0.34292087 -0.016281152 -0.58689 -0.36061615
000330 f1 af 8d be f7 71 14 bf f1 37 9b be c4 7a 16 3f
       -0.27673295 -0.57986397 -0.30316117 0.58781075
000340 11 6a 8a 3c f0 33 b1 bd 04 48 7e 3e b7 90 af 3d
       0.01689628 -0.086524844 0.2483216 0.08572524
000350 18 3c fb 3a 09 a0 ee 3d f9 70 e8 3d 7a d4 1b 3e
       0.001916769 0.11651618 0.11349673 0.15217772
000360 f4 1a 20 3f 81 7a b4 3e 60 bd 8b 3f 10 9d a0 bf
       0.6254113 0.35249713 1.0917168 -1.2547932
000370 e5 84 9e 3e e8 ed ee 3e 7f 63 da 3e 6a 75 ff be
       0.30960765 0.46665883 0.42654034 -0.49894267
000380 73 99 7f bf 6a 59 6d bd 76 29 3c bc 7d 66 32 bd
       -0.9984352 -0.0579466 -0.011484494 -0.04355477
000390 f3 b3 6c bf 3a f7 da 3e cc ff 25 be 4b 99 0f 3f
       -0.9246208 0.42766744 -0.1621086 0.5609328
0003a0 66 95 b8 3e a9 5c b6 3e 53 c6 30 3f 04 a7 8b 3c
       0.36051482 0.3561757 0.6905262 0.017047413
0003b0 b8 4f 0b 3f 3e ed b0 be d8 e8 0b be 31 e9 3d be
       0.54418516 -0.34556 -0.13663042 -0.18545987
0003c0 df da a7 3d 7c 32 0e 3f eb bb fe bd 29 55 7d be
       0.08196043 0.55545783 -0.12438186 -0.24739517
0003d0 4a 80 44 3d b3 19 d6 be d5 5c 23 3f 49 10 13 bf
       0.04797391 -0.41816482 0.63813525 -0.57446724
0003e0 d8 f8 9c 3e 34 8e cc be 06 64 e8 be b5 49 11 be
       0.30658603 -0.39952242 -0.45388812 -0.14188273
0003f0 36 a5 3e 3f b7 82 38 be 6c f2 b2 be f6 24 ca be
       0.7447084 -0.18018614 -0.34950578 -0.39481324

fc1.bias f4 [64]
000000 dd a7 84 3e ea 7a 1e 3f 2a 05 0e 3e e5 32 12 3e
       0.2590932 0.619063 0.13869157 0.14277227
000010 fd 95 46 3e a5 ab c1 3e 48 37 18 bf d7 13 5d 3e
       0.19393153 0.37826267 -0.5945935 0.215896
000020 ad 39 99 be 75 e9 7b bd ea b4 43 bf 9f e0 35 3f
       -0.29926816 -0.06150194 -0.7644793 0.7104587
000030 49 aa 4e 3e 64 67 3c bd bf 77 4f bf 5e 18 08 3f
       0.20182146 -0.04599704 -0.81042093 0.5316218
000040 28 79 58 3f 16 f3 f9 bd f7 d2 59 be 4a 78 3a 3f
       0.8455987 -0.12204568 -0.21271883 0.72839797
000050 39 bb 29 3f a4 b1 1a bf 98 db 37 3f f7 08 27 3f
       0.66301304 -0.6042731 0.7181945 0.65248054
000060 c3 f8 d3 be 4f e8 34 3d e9 bb ab 3c 6b b1 cf be
       -0.41400728 0.04416686 0.020963626 -0.40565047
000070 c9 ee 5b 3f d4 9f 8e be 38 c4 f1 be 0c 7a 16 be
       0.8591123 -0.27856314 -0.47220016 -0.14694995
000080 bc 82 3e be 37 7e 10 bf 72 cd 0e 3e d2 bf 2f 3f
       -0.18604559 -0.5644259 0.13945559 0.6865207
000090 14 fe 4d 3e ed 9d e9 3d b4 41 f8 bc c7 49 b9 3e
       0.20116454 0.11407075 -0.030304767 0.361891
0000a0 ff 41 f4 3e 99 d9 e0 be 5f c5 aa 3d 1e 12 a4 be
       0.477066 -0.43916014 0.08338427 -0.32045072
0000b0 fe 35 86 3e f7 db 0e bd 47 54 b5 be de 75 36 3e
       0.26213068 -0.034877744 -0.3541586 0.178184
0000c0 e5 65 31 3f 57 cf 8c 3e a1 26 ab be 63 91 64 be
       0.69296104 0.27501938 -0.3342791 -0.22321086
0000d0 75 1a 2b 3e 1b 0b 5a bf b1 8d d8 3e 94 54 19 bf
       0.16709311 -0.85173196 0.42295602 -0.5989468
0000e0 36 44 28 bf b9 3f c5 be 2e 9a 47 be 9f 65 0c 3f
       -0.6572908 -0.3852518 -0.19492409 0.5484256
0000f0 87 c8 0c bf 18 b0 33 3f df 33 5d be db 79 0e 3f
       -0.5499348 0.7019057 -0.21601819 0.55654687

fc2.weight f4 [64, 64]
000000 5b ed f5 bc b4 5a 11 be 02 66 a5 3d 00 87 3f 3d
       -0.030020406 -0.14194757 0.08076097 0.046759605
000010 77 4f bc 3d 34 26 2e 3d 48 fa a8 bd 19 d8 86 3d
       0.09194844 0.042516902 -0.08250862 0.06584186
000020 5a 60 3b bc 69 af f3 3c 73 a2 ed bd de 76 87 bd
       -0.011436546 0.029746728 -0.1160325 -0.06614469
000030 9b 6b 18 be 6e 3b 84 bd a6 a9 35 3c a1 b5 00 be
       -0.14884798 -0.06456648 0.011087811 -0.12569286
000040 38 80 c5 3a c0 d6 51 3d d1 c8 95 bb 1f 36 d5 bd
       0.0015068119 0.051230192 -0.0045710583 -0.104107134
000050 4b 68 fe bd 51 58 63 bd f1 e5 ab 3c e6 10 d8 3d
       -0.12422236 -0.055504147 0.020983668 0.10550098
000060 3d 62 65 3d fc 62 f5 bc fc f1 f5 3c 78 61 14 be
       0.05600189 -0.029954426 0.030022614 -0.14490306
000070 3f 2a 12 be ab db 2d 3d ff f5 b9 bd dc da 1f 3d
       -0.14273928 0.04244582 -0.09080123 0.03902708
000080 e4 27 da bd ca 4c 9f bd 6e a9 eb bd 7a b5 3a 3d
       -0.1065214 -0.07778318 -0.115069255 0.045583226
000090 36 33 10 bd e4 85 a4 3d 2e 67 62 3d e4 b2 07 3d
       -0.03520509 0.0803335 0.05527418 0.033129588
0000a0 9e 50 a7 bc 86 f2 71 bd 06 11 44 bd 22 d9 95 bb
       -0.020424183 -0.05906918 -0.047867797 -0.0045730034
0000b0 4c 2e 2b 3d ea d9 d3 bd fa 54 b6 3d 3b 21 0a bd
       0.0417922 -0.10344298 0.08902927 -0.033723097
0000c0 b7 d3 0d be 5b 3e c8 bd 92 fd c1 3d c4 92 cd 3d
       -0.13850294 -0.09777518 0.09472193 0.10037759
0000d0 18 b1 09 be 70 c2 8c 3d 51 26 05 3d 5d 9b 59 3d
       -0.13446462 0.068730235 0.032507244 0.05312668
0000e0 8d a0 a7 3d d6 38 b5 bd be 19 9e 3c 89 fe 8a 3c
       0.081849195 -0.08848731 0.019299384 0.016967075
0000f0 47 7a 6d bd 40 15 ad 3c bd fc 5e bd 9c 8b 67 3d
       -0.05797794 0.021128297 -0.05444025 0.056529626
000100 0f 99 9a bd 7b 82 af bd 8d 87 cb 3b 7c 35 fb 3b
       -0.07548725 -0.08569809 0.0062112273 0.007666288
000110 59 08 e6 bd bb 5b 0c bd 2d 8d 27 3d 28 63 92 bc
       -0.11232061 -0.03426717 0.04090612 -0.017869547
000120 5f db 2a 3c 86 a3 23 bd b8 de bd 3c 3f 3e e1 bd
       0.010428279 -0.03995087 0.02317749 -0.109982006
000130 70 49 b0 bd 28 a1 ac bd 83 0a cc 3d d2 08 8b bd
       -0.08607757 -0.084291756 0.099629425 -0.06788792
000140 de b9 b5 bc a3 8d 9c bd 29 86 b0 3d 39 ed a9 3d
       -0.022183355 -0.076442026 0.08619339 0.082972
000150 d5 c4 f0 bd ea 58 16 be 65 c6 04 be 3f 28 18 bd
       -0.11756293 -0.14682356 -0.12966307 -0.037147757
000160 c4 82 02 bd 6b 07 cf bd 0b 60 83 bd f3 a2 9f bc
       -0.03186299 -0.10108837 -0.06414803 -0.01948688
000170 34 42 b2 bd 2d 6a da 3b 76 b5 e5 bc 1a d7 97 bd
       -0.087040335 0.006665489 -0.028040629 -0.07414074
000180 6b 35 fa bc ed f9 b1 3d 43 aa ff bd 9e 46 03 bd
       -0.03054305 0.08690248 -0.12483647 -0.032049768
000190 02 fc a9 bd 55 36 d2 3d c8 64 1f be d8 4c 10 be
       -0.0830002 0.10264269 -0.15565789 -0.14091814
0001a0 5b fa d9 3d 16 de b8 bd 7d 4a 78 bc bc d6 5b bd
       0.10643455 -0.090267345 -0.015154478 -0.053671584
0001b0 04 18 0c bd 6e 3e fe bc 2c 24 7b 3d 24 c1 f2 bc
       -0.03420259 -0.031035628 0.061313793 -0.029633112
0001c0 1a c7 36 be da ec a5 bd 45 f4 5e bd 90 b8 fd 3c
       -0.17849389 -0.081018165 -0.054432172 0.030971795
0001d0 1a da d1 bd de a5 a4 3d ae 4b 23 bd 05 b4 75 bd
       -0.10246678 0.08039449 -0.039867096 -0.059986133
0001e0 63 ed a9 3d 23 f4 d4 3c 7f b4 89 3d ef bd 10 3d
       0.08297231 0.02599532 0.0672388 0.035337385
0001f0 55 89 a9 bd 60 76 f9 bd ca 87 ee bc ea 36 86 3d
       -0.08278147 -0.12180781 -0.029117484 0.06553443
000200 f7 98 2f 3e 00 12 4e 3d 7c ea 69 3e 6e a2 38 3e
       0.17148195 0.050310135 0.22843355 0.18030712
000210 0f 80 d1 3d 8c 63 50 3d 37 ae 35 be a9 35 a3 bd
       0.10229503 0.050876185 -0.17742239 -0.07969219
000220 02 61 c5 bc 36 2e e6 be 94 bb 8f be 4c aa 3d 3e
       -0.024094108 -0.4495713 -0.28072798 0.18521994
000230 6a c8 1e 3e 7c 14 e2 3d e9 ac 08 bf c3 d7 44 3c
       0.1550614 0.11039063 -0.5338884 0.012014332
000240 24 1a 0f 3d 3e f0 e8 3e ea 8b ce 3b fe e2 39 3e
       0.03493704 0.4549579 0.0063033 0.18152997
000250 96 8a 98 3c 46 a0 b7 bd dd f9 56 3e 91 3a 9c 3e
       0.01862077 -0.089661166 0.20993753 0.30513433
000260 27 80 07 bf 6d 44 5e 3c 9e 9a 31 3e d9 a5 bd bc
       -0.5292992 0.013566119 0.17344138 -0.023150371
000270 dc 98 0b 3e de 9c 7a be 67 93 20 be b6 c8 a8 bb
       0.1363253 -0.24473903 -0.1568123 -0.0051508797
000280 53 d7 ed 3d a0 75 bd be 7f 7b 24 3e cb 74 d2 3d
       0.116133355 -0.37003803 0.16062735 0.10276183
000290 3b 11 34 3c 81 d9 b1 bd ec 1a 2c be f3 84 8f 3e
       0.010990436 -0.08684064 -0.16807145 0.2803112
0002a0 98 8f 23 3d bf b0 1c 3e c6 ba 91 3d f8 a7 31 be
       0.039931864 0.15301798 0.07115702 -0.17349231
0002b0 17 ff 2f 3d 63 31 75 3d bf bf 5a be e4 38 7a bd
       0.042967882 0.059861552 -0.21362208 -0.06108941
0002c0 6b 75 66 3e 13 2a a9 3d df 60 63 be 3e 32 5b be
       0.22505729 0.08259978 -0.22204922 -0.21405885
0002d0 21 af 8a b8 17 13 04 be a1 4e 59 3e 8e 6c 08 bd
       -6.612973e-05 -0.12897907 0.21221401 -0.03330665
0002e0 60 d7 7e 3e 9d 14 27 be f6 1f 86 bd a7 0b c0 3d
       0.24886847 -0.16316457 -0.06549065 0.093772225
0002f0 1c d4 60 be b0 0c 0d 3d b9 05 9b be 51 20 23 3e
       -0.21955913 0.034435928 -0.30277804 0.15930296
000300 03 bd cf bf 32 51 d1 3d 50 40 d8 bf ae 24 cd be
       -1.6229557 0.10220565 -1.6894627 -0.40067047
000310 fd bf cc bf 4a 25 c0 3d f7 f8 55 3f 4d 94 e4 be
       -1.599609 0.09382112 0.83583015 -0.44644395
000320 27 1d 27 bf 17 64 80 3e 65 8a a3 3e bf 65 74 be
       -0.6527886 0.25076362 0.31941524 -0.23866938
000330 2d ac 63 3e c6 a6 24 3e 77 61 e6 3d 6e 1b 13 bf
       0.22233649 0.16079244 0.11249059 -0.5746373
000340 a0 6c be 3e d7 38 1b 3e 5c 21 23 bf 19 c8 0d bf
       0.3719225 0.15158401 -0.6372278 -0.5538345
000350 cc ed cc 3d 34 9a 96 be 48 a0 82 3d 4b 04 19 be
       0.10006294 -0.29414523 0.063782275 -0.14943044
000360 24 f8 ff 3d 58 84 92 3d 01 26 b8 be 34 04 22 bd
       0.12498501 0.07154149 -0.35966495 -0.03955479
000370 24 52 a6 be 00 7c 91 3e 21 10 84 bd dd 36 b8 bc
       -0.32484543 0.28414917 -0.06448389 -0.022487098
000380 ce 6e 04 c0 e4 c7 55 be 01 d3 bf 3e ea 7f b6 be
       -2.069263 -0.20877033 0.3746567 -0.35644466
000390 c2 17 8b bf 02 63 29 3e 41 70 9b 3f b0 21 cd be
       -1.0866625 0.16541675 1.2143632 -0.40064764
0003a0 2d fd 5a 3e eb 25 6d bf 72 72 8a be 00 21 a9 bf
       0.21385641 -0.92635983 -0.2704044 -1.3213196
0003b0 ed 92 8a be 3b e4 74 3e 24 3c 83 3d 62 41 b3 3e
       -0.2706522 0.23915188 0.06407955 0.3501082
0003c0 b6 10 1e 3e 90 4f 0f be 8c ec a3 3e 07 ac 70 be
       0.15436062 -0.13995194 0.32016408 -0.23503123
0003d0 22 06 c9 be c8 b1 94 3d e9 7d aa 3d df 79 d0 3e
       -0.3926249 0.072604716 0.08324797 0.4071798
0003e0 13 36 86 bf a8 69 8a be 11 c4 70 be ab 4a 2d bf
       -1.0485252 -0.27033734 -0.23512293 -0.6769206
0003f0 53 ef 05 c0 17 83 9d bf 13 f6 23 3e fc be b4 be
       -2.0927322 -1.230563 0.16011839 -0.3530196

fc2.bias f4 [64]
000000 01 61 0d be 64 d2 c4 3c 9f 9c 0c 3e 2b f2 1c 3d
       -0.13806535 0.024026103 0.13731621 0.038316887
000010 d5 fe 27 3d 37 73 84 3e 4a 7d bc 3e 11 5a 1a 3d
       0.04101451 0.25869152 0.36814338 0.03768355
000020 96 5e 07 3e 0f b0 35 3e d7 a3 e9 3d 7e ef 61 3e
       0.13219675 0.17742942 0.11408203 0.22064015
000030 56 06 12 3e f9 d7 13 3e 46 05 44 3e 9b a1 e2 bd
       0.1426023 0.14437856 0.19142637 -0.1106598
000040 70 c9 98 bd d1 a4 ae 3e a6 1c a0 3e 83 c0 be bd
       -0.07460296 0.3411012 0.31271857 -0.093140624
000050 1d 2c a0 3d 2b 9b 63 3e f5 5b b2 3c 87 17 df 3e
       0.07820914 0.2222716 0.021772364 0.43572637
000060 4d f8 81 bc 1e 8d 0b be a9 db 39 3e e7 57 38 3e
       -0.01586547 -0.1362805 0.181502 0.18002282
000070 a7 9e b2 3e 2c c8 1c 3e 08 44 c1 3e 34 98 82 3d
       0.34886667 0.15310735 0.37747216 0.06376687
000080 f6 71 70 3e 39 15 76 bd af 11 9d 3d 84 1f e0 3e
       0.23480973 -0.060078833 0.076693885 0.43774045
000090 9c 4a 8d 3c ca 03 da bd 9c 2b e6 3d 46 c4 06 3e
       0.01724749 -0.10645254 0.112387866 0.1316081
0000a0 52 9b 1e 3d da 0e 88 bd cf 63 28 3e d6 4c ae 3e
       0.038722344 -0.06643458 0.16444324 0.34042996
0000b0 90 51 9e 3e c3 cd 3d 3e 41 fa a9 3e 55 6f 26 bc
       0.30921602 0.18535523 0.3319874 -0.01015838
0000c0 b5 42 8f be 53 9d 90 3d 50 e0 28 be fc 9c a0 3e
       -0.2798058 0.07061257 -0.16491818 0.3136977
0000d0 f7 f3 f3 3c 1a 53 a6 3c 38 a8 2a 3e 1e 05 f8 bb
       0.029779417 0.020303298 0.16665733 -0.0075689694
0000e0 9d ad 73 3e ed 35 7e 3e 39 d8 65 3e d7 fe 7c 3e
       0.23796697 0.24825259 0.22445764 0.24706589
0000f0 3f ad a5 3e 99 b8 b4 3e fa 33 48 3e ff 40 6a 3e
       0.3235874 0.35297087 0.19551077 0.22876357

fc3.weight f4 [3, 64]
000000 58 bf bd 3d 57 f9 a8 3d a9 13 53 be a7 cd a3 3f
       0.092650115 0.08250683 -0.20612969 1.2797135
000010 17 8c 8d 3f 3a 31 92 be 49 d8 33 bf 00 6b 9b bf
       1.1058377 -0.28553182 -0.702519 -1.2142029
000020 dc 4f 61 be 59 9a 48 be 91 bf bb 3f 18 12 69 be
       -0.2200312 -0.19590129 1.4667836 -0.22760808
000030 68 10 99 be 36 ca 47 be 32 1f 78 be cf a0 7a 3d
       -0.2989533 -0.19510731 -0.2423065 0.061188515
000040 f6 94 b9 3f 3e 5a 45 be 98 4e 65 be a0 a4 af 3f
       1.4498584 -0.19272706 -0.22393262 1.3722115
000050 71 35 91 be 2a 6b cf 3f 6b f3 93 3d 32 da 2a be
       -0.28361085 1.6204579 0.07224163 -0.16684797
000060 94 ab 83 3f e1 23 c0 3d cf ef 6c be 9d 05 7d be
       1.0286736 0.09381843 -0.23138355 -0.24709173
000070 21 29 13 be 20 75 29 be 51 83 22 3f 50 9a 93 3f
       -0.14371158 -0.16548586 0.6348162 1.1531467
000080 c8 4a a8 be 13 89 44 3f bb 96 88 3d cf 6a 29 bf
       -0.32869554 0.7677166 0.066693746 -0.661786
000090 c0 ec a2 bf dc e9 8e bb b4 b8 41 be 96 78 69 bf
       -1.27285 -0.0043613743 -0.18918115 -0.91199625
0000a0 f6 ff 79 3f 49 8c 8a 3e 99 30 c9 3f 36 38 59 be
       0.9765619 0.27060154 1.5717956 -0.21212849
0000b0 74 8b d9 be 30 fb bc be 04 d4 f2 be 6a bc b5 bd
       -0.42489207 -0.3691039 -0.4742738 -0.08873828
0000c0 24 76 90 bf 2b db 47 bf f0 4a d8 bf 6e 27 17 be
       -1.1286054 -0.780688 -1.6897869 -0.14761135
0000d0 e4 0f b0 3f 11 da 6f 3f ba 60 9a be 8a 31 22 be
       1.375485 0.9369212 -0.30151922 -0.1583921
0000e0 8c d3 4b be 52 14 13 bf c2 56 45 be a3 6d 8f be
       -0.19904917 -0.5745288 -0.19271377 -0.28013334
0000f0 1c 02 f5 bd 8d 63 6e be 8f 1b 07 bf 43 bc 0f be
       -0.11963293 -0.23280163 -0.52776426 -0.1403666
000100 a3 73 1a 3c 57 a5 0d be f2 e8 a4 be af 94 80 3f
       0.009426984 -0.13832603 -0.32208973 1.0045375
000110 92 fa 5a 3f dc 4b 42 be 0a d5 92 be 68 7d 7f bf
       0.8553859 -0.1897425 -0.2867816 -0.9980073
000120 a7 3f 20 be 9d 6b 9c be 7e bd bc 3f 21 76 b3 be
       -0.15649281 -0.30550852 1.4745328 -0.35051063
000130 2d 62 d8 be 7e 20 4b be 7b 63 29 be ba 3a c8 3d
       -0.42262402 -0.19836614 -0.16541855 0.09776826
000140 fb ee 8c 3f a6 f8 48 be 69 76 27 be 76 48 dd 3f
       1.1010431 -0.19626102 -0.16353764 1.7287738
000150 17 3e 2f be 58 13 2e 3f e7 d0 6c bd 6e 8f d0 be
       -0.17113529 0.67998266 -0.057816412 -0.40734428
000160 05 66 4d 3f 31 ff c7 bd 3f b2 8f be 88 2b 70 be
       0.80233794 -0.09765471 -0.28065678 -0.23454106
000170 6c 9f 4e be de 55 c2 be be dc 2f 3f 34 d0 95 3f
       -0.20178002 -0.37956136 0.686962 1.1704164
000180 d1 a0 b6 be 13 91 2b 3f f2 30 48 bd 98 72 51 bf
       -0.35669568 0.6701824 -0.048874803 -0.8181548
000190 44 6d 71 bf c1 45 57 3d 95 a3 9e be 9a a3 54 bf
       -0.9430735 0.052556757 -0.30984178 -0.83062136
0001a0 6c a8 54 3f bc a8 ca 3d d2 b7 8b 3f 2a 05 8b be
       0.8306949 0.09895465 1.0915473 -0.27152377
0001b0 84 2a c3 be e5 e4 c9 bc b0 e1 b9 be 5c 9c 48 3c
       -0.38118374 -0.024645278 -0.36304998 0.01224431
0001c0 ad 98 11 bf f1 71 3b bf 9f f1 8f bf 77 92 97 be
       -0.5687359 -0.73220736 -1.1245612 -0.2960393
0001d0 c0 7a 71 3f 69 70 17 3f 39 22 20 be 8d 93 e9 be
       0.94327927 0.591559 -0.15638055 -0.45620385
0001e0 32 56 0b be 38 68 89 be 49 d1 94 be fd 09 56 be
       -0.136071 -0.26837325 -0.29065922 -0.20902248
0001f0 99 6c ac be a0 4b d5 be ae e1 c8 be 71 7e 76 bd
       -0.33676603 -0.4165926 -0.3923468 -0.060179178
000200 ff 70 40 bb 91 22 db b9 bf 71 40 be a0 93 92 3f
       -0.0029364226 -0.0004179669 -0.1879339 1.1451302
000210 ad 20 5d 3f 31 f0 86 be f7 cc 8e be 42 24 7f bf
       0.86377984 -0.26355127 -0.2789075 -0.996647
000220 34 6a 8b be 7d 68 0c be 2c 25 8e 3f 3d a7 aa be
       -0.27229464 -0.13711734 1.1105094 -0.33330718
000230 9e 90 a1 be e8 c6 6b be 4c 51 49 be c0 e9 96 3c
       -0.31555647 -0.23025095 -0.19659919 0.018422008
000240 92 e9 cd 3f 5b b9 4b be b7 d5 12 be aa 5f 88 3f
       1.6086905 -0.19894926 -0.14339338 1.0654194
000250 ba 82 14 be 8b 0f 86 3f 6b 1c b6 3d 12 39 30 bf
       -0.14502993 1.0473493 0.08892139 -0.6883708
000260 b5 89 40 3f d0 b7 bb 3d 33 b6 0f 3d 03 4f 55 be
       0.75210124 0.09165919 0.035085868 -0.20830922
000270 f5 55 22 bf f5 1b 91 be d5 ea 75 3f 24 af d1 3f
       -0.6341241 -0.28341642 0.9606145 1.6381574
000280 54 19 bc be dd 2c 69 3f a9 ed 08 bc 30 f1 6a bf
       -0.36738074 0.9108408 -0.008357444 -0.9177427
000290 59 7b 8b bf d5 2d 47 3d 8f 45 18 be 0e d8 52 bf
       -1.0897018 0.048627693 -0.14870284 -0.82360923
0002a0 f1 fe 4b 3f e7 1c ba 3d 6c 83 b1 3f cc 1c 2c be
       0.79685885 0.09087544 1.3868232 -0.1680786
0002b0 94 43 af be 98 fd 32 be 48 b7 dd bd 60 65 49 bd
       -0.34231246 -0.17479551 -0.10825974 -0.049168944
0002c0 02 9f 38 bf fb d4 5c bf cb d3 d9 bf d5 48 1c be
       -0.72117627 -0.8626248 -1.7017759 -0.15262158
0002d0 e4 5d a3 3f 2c 95 46 3f 55 86 11 be 5e bc 22 bf
       1.2763028 0.7757137 -0.142114 -0.63568676
0002e0 a4 55 5e be c0 54 9e be b9 c1 4f be 44 8c 74 be
       -0.21712357 -0.30924034 -0.20288743 -0.23881632
0002f0 a9 ce 4c be 39 62 7d be 6f 9f 23 bf ec ae 88 be
       -0.2000071 -0.247445 -0.6391515 -0.26695955

fc3.bias f4 [3]
000000 2d f4 29 bc 54 64 a8 be c4 a0 76 bd
       -0.010373157 -0.32889044 -0.06021191
