model/checkpoint_1400.pth (torch, 21912 bytes, 6 tensors)

fc1.weight f4 [64, 6]
0	0x3e9cee3c	0.30650508
1	0x3f343be5	0.7040389
2	0xbec2e2df	-0.38063714
3	0xbf414586	-0.7549671
4	0xbd71ffa8	-0.059081703
5	0x3e6fca70	0.23417068
6	0x3e8f34f9	0.27970102
7	0x3f00d1c5	0.5032008
8	0xbe5e7719	-0.2172512
9	0x3de618c3	0.11235192
10	0xbe00060a	-0.12502304
11	0xbbaa4c38	-0.0051970743
12	0xbf1ed475	-0.62042934
13	0xbeef7b91	-0.4677396
14	0xbf573f27	-0.8408074
15	0x3e0eb438	0.13935935
16	0x3e82b294	0.2552687
17	0x3e8dfa6f	0.27730128
18	0xbe947ad7	-0.2899997
19	0xbf08a9dc	-0.53384185
20	0xbea0fafa	-0.3144148
21	0x3f38cc6e	0.72186935
22	0x3dae5635	0.085125364
23	0x3e5bfc6f	0.21483015
24	0x3e2a81e1	0.16651107
25	0x3f56c1d1	0.8388949
26	0x3f165be2	0.5873395
27	0xbf0711e8	-0.527617
28	0xbeb0d40f	-0.34536788
29	0x3c4af017	0.012386343
30	0xbe9254d7	-0.28580353
31	0x3f567884	0.8377764
32	0xbf1d8867	-0.6153626
33	0xbeb3d65d	-0.35124484
34	0xbed8c7f7	-0.4234006
35	0xbea5030a	-0.3222888
36	0xbfad6c49	-1.3548671
37	0xbd63a947	-0.055581357
38	0x3f1ae369	0.6050325
39	0xbec7843d	-0.38968077
40	0xbde70a91	-0.11281312
41	0xbc044974	-0.008074153
42	0xbea150ab	-0.31506857
43	0xbf663db1	-0.89937884
44	0xbf50b76e	-0.8152989
45	0xbec88c7c	-0.3916968
46	0x3e01a582	0.12660792
47	0xbe40fa8c	-0.18845576
48	0xbe92d93a	-0.28681356
49	0xbf3ac8ea	-0.7296282
50	0x3ebee00a	0.37280303
51	0x3ef0ed26	0.4705593
52	0x3e119059	0.1421522
53	0x3de858e5	0.1134508
54	0x3d53cd09	0.05170921
55	0xbf80de12	-1.006777
56	0x3d9a9936	0.07548754
57	0xbe21aef6	-0.15789399
58	0xbe7a8281	-0.24463846
59	0xbecfd532	-0.40592343
60	0x3e0c9f1e	0.13732573
61	0xbe1c1285	-0.1524144
62	0x3f071300	0.52763367
63	0x3ceb5e0d	0.02873137
64	0x3ef86edb	0.48522076
65	0x3db68879	0.08912749
66	0x3e91350b	0.2836078
67	0xbec6d540	-0.38834572
68	0x3e3d9c4b	0.18516652
69	0x3f1217c6	0.57067525
70	0xbe8f4d65	-0.27988735
71	0xbe031cfd	-0.12804027
72	0x3ebbf539	0.36710528
73	0x3dbecc7d	0.09316347
74	0x3f077b4f	0.5292253
75	0x3f504f47	0.8137097
76	0xbe4cbbdd	-0.19993539
77	0xbeb8543c	-0.36001766
78	0x3e1c980d	0.15292378
79	0xbf90cf17	-1.1313199
80	0xbf8f6590	-1.120287
81	0x3f4a2f0f	0.78978056
82	0x3db2f03b	0.087372266
83	0xbebf8a47	-0.37410185
84	0xbe03faf0	-0.12888694
85	0x3edd3305	0.43202987
86	0xbf01c516	-0.50691354
87	0x3e85984f	0.26092765
88	0x3e8176e1	0.2528601
89	0xbe0117f4	-0.12606794
90	0x3f629ecf	0.8852357
91	0x3e90d46c	0.28287065
92	0x3ea4d783	0.32195672
93	0xbe1a92ee	-0.15095112
94	0xbeb0c74c	-0.3452705
95	0xbde5e9ce	-0.11226235
96	0x3f5106f1	0.81651217
97	0x3ea6663a	0.32499868
98	0xbea9d3f5	-0.33169523
99	0xbf19bc20	-0.6005268
100	0x3f09df59	0.53856426
101	0x3e0e2121	0.13879825
102	0xbf84601b	-1.0341829
103	0x3dc2aa79	0.09505171
104	0xbf4f09b7	-0.808742
105	0xbde982ff	-0.11401939
106	0xbe505c72	-0.20347765
107	0xbe74fae4	-0.23923832
108	0xbe813bcb	-0.2524093
109	0xbdfd5ef1	-0.12371624
110	0xbdf0d65e	-0.11759637
111	0xbf13b9f2	-0.57705605
112	0xbec89f80	-0.3918419
113	0x3eaa1b21	0.33223823
114	0x3ed386e7	0.4131386
115	0xbe7322d3	-0.23743753
116	0xbe9d9296	-0.307759
117	0xbdcb5151	-0.09927619
118	0x3e599a95	0.21250375
119	0x3e378e7c	0.17925447
120	0x3f27675a	0.65392077
121	0x3da2ddce	0.07952462
122	0xbe5af915	-0.2138408
123	0x3e0a1900	0.13486099
124	0xbeb82ed4	-0.35973227
125	0xbe65831c	-0.22413296
126	0xbf1e1cbf	-0.61762613
127	0xbf285dc2	-0.65768063
128	0xbcbb97c7	-0.022899522
129	0xbea4f591	-0.32218602
130	0xbdf7d6e5	-0.12101535
131	0xbde5a27a	-0.112126306
132	0xbda23736	-0.07920687
133	0xbe52644d	-0.20546074
134	0x3eb6896e	0.35651726
135	0xbe724610	-0.23659539
136	0x3dbaab27	0.09114676
137	0xbcb578d5	-0.022152344
138	0x3f0d334b	0.5515639
139	0x3e698ac8	0.22806847
140	0x3f2eb1f6	0.68240297
141	0x3e8c6997	0.2742431
142	0x3e5390c8	0.20660698
143	0x3e64397a	0.2228755
144	0xbf213e19	-0.6298538
145	0x3e83b43a	0.2572344
146	0xbe9f2d83	-0.3108941
147	0x3eb4d0b9	0.35315493
148	0xbeb3d797	-0.3512542
149	0xbed42ec2	-0.41441923
150	0x3bd5415e	0.0065080365
151	0xbf51f7dc	-0.8201883
152	0x3b842ed3	0.004033902
153	0x3fa21f3a	1.266578
154	0xbe426d31	-0.18986966
155	0xbe93a4d6	-0.28836697
156	0xbab8eb48	-0.0014108205
157	0xbf5e46e7	-0.8682694
158	0x3bf9d3e3	0.007624136
159	0xbee20037	-0.4414079
160	0xbe49b7bc	-0.19698995
161	0xbe5646f3	-0.20925502
162	0xbf3c03cf	-0.7344331
163	0xbee01857	-0.4376857
164	0xbedba127	-0.42896387
165	0xbedd05e3	-0.43168554
166	0xbe91e05c	-0.28491485
167	0x3e1312ac	0.14362592
168	0xbe319f61	-0.17345954
169	0xbe3cd853	-0.18441896
170	0x3eafbbc2	0.34322935
171	0xbefe919c	-0.49720466
172	0x3df7e08c	0.12103376
173	0x3e22ea76	0.15909752
174	0xbf3a6342	-0.72807705
175	0x3eb0d4f3	0.34537467
176	0xbee72e56	-0.4515254
177	0x3f2dece3	0.67939585
178	0x3ec48b0d	0.38387337
179	0xbe7aff34	-0.24511415
180	0xbeab61c1	-0.33473018
181	0x3dc39f5d	0.095518805
182	0x3ef5c125	0.4799892
183	0x3e1a823b	0.15088741
184	0x3f01627e	0.5054091
185	0x3e9d6d42	0.3074742
186	0xbec084db	-0.3760136
187	0x3e592c7c	0.21208376
188	0xbf5992bf	-0.8498954
189	0x3f209dfb	0.6274106
190	0x3ed6f5e1	0.41984466
191	0x3eb764aa	0.35818988
192	0x3d286a88	0.04111722
193	0x3f6b456c	0.91902804
194	0xbf6d4b3e	-0.92692935
195	0xbf0f75e7	-0.5603928
196	0xbd686f8d	-0.056747008
197	0x3e95cc3d	0.29257384
198	0xbe92e1d0	-0.28687906
199	0x3ea1dcce	0.31613773
200	0x3eaf5db8	0.3425119
201	0x3d06d584	0.032918468
202	0xbf1227d9	-0.5709205
203	0xbeb3ade8	-0.35093617
204	0xbe8c7567	-0.2743332
205	0xbf07b73b	-0.5301396
206	0xbe88bd38	-0.26706862
207	0x3f15b86d	0.58484536
208	0x3cbecbb6	0.023290496
209	0xbd98f3b1	-0.074683554
210	0x3e620916	0.22073779
211	0x3d931b01	0.07182885
212	0x3b09f56f	0.002105083
213	0x3de2cc50	0.11074126
214	0x3dd4c16b	0.10388454
215	0x3e1b0121	0.1513715
216	0x3ef80c38	0.48446822
217	0x3e9a44f0	0.3013072
218	0x3f8eb3ef	1.1148661
219	0xbf9d09b7	-1.226859
220	0x3ea7675b	0.3269604
221	0x3ee1bb7b	0.4408835
222	0x3ebcb14e	0.36854023
223	0xbef6b954	-0.4818827
224	0xbf7e532c	-0.9934566
225	0x3c8c4969	0.017124848
226	0xbb4de399	-0.0031416176
227	0xbd7c2177	-0.061555352
228	0xbf69f4a7	-0.91388935
229	0x3eda792d	0.42670575
230	0xbdfa8fef	-0.122344844
231	0x3f0dc51a	0.5537888
232	0x3eaeaf27	0.34118006
233	0x3eacaa98	0.33723903
234	0x3f2e8429	0.6817041
235	0x3cf8ecb5	0.030386308
236	0x3f07ea6d	0.5309208
237	0xbeb35b33	-0.35030517
238	0xbe04f4ed	-0.12984057
239	0xbe375716	-0.17904314
240	0x3df22d38	0.11825031
241	0x3f0f18b0	0.55897045
242	0xbe12e1a3	-0.14343886
243	0xbe97ef21	-0.29674628
244	0x3d910209	0.07080466
245	0xbedc7346	-0.43056697
246	0x3f1d0fcb	0.61352223
247	0xbf090205	-0.53518707
248	0x3e94fea6	0.2910053
249	0xbeb35d53	-0.35032138
250	0xbee5fbba	-0.44918615
251	0xbe12d461	-0.14338829
252	0x3f38cd69	0.7218843
253	0xbe082454	-0.13295108
254	0xbebe8935	-0.37214056
255	0xbead4f04	-0.33849347

fc1.bias f4 [64]
0	0x3e883676	0.2660405
1	0x3f1db625	0.61606055
2	0x3e389209	0.18024458
3	0x3e41a7f6	0.18911728
4	0x3e25cae0	0.16190672
5	0x3ebcb7b3	0.368589
6	0xbf0f2820	-0.559206
7	0x3e50ca24	0.2038961
8	0xbea3b6f6	-0.31975526
9	0xbd93a725	-0.07209615
10	0xbf38b5c1	-0.72152334
11	0x3f3355c1	0.70052725
12	0x3e49fe4f	0.19725917
13	0xbd5e1d29	-0.054227028
14	0xbf3dd3bd	-0.7415121
15	0x3f0e1ce4	0.55512834
16	0x3f54b499	0.8308807
17	0xbe032db0	-0.12810397
18	0xbe677286	-0.22602281
19	0x3f3a33f9	0.72735554
20	0x3f2477a6	0.6424507
21	0xbf1296ac	-0.5726116
22	0x3f33ea96	0.70279825
23	0x3f21ce1a	0.6320511
24	0xbee5f10b	-0.44910464
25	0x3d8a6c22	0.06758906
26	0xbc778f80	-0.015109897
27	0xbeb6905d	-0.35657015
28	0x3f59b0cc	0.85035396
29	0xbe8d78cf	-0.27631232
30	0xbeec9224	-0.46205246
31	0xbda54823	-0.080703996
32	0xbe117045	-0.14202984
33	0xbf10e9fe	-0.56607044
34	0x3e203030	0.15643382
35	0x3f2a3141	0.66481405
36	0x3e3317e6	0.17489585
37	0x3e08aa85	0.13346298
38	0x3ccfa128	0.0253454
39	0x3ebeb64c	0.37248456
40	0x3f026b52	0.5094501
41	0xbee7b063	-0.4525176
42	0x3d0ef92c	0.034905598
43	0xbe942fa2	-0.2894259
44	0x3e815a46	0.25264186
45	0xbc5f9a5a	-0.01364764
46	0xbe9c1623	-0.3048564
47	0x3e331572	0.1748865
48	0x3f321a4e	0.6957139
49	0x3e77e197	0.2420715
50	0xbebb79bb	-0.3661631
51	0xbe899e9f	-0.2687883
52	0x3e20e1c3	0.15711121
53	0xbf4eb508	-0.8074498
54	0x3ecc14c7	0.39859602
55	0xbf131b1f	-0.5746326
56	0xbf2ac084	-0.66700006
57	0xbeb60187	-0.3554804
58	0xbe29d33c	-0.16584486
59	0x3efc3a00	0.49263
60	0xbf11eea9	-0.5700479
61	0x3f393904	0.72352624
62	0xbe73cdc6	-0.23808965
63	0x3f0dd70b	0.55406255

fc2.weight f4 [64, 64]
0	0xbcf5ed5b	-0.030020406
1	0xbe115ab4	-0.14194757
2	0x3da56602	0.08076097
3	0x3d3f8700	0.046759605
4	0x3dbc4f77	0.09194844
5	0x3d2e2634	0.042516902
6	0xbda8fa48	-0.08250862
7	0x3d86d819	0.06584186
8	0xbc3b605a	-0.011436546
9	0x3cf3af69	0.029746728
10	0xbdeda273	-0.1160325
11	0xbd8776de	-0.06614469
12	0xbe186b9b	-0.14884798
13	0xbd843b6e	-0.06456648
14	0x3c35a9a6	0.011087811
15	0xbe00b5a1	-0.12569286
16	0x3ac58038	0.0015068119
17	0x3d51d6c0	0.051230192
18	0xbb95c8d1	-0.0045710583
19	0xbdd5361f	-0.104107134
20	0xbdfe684b	-0.12422236
21	0xbd635851	-0.055504147
22	0x3cabe5f1	0.020983668
23	0x3dd810e6	0.10550098
24	0x3d65623d	0.05600189
25	0xbcf562fc	-0.029954426
26	0x3cf5f1fc	0.030022614
27	0xbe146178	-0.14490306
28	0xbe122a3f	-0.14273928
29	0x3d2ddbab	0.04244582
30	0xbdb9f5ff	-0.09080123
31	0x3d1fdadc	0.03902708
32	0xbdda27e4	-0.1065214
33	0xbd9f4cca	-0.07778318
34	0xbdeba96e	-0.115069255
35	0x3d3ab57a	0.045583226
36	0xbd103336	-0.03520509
37	0x3da485e4	0.0803335
38	0x3d62672e	0.05527418
39	0x3d07b2e4	0.033129588
40	0xbca7509e	-0.020424183
41	0xbd71f286	-0.05906918
42	0xbd441106	-0.047867797
43	0xbb95d922	-0.0045730034
44	0x3d2b2e4c	0.0417922
45	0xbdd3d9ea	-0.10344298
46	0x3db654fa	0.08902927
47	0xbd0a213b	-0.033723097
48	0xbe0dd3b7	-0.13850294
49	0xbdc83e5b	-0.09777518
50	0x3dc1fd92	0.09472193
51	0x3dcd92c4	0.10037759
52	0xbe09b118	-0.13446462
53	0x3d8cc270	0.068730235
54	0x3d052651	0.032507244
55	0x3d599b5d	0.05312668
56	0x3da7a08d	0.081849195
57	0xbdb538d6	-0.08848731
58	0x3c9e19be	0.019299384
59	0x3c8afe89	0.016967075
60	0xbd6d7a47	-0.05797794
61	0x3cad1540	0.021128297
62	0xbd5efcbd	-0.05444025
63	0x3d678b9c	0.056529626
64	0xbd9a990f	-0.07548725
65	0xbdaf827b	-0.08569809
66	0x3bcb878d	0.0062112273
67	0x3bfb357c	0.007666288
68	0xbde60859	-0.11232061
69	0xbd0c5bbb	-0.03426717
70	0x3d278d2d	0.04090612
71	0xbc926328	-0.017869547
72	0x3c2adb5f	0.010428279
73	0xbd23a386	-0.03995087
74	0x3cbddeb8	0.02317749
75	0xbde13e3f	-0.109982006
76	0xbdb04970	-0.08607757
77	0xbdaca128	-0.084291756
78	0x3dcc0a83	0.099629425
79	0xbd8b08d2	-0.06788792
80	0xbcb5b9de	-0.022183355
81	0xbd9c8da3	-0.076442026
82	0x3db08629	0.08619339
83	0x3da9ed39	0.082972
84	0xbdf0c4d5	-0.11756293
85	0xbe1658ea	-0.14682356
86	0xbe04c665	-0.12966307
87	0xbd18283f	-0.037147757
88	0xbd0282c4	-0.03186299
89	0xbdcf076b	-0.10108837
90	0xbd83600b	-0.06414803
91	0xbc9fa2f3	-0.01948688
92	0xbdb24234	-0.087040335
93	0x3bda6a2d	0.006665489
94	0xbce5b576	-0.028040629
95	0xbd97d71a	-0.07414074
96	0xbcfa356b	-0.03054305
97	0x3db1f9ed	0.08690248
98	0xbdffaa43	-0.12483647
99	0xbd03469e	-0.032049768
100	0xbda9fc02	-0.0830002
101	0x3dd23655	0.10264269
102	0xbe1f64c8	-0.15565789
103	0xbe104cd8	-0.14091814
104	0x3dd9fa5b	0.10643455
105	0xbdb8de16	-0.090267345
106	0xbc784a7d	-0.015154478
107	0xbd5bd6bc	-0.053671584
108	0xbd0c1804	-0.03420259
109	0xbcfe3e6e	-0.031035628
110	0x3d7b242c	0.061313793
111	0xbcf2c124	-0.029633112
112	0xbe36c71a	-0.17849389
113	0xbda5ecda	-0.081018165
114	0xbd5ef445	-0.054432172
115	0x3cfdb890	0.030971795
116	0xbdd1da1a	-0.10246678
117	0x3da4a5de	0.08039449
118	0xbd234bae	-0.039867096
119	0xbd75b405	-0.059986133
120	0x3da9ed63	0.08297231
121	0x3cd4f423	0.02599532
122	0x3d89b47f	0.0672388
123	0x3d10bdef	0.035337385
124	0xbda98955	-0.08278147
125	0xbdf97660	-0.12180781
126	0xbcee87ca	-0.029117484
127	0x3d8636ea	0.06553443
128	0x3e2590c8	0.16168511
129	0x3cc25330	0.023721308
130	0x3e65bbaf	0.22434877
131	0x3e2dfe79	0.16991605
132	0x3dbb18f7	0.09135621
133	0x3d4a00ab	0.049317043
134	0xbe0896cd	-0.13338776
135	0xbcde52d5	-0.027139107
136	0x3c6c3ed4	0.014419276
137	0xbec933fb	-0.3929747
138	0xbe75c88d	-0.24002285
139	0x3e2aaecf	0.16668247
140	0x3e07814f	0.13232921
141	0x3e0ae119	0.1356243
142	0xbef1df8c	-0.47240865
143	0x3b579a1a	0.0032898248
144	0x3c7dcfb0	0.015491411
145	0x3ee0922f	0.4386153
146	0x3c174d60	0.009234756
147	0x3e35a03b	0.17736904
148	0xb86939a3	-5.5605207e-05
149	0xbdab0a3e	-0.08351563
150	0x3e59e0c5	0.21277149
151	0x3e952560	0.29130077
152	0xbf058d88	-0.52169085
153	0x3be0e70a	0.0068634795
154	0x3e38f5ae	0.1806247
155	0xbb498435	-0.0030748968
156	0x3e1344ff	0.14381789
157	0xbe784324	-0.24244362
158	0xbe14bc0b	-0.14524858
159	0xbd0131c7	-0.031541612
160	0x3dd99ce9	0.10625631
161	0xbebd94ee	-0.37027687
162	0x3e0e1d39	0.13878335
163	0x3dad3982	0.08458234
164	0x3c64b60e	0.013959421
165	0xbdc58812	-0.09645094
166	0xbe1581d8	-0.14600313
167	0x3e95e645	0.29277244
168	0x3d20ceb9	0.039259646
169	0x3e256680	0.16152382
170	0x3d8aef8f	0.067839734
171	0xbe3016da	-0.17196217
172	0x3d3dd985	0.04635002
173	0x3d81bec5	0.063352145
174	0xbe3e5124	-0.1858564
175	0xbdc22141	-0.09478999
176	0x3e54e969	0.20792164
177	0x3db120d5	0.0864884
178	0xbe590991	-0.21195056
179	0xbe70873c	-0.23489088
180	0xbc126f15	-0.008937617
181	0xbde09a8d	-0.10966978
182	0x3e4e56c9	0.20150293
183	0xbd25240a	-0.040317573
184	0x3e82782e	0.25482315
185	0xbe2ed193	-0.17072134
186	0xbda1065b	-0.0786254
187	0x3da45b1b	0.080251895
188	0xbe586b19	-0.21134605
189	0x3d1a66a4	0.037695542
190	0xbe986116	-0.2976157
191	0x3e29b681	0.16573526
192	0xbfd1d3c5	-1.6392752
193	0x3dd78fe2	0.1052549
194	0xbfe3b65b	-1.7790025
195	0xbeb4294c	-0.35187757
196	0xbfbb8da9	-1.4652606
197	0x3dcef898	0.10106009
198	0x3f4fec39	0.8121982
199	0xbeef57ab	-0.46746573
200	0xbf0235cc	-0.5086334
201	0x3e68e5cd	0.22743912
202	0x3e98f081	0.2987099
203	0xbe732ada	-0.23746815
204	0x3e5fc5aa	0.21852747
205	0x3e194128	0.14966261
206	0x3de59794	0.11210552
207	0xbf0d1c55	-0.55121356
208	0x3eb9d2a9	0.36293533
209	0x3e34b91d	0.1764874
210	0xbf23215c	-0.6372278
211	0xbf080694	-0.5313504
212	0x3d96d528	0.07364875
213	0xbe6d88dc	-0.23196739
214	0x3d601708	0.054709464
215	0xbe14d0da	-0.14532796
216	0x3e140aca	0.1445724
217	0x3d665670	0.056234777
218	0xbec0f3b4	-0.3768593
219	0xbd8366a7	-0.06416064
220	0xbea022bb	-0.31276497
221	0x3e8f8c90	0.28036928
222	0xbd483dc9	-0.048887048
223	0xbd3d13cd	-0.04616146
224	0xc0088588	-2.13315
225	0xbe0095cc	-0.12557143
226	0x3eb63e02	0.35594183
227	0xbeb7c255	-0.3589045
228	0xbf804d2a	-1.0023549
229	0x3e0f7195	0.14008172
230	0x3f90af97	1.1303586
231	0xbed16a85	-0.4090158
232	0x3e53d2d4	0.20685893
233	0xbf4ed778	-0.8079753
234	0xbecee1cc	-0.40406644
235	0xbfab7e96	-1.3398006
236	0xbe90d3dd	-0.2828664
237	0x3e821abf	0.2541103
238	0x3d52a98b	0.05143122
239	0x3e9eb442	0.309969
240	0x3e0cc1aa	0.13745752
241	0xbe131944	-0.14365107
242	0x3ea36e80	0.31920242
243	0xbe799613	-0.24373655
244	0xbedae9e2	-0.42756563
245	0x3d94b1c8	0.072604716
246	0x3d986c33	0.07442512
247	0x3efcfb7c	0.49410617
248	0xbf8a73f5	-1.0816637
249	0xbe7e7607	-0.24849711
250	0xbeae8613	-0.34086666
251	0xbf0b0f93	-0.5432064
252	0xc0020566	-2.0315795
253	0xbfa898f3	-1.3171676
254	0x3e23f4fa	0.1601142
255	0xbeb4a881	-0.35284808

fc2.bias f4 [64]
0	0xbe0d6101	-0.13806535
1	0x3cc4d264	0.024026103
2	0x3dfcad36	0.12337725
3	0x3c9bf501	0.019037725
4	0x3d56348f	0.052296218
5	0x3e87d100	0.26526642
6	0x3eb4c494	0.35306227
7	0x3d38c59e	0.045110337
8	0x3e1bbe9a	0.15209427
9	0x3e488708	0.1958276
10	0x3dbff1ed	0.093723156
11	0x3e70d850	0.23520017
12	0x3dfd1887	0.12358194
13	0x3e2be01e	0.16784713
14	0x3e572ecd	0.21013947
15	0xbde2a19b	-0.1106598
16	0xbdac76a7	-0.08421069
17	0x3eb746f2	0.35796314
18	0x3ea8f25a	0.329974
19	0xbdcefa3e	-0.10106324
20	0x3dcd8f5b	0.100371085
21	0x3e3c731d	0.18403287
22	0x3ce22591	0.027605804
23	0x3ed56914	0.4168173
24	0xbc6cf167	-0.014461852
25	0xbe0b8d1e	-0.1362805
26	0x3e37f6e5	0.17965277
27	0x3e480bde	0.19535777
28	0x3eaabce1	0.33347228
29	0x3e24deb1	0.16100575
30	0x3eb12886	0.3460123
31	0x3cd8c713	0.026462113
32	0x3e631b3d	0.2217836
33	0xbd80c7fb	-0.06288143
34	0x3d9d11af	0.076693885
35	0x3edc47b7	0.43023464
36	0x3d2f7524	0.042836323
37	0xbdda03ca	-0.10645254
38	0x3dfbf5ce	0.12302743
39	0x3e0c3ea2	0.13695768
40	0x39012be1	0.00012318745
41	0xbd880eda	-0.06643458
42	0x3e08a089	0.1334249
43	0x3eb8cdf6	0.36094636
44	0x3ea60b80	0.3243065
45	0x3e4b9336	0.19880375
46	0x3eacf6d8	0.33782077
47	0xbc266f55	-0.01015838
48	0xbe7f6495	-0.24940713
49	0x3dd316fd	0.10307119
50	0xbe03ea6d	-0.12882395
51	0x3ea626b2	0.32451397
52	0xbba52a2e	-0.0050404286
53	0x3c0e491c	0.008684423
54	0x3e3c1f46	0.18371305
55	0xbc2e04fb	-0.010621305
56	0x3e841957	0.25800583
57	0x3e781af8	0.24229038
58	0x3e81d09f	0.25354478
59	0x3e875499	0.2643173
60	0x3eaac55e	0.33353704
61	0x3eaf24b1	0.3420768
62	0x3e372008	0.17883313
63	0x3e82412d	0.2544035

fc3.weight f4 [3, 64]
0	0x3dbdbf58	0.092650115
1	0x3da8f957	0.08250683
2	0xbe1dacb2	-0.1539791
3	0x3f9f8336	1.2461917
4	0x3f87ac69	1.059949
5	0xbe952710	-0.29131365
6	0xbf26fe1b	-0.65231484
7	0xbf973e64	-1.1815915
8	0xbe67d4c4	-0.22639757
9	0xbe4f1028	-0.20221007
10	0x3fb6146d	1.4224983
11	0xbe6dd33b	-0.2322511
12	0xbe8620fc	-0.2619704
13	0xbe4a81cc	-0.19776076
14	0xbe7631c0	-0.24042416
15	0x3d7aa0cf	0.061188515
16	0x3fb1e82c	1.3898978
17	0xbe472500	-0.19447708
18	0xbe6a5239	-0.22882928
19	0x3fa4c27d	1.2871853
20	0xbe922911	-0.28546956
21	0x3fbd967e	1.4811552
22	0x3db478c0	0.08812094
23	0xbe356617	-0.17714725
24	0x3f806c0d	1.0032974
25	0x3dc023e1	0.09381843
26	0xbe6d36e6	-0.23165473
27	0xbe7fea15	-0.24991639
28	0xbe205b58	-0.15659845
29	0xbdfd47ee	-0.12367235
30	0x3f1e55d1	0.61849695
31	0x3f8a37ce	1.079828
32	0xbe986fb1	-0.29772714
33	0x3f3dfc71	0.7421332
34	0x3d8896bb	0.066693746
35	0xbf1d6381	-0.61479956
36	0xbf9ea827	-1.2395066
37	0xbb8ee9dc	-0.0043613743
38	0xbe48a4c5	-0.19594105
39	0xbf6159eb	-0.8802783
40	0x3f65f924	0.89833283
41	0x3e8a8c49	0.27060154
42	0x3fc1290f	1.5090655
43	0xbe52238b	-0.20521371
44	0xbed98f46	-0.4249212
45	0xbeb999d1	-0.36250165
46	0xbedb208b	-0.42798266
47	0xbdb5bc6a	-0.08873828
48	0xbf87139a	-1.0552857
49	0xbf432c39	-0.76239353
50	0xbfc5df7c	-1.5458827
51	0xbe1e49bb	-0.15457813
52	0x3fabdf02	1.3427432
53	0x3f5afc18	0.85540915
54	0xbe9c2612	-0.30497795
55	0xbe1b32b4	-0.1515606
56	0xbe4beede	-0.1991534
57	0xbf0647c3	-0.5245325
58	0xbe43bc78	-0.19114864
59	0xbe9053e2	-0.28188998
60	0xbe00c48d	-0.12574978
61	0xbe4c1b54	-0.199323
62	0xbef1f383	-0.47256097
63	0xbe105cc6	-0.1409789
64	0x3c1a73a3	0.009426984
65	0xbe0da557	-0.13832603
66	0xbe988b82	-0.29793936
67	0x3f88e409	1.0694591
68	0x3f5aa210	0.8540354
69	0xbe446524	-0.19179207
70	0xbe7a1e71	-0.24425675
71	0xbf81dd33	-1.014563
72	0xbe25abd4	-0.16178828
73	0xbe9ae16a	-0.30250102
74	0x3fb3b846	1.4040611
75	0xbeb3a13b	-0.35083947
76	0xbeb645c7	-0.3560011
77	0xbe57ddea	-0.21080747
78	0xbe341d5d	-0.17589326
79	0x3dc83aba	0.09776826
80	0x3f8c5a8c	1.0965133
81	0xbe591445	-0.21199138
82	0xbe2d971b	-0.16952173
83	0x3fcc8177	1.597701
84	0xbe351900	-0.17685318
85	0x3f36d99c	0.71425796
86	0xbd2eef52	-0.042708702
87	0xbeccf9fe	-0.4003448
88	0x3f5104ae	0.81647766
89	0xbdc7ff31	-0.09765471
90	0xbe8fdf59	-0.28100088
91	0xbe754801	-0.23953249
92	0xbe413b46	-0.18870267
93	0xbebaf9fd	-0.3651885
94	0x3f2ebaea	0.6825396
95	0x3f9b5440	1.2135086
96	0xbe9ef649	-0.31047276
97	0x3f328cb0	0.6974592
98	0xbd4830f2	-0.048874803
99	0xbf41409f	-0.7548923
100	0xbf6b6c42	-0.91962063
101	0x3d5745c1	0.052556757
102	0xbe9fae7a	-0.31187803
103	0xbf48fbfc	-0.785095
104	0x3f52e7a6	0.8238472
105	0x3dcaa8bc	0.09895465
106	0x3f89b4e3	1.0758327
107	0xbe8f04dd	-0.27933398
108	0xbec4908f	-0.3839154
109	0xbd50a20f	-0.0509358
110	0xbea7dacc	-0.32784116
111	0x3c489c5c	0.01224431
112	0xbf14161c	-0.57846236
113	0xbf3ed1b8	-0.74538755
114	0xbf8e78b5	-1.1130587
115	0xbe9a2065	-0.3010284
116	0x3f84c148	1.0371485
117	0x3f22488b	0.6339194
118	0xbe2f1f20	-0.17101717
119	0xbee1cb47	-0.441004
120	0xbe18d90e	-0.1492655
121	0xbe658d25	-0.22417124
122	0xbe96d54f	-0.29459617
123	0xbe64b0fa	-0.22333136
124	0xbeabd5c2	-0.33561522
125	0xbebfc05e	-0.37451452
126	0xbea9ffc7	-0.33202955
127	0xbd97f618	-0.074199855
128	0xbb4070ff	-0.0029364226
129	0xb9db2291	-0.0004179669
130	0xbe466ea5	-0.19378145
131	0x3f894fa9	1.0727435
132	0x3f52e756	0.8238424
133	0xbe852a65	-0.26008907
134	0xbe6cf268	-0.23139346
135	0xbf7e3941	-0.9930611
136	0xbe8f5d25	-0.2800075
137	0xbe18cfb9	-0.1492299
138	0x3f93ca03	1.1546024
139	0xbeaffc3b	-0.34372124
140	0xbe7b1abe	-0.2452192
141	0xbe73ecaf	-0.23820756
142	0xbe589a67	-0.2115265
143	0x3c96e9c0	0.018422008
144	0x3fc02b86	1.5013282
145	0xbe5796d2	-0.21053627
146	0xbe1faf1b	-0.15594141
147	0x3f845040	1.033699
148	0xbe28a376	-0.16468605
149	0x3f7e19ac	0.9925792
150	0x3dcdc7b5	0.10047857
151	0xbf1f48ee	-0.62220657
152	0x3f32a92f	0.69789404
153	0x3dbbb7d0	0.09165919
154	0x3c2e3569	0.010632851
155	0xbe623f8e	-0.22094557
156	0xbf1116c6	-0.56675375
157	0xbe9159d4	-0.28388846
158	0x3f6d501c	0.9270036
159	0x3fc973b3	1.5738434
160	0xbea8cca9	-0.32968643
161	0x3f64609e	0.89209926
162	0xbc08eda9	-0.008357444
163	0xbf54e305	-0.83158904
164	0xbf871ada	-1.055507
165	0x3d472dd5	0.048627693
166	0xbe26f7e8	-0.16305506
167	0xbf476fa9	-0.77904755
168	0x3f46dd2c	0.7768123
169	0x3dba1ce7	0.09087544
170	0x3fad7dab	1.3553976
171	0xbe34db0d	-0.17661686
172	0xbeb6f5b8	-0.35734344
173	0xbe39aefe	-0.1813316
174	0xbdfa37fe	-0.12217711
175	0xbd496560	-0.049168944
176	0xbf2bd095	-0.67115146
177	0xbf5771f4	-0.84158254
178	0xbfca8f99	-1.5825073
179	0xbe2821b7	-0.16419111
180	0x3fa2981c	1.270267
181	0x3f4216ce	0.7581605
182	0xbe1f9887	-0.15585528
183	0xbf1cfbe3	-0.6132185
184	0xbe69a4a2	-0.22816709
185	0xbe96cfe2	-0.29455477
186	0xbe5a7a55	-0.21335728
187	0xbe8083cd	-0.25100556
188	0xbe5bf8c6	-0.21481618
189	0xbe673136	-0.22577366
190	0xbf0d297f	-0.55141443
191	0xbe89fd12	-0.2695089

fc3.bias f4 [3]
0	0xbcbfbf73	-0.02340672
1	0xbe9ac1b4	-0.3022591
2	0xbda1c65f	-0.078991644
