model/checkpoint_5000.pth (torch, 21912 bytes, 6 tensors)

fc1.weight f4 [64, 6]
000000 d4 0f c5 3e b4 82 4a 3f dc 29 83 be f6 ad 37 bf
       0.38488638 0.7910569 -0.25617874 -0.7174982
000010 bb c9 d8 bd 4c 94 82 3e 51 4d df 3e 42 c7 43 3f
       -0.10585352 0.25503767 0.43613675 0.7647592
000020 8a 78 bf be fb b1 cb bc 0f d4 97 bd cc 15 60 3d
       -0.37396652 -0.024865141 -0.07413494 0.054708287
000030 09 04 4e bf f2 c7 a7 be db c3 72 bf 73 54 11 3e
       -0.8047491 -0.32769734 -0.948301 0.14192371
000040 62 b7 d4 3d 5d af 34 3e f0 c2 fb bd 7d ba 44 bf
       0.1038654 0.17645021 -0.12293041 -0.7684706
000050 52 97 de bc 3b f6 81 3f 5e c7 87 3e 74 b1 95 3e
       -0.027171765 1.0153269 0.26519293 0.29236948
000060 96 07 9a be 6e 04 81 3f 87 c1 49 3f 46 0f ff be
       -0.30083913 1.0079477 0.78810924 -0.4981634
000070 2f 43 b4 be 22 b8 09 3e b3 3f 04 bf 1f 60 81 3f
       -0.35207507 0.13449147 -0.516597 1.0107459
000080 de 6d 42 bf c5 9a b2 be 6c 5b e8 be 37 6b a1 be
       -0.75948894 -0.34883705 -0.4538225 -0.3152711
000090 fb da ba bf 05 24 bc be 61 67 1f 3f ce ae 8c be
       -1.4598078 -0.3674623 0.6226712 -0.27477115
0000a0 7a 8d 85 be 0a 8c 52 bd 0c d2 a6 be 33 05 80 bf
       -0.260845 -0.051403083 -0.32582128 -1.0001587
0000b0 6f 09 40 bf 28 41 b3 be 64 21 1d 3e ae ed 4c be
       -0.75014395 -0.35010648 0.15344769 -0.20012543
0000c0 cf 4b 57 bf 7e f6 a8 bf 31 b5 92 3f a6 5e b7 3e
       -0.8410005 -1.3200223 1.1461545 0.358144
0000d0 b5 9c 61 3e 2c b4 8c 3c fc a1 52 be 8f ca 78 bf
       0.22032435 0.017175756 -0.20569605 -0.9718408
0000e0 29 a6 ea bc f0 e9 10 bc bf e2 a5 be 65 50 e8 be
       -0.028643684 -0.008844838 -0.32399556 -0.45373836
0000f0 67 9d a4 3e ba cc 91 be 67 65 58 3f f8 6e c0 bc
       0.32151338 -0.28476506 0.8452973 -0.023490414
000100 9e 2e 2c 3f 0c 0a 76 3e e6 7f de 3e 4f 9d 05 bf
       0.6725863 0.2402727 0.43456954 -0.5219316
000110 a5 24 5a 3e 10 8f df 3e 85 88 b3 be f5 2a 42 be
       0.21303041 0.43663836 -0.35065094 -0.189617
000120 6f 15 28 3f 97 17 6b 3d 9d 81 0b 3f 59 59 ac 3f
       0.65657705 0.057395544 0.5449465 1.3464767
000130 bd eb 6e be 58 1b f6 be 28 9a c8 3d ad 51 be bf
       -0.23332115 -0.48067737 0.09795028 -1.4868675
000140 b6 3e 5f bf a7 3f 80 3f 7b dd 81 3d bc 43 ec be
       -0.87205064 1.0019425 0.06341072 -0.46145427
000150 a5 4c 92 bc a6 23 a4 3e 40 12 2d bf d8 f1 fb 3e
       -0.017858813 0.32058448 -0.6760597 0.4920795
000160 e6 fa 9b 3e d0 34 1f be 55 e4 83 3f 8f 98 ea 3e
       0.30464858 -0.1554749 1.0304056 0.45819518
000170 d0 f0 38 3e 2f 41 b9 3d c7 9a d4 be 19 9d 5c be
       0.18060613 0.09045636 -0.41524336 -0.21544303
000180 60 de e5 3e e5 38 06 3f 69 80 1b bf ca 36 47 bf
       0.4489622 0.52430564 -0.60742813 -0.77817976
000190 9f 3b 16 3f 2c 9e 93 3e bb 9f 94 bf 20 a5 19 3d
       0.58684725 0.28831613 -1.1611246 0.03751099
0001a0 73 29 6d bf 1b 47 b4 3d 65 79 6f be ed 22 88 be
       -0.9264137 0.08802625 -0.23386152 -0.26589146
0001b0 12 b5 20 be ca be bf 3d df 6c 51 3e 07 37 75 bf
       -0.15694073 0.09362562 0.20451687 -0.9578709
0001c0 c5 11 00 bf 3c af ad 3e ab 91 7b 3f 0d b0 6c 3c
       -0.50027114 0.33922756 0.98269147 0.014446271
0001d0 7c a2 80 be 5d e0 50 be 47 2a 88 3e 1e 0e 5b 3e
       -0.25123966 -0.20398088 0.26594755 0.21392104
0001e0 64 cf 3e 3f 5e 8e 87 3e e4 af b3 be e9 d8 04 3f
       0.745352 0.26475805 -0.3509513 0.5189348
0001f0 72 4e d6 be fd 0c 64 be fc 8c 35 bf 2b cd 48 bf
       -0.41856724 -0.2227058 -0.7091825 -0.7843806
000200 c9 54 ef bc 3a 70 df be a2 77 36 be 75 51 26 be
       -0.029215233 -0.4364031 -0.17819074 -0.16242011
000210 10 07 17 be cb de 43 bf 6c e3 96 3e a2 fd 9c be
       -0.14748788 -0.7651183 0.29470384 -0.30662256
000220 f1 01 60 3e 54 67 23 b8 3b 25 b0 3e 15 56 73 3e
       0.2187574 -3.895846e-05 0.34403405 0.23763306
000230 ec ab 27 3f a0 a5 bf 3e 18 78 51 3e 00 fa 69 3e
       0.65496707 0.3743105 0.20455968 0.22849274
000240 3c 08 3c bf 0e ec 10 3f 12 a6 1e be 9d 74 df 3e
       -0.73450065 0.5661019 -0.15493038 0.43643656
000250 96 ea ab be 38 59 aa be e9 6f 76 3e 29 68 40 bf
       -0.33577412 -0.33271194 0.24066128 -0.75158936
000260 a7 5b 77 3e 6d 7c c5 3f a7 66 63 be e7 59 af be
       0.24156056 1.5428597 -0.22207128 -0.34248278
000270 c3 45 98 bd 8f 7f 84 bf 6a 6d f8 bd 50 75 11 be
       -0.07435181 -1.0351428 -0.12130244 -0.14204907
000280 8c a3 bc be 38 a9 d5 be ba eb 3a bf 23 1d d0 be
       -0.36843526 -0.41730666 -0.7301594 -0.4064723
000290 c5 e7 40 bf c0 a1 0f bf 6b a7 b7 be 9f 1e 32 3e
       -0.7535365 -0.56106186 -0.35869917 0.17394494
0002a0 60 15 1c 3c 40 f7 5f be 31 5d a5 3e 2a 7a 13 bf
       0.009526581 -0.21871662 0.32297662 -0.5760828
0002b0 3c 92 16 3e 50 4c 69 3e 62 29 f9 be 3b b4 fc 3d
       0.14704221 0.22783017 -0.48664385 0.12339064
0002c0 f9 46 d3 be 92 cb 98 3f 01 85 bb 3e a6 cb 9a be
       -0.41265085 1.1937125 0.3662491 -0.30233496
0002d0 b7 69 a8 be 10 5c 10 bd 3c 1c fa 3e a0 85 a2 3d
       -0.32893154 -0.035244048 0.48849666 0.07935643
0002e0 70 ac 20 3f d7 28 bc 3e ee b1 cd be 13 b3 1f 3e
       0.6276312 0.36749908 -0.40174812 0.15595655
0002f0 e7 cf 83 bf 62 a7 e1 3e 01 17 e1 3e 27 a2 d9 3e
       -1.0297822 0.44073015 0.43962863 0.42506525
000300 f0 f3 8b bc 85 57 81 3f a1 06 88 bf 6c eb 07 bf
       -0.017084092 1.0104834 -1.0627023 -0.530936
000310 04 3b 71 bc 24 e4 a0 3e 60 ee 16 bf 5f 1b 00 3f
       -0.014723543 0.31424057 -0.5895748 0.50041765
000320 da 40 7f 3e 0c 6e 5b bd 74 09 3b bf 71 12 cb be
       0.24927083 -0.053571746 -0.730613 -0.39662507
000330 74 57 c1 be 65 27 23 bf b7 da 91 be d6 17 40 3f
       -0.37762034 -0.63731986 -0.2848718 0.7503637
000340 89 e2 bd 3c 48 64 4f be 7d 0e 90 3e 05 4f 13 3d
       0.02317931 -0.20253098 0.28136054 0.03596403
000350 4c ef 8a be ad 06 d5 3d 22 35 34 3e a8 35 4f 3e
       -0.27135694 0.10401664 0.17598394 0.20235312
000360 5f 8b 71 3f 49 c4 74 3f 6c 5b 8b 3f 46 6b c0 bf
       0.9435329 0.9561201 1.0887275 -1.5032737
000370 68 c2 7d 3e 35 c2 29 3f 90 c8 4c 3f 44 ad b2 be
       0.24781191 0.6631196 0.79993534 -0.34897816
000380 bf 9f a5 bf 28 58 42 be ec 91 93 bd ba 9a 84 bc
       -1.2939376 -0.18978941 -0.07205567 -0.01618706
000390 2e a2 93 bf 13 a2 14 3f ea 29 9d be 46 2d 1a 3f
       -1.1533868 0.58059806 -0.3069604 0.6022533
0003a0 cc cc c3 3e a6 78 b5 3e 67 9c 31 3f 1d 15 97 3d
       0.38242185 0.3544361 0.69379276 0.07377074
0003b0 f8 28 1b 3f 39 08 06 bf 47 35 4b be af 5d 4b be
       0.6060939 -0.52356297 -0.19844542 -0.19859956
0003c0 8c 6b b0 be ec 90 21 3f 6b e7 33 be bc 0e 9b be
       -0.34457052 0.6311176 -0.17568748 -0.3028468
0003d0 c1 06 a8 3d f3 f0 9b be 44 36 52 3f 90 40 2f bf
       0.08204413 -0.30457267 0.8211405 -0.6845789
0003e0 14 78 2f 3f af 92 0b bf e6 e9 f5 be 66 a8 07 be
       0.685426 -0.54520696 -0.48030013 -0.13247833
0003f0 0c a7 52 3f 6b 0f f6 be ac e4 fa be 34 75 ee be
       0.82286143 -0.48058638 -0.49002588 -0.46573794

fc1.bias f4 [64]
000000 fd df b7 3e e9 70 02 3f 9d 41 b5 3e 86 ac 9f bd
       0.35913077 0.5095354 0.3540162 -0.07796578
000010 5c c0 b4 3e a6 7e 95 3e 25 d4 44 bf c1 30 ca bc
       0.3530301 0.29198188 -0.76886207 -0.02468145
000020 48 d9 ae be 71 fa 39 3e 5d e1 09 bf 12 46 58 3f
       -0.34150147 0.18161942 -0.538595 0.8448192
000030 1a 73 49 3c 99 06 82 bd af 66 93 bf de e2 96 3e
       0.012295509 -0.06348915 -1.1515712 0.2946996
000040 4b 99 4c 3f 79 8e 38 be 5d 33 a7 bb b1 35 28 3f
       0.79921407 -0.18023099 -0.0051025585 0.65706927
000050 e1 ec 73 3f 71 86 50 bf 77 17 39 3f 21 02 48 3f
       0.95283324 -0.8145514 0.7230143 0.7812825
000060 f3 da 54 be d3 ca 87 3d d5 e4 4e 3d 61 5d e5 be
       -0.20786647 0.066304825 0.0505112 -0.44797805
000070 bd e0 86 3f 0c 58 fc be 29 30 3c bf a2 f1 a4 bd
       1.0537335 -0.49285924 -0.73510987 -0.080539
000080 fe da e7 be 4b 3b 35 bf 12 a8 93 3e 33 4b 50 3f
       -0.45284265 -0.707936 0.28839165 0.81364745
000090 71 68 3e 3f 52 83 b5 3c 52 d4 19 be 03 82 e4 3e
       0.74378115 0.022157345 -0.150224 0.4463044
0000a0 24 d8 a0 3e 3f 88 00 bf 24 1d 1c 3e 1d 00 0c bf
       0.31414902 -0.50207895 0.15245491 -0.5468767
0000b0 47 29 04 3f 0a 0d 48 be 3a 1d f4 be 17 a4 b6 bc
       0.51625484 -0.19536224 -0.47678548 -0.022295041
0000c0 c0 15 32 3f 4d 20 97 3e e4 50 a4 be c7 5d 15 bd
       0.6956444 0.2951683 -0.32092965 -0.036466386
0000d0 b7 6d c1 3e 57 4c 51 bf 7b 44 c8 3e 80 db ec be
       0.37779018 -0.8175711 0.39114746 -0.46261215
0000e0 ec d0 41 bf c8 d9 1f bf 9a 59 34 bf e9 3e 32 3f
       -0.75709414 -0.6244168 -0.7044922 0.69627243
0000f0 9a 11 29 bf c4 fb 30 3f f9 3a 1e be 38 79 d5 3e
       -0.6604248 0.69134164 -0.15452184 0.41694045

fc2.weight f4 [64, 64]
000000 c6 e2 45 bd eb 6b 23 be 4b 5e a0 3d 9d 6a 00 3d
       -0.04831197 -0.15959136 0.07830485 0.031351674
000010 dc e2 94 3d 34 26 2e 3d d1 c5 a8 bd 19 d8 86 3d
       0.072698325 0.042516902 -0.082408555 0.06584186
000020 53 94 3a bc 69 af f3 3c 73 a2 ed bd 5d 37 ad bd
       -0.011387902 0.029746728 -0.1160325 -0.08457825
000030 9b 6b 18 be 6e 3b 84 bd a6 a9 35 3c d0 4b 0a be
       -0.14884798 -0.06456648 0.011087811 -0.13505483
000040 38 80 c5 3a c0 d6 51 3d 9c f0 c0 bc 7b c7 f8 bd
       0.0015068119 0.051230192 -0.023552231 -0.12147423
000050 6a c1 12 be 51 58 63 bd 75 03 45 3b 16 0b b2 3d
       -0.14331594 -0.055504147 0.0030061875 0.08693521
000060 3d 62 65 3d d5 9a f3 bc fc f1 f5 3c 56 c8 20 be
       0.05600189 -0.029736916 0.030022614 -0.15701422
000070 55 f3 25 be ab db 2d 3d 84 78 da bd 52 6a a5 3c
       -0.16206105 0.04244582 -0.10667518 0.020192299
000080 3c 0f ff bd ca 4c 9f bd ec 7b eb bd fe 2a d7 3c
       -0.124540776 -0.07778318 -0.114982456 0.026265617
000090 8f 2d 4f bd e4 85 a4 3d b1 53 15 3d 77 d1 8d 3c
       -0.050580557 0.0803335 0.036456767 0.017311795
0000a0 9e 50 a7 bc 65 a2 9c bd 80 6c 89 bd fe a2 8c bc
       -0.020424183 -0.07648162 -0.06710148 -0.017167564
0000b0 bf 1d bd 3c ea d9 d3 bd fa 54 b6 3d 1f c1 5a bd
       0.023085473 -0.10344298 0.08902927 -0.05340683
0000c0 b7 d3 0d be 5b 3e c8 bd 92 fd c1 3d 7a c2 a5 3d
       -0.13850294 -0.09777518 0.09472193 0.08093734
0000d0 3a 9e 08 be df 30 4d 3d 63 45 88 3c 33 ca 0f 3d
       -0.13341609 0.050095435 0.016634649 0.03510494
0000e0 8d a0 a7 3d 05 ca c7 bd 44 6b a8 3a 6f 08 dc ba
       0.081849195 -0.09755329 0.001284935 -0.0016787181
0000f0 a7 6e 99 bd a7 4b 35 3b bd fc 5e bd ef 3f 24 3d
       -0.074918084 0.00276635 -0.05444025 0.040100034
000100 0f 99 9a bd 7b 82 af bd 8d 87 cb 3b 7c 35 fb 3b
       -0.07548725 -0.08569809 0.0062112273 0.007666288
000110 59 08 e6 bd bb 5b 0c bd 2d 8d 27 3d 28 63 92 bc
       -0.11232061 -0.03426717 0.04090612 -0.017869547
000120 5f db 2a 3c 86 a3 23 bd b8 de bd 3c 3f 3e e1 bd
       0.010428279 -0.03995087 0.02317749 -0.109982006
000130 70 49 b0 bd 28 a1 ac bd 83 0a cc 3d d2 08 8b bd
       -0.08607757 -0.084291756 0.099629425 -0.06788792
000140 de b9 b5 bc a3 8d 9c bd 29 86 b0 3d 39 ed a9 3d
       -0.022183355 -0.076442026 0.08619339 0.082972
000150 d5 c4 f0 bd ea 58 16 be 65 c6 04 be 3f 28 18 bd
       -0.11756293 -0.14682356 -0.12966307 -0.037147757
000160 c4 82 02 bd 6b 07 cf bd 0b 60 83 bd f3 a2 9f bc
       -0.03186299 -0.10108837 -0.06414803 -0.01948688
000170 34 42 b2 bd 2d 6a da 3b 76 b5 e5 bc 1a d7 97 bd
       -0.087040335 0.006665489 -0.028040629 -0.07414074
000180 6b 35 fa bc ed f9 b1 3d 43 aa ff bd 9e 46 03 bd
       -0.03054305 0.08690248 -0.12483647 -0.032049768
000190 02 fc a9 bd 55 36 d2 3d c8 64 1f be d8 4c 10 be
       -0.0830002 0.10264269 -0.15565789 -0.14091814
0001a0 5b fa d9 3d 16 de b8 bd 7d 4a 78 bc bc d6 5b bd
       0.10643455 -0.090267345 -0.015154478 -0.053671584
0001b0 04 18 0c bd 6e 3e fe bc 2c 24 7b 3d 24 c1 f2 bc
       -0.03420259 -0.031035628 0.061313793 -0.029633112
0001c0 1a c7 36 be da ec a5 bd 45 f4 5e bd 90 b8 fd 3c
       -0.17849389 -0.081018165 -0.054432172 0.030971795
0001d0 1a da d1 bd de a5 a4 3d ae 4b 23 bd 05 b4 75 bd
       -0.10246678 0.08039449 -0.039867096 -0.059986133
0001e0 63 ed a9 3d 23 f4 d4 3c 7f b4 89 3d ef bd 10 3d
       0.08297231 0.02599532 0.0672388 0.035337385
0001f0 55 89 a9 bd 60 76 f9 bd ca 87 ee bc ea 36 86 3d
       -0.08278147 -0.12180781 -0.029117484 0.06553443
000200 95 36 ef 3d 67 7f 4c 3b 1a d2 90 3e be 5b 1f 3e
       0.116803326 0.0031203867 0.28285295 0.1556234
000210 de cc 61 3d a4 c9 23 3e a0 14 0b bf 80 13 9a be
       0.055127017 0.15994889 -0.54328346 -0.30093002
000220 b0 97 f9 bc 6a 6e 29 bf 3c a7 0e be 4f 5f b2 3e
       -0.030467838 -0.66184103 -0.13930982 0.3483834
000230 4d 23 dc 3e c6 5f e0 3d 30 3b 16 bf 8e 95 ea bd
       0.42995682 0.10955767 -0.5868406 -0.114543065
000240 11 9e a8 3d 7d 67 2c 3f 05 2b 8e 3d fb 99 9a 3e
       0.08233274 0.6734541 0.06941799 0.30195603
000250 1a c4 65 3e 82 12 72 be ae f5 b5 3d 2f 5e c4 3e
       0.22438088 -0.23639873 0.0888475 0.38353106
000260 d8 b4 d8 be 71 6f ff 3b b3 26 9b bd 84 f6 92 bd
       -0.42325473 0.0077952673 -0.07575741 -0.071759254
000270 17 2f 39 3e 24 26 ec bd 78 f3 f3 bc 2a b0 4e 3d
       0.1808437 -0.11530712 -0.02977918 0.050460972
000280 81 e7 4f 3e 65 14 5e bf 03 90 cf 3e f0 a0 69 3e
       0.20303155 -0.8674987 0.4053956 0.22815299
000290 08 1a 01 3e de d9 4c be a6 61 a2 be a4 90 01 3e
       0.12607586 -0.20004985 -0.31715125 0.12652832
0002a0 50 dc fd bc 03 21 11 bf ff a3 81 be e5 f4 e6 3d
       -0.030988842 -0.56690997 -0.25320432 0.11277179
0002b0 b5 f6 5b bd 6d b8 23 3e 4f b2 be be 73 bf 15 bd
       -0.053702075 0.15988322 -0.37245414 -0.036559533
0002c0 4b 1c 6f 3e d4 2b 41 bd 05 76 5b 3d e3 8c a1 be
       0.23350637 -0.04716094 0.05357935 -0.315528
0002d0 8e 40 ec 3d ef 2e 03 be a3 54 bf 3e 36 e3 a8 bd
       0.1153575 -0.12810872 0.3736926 -0.08246462
0002e0 7a 11 95 3e bb 98 d3 be 8d 08 5a bd a7 af 8b bd
       0.29114896 -0.41327462 -0.05323081 -0.068206124
0002f0 37 20 2d be 78 53 8c 3d fe 25 d0 be e3 a3 d2 3c
       -0.1690682 0.06851858 -0.40653986 0.025712913
000300 94 3e 08 c0 6b b1 e6 bd 9e 80 8f bf 33 5e 2f bf
       -2.1288195 -0.112643085 -1.1211126 -0.6850311
000310 12 7f b0 bf 1b 82 31 3e ed 6e 50 3f fb 2c c5 be
       -1.3788779 0.17334788 0.8141926 -0.3851088
000320 e0 33 bc bf b8 6f e0 3e 59 28 bc 3e 7d 98 90 be
       -1.4703331 0.43835235 0.36749533 -0.2824134
000330 6f 4c 63 3e a2 0a c1 3d 67 9f 29 3d a1 44 ef be
       0.22197126 0.09425856 0.041411784 -0.46732047
000340 88 20 d5 3e 6b 1d 8c 3e 21 f3 0d bf 30 2b 10 bf
       0.41626382 0.27366194 -0.5544911 -0.563159
000350 f1 ba 2d 3e 1f bf 23 bf cc 7d 1c 3e b4 2d 6c bd
       0.16965844 -0.639635 0.15282363 -0.057660773
000360 61 bc 8a bd a0 8a a1 3d 17 73 9e be 94 7e d7 be
       -0.06774212 0.07887769 -0.30947182 -0.4208876
000370 4a 17 50 bf 44 2a 74 3e 6d 6b de be 45 65 07 bc
       -0.81285536 0.23844248 -0.43441334 -0.008263891
000380 92 83 25 c0 23 73 b9 bd 5e 86 eb 3e c4 05 bd be
       -2.5861554 -0.09055164 0.46000952 -0.3691846
000390 18 5b ff bf b5 31 0a 3e e3 c0 c9 3f 60 57 c2 be
       -1.9949675 0.13495524 1.5761989 -0.37957287
0003a0 36 e4 75 3e 89 44 a4 bf 8f dd 35 be 87 52 93 bf
       0.24012837 -1.2833415 -0.17760299 -1.150956
0003b0 4a ed 42 3f 13 59 97 3d 50 fd 1a 3d c9 0c 1a 3f
       0.76143324 0.073900364 0.037839234 0.6017576
0003c0 d6 7a 16 3e 21 d0 c9 bd b5 81 75 3e e4 de f9 3d
       0.14695296 -0.098541506 0.2397526 0.12200716
0003d0 c7 fa 8c be c8 b1 94 3d d7 8b 26 3e bf 8b c1 3e
       -0.27535078 0.072604716 0.16264282 0.3780193
0003e0 f1 de 84 bf e0 81 07 3e ea 69 19 bf 05 43 a4 bf
       -1.0380536 0.13233137 -0.5992724 -1.2832953
0003f0 41 45 45 c0 79 2e 5a bf d8 43 4f 3e 65 ac a7 be
       -3.082352 -0.8522716 0.20240724 -0.32748714

fc2.bias f4 [64]
000000 42 2c 21 be 64 d2 c4 3c 6e eb 84 3e 46 7f 99 3d
       -0.1573954 0.024026103 0.2596087 0.074949786
000010 3f 0e a4 bc b2 ee 58 3e e0 1e e5 3e d3 54 43 3d
       -0.020026324 0.21184805 0.44750118 0.047688317
000020 53 d5 88 3b a8 93 ab 3d 77 dc b3 3e 2d 83 ae 3d
       0.004175821 0.083777726 0.3512914 0.085211135
000030 44 c8 8d 3e 8a 21 02 3c 03 46 c1 3d 9b a1 e2 bd
       0.27691853 0.007942567 0.09437182 -0.1106598
000040 68 4f 51 3d 32 1c 3e 3e 09 17 06 3e 10 ab 46 bc
       0.05110112 0.18565443 0.13094725 -0.012125745
000050 57 f6 32 bb af db 66 3e f5 5b b2 3c e8 30 fe 3e
       -0.0027307475 0.2254474 0.021772364 0.49646688
000060 a2 7c 3a 3d 02 8b 13 be 1c 1b 7f 3e 14 01 59 3d
       0.045529015 -0.14408496 0.24912685 0.052979544
000070 e4 32 d7 3e 02 bb c9 3d 7e 65 a2 3e 83 06 f8 3d
       0.42031014 0.09850122 0.31718057 0.12110617
000080 8a d5 42 3e 95 3b 55 bd af 11 9d 3d 13 60 02 3f
       0.19026771 -0.052058775 0.076693885 0.5092785
000090 1b bf ab 3b ca 03 da bd cc 9a 46 bd 67 c0 51 3e
       0.0052412874 -0.10645254 -0.04848747 0.20483552
0000a0 8f a9 c2 3e da 0e 88 bd 9d c8 a8 3e 04 b4 a1 3e
       0.38019988 -0.06643458 0.32965556 0.31582654
0000b0 da f6 3e 3e f6 43 af 3c 4c 46 77 3e 55 6f 26 bc
       0.18648854 0.021394711 0.2414791 -0.01015838
0000c0 d3 b3 97 be bb 55 fb bd 30 f9 a6 be b8 b7 24 3e
       -0.29629382 -0.12272211 -0.3261199 0.16085708
0000d0 f9 fc 99 3d 4e 9d 9c bd 60 3d 0a 3d df 57 9b 3b
       0.07518954 -0.07647191 0.033749938 0.0047406997
0000e0 62 21 a2 3d d6 10 b1 3e 02 64 36 3e 41 6e c4 3d
       0.079165235 0.34583157 0.17811587 0.09591342
0000f0 03 14 46 3e 8e 18 c3 3e a3 69 82 3e d1 4f 00 3e
       0.19343571 0.3810467 0.2547122 0.12530448

fc3.weight f4 [3, 64]
000000 58 bf bd 3d 57 f9 a8 3d 79 b6 1c bf ec 86 d1 3f
       0.092650115 0.08250683 -0.6121593 1.63693
000010 76 80 94 3f 15 4b 60 be ab 81 68 bf 08 52 ca bf
       1.1601703 -0.21903642 -0.9082286 -1.5806284
000020 8b 30 f7 bd 20 3b 68 be df d9 12 40 c1 98 cc bd
       -0.12069806 -0.22678804 2.2945478 -0.09990073
000030 28 a3 3a bf 42 bc d1 bc 7d df 78 be cf a0 7a 3d
       -0.72905207 -0.025602464 -0.24304004 0.061188515
000040 c0 8b ec 3f 7c b0 bb bd b9 e8 02 be fc ea a7 3f
       1.8480148 -0.09164521 -0.12784089 1.3118587
000050 df 68 75 be 10 02 03 40 6b f3 93 3d 72 32 9a bd
       -0.23965786 2.047001 0.07224163 -0.07529153
000060 0f 2e bd 3f 12 81 a5 3d 48 84 82 bd 3c 27 21 be
       1.4779681 0.08081259 -0.06372887 -0.15737623
000070 f3 16 86 bd 6c 66 84 be 03 3c 41 3f b4 e6 f5 3f
       -0.06547346 -0.25859392 0.75482196 1.921103
000080 0a 4e c6 be 7b 19 5d 3f bb 96 88 3d 35 15 77 bf
       -0.38731414 0.86367005 0.066693746 -0.96516734
000090 de 6d c7 bf dc e9 8e bb 82 14 eb bd 51 3d 8d bf
       -1.5580404 -0.0043613743 -0.11478521 -1.1034337
0000a0 55 cd da 3f 49 8c 8a 3e f2 6b 05 40 52 61 a3 be
       1.7093912 0.27060154 2.0847135 -0.31910187
0000b0 18 a0 c0 be 1a a0 36 bf cd 7f 57 bf 6a bc b5 bd
       -0.37622142 -0.71338046 -0.84179384 -0.08873828
0000c0 99 06 b7 bf 79 7e 84 bf 4b 2f 15 c0 c5 6a 14 bc
       -1.4298888 -1.0351096 -2.3310115 -0.009058659
0000d0 ef f7 9f 3f 34 03 ba 3f 5b cd 87 be bb c5 b2 be
       1.2497538 1.4532228 -0.2652386 -0.3491648
0000e0 67 84 d3 bd c7 f9 2d bf ad 2a 97 be 5c 8a 2a be
       -0.10327988 -0.67959255 -0.29524747 -0.16654342
0000f0 2d 29 4e bc 8b 69 9f be 13 8e 2a bf d1 7f be bc
       -0.012583059 -0.3113521 -0.6662304 -0.023254307
000100 a3 73 1a 3c 57 a5 0d be 40 48 d3 be 80 ad 6e 3f
       0.009426984 -0.13832603 -0.4126606 0.9323349
000110 df 6d 38 3f 2c 22 1e be ae cc 05 bf 15 34 9c bf
       0.7204265 -0.15442723 -0.5226544 -1.2203394
000120 49 67 b2 bc 87 75 d8 be 25 b7 cb 3f e9 58 8e be
       -0.021777766 -0.42277166 1.5915266 -0.27802208
000130 58 c8 41 bf 74 ad f0 bd 46 12 2b 3b ba 3a c8 3d
       -0.75696325 -0.117518336 0.002610342 0.09776826
000140 06 bf cf 3f a6 d9 01 be 98 6c 21 bc 9b 64 0a 40
       1.6230171 -0.12680683 -0.009852551 2.1623905
000150 e6 06 e9 bd ec 26 97 3f e7 d0 6c bd 94 4d 2f bf
       -0.11378269 1.1808753 -0.057816412 -0.6847775
000160 cf df 7e 3f a4 5c d0 bd 5b 86 61 be 18 a3 0a be
       0.99560255 -0.1017392 -0.22023909 -0.13538778
000170 49 4a e2 be a7 52 20 bf dd c1 6a 3f 84 af 81 3f
       -0.441973 -0.6262612 0.9170206 1.0131688
000180 ef 35 01 bf 92 21 06 3f f2 30 48 bd f9 cf b4 bf
       -0.5047292 0.52394974 -0.048874803 -1.4125968
000190 b4 db 4e bf c1 45 57 3d 77 6b bb be 7e 15 22 bf
       -0.8080399 0.052556757 -0.36605427 -0.63314044
0001a0 fc de 84 3f bc a8 ca 3d 71 51 6a 3f e2 b8 b8 bd
       1.038055 0.09895465 0.9153052 -0.090196386
0001b0 d9 e8 96 be f7 ee 66 3e 87 3d bc be 5c 9c 48 3c
       -0.29474524 0.22552095 -0.36765692 0.01224431
0001c0 06 b9 3d bf 55 7a 16 bf c8 67 c0 bf c6 7e 8c be
       -0.7411045 -0.58780414 -1.5031672 -0.2744047
0001d0 3f 66 e5 3f 98 e7 48 3f fd e6 81 bd 5c 17 1a bf
       1.7921828 0.78478384 -0.06342886 -0.60191894
0001e0 c4 ab 26 3c 98 27 f3 be 2a 79 04 be 98 3f 19 bd
       0.010172788 -0.47491145 -0.12936845 -0.037414163
0001f0 46 92 b6 be c4 b7 13 bf fa e9 89 be 4d 51 ce 3d
       -0.35658473 -0.5770228 -0.26936322 0.10074101
000200 70 c5 32 bc 91 22 db b9 2c 10 32 bd d9 b5 b4 3f
       -0.010911331 -0.0004179669 -0.043472454 1.4117996
000210 ed 11 ba 3f e0 c1 92 be a8 60 e5 be bc 16 90 bf
       1.453672 -0.2866354 -0.44800305 -1.1256938
000220 36 70 32 be e0 43 5e bc 5c 67 b3 3f 3a b4 82 be
       -0.17425618 -0.013565987 1.4015918 -0.25528127
000230 fc 86 8e bf 49 98 33 be d4 92 36 bd c0 e9 96 3c
       -1.1134944 -0.17538561 -0.04457362 0.018422008
000240 58 eb 0b 40 ec 8f c4 bd a0 f7 a3 bd 85 d6 b5 3f
       2.1862392 -0.095977634 -0.08006215 1.4206091
000250 54 fb ff bc 4e 1d 8c 3f 6b 1c b6 3d bf ab 68 bf
       -0.031247772 1.0946443 0.08892139 -0.90887064
000260 86 a3 9e 3f f0 99 b5 3d c6 4f 43 3f e9 94 aa bd
       1.2393653 0.08867252 0.762936 -0.083291836
000270 03 cf 64 bf 43 8a 8b be 6a eb 99 3f 54 92 23 40
       -0.89378375 -0.27253923 1.2024968 2.5558062
000280 8b ea 4e bf a8 be 84 3f a9 ed 08 bc b1 35 85 bf
       -0.80826634 1.0370684 -0.008357444 -1.040701
000290 cd b9 a4 bf d5 2d 47 3d 98 ae 00 bd dc c3 8b bf
       -1.2869202 0.048627693 -0.031416506 -1.0919147
0002a0 4d 91 bf 3f e7 1c ba 3d 8a 51 e7 3f 73 07 fc bb
       1.4966217 0.09087544 1.8071759 -0.0076913177
0002b0 01 b7 57 be 66 8d eb bd f2 57 a5 3c 60 65 49 bd
       -0.21065904 -0.11501579 0.020183537 -0.049168944
0002c0 95 87 9b bf c0 7d 48 bf 55 76 32 c0 8b 32 3f bd
       -1.2150751 -0.7831688 -2.7884724 -0.04667906
0002d0 de 38 de 3f a3 74 92 3f de 98 ef 3b d4 b3 69 bf
       1.7361104 1.1441845 0.0073119244 -0.9129002
0002e0 6b 71 df bd 34 10 09 bf 78 cd 9a bd 89 08 d6 bd
       -0.10910305 -0.5354035 -0.07558721 -0.10450847
0002f0 82 b8 b2 bd d7 6e 0b bf 42 15 95 bf 93 df 44 be
       -0.08726598 -0.54466003 -1.1647112 -0.19225912

fc3.bias f4 [3]
000000 6d e9 5b 3d 5a 20 b9 be fd 6f 0f 3e
       0.05368941 -0.36157495 0.14007564
