model/checkpoint_5800.pth (torch, 21912 bytes, 6 tensors)

fc1.weight f4 [64, 6]
0	0x3eb33392	0.35000283
1	0x3f4eda97	0.8080229
2	0xbe867a04	-0.26264966
3	0xbf356429	-0.7085596
4	0xbd9b57e2	-0.07585122
5	0x3e8c34b5	0.27383962
6	0x3ec9b1a4	0.39393342
7	0x3f59b9d6	0.8504919
8	0xbecf6c27	-0.405122
9	0xbdae83fa	-0.08521266
10	0xbdbd826e	-0.09253393
11	0x3d613275	0.05497976
12	0xbf5257a3	-0.82164973
13	0xbe904935	-0.28180853
14	0xbf7a9afc	-0.9789274
15	0x3dc31f8d	0.09527502
16	0x3e09bb4a	0.13450351
17	0x3e480e42	0.19536689
18	0xbdad4c51	-0.08461822
19	0xbf48ae32	-0.783908
20	0xbd87f73b	-0.06638952
21	0x3f877d9d	1.0585209
22	0x3e88d1a2	0.26722437
23	0x3e9021e8	0.28150868
24	0xbe966779	-0.29375818
25	0x3f86d45f	1.053356
26	0x3f466e86	0.77512395
27	0xbedbc177	-0.4292104
28	0xbebe66bd	-0.37187758
29	0x3e02ae49	0.12761797
30	0xbf07103a	-0.52759135
31	0x3f706174	0.938987
32	0xbf3b5c60	-0.7318783
33	0xbeaa1747	-0.33220884
34	0xbeee2112	-0.46509606
35	0xbea9cd9b	-0.33164677
36	0xbfbf833d	-1.4961926
37	0xbeb84bfc	-0.3599547
38	0x3f223aa3	0.6337072
39	0xbe514ee6	-0.20440254
40	0xbe9f4549	-0.31107548
41	0xbd7bb43e	-0.06145119
42	0xbe8623d4	-0.2619921
43	0xbf7d37ac	-0.98913074
44	0xbf527fe4	-0.82226396
45	0xbecc3d8e	-0.39890712
46	0x3dfc810c	0.12329301
47	0xbe4a469f	-0.19753502
48	0xbf4796e5	-0.7796462
49	0xbfb741f0	-1.4316998
50	0x3f9d6f53	1.2299598
51	0x3eb66189	0.35621288
52	0x3e77f08a	0.24212852
53	0x3ce96510	0.028490573
54	0xbe605919	-0.21908988
55	0xbf74d67b	-0.9563977
56	0xbd81f633	-0.06345787
57	0x3c893648	0.016749516
58	0xbea3f14c	-0.32020032
59	0xbeed05e6	-0.46293563
60	0x3e94d661	0.29069808
61	0xbe876d28	-0.26450467
62	0x3f52ff2e	0.82420623
63	0x3d0380ad	0.032105137
64	0x3f2fb127	0.6862969
65	0x3e81aed5	0.253287
66	0x3ec89909	0.39179257
67	0xbefd7f7e	-0.4951133
68	0x3e3c474c	0.18386573
69	0x3ec9a0eb	0.39380583
70	0xbeb8d0d1	-0.36096814
71	0xbe3fd7f8	-0.1873473
72	0x3f3b877c	0.7325361
73	0x3dc48d56	0.0959727
74	0x3f12acf1	0.5729514
75	0x3fa8753b	1.3160776
76	0xbe756cef	-0.23967336
77	0xbef143ff	-0.4712219
78	0x3d83f92d	0.06444011
79	0xbfbf8ee7	-1.4965485
80	0xbf5ecc7d	-0.87030774
81	0x3f82fe5d	1.0233876
82	0x3d56f61a	0.052480794
83	0xbeeb4ff3	-0.45959434
84	0x3c9a6de3	0.018851226
85	0x3ec44781	0.38335803
86	0xbf33c263	-0.70218486
87	0x3efcf82c	0.4940809
88	0x3e9af8ce	0.30267948
89	0xbe2b84a7	-0.16749822
90	0x3f8b3792	1.0876334
91	0x3efe8a62	0.49714953
92	0x3e2d9b8c	0.16953868
93	0x3db79fb7	0.0896601
94	0xbed0587c	-0.40692508
95	0xbe4d431d	-0.20045133
96	0x3ed0661a	0.40702897
97	0x3f072d9e	0.5280398
98	0xbf2d9073	-0.67798537
99	0xbf5090ea	-0.8147112
100	0x3f183bb6	0.5946611
101	0x3ea20eca	0.31651908
102	0xbf95a6cf	-1.1691531
103	0xbd72b8ab	-0.059258144
104	0xbf709fd2	-0.93993866
105	0x3a86a805	0.0010273462
106	0xbe6c973e	-0.2310457
107	0xbe87421d	-0.26417628
108	0xbe3d247c	-0.18470949
109	0x3e33614f	0.17517589
110	0x3e49dae7	0.19712411
111	0xbf65f723	-0.89830226
112	0xbf026fc8	-0.50951815
113	0x3ead21a9	0.33814743
114	0x3f816ba5	1.0110976
115	0xba8e893a	-0.0010874637
116	0xbe943e22	-0.28953654
117	0xbea78ac2	-0.3272305
118	0x3e9515b2	0.29118115
119	0x3e62bd52	0.22142532
120	0x3f41e5e4	0.7574141
121	0x3e820d4f	0.2540078
122	0xbeb39ffb	-0.35082993
123	0x3f06f4c0	0.5271721
124	0xbed0fb42	-0.40816694
125	0xbe5ed51f	-0.21760987
126	0xbf33ee51	-0.70285517
127	0xbf538717	-0.82628006
128	0xbdb47b24	-0.0881255
129	0xbedb93c1	-0.42886165
130	0xbe46b428	-0.19404662
131	0xbe31aca9	-0.17351021
132	0xbe53928d	-0.20661373
133	0xbf459f34	-0.7719605
134	0x3e91d831	0.28485253
135	0xbebda89d	-0.37042704
136	0x3e6a5c92	0.22886875
137	0x3c888420	0.016664565
138	0x3ea0cbab	0.31405386
139	0x3e7a55cb	0.2444679
140	0x3f2376be	0.6385306
141	0x3ee295a9	0.44254807
142	0x3e50a984	0.20377165
143	0x3e6a3145	0.22870357
144	0xbf33d61f	-0.702486
145	0x3f19d8b7	0.60096306
146	0xbe6cb6d9	-0.23116626
147	0x3eed0881	0.4629555
148	0xbea71601	-0.32633975
149	0xbea6fc77	-0.3261449
150	0x3e72d4a5	0.2371393
151	0xbf4ecb98	-0.8077941
152	0x3e345b7b	0.17613022
153	0x3fc605e7	1.5470551
154	0xbe6d4669	-0.2317139
155	0xbeb2aff5	-0.3489987
156	0xbd953b2c	-0.07286677
157	0xbf8561e5	-1.04205
158	0xbe120b56	-0.14262137
159	0xbdbf1bc9	-0.093314715
160	0xbeccd2df	-0.40004632
161	0xbee2499b	-0.44196782
162	0xbf320718	-0.69542074
163	0xbeeee6f2	-0.46660572
164	0xbf51f670	-0.8201666
165	0xbf120bdc	-0.57049346
166	0xbec2aa8a	-0.38020736
167	0x3e39ff9a	0.1816391
168	0xbc3d010c	-0.011535894
169	0xbe4f03e1	-0.20216323
170	0x3eb4089a	0.35162812
171	0xbf0dacd0	-0.55341816
172	0x3e0b235f	0.13587712
173	0x3e6783fa	0.22608939
174	0xbed816d2	-0.4220491
175	0x3e3e7592	0.18599537
176	0xbf06abc0	-0.5260582
177	0x3f9bc372	1.216902
178	0x3eb407f7	0.35162327
179	0xbea2b021	-0.31775
180	0xbe99ba1d	-0.30024806
181	0xbd8eefbb	-0.06979319
182	0x3efc36da	0.49260598
183	0x3d916407	0.07099157
184	0x3f296c3f	0.66180795
185	0x3ecae9ee	0.396316
186	0xbed24181	-0.410656
187	0x3e630f39	0.22173776
188	0xbf8696cd	-1.0514771
189	0x3ed52541	0.41629985
190	0x3edde64f	0.43339774
191	0x3ed5fc0f	0.41793868
192	0xbcfaa5c7	-0.030596627
193	0x3f8429e0	1.0325279
194	0xbf898fa8	-1.0746965
195	0xbf022a29	-0.5084558
196	0xb8f9c8f6	-0.00011910677
197	0x3ea8e647	0.32988188
198	0xbf156b01	-0.583664
199	0x3f0d68a2	0.5523778
200	0x3e7988a1	0.24368526
201	0xbd24156f	-0.040059503
202	0xbf3e259d	-0.74276143
203	0xbecb1b07	-0.39669058
204	0xbed987cf	-0.42486426
205	0xbf1a376d	-0.60240823
206	0xbe8aeb0c	-0.27132452
207	0x3f65750b	0.8963172
208	0x3c4b5e74	0.012412656
209	0xbe571129	-0.2100264
210	0x3e7d3307	0.24726497
211	0x3bedd63a	0.007258204
212	0xbe999388	-0.2999537
213	0x3dee18b6	0.11625807
214	0x3e2ad68c	0.16683406
215	0x3e4dd1a8	0.20099509
216	0x3f7315ae	0.94954956
217	0x3f75ee3a	0.9606663
218	0x3f95d25e	1.1704824
219	0xbfc36cd4	-1.5267587
220	0x3e8d8d41	0.2764683
221	0x3f2b64ad	0.66950494
222	0x3f56dbf4	0.8392937
223	0xbed2210e	-0.41040844
224	0xbfae5bbd	-1.3621746
225	0xbe429204	-0.19001013
226	0xbe14a5a6	-0.14516315
227	0xbd3ddf5e	-0.046355598
228	0xbf98a4a1	-1.1925241
229	0x3f1ca07f	0.611824
230	0xbea07eaf	-0.31346652
231	0x3f2583a4	0.6465399
232	0x3ecc7fb1	0.3994117
233	0x3eb3732b	0.35048804
234	0x3f325dd5	0.69674426
235	0x3d83c8ea	0.06434806
236	0x3f16e3ea	0.5894152
237	0xbf0ea7b8	-0.5572467
238	0xbe540952	-0.2070668
239	0xbe4c814d	-0.199712
240	0xbed683fb	-0.41897568
241	0x3f2eb1c7	0.68240017
242	0xbe31a565	-0.1734825
243	0xbe372af4	-0.17887479
244	0x3dac8f87	0.08425813
245	0xbe8162a1	-0.2527056
246	0x3f64a0b6	0.89307725
247	0xbf2e71a3	-0.68142146
248	0x3f2c22c4	0.6724055
249	0xbf14e741	-0.58165365
250	0xbf004051	-0.5009814
251	0xbe1510e2	-0.14557222
252	0x3f50bc96	0.8153776
253	0xbef2c508	-0.47415948
254	0xbf01ece8	-0.50752115
255	0xbf07b2cf	-0.53007215

fc1.bias f4 [64]
0	0x3ea6fbea	0.3261407
1	0x3efa82ac	0.4892782
2	0x3ebce483	0.3689309
3	0xbd544fa8	-0.05183378
4	0x3ec26563	0.37967977
5	0x3ece5f5f	0.40307137
6	0xbf51ff61	-0.820303
7	0xbbeaadb7	-0.0071618217
8	0xbee0de8a	-0.43919784
9	0x3e5fa950	0.21841931
10	0xbf048797	-0.51769394
11	0x3f60a439	0.87750584
12	0xbc1c49d9	-0.009539091
13	0xbd24fa98	-0.040278047
14	0xbf9af3c0	-1.2105637
15	0x3ea61a25	0.32441822
16	0x3f3fce10	0.749238
17	0xbe0ebe58	-0.13939798
18	0x3d596c19	0.053081606
19	0x3f1d9850	0.61560535
20	0x3f6ad887	0.91736645
21	0xbf4afdbc	-0.7929342
22	0x3f3406e7	0.7032303
23	0x3f4de06b	0.8042056
24	0xbe75bdd0	-0.23998189
25	0x3ce65c43	0.028120166
26	0x3d90b9b1	0.07066668
27	0xbeea5b84	-0.45772946
28	0x3f88ab4e	1.0677278
29	0xbefa3eb5	-0.48875967
30	0xbf44e6d8	-0.7691474
31	0xbd8de252	-0.06927933
32	0xbef3d5ad	-0.4762396
33	0xbf439532	-0.7639953
34	0x3e8cb487	0.2748148
35	0x3f575f06	0.8412937
36	0x3f3dc1d8	0.7412391
37	0x3c73b677	0.014875046
38	0xbe41abd8	-0.1891321
39	0x3ef150b6	0.4713189
40	0x3ecd6285	0.40114227
41	0xbefb9e67	-0.4914429
42	0x3e0e829c	0.13917011
43	0xbf0a900c	-0.5412605
44	0x3ef0a21d	0.46998683
45	0xbe25e555	-0.16200764
46	0xbefffdc9	-0.4999831
47	0x3d369731	0.04457778
48	0x3f398c13	0.7247936
49	0x3ea0fdc4	0.31443608
50	0xbe966699	-0.2937515
51	0xbd355e5f	-0.044279452
52	0x3ed6823a	0.4189623
53	0xbf51fd57	-0.8202719
54	0x3ea5c439	0.32376269
55	0xbef41d65	-0.47678676
56	0xbf488cf6	-0.7834009
57	0xbf229632	-0.6351043
58	0xbf49a0a6	-0.78760755
59	0x3f3bc9af	0.7335462
60	0xbf29642f	-0.66168493
61	0x3f398de2	0.7248212
62	0xbdccd79e	-0.10002063
63	0x3ee827ee	0.45342964

fc2.weight f4 [64, 64]
0	0xbd45e2c6	-0.04831197
1	0xbe236beb	-0.15959136
2	0x3da05e4b	0.07830485
3	0x3d006a9d	0.031351674
4	0x3d94e2dc	0.072698325
5	0x3d2e2634	0.042516902
6	0xbda8c5d1	-0.082408555
7	0x3d86d819	0.06584186
8	0xbc3a9453	-0.011387902
9	0x3cf3af69	0.029746728
10	0xbdeda273	-0.1160325
11	0xbdad375d	-0.08457825
12	0xbe186b9b	-0.14884798
13	0xbd843b6e	-0.06456648
14	0x3c35a9a6	0.011087811
15	0xbe0a4bd0	-0.13505483
16	0x3ac58038	0.0015068119
17	0x3d51d6c0	0.051230192
18	0xbcc0f09c	-0.023552231
19	0xbdf8c77b	-0.12147423
20	0xbe12c16a	-0.14331594
21	0xbd635851	-0.055504147
22	0x3b450375	0.0030061875
23	0x3db20b16	0.08693521
24	0x3d65623d	0.05600189
25	0xbcf39ad5	-0.029736916
26	0x3cf5f1fc	0.030022614
27	0xbe20c856	-0.15701422
28	0xbe25f355	-0.16206105
29	0x3d2ddbab	0.04244582
30	0xbdda7884	-0.10667518
31	0x3ca56a52	0.020192299
32	0xbdff0f3c	-0.124540776
33	0xbd9f4cca	-0.07778318
34	0xbdeb7bec	-0.114982456
35	0x3cd72afe	0.026265617
36	0xbd4f2d8f	-0.050580557
37	0x3da485e4	0.0803335
38	0x3d1553b1	0.036456767
39	0x3c8dd177	0.017311795
40	0xbca7509e	-0.020424183
41	0xbd9ca265	-0.07648162
42	0xbd896c80	-0.06710148
43	0xbc8ca2fe	-0.017167564
44	0x3cbd1dbf	0.023085473
45	0xbdd3d9ea	-0.10344298
46	0x3db654fa	0.08902927
47	0xbd5ac11f	-0.05340683
48	0xbe0dd3b7	-0.13850294
49	0xbdc83e5b	-0.09777518
50	0x3dc1fd92	0.09472193
51	0x3da5c27a	0.08093734
52	0xbe089e3a	-0.13341609
53	0x3d4d30df	0.050095435
54	0x3c884563	0.016634649
55	0x3d0fca33	0.03510494
56	0x3da7a08d	0.081849195
57	0xbdc7ca05	-0.09755329
58	0x3aa86b44	0.001284935
59	0xbadc086f	-0.0016787181
60	0xbd996ea7	-0.074918084
61	0x3b354ba7	0.00276635
62	0xbd5efcbd	-0.05444025
63	0x3d243fef	0.040100034
64	0xbd9a990f	-0.07548725
65	0xbdaf827b	-0.08569809
66	0x3bcb878d	0.0062112273
67	0x3bfb357c	0.007666288
68	0xbde60859	-0.11232061
69	0xbd0c5bbb	-0.03426717
70	0x3d278d2d	0.04090612
71	0xbc926328	-0.017869547
72	0x3c2adb5f	0.010428279
73	0xbd23a386	-0.03995087
74	0x3cbddeb8	0.02317749
75	0xbde13e3f	-0.109982006
76	0xbdb04970	-0.08607757
77	0xbdaca128	-0.084291756
78	0x3dcc0a83	0.099629425
79	0xbd8b08d2	-0.06788792
80	0xbcb5b9de	-0.022183355
81	0xbd9c8da3	-0.076442026
82	0x3db08629	0.08619339
83	0x3da9ed39	0.082972
84	0xbdf0c4d5	-0.11756293
85	0xbe1658ea	-0.14682356
86	0xbe04c665	-0.12966307
87	0xbd18283f	-0.037147757
88	0xbd0282c4	-0.03186299
89	0xbdcf076b	-0.10108837
90	0xbd83600b	-0.06414803
91	0xbc9fa2f3	-0.01948688
92	0xbdb24234	-0.087040335
93	0x3bda6a2d	0.006665489
94	0xbce5b576	-0.028040629
95	0xbd97d71a	-0.07414074
96	0xbcfa356b	-0.03054305
97	0x3db1f9ed	0.08690248
98	0xbdffaa43	-0.12483647
99	0xbd03469e	-0.032049768
100	0xbda9fc02	-0.0830002
101	0x3dd23655	0.10264269
102	0xbe1f64c8	-0.15565789
103	0xbe104cd8	-0.14091814
104	0x3dd9fa5b	0.10643455
105	0xbdb8de16	-0.090267345
106	0xbc784a7d	-0.015154478
107	0xbd5bd6bc	-0.053671584
108	0xbd0c1804	-0.03420259
109	0xbcfe3e6e	-0.031035628
110	0x3d7b242c	0.061313793
111	0xbcf2c124	-0.029633112
112	0xbe36c71a	-0.17849389
113	0xbda5ecda	-0.081018165
114	0xbd5ef445	-0.054432172
115	0x3cfdb890	0.030971795
116	0xbdd1da1a	-0.10246678
117	0x3da4a5de	0.08039449
118	0xbd234bae	-0.039867096
119	0xbd75b405	-0.059986133
120	0x3da9ed63	0.08297231
121	0x3cd4f423	0.02599532
122	0x3d89b47f	0.0672388
123	0x3d10bdef	0.035337385
124	0xbda98955	-0.08278147
125	0xbdf97660	-0.12180781
126	0xbcee87ca	-0.029117484
127	0x3d8636ea	0.06553443
128	0x3dded06c	0.10879597
129	0x3c20be6c	0.009811025
130	0x3ea37093	0.31921825
131	0x3e43d619	0.1912464
132	0x3cbbe0ca	0.022934336
133	0x3e807e1e	0.2509622
134	0xbee90dc8	-0.45518327
135	0xbe97aca9	-0.29623917
136	0xbd381bbd	-0.04494833
137	0xbf2c5984	-0.6732409
138	0xbe0c6483	-0.13710217
139	0x3ebec4bd	0.37259474
140	0x3ee55d87	0.44797918
141	0x3dee913c	0.11648795
142	0xbf138f5f	-0.5764064
143	0xbe4f6d9b	-0.20256655
144	0x3deaf05e	0.11471628
145	0x3f35a778	0.7095866
146	0x3dd66687	0.10468774
147	0x3ea9ac37	0.33139202
148	0x3e8349ea	0.2564233
149	0xbe05898b	-0.1304075
150	0x3d6bf66e	0.05760806
151	0x3ec0563d	0.37565795
152	0xbeb58eae	-0.35460418
153	0x3c858acc	0.016301535
154	0xbd5dbc45	-0.054134626
155	0xbb92bc6f	-0.0044780294
156	0x3e368447	0.17823897
157	0xbdae35fe	-0.08506392
158	0xbc10e0e9	-0.008842685
159	0xbaa15fcb	-0.0012311874
160	0x3e8b5bbc	0.27218425
161	0xbf5cc2c8	-0.8623471
162	0x3ee252d9	0.44203833
163	0x3e8f7f54	0.2802683
164	0x3e21672e	0.15762016
165	0xbeb1087d	-0.3457679
166	0xbe8e2cef	-0.27768657
167	0x3de78485	0.11304573
168	0x3c5e8550	0.013581589
169	0xbf2976da	-0.6619698
170	0xbe939860	-0.2882719
171	0x3dfe330e	0.12412082
172	0xbd7347ef	-0.059394773
173	0x3e0bcec8	0.136531
174	0xbec026df	-0.37529656
175	0x3d1f935b	0.03895889
176	0x3e78650d	0.24257298
177	0xbd9c08f1	-0.07618893
178	0x3d5c7deb	0.053831022
179	0xbea9f7ba	-0.33196813
180	0x3e0cc9c0	0.13748837
181	0xbded6a78	-0.11592573
182	0x3eaf2eb2	0.34215313
183	0xbcac5fa5	-0.0210417
184	0x3e626b1a	0.22111169
185	0xbf04a512	-0.5181438
186	0x3d74e1e1	0.059785727
187	0xbde41c58	-0.11138219
188	0xbe1c2a96	-0.1525062
189	0x3dd55d64	0.104182035
190	0xbed26fd0	-0.4110093
191	0x3b93e37d	0.0045132027
192	0xc0151717	-2.3295343
193	0xbe3e3b28	-0.18577254
194	0xbf850771	-1.0392896
195	0xbf2bff51	-0.67186457
196	0xbf99209e	-1.1963079
197	0x3e1401cf	0.14453815
198	0x3f660df3	0.89865035
199	0xbec1946c	-0.3780855
200	0xbfccccc0	-1.5999985
201	0x3edbafbd	0.42907515
202	0x3eb1fbb9	0.34762362
203	0xbe922d5f	-0.2855024
204	0x3e5f893c	0.21829695
205	0x3da9a890	0.08284104
206	0x3d27a1f6	0.040925942
207	0xbefca90a	-0.49347717
208	0x3ed6d920	0.41962528
209	0x3e8c0b34	0.27352297
210	0xbf4adf4e	-0.79246986
211	0xbf0fdd91	-0.5619746
212	0x3de591ed	0.11209474
213	0xbf56cc86	-0.8390583
214	0x3e41093a	0.18851176
215	0xbd73cc1a	-0.05952082
216	0xbdd3fc51	-0.1035086
217	0x3d8f6788	0.07002169
218	0xbea6fb58	-0.32613635
219	0xbee3f9fc	-0.4452666
220	0xbf4cda3f	-0.8002052
221	0x3e6fdc3a	0.23423854
222	0xbeda87a0	-0.426816
223	0x3d9c2d70	0.07625854
224	0xc03c5258	-2.9425259
225	0xbd93d0c2	-0.07217552
226	0x3eea5cbe	0.45773882
227	0xbea6b24a	-0.325579
228	0xbffdd9df	-1.9832114
229	0xbb6c0c38	-0.0036018025
230	0x3fd8894a	1.6916897
231	0xbecbca06	-0.3980257
232	0x3e6defbe	0.23235986
233	0xbf6fc9d2	-0.9366733
234	0xbe12fdda	-0.14354649
235	0xbf547608	-0.829926
236	0x3f521059	0.82056195
237	0x3d804c36	0.06264536
238	0x3d53539c	0.051593408
239	0x3f1e226f	0.6177129
240	0x3e0fbf1c	0.14037746
241	0xbdaed99c	-0.085375994
242	0x3e7a3002	0.24432376
243	0x3d461ef1	0.04836935
244	0xbe821867	-0.25409243
245	0x3d94b1c8	0.072604716
246	0x3e378936	0.17923436
247	0x3e7945ad	0.24342985
248	0xbf7eccd5	-0.995313
249	0x3e28e34c	0.16492957
250	0xbf3a0a46	-0.72671926
251	0xbfa9567e	-1.322952
252	0xc04cc8fd	-3.1997674
253	0xbf5744c9	-0.8408933
254	0x3e5ab1d1	0.21356894
255	0xbeb30e02	-0.34971625

fc2.bias f4 [64]
0	0xbe212c42	-0.1573954
1	0x3cc4d264	0.024026103
2	0x3e9ab8d4	0.30219138
3	0x3d87fbf2	0.06639852
4	0xbd00b883	-0.031425964
5	0x3e621d13	0.22081403
6	0x3ee3b7f8	0.44476295
7	0x3d32a0fe	0.043610565
8	0xbc04adba	-0.00809806
9	0x3dfe8c42	0.12429096
10	0x3ec8f964	0.3925277
11	0x3db8f880	0.090317726
12	0x3e8d64aa	0.27615863
13	0x3a951e7e	0.0011376885
14	0x3dbd8ffb	0.09255978
15	0xbde2a19b	-0.1106598
16	0x3d82c9f4	0.06386176
17	0x3e4535e4	0.19258839
18	0x3ddb2edd	0.10702298
19	0xbd30adb8	-0.04313442
20	0x3b956f42	0.004560382
21	0x3e5ed221	0.21759845
22	0x3cb25bf5	0.021772364
23	0x3f027ad9	0.509687
24	0x3d16c978	0.03681323
25	0xbe138b02	-0.14408496
26	0x3e9344eb	0.28763518
27	0x3d2c5ed7	0.042082634
28	0x3edb1c22	0.427949
29	0x3df429c8	0.11922032
30	0x3e998471	0.29983857
31	0x3e126e6d	0.14299937
32	0x3e2c3c6e	0.16819927
33	0xbd871114	-0.06595054
34	0x3d9d11af	0.076693885
35	0x3efcca5f	0.49373147
36	0x3cbe753a	0.023249257
37	0xbdda03ca	-0.10645254
38	0xba354ec3	-0.00069163385
39	0x3e535055	0.20636113
40	0x3ec4ff20	0.38475895
41	0xbd880eda	-0.06643458
42	0x3eb7ac5e	0.35873693
43	0x3e9fc61d	0.31205836
44	0x3e44a716	0.19204363
45	0x3d12da82	0.035852917
46	0x3e832688	0.25615335
47	0xbc266f55	-0.01015838
48	0xbe9fd854	-0.31219733
49	0xbe23e72e	-0.16006157
50	0xbe84d55b	-0.25944027
51	0x3e3f4d9b	0.18681948
52	0x3d5e2640	0.054235697
53	0xbdc56da3	-0.09640052
54	0x3d123135	0.03569146
55	0x3d2689a8	0.040658623
56	0x3daec388	0.085333884
57	0x3eb9078d	0.36138573
58	0x3e322cd5	0.17399915
59	0x3dbd8f39	0.09255833
60	0x3e638950	0.2222035
61	0x3ec1f0dc	0.37879074
62	0x3e7d26f5	0.24721892
63	0x3dd4e806	0.103958175

fc3.weight f4 [3, 64]
0	0x3dbdbf58	0.092650115
1	0x3da8f957	0.08250683
2	0xbf270c60	-0.6525326
3	0x3fd8046e	1.6876352
4	0x3f9683a0	1.1758919
5	0xbe5d3395	-0.21601708
6	0xbf6537b4	-0.8953812
7	0xbfd767c2	-1.6828539
8	0xbdde7313	-0.108617924
9	0xbe9d38c2	-0.30707365
10	0x4020ae56	2.5106406
11	0xbdb3bd08	-0.08776289
12	0xbf44c957	-0.7686972
13	0xbc9f641b	-0.019456914
14	0xbe782e47	-0.24236403
15	0x3d7aa0cf	0.061188515
16	0x3fed5a60	1.8543205
17	0xbdfbc693	-0.122937344
18	0xbe0741d9	-0.13208713
19	0x3fada66d	1.3566414
20	0xbe71a18d	-0.23596783
21	0x40079f8b	2.1191127
22	0x3d93f36b	0.07224163
23	0xbd8ae0f6	-0.06781189
24	0x3fbdbb0c	1.4822707
25	0x3da58112	0.08081259
26	0xbd9745c2	-0.07386352
27	0xbe196b5f	-0.14982365
28	0xbd84a9e9	-0.0647772
29	0xbe9853b2	-0.29751354
30	0x3f5c9888	0.86170244
31	0x3ff509e1	1.914364
32	0xbea50666	-0.32231444
33	0x3f6e9408	0.9319463
34	0x3d8896bb	0.066693746
35	0xbf79c44f	-0.9756517
36	0xbfca72a3	-1.5816234
37	0xbb8ee9dc	-0.0043613743
38	0xbe00d3eb	-0.1258084
39	0xbf8df061	-1.1088983
40	0x3fe784d7	1.8087415
41	0x3e8a8c49	0.27060154
42	0x4006e59c	2.1077642
43	0xbe9ddee2	-0.3083411
44	0xbebe7f4a	-0.3720649
45	0xbf57e5f1	-0.8433524
46	0xbf5c15bf	-0.8597068
47	0xbdb5bc6a	-0.08873828
48	0xbfb97e65	-1.4491698
49	0xbf8957e3	-1.0729946
50	0xc016964f	-2.352924
51	0x3caddbde	0.021223005
52	0x3fb05a51	1.3777562
53	0x3fbcb0ab	1.4741415
54	0xbe8e7dbb	-0.278303
55	0xbeaa65ed	-0.33280888
56	0xbdd90f23	-0.1059859
57	0xbf346376	-0.70464265
58	0xbec70448	-0.38870454
59	0xbe1ecaaa	-0.15506998
60	0x3c678c5e	0.014132587
61	0xbeb22034	-0.34790194
62	0xbf1c8a9f	-0.6114902
63	0x3cafe919	0.021473454
64	0x3c1a73a3	0.009426984
65	0xbe0da557	-0.13832603
66	0xbee3fad4	-0.44527304
67	0x3f757ccb	0.95893544
68	0x3f481fbd	0.7817343
69	0xbe002fdc	-0.12518257
70	0xbefd548f	-0.49478576
71	0xbf93ec1a	-1.1556427
72	0x3cb57724	0.022151537
73	0xbeea9a7c	-0.45820987
74	0x3fe164fe	1.7608945
75	0xbe86002c	-0.26172006
76	0xbf3f1263	-0.7463743
77	0xbd987b78	-0.07445425
78	0x3bbaf9b5	0.005706037
79	0x3dc83aba	0.09776826
80	0x3fcbe813	1.5930198
81	0xbdfbddb1	-0.12298144
82	0x3cf74bd0	0.030187517
83	0x400eaa68	2.2291508
84	0xbdf08b46	-0.11745314
85	0x3fa6f5fd	1.304382
86	0xbd6cd0e7	-0.057816412
87	0xbf2d2cc2	-0.6764642
88	0x3f76467b	0.96201295
89	0xbdd05ca4	-0.1017392
90	0xbe7730b2	-0.2413967
91	0xbe058907	-0.13040553
92	0xbedfc2ab	-0.43703207
93	0xbf29432c	-0.6611812
94	0x3f5cd158	0.86256933
95	0x3f87f2d4	1.062098
96	0xbed822c3	-0.4221402
97	0x3f0b48f1	0.54408175
98	0xbd4830f2	-0.048874803
99	0xbfba6af9	-1.4563895
100	0xbf4e8440	-0.8067055
101	0x3d5745c1	0.052556757
102	0xbeee0d04	-0.46494305
103	0xbf22a98e	-0.6353997
104	0x3f922ca2	1.1419871
105	0x3dcaa8bc	0.09895465
106	0x3f5acf27	0.8547234
107	0xbe0af27f	-0.13569067
108	0xbe968a22	-0.29402262
109	0x3e2b5223	0.16730551
110	0xbeb33dfe	-0.35008234
111	0x3c489c5c	0.01224431
112	0xbf37d07e	-0.7180251
113	0xbf0b2351	-0.54350764
114	0xbfb84c8f	-1.4398364
115	0xbe9eb2e9	-0.30995873
116	0x3fdc5a04	1.721497
117	0x3f5bc6aa	0.8585001
118	0xbd6f88bb	-0.058480006
119	0xbf1b826a	-0.6074587
120	0x3d260a6c	0.040537283
121	0xbefd4ad8	-0.49471164
122	0xbe70c3e1	-0.23512222
123	0xbc07aba8	-0.008280672
124	0xbecac6b3	-0.3960472
125	0xbf23202f	-0.63720983
126	0xbe46b1b4	-0.19403726
127	0x3e80340f	0.25039718
128	0xbc32c570	-0.010911331
129	0xb9db2291	-0.0004179669
130	0xbcbeb1cf	-0.023278145
131	0x3f9065c6	1.1281059
132	0x3fbe4ac2	1.4866564
133	0xbe95b635	-0.29240575
134	0xbee43d67	-0.44578096
135	0xbf98a85b	-1.1926378
136	0xbe26a64f	-0.16274379
137	0xbd585d48	-0.052823335
138	0x3fd15e48	1.6356897
139	0xbe802f65	-0.2503616
140	0xbf91499d	-1.135059
141	0xbe2966c8	-0.16543114
142	0xbc29fc8f	-0.010375156
143	0x3c96e9c0	0.018422008
144	0x4012add0	2.2918587
145	0xbdb25807	-0.08708196
146	0xbdedbc23	-0.1160815
147	0x3fb02490	1.3761158
148	0x3b99b27e	0.0046904674
149	0x3fa23991	1.2673818
150	0x3db61c6b	0.08892139
151	0xbf6ca464	-0.9243834
152	0x3f9fb5f1	1.2477399
153	0x3db599f0	0.08867252
154	0x3f56146e	0.83624923
155	0xbd6d80a7	-0.05798402
156	0xbf683370	-0.9070349
157	0xbe9d5b7f	-0.30733868
158	0x3f996287	1.1983193
159	0x402f6c0c	2.7409697
160	0xbf5f71bf	-0.8728294
161	0x3f7da162	0.99074376
162	0xbc08eda9	-0.008357444
163	0xbf81c549	-1.0138332
164	0xbfacf7f6	-1.3513172
165	0x3d472dd5	0.048627693
166	0x3bd0ed39	0.0063759354
167	0xbf8e7c4e	-1.1131685
168	0x3fd2c378	1.6465902
169	0x3dba1ce7	0.09087544
170	0x3fec9baf	1.8485011
171	0xbd82ff65	-0.06396369
172	0xbe3f3498	-0.18672407
173	0xbe05416b	-0.13013236
174	0x3c81ad55	0.015829721
175	0xbd496560	-0.049168944
176	0xbfa4c9f9	-1.2874137
177	0xbf407610	-0.7518015
178	0xc035e9c1	-2.8423922
179	0xbd8b5b85	-0.06804565
180	0x3fe28c18	1.7699003
181	0x3f9cd6f1	1.2253095
182	0x3cd88966	0.026432704
183	0xbf7d0e6b	-0.98850125
184	0xbe02f897	-0.12790142
185	0xbf0ca17c	-0.54933906
186	0xbd5e9faf	-0.054351505
187	0xbd9d3df8	-0.07677835
188	0xbde55f8c	-0.11199865
189	0xbf102da1	-0.56319624
190	0xbf9b494e	-1.2131746
191	0xbe554ceb	-0.20830123

fc3.bias f4 [3]
0	0x3d5f9a81	0.054590706
1	0xbebec7e2	-0.37261873
2	0x3e127f24	0.14306313
