model/checkpoint_6200.pth (torch, 21912 bytes, 6 tensors)

fc1.weight f4 [64, 6]
0	0x3eb16239	0.3464525
1	0x3f531874	0.8245919
2	0xbe885c6d	-0.26633015
3	0xbf32cb87	-0.6984181
4	0xbd97f01c	-0.07418844
5	0x3e8c6e85	0.2742807
6	0x3ed2586f	0.41083094
7	0x3f680053	0.90625495
8	0xbec72e74	-0.38902628
9	0xbca7a605	-0.020464906
10	0xbdc05d35	-0.09392778
11	0x3d78a234	0.060701564
12	0xbf54b0dd	-0.8308237
13	0xbe98ad32	-0.29819638
14	0xbf7d1e3a	-0.9887425
15	0x3d52e05b	0.051483493
16	0x3e0c2ded	0.13689394
17	0x3e45e787	0.19326602
18	0xbd80e485	-0.06293587
19	0xbf48c0cb	-0.7841918
20	0xbd9107d8	-0.07081574
21	0x3f888aac	1.0667319
22	0x3e8467d2	0.2586046
23	0x3e8cdb88	0.2751124
24	0xbe93887f	-0.28815076
25	0x3f86f9d3	1.054499
26	0x3f4658cb	0.7747924
27	0xbed8e050	-0.42358637
28	0xbebfb5f5	-0.3744351
29	0x3e0d2088	0.13781941
30	0xbf08590e	-0.53260887
31	0x3f6517f6	0.89489686
32	0xbf3a0678	-0.7266612
33	0xbeade055	-0.33960214
34	0xbeeece46	-0.4664175
35	0xbeaf044a	-0.3418296
36	0xbfc5239e	-1.5401495
37	0xbe9b04cf	-0.30277106
38	0x3f2cebb3	0.6754715
39	0xbe54a875	-0.20767386
40	0xbea671e1	-0.32508758
41	0xbd863de3	-0.06554773
42	0xbe94bf03	-0.2905198
43	0xbf823d4e	-1.0174959
44	0xbf4ee5f8	-0.80819654
45	0xbeb62cfe	-0.355812
46	0x3e031bb2	0.12803534
47	0xbe4a51ff	-0.19757842
48	0xbf386106	-0.72023046
49	0xbfc1f0e0	-1.5151634
50	0x3fa2caa4	1.2718091
51	0x3eb4d869	0.35321358
52	0x3e775aae	0.24155685
53	0x3d040e6a	0.03224031
54	0xbe6f9438	-0.23396385
55	0xbf6e5876	-0.9310373
56	0xbdcc87d6	-0.09986846
57	0x3d1d00b3	0.038330745
58	0xbea53c03	-0.32272348
59	0xbeedad04	-0.46421063
60	0x3e8c0af6	0.27352113
61	0xbe6eae90	-0.23308778
62	0x3f57830c	0.84184337
63	0x3cc5a5cc	0.02412691
64	0x3f3104c7	0.69147915
65	0x3e86fbba	0.26363927
66	0x3ec5aca1	0.38608268
67	0xbef41f07	-0.47679922
68	0x3e562618	0.20912969
69	0x3eaf6a7a	0.34260923
70	0xbeb4eea6	-0.35338324
71	0xbe469012	-0.19390896
72	0x3f4551d4	0.77077985
73	0x3e0637f5	0.13107283
74	0x3f1795b4	0.59212804
75	0x3fa5f819	1.2966338
76	0xbe7154a5	-0.23567446
77	0xbeee8480	-0.46585464
78	0x3d08c1be	0.033387892
79	0xbfbe73d2	-1.4879096
80	0xbf5a2a1c	-0.85220504
81	0x3f840611	1.0314351
82	0x3db00c95	0.0859615
83	0xbeedb7ba	-0.46429235
84	0xbca3efa2	-0.020011727
85	0x3ebeaf75	0.37243238
86	0xbf2e3cc5	-0.68061477
87	0x3efbb993	0.4916502
88	0x3e9ba127	0.30396387
89	0xbe3317dc	-0.1748957
90	0x3f8d046d	1.1016976
91	0x3ee8d825	0.45477405
92	0x3e39bfeb	0.18139617
93	0x3d6d3ef1	0.057921354
94	0xbed8e8f0	-0.42365217
95	0xbe3785d5	-0.17922147
96	0x3ec88035	0.39160314
97	0x3f10d799	0.56578976
98	0xbf32435f	-0.6963405
99	0xbf558e90	-0.8342066
100	0x3f1af0cf	0.60523695
101	0x3ea80f57	0.32824203
102	0xbf9437dc	-1.1579547
103	0xbd97a30f	-0.07404148
104	0xbf72739a	-0.94707644
105	0x3c24701a	0.010036493
106	0xbe6ca721	-0.2311063
107	0xbe877cf7	-0.26462528
108	0xbe697bf2	-0.22801188
109	0x3e5c68a1	0.21524288
110	0x3e0f5421	0.13996936
111	0xbf699930	-0.9124937
112	0xbefdb090	-0.4954877
113	0x3eb054c5	0.34439674
114	0x3f813926	1.0095565
115	0xbabb137e	-0.0014272777
116	0xbe84ce6c	-0.25938737
117	0xbea69e21	-0.32542518
118	0x3e98cab6	0.29842156
119	0x3e69750e	0.22798559
120	0x3f3faa80	0.7486954
121	0x3e742754	0.23843127
122	0xbea8aaf1	-0.32942918
123	0x3f12c07d	0.57324964
124	0xbece175e	-0.40252203
125	0xbe629688	-0.22127736
126	0xbf3c0393	-0.73442954
127	0xbf582f56	-0.8444723
128	0xbdc29b31	-0.09502257
129	0xbedc6580	-0.43046188
130	0xbe50f825	-0.2040716
131	0xbe36b5d4	-0.178428
132	0xbe713db0	-0.23558688
133	0xbf473ef6	-0.77830446
134	0x3e88cba8	0.26717877
135	0xbed4b094	-0.41540968
136	0x3e76549b	0.24055712
137	0x3c98f16d	0.018669808
138	0x3ea03aa8	0.3129475
139	0x3e74ef59	0.23919429
140	0x3f20253f	0.62556833
141	0x3ee5fa2f	0.44917437
142	0x3e4fea11	0.20304133
143	0x3e74f146	0.23920164
144	0xbf2e1a2a	-0.68008673
145	0x3f1d106e	0.61353195
146	0xbe7855b1	-0.24251439
147	0x3ef346db	0.47514996
148	0xbea48ecb	-0.32140192
149	0xbeab31fd	-0.33436576
150	0x3e7372c0	0.23774242
151	0xbf5cc207	-0.8623356
152	0x3e13933c	0.14411634
153	0x3fc4e78a	1.538316
154	0xbe6f8fef	-0.2339475
155	0xbeb44650	-0.35209894
156	0xbd80ddb0	-0.062922835
157	0xbf828783	-1.0197605
158	0xbe1de17d	-0.15418048
159	0xbd5b5b61	-0.053553943
160	0xbed13d7e	-0.40867227
161	0xbee9c886	-0.456608
162	0xbf349aeb	-0.70548886
163	0xbef89a72	-0.48555332
164	0xbf551879	-0.8324047
165	0xbf187558	-0.5955405
166	0xbec4ff89	-0.38476208
167	0x3e41efcc	0.18939131
168	0x3b213f97	0.0024604553
169	0xbe5dd0fb	-0.21661751
170	0x3eb9794b	0.36225352
171	0xbf16a4de	-0.5884532
172	0x3e022285	0.1270848
173	0x3e5fb3f4	0.2184599
174	0xbed5bd4b	-0.41745982
175	0x3e2602d6	0.1621202
176	0xbf0c3564	-0.5476897
177	0x3f9b12a6	1.2115066
178	0x3ebc46a6	0.3677265
179	0xbe9e980f	-0.30975387
180	0xbea298e3	-0.31757268
181	0xbda62883	-0.08113196
182	0x3eef274c	0.4670967
183	0x3d5474fe	0.051869385
184	0x3f2d43c8	0.6768155
185	0x3ecdf214	0.40223753
186	0xbed5a4b7	-0.4172723
187	0x3e432551	0.19057204
188	0xbf800db3	-1.0004181
189	0x3ec7a20c	0.3899082
190	0x3ee0061e	0.43754667
191	0x3ed9b948	0.4252417
192	0xbce4d0e0	-0.02793163
193	0x3f841590	1.031908
194	0xbf89e452	-1.0772803
195	0xbf044837	-0.5167269
196	0xbc106ad3	-0.008814531
197	0x3ea998ab	0.3312429
198	0xbf179844	-0.59216714
199	0x3f111fe2	0.56689274
200	0x3e8ab044	0.27087605
201	0xbd03b037	-0.032150473
202	0xbf40e925	-0.7535575
203	0xbecd4661	-0.40092757
204	0xbee1b670	-0.440845
205	0xbf1902a2	-0.5976964
206	0xbe903c5f	-0.2817106
207	0x3f6b7382	0.91973126
208	0x3cb78495	0.022402087
209	0xbe5e270e	-0.21694586
210	0x3e5c9666	0.21541747
211	0x3c7b7c2c	0.015349429
212	0xbeb74d1b	-0.35801014
213	0x3e033e38	0.12816703
214	0x3e42fc76	0.19041619
215	0x3e5adfce	0.21374437
216	0x3f73427a	0.9502331
217	0x3f761a05	0.9613345
218	0x3f983b67	1.1893128
219	0xbfc1d34b	-1.5142606
220	0x3e8ce84f	0.27520987
221	0x3f2f6890	0.68518925
222	0x3f5f22b0	0.87162304
223	0xbec93bfa	-0.3930357
224	0xbfb03f39	-1.3769294
225	0xbe19f4cf	-0.15034793
226	0xbe16efd5	-0.14739926
227	0xbd4b9202	-0.04969979
228	0xbf9948a8	-1.1975298
229	0x3f1eb248	0.61990786
230	0xbea61dc9	-0.324446
231	0x3f1d9399	0.6155334
232	0x3ecf3c59	0.4047573
233	0x3eb8475e	0.3599195
234	0x3f34178e	0.7034844
235	0x3d94fc7f	0.07274722
236	0x3f178f54	0.59203076
237	0xbf0cf7d9	-0.55065686
238	0xbe60b9ba	-0.21945849
239	0xbe5178fc	-0.20456308
240	0xbed8b990	-0.42329073
241	0x3f29dfe9	0.66357285
242	0xbe2cad0b	-0.16862886
243	0xbdd4f1e8	-0.103977025
244	0x3d971c18	0.07378405
245	0xbe828c3d	-0.25497618
246	0x3f6249e6	0.8839401
247	0xbf2eb65b	-0.68247
248	0x3f26c9e1	0.6515179
249	0xbf10157d	-0.5628279
250	0xbf07a33e	-0.5298346
251	0xbe1f006c	-0.15527505
252	0x3f55fec4	0.83591866
253	0xbef72902	-0.48273474
254	0xbf069132	-0.525653
255	0xbf0dc1cd	-0.5537384

fc1.bias f4 [64]
0	0x3ea7c87a	0.3277014
1	0x3ef1eef8	0.4725263
2	0x3ec17a86	0.3778879
3	0xbd59bba3	-0.05315746
4	0x3ec98e1c	0.39366233
5	0x3ed11a9c	0.40840614
6	0xbf4b6ed3	-0.7946598
7	0xbd447f9b	-0.047973257
8	0xbefa7fec	-0.48925722
9	0x3e4e9223	0.20172934
10	0xbef63ff3	-0.48095664
11	0x3f676392	0.9038631
12	0x3b96d3e3	0.0046028956
13	0xbcb13443	-0.021631366
14	0xbf9fe769	-1.2492496
15	0x3eb6cb7a	0.35702115
16	0x3f363915	0.7118085
17	0xbe0e27e6	-0.13882408
18	0x3d932c65	0.07186202
19	0x3f23aa2a	0.63931525
20	0x3f67b28d	0.9050682
21	0xbf458113	-0.77150077
22	0x3f2e0e68	0.6799073
23	0x3f4e4301	0.8057099
24	0xbe59d222	-0.21271566
25	0x3d01f8f6	0.03173157
26	0x3d3ad13e	0.045609705
27	0xbee85e2e	-0.45384353
28	0x3f890f65	1.0707823
29	0xbf025c09	-0.50921685
30	0xbf44453f	-0.7666816
31	0xbe21df55	-0.1580785
32	0xbef7e1a1	-0.4841433
33	0xbf42b896	-0.76062906
34	0x3e8772a1	0.26454642
35	0x3f543794	0.82897305
36	0x3f429e55	0.76022846
37	0x393fa16f	0.00018275318
38	0xbe7abf7e	-0.24487111
39	0x3efbed19	0.4920433
40	0x3ee79c7a	0.4523657
41	0xbef8f37e	-0.4862327
42	0x3e0955fa	0.13411704
43	0xbf0d7509	-0.55256706
44	0x3ee5b9b7	0.44868252
45	0xbe206d14	-0.1566661
46	0xbf014caa	-0.50507605
47	0x3d100d6a	0.035169043
48	0x3f3c40fe	0.7353667
49	0x3eae5c4b	0.3405479
50	0xbe763dde	-0.24047038
51	0xbd778f54	-0.060439423
52	0x3ed45211	0.41468862
53	0xbf54fa0f	-0.8319406
54	0x3ea6b19e	0.32557386
55	0xbef980b1	-0.48730996
56	0xbf48f6a7	-0.7850136
57	0xbf295d61	-0.6615811
58	0xbf5153e9	-0.8176866
59	0x3f3bf4cd	0.7342041
60	0xbf38032f	-0.7187986
61	0x3f387e67	0.72067875
62	0xbd7cce50	-0.061720192
63	0x3ee77889	0.4520915

fc2.weight f4 [64, 64]
0	0xbd45e2c6	-0.04831197
1	0xbe236beb	-0.15959136
2	0x3da05e4b	0.07830485
3	0x3d006a9d	0.031351674
4	0x3d94e2dc	0.072698325
5	0x3d2e2634	0.042516902
6	0xbda8c5d1	-0.082408555
7	0x3d86d819	0.06584186
8	0xbc3a9453	-0.011387902
9	0x3cf3af69	0.029746728
10	0xbdeda273	-0.1160325
11	0xbdad375d	-0.08457825
12	0xbe186b9b	-0.14884798
13	0xbd843b6e	-0.06456648
14	0x3c35a9a6	0.011087811
15	0xbe0a4bd0	-0.13505483
16	0x3ac58038	0.0015068119
17	0x3d51d6c0	0.051230192
18	0xbcc0f09c	-0.023552231
19	0xbdf8c77b	-0.12147423
20	0xbe12c16a	-0.14331594
21	0xbd635851	-0.055504147
22	0x3b450375	0.0030061875
23	0x3db20b16	0.08693521
24	0x3d65623d	0.05600189
25	0xbcf39ad5	-0.029736916
26	0x3cf5f1fc	0.030022614
27	0xbe20c856	-0.15701422
28	0xbe25f355	-0.16206105
29	0x3d2ddbab	0.04244582
30	0xbdda7884	-0.10667518
31	0x3ca56a52	0.020192299
32	0xbdff0f3c	-0.124540776
33	0xbd9f4cca	-0.07778318
34	0xbdeb7bec	-0.114982456
35	0x3cd72afe	0.026265617
36	0xbd4f2d8f	-0.050580557
37	0x3da485e4	0.0803335
38	0x3d1553b1	0.036456767
39	0x3c8dd177	0.017311795
40	0xbca7509e	-0.020424183
41	0xbd9ca265	-0.07648162
42	0xbd896c80	-0.06710148
43	0xbc8ca2fe	-0.017167564
44	0x3cbd1dbf	0.023085473
45	0xbdd3d9ea	-0.10344298
46	0x3db654fa	0.08902927
47	0xbd5ac11f	-0.05340683
48	0xbe0dd3b7	-0.13850294
49	0xbdc83e5b	-0.09777518
50	0x3dc1fd92	0.09472193
51	0x3da5c27a	0.08093734
52	0xbe089e3a	-0.13341609
53	0x3d4d30df	0.050095435
54	0x3c884563	0.016634649
55	0x3d0fca33	0.03510494
56	0x3da7a08d	0.081849195
57	0xbdc7ca05	-0.09755329
58	0x3aa86b44	0.001284935
59	0xbadc086f	-0.0016787181
60	0xbd996ea7	-0.074918084
61	0x3b354ba7	0.00276635
62	0xbd5efcbd	-0.05444025
63	0x3d243fef	0.040100034
64	0xbd9a990f	-0.07548725
65	0xbdaf827b	-0.08569809
66	0x3bcb878d	0.0062112273
67	0x3bfb357c	0.007666288
68	0xbde60859	-0.11232061
69	0xbd0c5bbb	-0.03426717
70	0x3d278d2d	0.04090612
71	0xbc926328	-0.017869547
72	0x3c2adb5f	0.010428279
73	0xbd23a386	-0.03995087
74	0x3cbddeb8	0.02317749
75	0xbde13e3f	-0.109982006
76	0xbdb04970	-0.08607757
77	0xbdaca128	-0.084291756
78	0x3dcc0a83	0.099629425
79	0xbd8b08d2	-0.06788792
80	0xbcb5b9de	-0.022183355
81	0xbd9c8da3	-0.076442026
82	0x3db08629	0.08619339
83	0x3da9ed39	0.082972
84	0xbdf0c4d5	-0.11756293
85	0xbe1658ea	-0.14682356
86	0xbe04c665	-0.12966307
87	0xbd18283f	-0.037147757
88	0xbd0282c4	-0.03186299
89	0xbdcf076b	-0.10108837
90	0xbd83600b	-0.06414803
91	0xbc9fa2f3	-0.01948688
92	0xbdb24234	-0.087040335
93	0x3bda6a2d	0.006665489
94	0xbce5b576	-0.028040629
95	0xbd97d71a	-0.07414074
96	0xbcfa356b	-0.03054305
97	0x3db1f9ed	0.08690248
98	0xbdffaa43	-0.12483647
99	0xbd03469e	-0.032049768
100	0xbda9fc02	-0.0830002
101	0x3dd23655	0.10264269
102	0xbe1f64c8	-0.15565789
103	0xbe104cd8	-0.14091814
104	0x3dd9fa5b	0.10643455
105	0xbdb8de16	-0.090267345
106	0xbc784a7d	-0.015154478
107	0xbd5bd6bc	-0.053671584
108	0xbd0c1804	-0.03420259
109	0xbcfe3e6e	-0.031035628
110	0x3d7b242c	0.061313793
111	0xbcf2c124	-0.029633112
112	0xbe36c71a	-0.17849389
113	0xbda5ecda	-0.081018165
114	0xbd5ef445	-0.054432172
115	0x3cfdb890	0.030971795
116	0xbdd1da1a	-0.10246678
117	0x3da4a5de	0.08039449
118	0xbd234bae	-0.039867096
119	0xbd75b405	-0.059986133
120	0x3da9ed63	0.08297231
121	0x3cd4f423	0.02599532
122	0x3d89b47f	0.0672388
123	0x3d10bdef	0.035337385
124	0xbda98955	-0.08278147
125	0xbdf97660	-0.12180781
126	0xbcee87ca	-0.029117484
127	0x3d8636ea	0.06553443
128	0x3df1cc7a	0.11806579
129	0x3b1b1e1d	0.0023669072
130	0x3eab66dd	0.33476916
131	0x3e4e2a11	0.20133235
132	0x3c231569	0.009953835
133	0x3e7659e7	0.24057733
134	0xbecda957	-0.4016826
135	0xbe8c09e9	-0.2735131
136	0x3cae0f2e	0.021247473
137	0xbf29d064	-0.66333604
138	0xbe0ee2ea	-0.13953748
139	0x3ecf26a8	0.4045918
140	0x3ee2c1ad	0.44288388
141	0x3e103ecc	0.14086455
142	0xbf1e76bc	-0.61899924
143	0xbe670cb5	-0.22563441
144	0x3ddb66cf	0.107129686
145	0x3f3143d1	0.69244105
146	0x3e1fb799	0.1559738
147	0x3ea82aa0	0.3284502
148	0x3e884eb4	0.26622546
149	0xbe2b98e3	-0.1675754
150	0x3d897335	0.06711427
151	0x3eba6283	0.36403283
152	0xbebb6609	-0.36601284
153	0x3d072604	0.03299524
154	0xbc8d2d34	-0.017233469
155	0x3c0f5355	0.008747895
156	0x3e3d8937	0.18509375
157	0xbda462ba	-0.08026643
158	0xbc3426a1	-0.010995538
159	0xbcd52dc3	-0.026022797
160	0x3e8cac1b	0.27475056
161	0xbf650bc5	-0.89471084
162	0x3eec5360	0.4615736
163	0x3e987235	0.29774633
164	0x3e31f3d2	0.17378166
165	0xbec76798	-0.38946223
166	0xbe84467e	-0.2583503
167	0x3db099f6	0.08623116
168	0x3aef4efd	0.0018257793
169	0xbf289f84	-0.658684
170	0xbe808991	-0.25104955
171	0x3e1a051b	0.1504101
172	0xbd773566	-0.06035366
173	0x3e1f24b3	0.15541343
174	0xbebc94c6	-0.36832255
175	0x3ce0c732	0.027438734
176	0x3e77c9fe	0.24198148
177	0xbdc005f4	-0.093761355
178	0x3d91beac	0.07116446
179	0xbe9a878a	-0.30181533
180	0x3e28be85	0.16478927
181	0xbd8db7bd	-0.06919811
182	0x3ea2b7d8	0.31780887
183	0x3cddd52f	0.027079193
184	0x3e2ca05a	0.16858044
185	0xbf0cefbd	-0.5505331
186	0x3ddec9d7	0.10878342
187	0xbde84d36	-0.11342852
188	0xbe171dea	-0.14757505
189	0x3e158684	0.14602095
190	0xbed26387	-0.41091558
191	0xbbffa803	-0.007802011
192	0xc019b261	-2.4015124
193	0xbe758872	-0.23977831
194	0xbf7b306d	-0.98120767
195	0xbf144d63	-0.5793058
196	0xbf8c1b9e	-1.0945928
197	0x3e1bf8b7	0.15231596
198	0x3f68aae1	0.9088574
199	0xbebc6b44	-0.36800587
200	0xbfd8b1ab	-1.692922
201	0x3ed59e9a	0.41722566
202	0x3eb13597	0.34611198
203	0xbe99049c	-0.2988633
204	0x3e5ceaae	0.21573898
205	0x3db04e14	0.08608642
206	0x3da301ef	0.07959353
207	0xbeffa2a1	-0.49928764
208	0x3ed97ff5	0.42480436
209	0x3e8f5ac3	0.27998933
210	0xbf5765e8	-0.8413987
211	0xbf0fdfa4	-0.56200624
212	0x3db4c592	0.08826746
213	0xbf6f948d	-0.93586046
214	0x3e56c91d	0.20975156
215	0xbd891c6d	-0.06694875
216	0xbdd4e129	-0.103945084
217	0x3d9f67a9	0.077834435
218	0xbeb6ea13	-0.3572546
219	0xbf0f260e	-0.5591744
220	0xbf3b77c3	-0.73229617
221	0x3e799742	0.24374107
222	0xbef0003a	-0.46875173
223	0x3da727f9	0.08161921
224	0xc0420c55	-3.0320027
225	0xbda7a75e	-0.0818622
226	0x3eeb8bdb	0.4600514
227	0xbea4fd36	-0.32224435
228	0xbff27b92	-1.8943961
229	0xbc1e6c68	-0.009669401
230	0x3fdbfec7	1.7187127
231	0xbed59102	-0.41712195
232	0x3e767b96	0.24070582
233	0xbf5106d8	-0.8165107
234	0xbca4ad29	-0.0201021
235	0xbf353e89	-0.70798546
236	0x3f4bc7e5	0.7960189
237	0x3d72b3de	0.059253566
238	0x3d80e90b	0.062944494
239	0x3f22eaad	0.63639337
240	0x3e14292a	0.14468828
241	0xbdb329f5	-0.08748237
242	0x3e7a231a	0.24427453
243	0x3cbf0748	0.023318902
244	0xbe821bb4	-0.2541176
245	0x3d94b1c8	0.072604716
246	0x3e447e88	0.19188893
247	0x3e93d9f0	0.2887721
248	0xbf7601ba	-0.96096385
249	0x3e16b774	0.1471842
250	0xbf48e9f4	-0.78481984
251	0xbfaeccdf	-1.3656272
252	0xc04a3b57	-3.1598718
253	0xbf516a46	-0.81802785
254	0x3e67246a	0.22572485
255	0xbe9d3403	-0.30703744

fc2.bias f4 [64]
0	0xbe212c42	-0.1573954
1	0x3cc4d264	0.024026103
2	0x3e9f32d1	0.31093457
3	0x3d7bed05	0.061505336
4	0xbcdfe75a	-0.027331997
5	0x3e5d3538	0.21602333
6	0x3ee56959	0.44806936
7	0x3d0a51dd	0.033769477
8	0xbc8d742a	-0.017267305
9	0x3dfd29fe	0.12361525
10	0x3ecd7e40	0.40135384
11	0x3dbcc0c4	0.092164546
12	0x3e906493	0.28201732
13	0x3acec2ef	0.0015774647
14	0x3da84280	0.08215809
15	0xbde2a19b	-0.1106598
16	0x3d8c8897	0.0686199
17	0x3e4205f2	0.1894758
18	0x3dc50dfd	0.09621809
19	0xbd3ff828	-0.04686752
20	0xbad8b804	-0.0016534333
21	0x3e550756	0.2080358
22	0x3cb25bf5	0.021772364
23	0x3f05c3db	0.52251977
24	0x3d192f1c	0.037398443
25	0xbe138b02	-0.14408496
26	0x3e975d61	0.2956343
27	0x3d0832ff	0.03325176
28	0x3edec32c	0.4350828
29	0x3df572bf	0.11984777
30	0x3e93ec4b	0.28891215
31	0x3e175a26	0.14780483
32	0x3e2956e3	0.16537051
33	0xbd9c2a8f	-0.07625305
34	0x3d9d11af	0.076693885
35	0x3efade4d	0.48997727
36	0x3cf0cff1	0.02939603
37	0xbdda03ca	-0.10645254
38	0x3ba9faa4	0.0051873494
39	0x3e514cb2	0.20439413
40	0x3ec6949b	0.38785252
41	0xbd880eda	-0.06643458
42	0x3eb60152	0.35547882
43	0x3ea2b3f8	0.3177793
44	0x3e42325a	0.1896452
45	0x3cd27c55	0.025694052
46	0x3e8adefc	0.2712325
47	0xbc266f55	-0.01015838
48	0xbe9fdae4	-0.31221688
49	0xbe34bc84	-0.17650038
50	0xbe719215	-0.23590882
51	0x3e527053	0.20550661
52	0x3d30ea0d	0.04319196
53	0xbdb9b8b0	-0.090684295
54	0x3ceec819	0.029148148
55	0x3d4b5333	0.04963989
56	0x3da886c7	0.08228832
57	0x3ebb0b88	0.36532235
58	0x3e418891	0.18899752
59	0x3da92023	0.08258083
60	0x3e770dd9	0.24126376
61	0x3ec3512e	0.38147873
62	0x3e80cc83	0.2515603
63	0x3ddeede2	0.10885216

fc3.weight f4 [3, 64]
0	0x3dbdbf58	0.092650115
1	0x3da8f957	0.08250683
2	0xbf2a87fb	-0.6661374
3	0x3fd894d1	1.6920415
4	0x3f97e770	1.1867504
5	0xbe52b2e8	-0.2057606
6	0xbf6af2b6	-0.917766
7	0xbfe2a806	-1.7707527
8	0xbdb4c364	-0.0882633
9	0xbeacaf03	-0.33727273
10	0x40251118	2.5791683
11	0xbd91a8b6	-0.07112257
12	0xbf43511f	-0.76295656
13	0xbc77ff3f	-0.015136539
14	0xbe70aee9	-0.23504223
15	0x3d7aa0cf	0.061188515
16	0x3fea5387	1.830674
17	0xbe26add1	-0.16277243
18	0xbe02c221	-0.12769367
19	0x3fae4505	1.3614813
20	0xbe6a6751	-0.22890975
21	0x400752de	2.1144328
22	0x3d93f36b	0.07224163
23	0xbd740482	-0.05957461
24	0x3fc1a78c	1.5129256
25	0x3da58112	0.08081259
26	0xbd80b974	-0.062853724
27	0xbe06740e	-0.13130209
28	0xbd69baf1	-0.057063047
29	0xbea24ab0	-0.31697607
30	0x3f5cf818	0.8631606
31	0x3fe55226	1.7915695
32	0xbe906cae	-0.28207916
33	0x3f6edbd1	0.93304163
34	0x3d8896bb	0.066693746
35	0xbf7ae10a	-0.9799963
36	0xbfd0b5ea	-1.6305516
37	0xbb8ee9dc	-0.0043613743
38	0xbdf3ae21	-0.11898447
39	0xbf8d838e	-1.1055772
40	0x3ff00493	1.8751396
41	0x3e8a8c49	0.27060154
42	0x40071613	2.1107223
43	0xbea42bbb	-0.32064614
44	0xbeb81f5a	-0.3596142
45	0xbf69453b	-0.9112126
46	0xbf5fd6ce	-0.8743714
47	0xbdb5bc6a	-0.08873828
48	0xbfbb17f6	-1.4616687
49	0xbf881f6e	-1.0634592
50	0xc01684ca	-2.3518548
51	0x3d09682d	0.033546615
52	0x3fb59c63	1.418835
53	0x3fbc2499	1.4698669
54	0xbe8d3393	-0.2757841
55	0xbea6dcbf	-0.3259029
56	0xbdc01e34	-0.09380761
57	0xbf33ba3c	-0.70206046
58	0xbedfe004	-0.43725598
59	0xbe0da4a3	-0.13832335
60	0x3cdd7e78	0.027037844
61	0xbeafccb1	-0.34335855
62	0xbf1b5d61	-0.6068936
63	0x3cfc9c5a	0.030836273
64	0x3c1a73a3	0.009426984
65	0xbe0da557	-0.13832603
66	0xbed0f043	-0.40808305
67	0x3f67aa43	0.90494174
68	0x3f3b6a00	0.7320862
69	0xbe00de68	-0.12584841
70	0xbee6e59f	-0.45097062
71	0xbf96dbbf	-1.1785811
72	0x3ce95a85	0.028485546
73	0xbefa8641	-0.48930553
74	0x3fe2babc	1.7713237
75	0xbe853c5f	-0.26022622
76	0xbf3b007d	-0.7304762
77	0xbd7a02b9	-0.061037753
78	0x3bcbc88d	0.006218976
79	0x3dc83aba	0.09776826
80	0x3fd0c2b6	1.6309421
81	0xbe0d97a4	-0.13827378
82	0x3d513ea2	0.051085122
83	0x4010f142	2.2647252
84	0xbdfd8954	-0.12379709
85	0x3fb1ed01	1.3900453
86	0xbd6cd0e7	-0.057816412
87	0xbf2f232a	-0.6841303
88	0x3f7e5b88	0.99358416
89	0xbdd05ca4	-0.1017392
90	0xbe63117c	-0.22174639
91	0xbe080ac3	-0.13285355
92	0xbee6b8f2	-0.45062977
93	0xbf27dbab	-0.6556956
94	0x3f597b5f	0.84953874
95	0x3f98c9d8	1.1936598
96	0xbebc7592	-0.3680845
97	0x3f10ffa5	0.5664008
98	0xbd4830f2	-0.048874803
99	0xbfb7d244	-1.4361043
100	0xbf3d6a05	-0.739899
101	0x3d5745c1	0.052556757
102	0xbefa3643	-0.48869523
103	0xbf236495	-0.6382535
104	0x3f9afd77	1.2108601
105	0x3dcaa8bc	0.09895465
106	0x3f550997	0.8321776
107	0xbe2812f6	-0.16413483
108	0xbe9c97f7	-0.3058469
109	0x3de024e0	0.10944533
110	0xbeb33fa8	-0.35009503
111	0x3c489c5c	0.01224431
112	0xbf39220d	-0.7231758
113	0xbf07acd4	-0.5299809
114	0xbfb263cb	-1.3936704
115	0xbeab27f9	-0.33428934
116	0x3fe068d7	1.7531995
117	0x3f62150b	0.8831336
118	0xbd6b43a4	-0.057437554
119	0xbf23052d	-0.6367977
120	0x3d839885	0.06425575
121	0xbf05ef52	-0.523183
122	0xbe69bbbd	-0.22825523
123	0x3c18dc0c	0.009329807
124	0xbed6e087	-0.41968176
125	0xbf291fb1	-0.6606398
126	0xbe28123d	-0.16413207
127	0x3ea6acc7	0.32553694
128	0xbc32c570	-0.010911331
129	0xb9db2291	-0.0004179669
130	0xbbccea2b	-0.006253501
131	0x3f8fea76	1.1243427
132	0x3fc33686	1.5251014
133	0xbe9b9040	-0.30383492
134	0xbee05922	-0.43818003
135	0xbf9c430f	-1.2207965
136	0xbe19d4d2	-0.15022591
137	0xbd9e9a99	-0.07744331
138	0x3fe3fe0e	1.7811906
139	0xbe76d2fa	-0.24103919
140	0xbf92fea9	-1.1483966
141	0xbe204ab7	-0.15653501
142	0xbb0f5e47	-0.0021876262
143	0x3c96e9c0	0.018422008
144	0x40134acf	2.301441
145	0xbda6f99b	-0.08153077
146	0xbe0ca22c	-0.13733739
147	0x3fa42786	1.2824562
148	0x3c3e9e92	0.011634486
149	0x3fba6596	1.4562252
150	0x3db61c6b	0.08892139
151	0xbf6e492e	-0.93080413
152	0x3fa34eab	1.2758383
153	0x3db599f0	0.08867252
154	0x3f58ee14	0.8473828
155	0xbd4ca8f7	-0.049965825
156	0xbf6ad4e7	-0.91731113
157	0xbe986eb1	-0.2977195
158	0x3f9c2d77	1.2201375
159	0x403603f9	2.8439925
160	0xbf639787	-0.8890309
161	0x3f80b141	1.0054094
162	0xbc08eda9	-0.008357444
163	0xbf808b1a	-1.004245
164	0xbfaf90c3	-1.3716053
165	0x3d472dd5	0.048627693
166	0x3cb5787e	0.022152182
167	0xbf91e7c3	-1.1398853
168	0x3fdcd9e8	1.7254
169	0x3dba1ce7	0.09087544
170	0x3fef718c	1.8706527
171	0xbddd5a11	-0.108081944
172	0xbe39ea1c	-0.18155712
173	0xbe0b037e	-0.13575551
174	0x3c17ac22	0.009257348
175	0xbd496560	-0.049168944
176	0xbfa7aae9	-1.3099033
177	0xbf3ef6e1	-0.7459546
178	0xc037f976	-2.874601
179	0xbd828090	-0.063721776
180	0x3fddf845	1.7341391
181	0x3f9fa5fe	1.2472532
182	0x3cd82d70	0.026388854
183	0xbf8082ba	-1.0039895
184	0xbe06fce5	-0.13182409
185	0xbf0cef17	-0.5505232
186	0xbd1cc5ac	-0.038274452
187	0xbd87f5ce	-0.066386804
188	0xbddd7310	-0.10812962
189	0xbf0f0e74	-0.5588143
190	0xbf9e0ed2	-1.2348273
191	0xbe5aa8bf	-0.21353434

fc3.bias f4 [3]
0	0x3d854c41	0.06508685
1	0xbec68fcc	-0.38781583
2	0x3e152bdc	0.14567512
