model/checkpoint_200.pth (torch, 21902 bytes, 6 tensors)

fc1.weight f4 [64, 6]
00000000: 2cab 683d 66b2 103f ae38 b1be 43f7 0dbf
00000010: 4ccf f2bc 5039 663d cf0c ce3d b5f1 b13e
00000020: e85a 2abd 3cc4 483d 9ff5 04be 110a 43bd
00000030: e92c bcbe 19f5 12bf fb4e c7be e6b3 db3d
00000040: eb5a be3d b619 ea3d 26cb 90be c365 c4be
00000050: 2496 e8bc 056c 053f d722 afbc b353 0d3e
00000060: facd 0f3c 0b1c 083f 3d77 df3e 188a 06bf
00000070: 34cd 22be a43c b7bd faaa 1a3d 2058 3e3f
00000080: d9a8 b3be 08dd f6be a11b 79be 87d2 83be
00000090: 0731 44bf 8054 c13e ad5b 863e 7f85 073e
000000a0: d524 02be a311 48bd 2b8f 093b 719c 26bf
000000b0: a522 04bf 4723 88be 1dba bc3d 9758 1ebd
000000c0: 3d1e 77bd 0123 dabe 4b7c 8e3e 5ea2 193f
000000d0: fc5c ec3c cfae 9c3d 04df 083d 3788 a8be
000000e0: e62f e73d 1a75 a7be b927 88be aac4 80be
000000f0: cd78 ed3c 7a2a 863d d653 17be c306 263e
00000100: f563 be3e a469 553d 8175 1a3e 1ee4 6fbc
00000110: 31cf d03e 8a6f ec3e 76e4 79be 2e58 fabd
00000120: be25 9a3e affa 913e 473b e83e 4703 c33e
00000130: e4d3 9d3c 511b 48be 7b36 013e 865a 20bf
00000140: 0361 44bf ca63 bb3e 4671 ad3d 4077 41be
00000150: 1ed3 36be fdb3 343d ffb4 3abe 427f 77bc
00000160: ee64 3f3e 18e5 0cbe 8f08 d23e 7093 903e
00000170: 8bce d53e 957c cbb9 d807 a0be 76c5 64be
00000180: 276a d73e 8d28 453e 6258 6bbe 0556 e6be
00000190: 6399 9e3e eb20 513e 36f3 45bf 52f3 28be
000001a0: ba00 0fbf 6136 bf3d 6786 28be 8e3c 37be
000001b0: fc23 8ebd c40c a6bd f3bd 27be e393 ad3c
000001c0: 2857 86be 3584 ae3e 4146 d53e 23d6 b7be
000001d0: 9eed bdbd 9cc9 393c 849f 863d c5f7 fc3d
000001e0: e2ea b63e aee3 59bd c159 37be 7316 2a3e
000001f0: 4521 7dbe dd15 5cbe fac7 80be 7d8b 01be
00000200: 7019 a7be 6d47 59be 9102 ebbd 8c70 d63d
00000210: 2925 2dbe 413b f9bd fe8e c33e fc04 0bbe
00000220: bb41 53bd 9ec4 3ebd 77cc 843e 3bf3 c03d
00000230: 0477 fa3e e110 603e 4efe 363e dc5d 053e
00000240: 1604 0abf 8a5a 56be 4c7b 603e a6f4 743e
00000250: fed3 82be cc18 82be 01dc a0be 7844 27bf
00000260: 0e49 4bbe 10dd 0d3f b004 13bd 6690 4ebe
00000270: f812 003e 31e9 1dbf 347f 58bd 90f4 bdbe
00000280: 808f 4bbe e5cb 31bd be8c c5be 8794 84be
00000290: b5fe 70be 8d2e ffbd 7694 57be bec1 583e
000002a0: bc8d 4abe 742a 5ebe 3ca2 c13e acb6 a4be
000002b0: 66e4 5c3e 66ed d13d a08c 1abf 5f2d 813e
000002c0: 7b5b 3ebe 3e33 b63c b7b0 5d3e 1803 5abe
000002d0: 623a c4bc 39a0 b8bd 323e 823e 938e c93d
000002e0: 7a8b a43e 7bee 233e c4ce 3dbe 0cf1 873d
000002f0: c43c 11bf 1d5a 943e 0c63 aa3e 11bd 613e
00000300: 1d83 68be 420d 133f c23a 20bf 28a3 cfbe
00000310: 5519 bcbc 25e0 083e 3581 d6be 0ffd ce3b
00000320: 3e89 1c3d a974 863e 10df d8be 8e8d 6cbe
00000330: c45f 20be 6e92 d2bd b8fc 80be 1064 083f
00000340: 37cb 703c b4e5 91bb 06fc 8f3d e859 19be
00000350: 50bb 5b3d f658 ddbd c9c8 113c 1717 843d
00000360: 04f9 51be 0d52 2ebe 8f09 c33e 765e 1dbf
00000370: 3edb 4f3e 693f 4b3e 36f4 6d3e e7f0 1dbe
00000380: f4d9 38bf 1e8e b73e 1a88 febb f315 8bbd
00000390: d42c fabe 641b d73e 263b 86bd b6d2 fe3e
000003a0: 6ef2 3f3e 5aaa fe3d 5636 d53e ce87 fdbc
000003b0: 368c af3e e787 98be 8689 a3bc 24af f9bc
000003c0: 8bb4 903e e1cd a63e d964 1cbe 1457 bcbd
000003d0: 0c36 5d3e 922d 88be 4f06 803e 3181 32bf
000003e0: 1b70 983d d7f8 9dbd d7b1 73be 9fff 57bd
000003f0: f20c a83e e556 7fbe 5591 e4be bf28 1cbe
0.056803867 0.56522214 -0.34613556 -0.55455416 -0.029639862 0.056207 0.10061037 0.3475472
-0.0415906 0.04901527 -0.12984322 -0.047617022 -0.36753014 -0.5740524 -0.38927445 0.10727672
0.09294685 0.11430685 -0.2827999 -0.38358888 -0.028391905 0.5211795 -0.021378918 0.1380146
0.008777136 0.5316779 0.4364566 -0.52554464 -0.15898591 -0.08947113 0.037760712 0.7435322
-0.35089758 -0.48215508 -0.24326946 -0.25746557 -0.7663731 0.3775978 0.26241818 0.13234518
-0.12709363 -0.048844945 0.0020989876 -0.6508246 -0.51615363 -0.26589414 0.09215186 -0.038658705
-0.06033157 -0.4260483 0.27829203 0.6001338 0.028852932 0.076505296 0.03341581 -0.32916424
0.11288433 -0.3270653 -0.26592806 -0.25150043 0.028988266 0.065510705 -0.14778075 0.16213517
0.37185636 0.0521027 0.15083887 -0.01464179 0.40783074 0.46178848 -0.24403557 -0.1222385
0.3010692 0.2851157 0.45357725 0.38088438 0.019266076 -0.1954167 0.12618439 -0.6263813
-0.7671053 0.3659957 0.08468871 -0.18893147 -0.17853972 0.044116963 -0.18233107 -0.015106024
0.18690845 -0.13759267 0.41022155 0.28237486 0.41759142 -0.00038811998 -0.31255984 -0.2234095
0.42073175 0.1925375 -0.22982934 -0.44987503 0.309764 0.20422713 -0.77324235 -0.1649907
-0.55860484 0.09336544 -0.1645752 -0.17894194 -0.06940457 -0.081079036 -0.16381054 0.021188682
-0.2623837 0.3408524 0.41655162 -0.3590556 -0.092738375 0.011339571 0.06573394 0.12351946
0.35726076 -0.053195648 -0.17905332 0.16610126 -0.24719723 -0.21492715 -0.2515257 -0.12650867
-0.32636595 -0.21218653 -0.11475099 0.10470685 -0.16908707 -0.12169505 0.38195032 -0.1357612
-0.051576357 -0.046574228 0.25937244 0.094213925 0.48918927 0.21881439 0.17870447 0.13024086
-0.53912485 -0.20932975 0.21922034 0.23921451 -0.25552362 -0.25409544 -0.3141785 -0.6533885
-0.19852087 0.5541544 -0.035893142 -0.20172271 0.12507236 -0.61683947 -0.052855685 -0.3710065
-0.1987896 -0.04340734 -0.3858394 -0.25894567 -0.23534663 -0.12460051 -0.21052727 0.21167657
-0.1978063 -0.21695882 0.37819088 -0.32170618 0.21571502 0.10250358 -0.60370827 0.25229928
-0.18589585 0.022241231 0.21649443 -0.21290243 -0.02395362 -0.09014935 0.25438076 0.09841647
0.32137662 0.16008942 -0.18535906 0.06637773 -0.56733346 0.28975 0.33278692 0.2204478
-0.22706266 0.57442105 -0.6258966 -0.40554166 -0.022961298 0.13366754 -0.41895452 0.006316788
0.03821682 0.2626088 -0.42357683 -0.23100874 -0.15661532 -0.102818355 -0.2519281 0.53277683
0.014696888 -0.0044524316 0.070304915 -0.14975703 0.053645432 -0.108079836 0.008897969 0.064497165
-0.20505148 -0.17023487 0.3809323 -0.6147226 0.20298478 0.19848408 0.2323769 -0.15423928
-0.7220757 0.35850614 -0.0077676894 -0.06791296 -0.48862326 0.42013085 -0.065542504 0.49770135
0.18744823 0.12434836 0.41643018 -0.030948546 0.3428666 -0.29791185 -0.019963037 -0.030479021
0.28262743 0.32578948 -0.15272845 -0.09196296 0.21602648 -0.26597267 0.25004813 -0.6972838
0.074432574 -0.07713478 -0.2379831 -0.052734014 0.32822376 -0.24935491 -0.4464213 -0.15249918

fc1.bias f4 [64]
00000000: e5e5 9c3e 10c6 1b3f 3667 b23e 54c7 af3e
00000010: 2637 8c3d cc11 023f a084 a33a 15b7 3f3e
00000020: c748 53bd b706 84be 9e3f cabe f5a8 fd3e
00000030: daa5 043f 66f8 e13d 7c60 03bf a487 173f
00000040: c79b 233f c191 86bd 9891 a8be 0852 303f
00000050: 44de de3e 49c8 13bf e580 1c3f 44da 183f
00000060: 9f67 c2be 49c5 c93e 406d 48be 1b67 36be
00000070: 84f4 223f 3dbc 3dbe 09e0 c5be e415 b6bd
00000080: 3b63 473e 1c25 9abe 2ebe 643e 6608 0f3f
00000090: 3865 243e 53b1 bc3c 0df4 b33b cd27 f13e
000000a0: 4ab0 db3e 9439 9fbe c9dc 3cbe eb4d a8be
000000b0: c137 f53d cb89 a83b 92f5 b3be 908e a83e
000000c0: a184 273f 882f 3b3e e535 babe f34d 74be
000000d0: d79a 873e 8e43 b8be af99 d83e ff02 e5be
000000e0: 7d03 d9be d2f8 edbe da5b a2be 71bb ea3e
000000f0: 35ac 0dbf 2d9b 293f acc0 0fbd f1d9 c13e
0.30644146 0.60849094 0.3484437 0.34331763 0.06846456 0.50808406 0.0012475438 0.18722184
-0.051583078 -0.25786373 -0.3950166 0.49542966 0.5181557 0.11033706 -0.513191 0.59191346
0.6390957 -0.06570769 -0.3292358 0.6887517 0.4352895 -0.57727486 0.6113418 0.59708047
-0.37969682 0.3940833 -0.19572926 -0.17812769 0.6365435 -0.18528838 -0.38647488 -0.08890894
0.19471447 -0.30106437 0.22338173 0.5587219 0.16054237 0.023033774 0.0054917396 0.47100678
0.42907935 -0.31098616 -0.18443598 -0.32871947 0.11973525 0.0051433793 -0.35148293 0.32921267
0.6543675 0.1827985 -0.36369243 -0.2385786 0.2648532 -0.3598904 0.4230475 -0.44728848
-0.42385474 -0.46478897 -0.31710702 0.4584613 -0.5534089 0.66252404 -0.035095856 0.3786159

fc2.weight f4 [64, 64]
00000000: 7941 68bc 8019 01be 0266 a53d 0087 3f3d
00000010: 1cd4 dc3d 8032 6f3d 48fa a8bd c05a a73d
00000020: 5a60 3bbc 7de2 3a3d ac44 cdbd 3de6 4dbd
00000030: 9c28 08be 906b 47bd a0e8 dc3c 6ee5 e0bd
00000040: 1925 8c3c 2c6c 893d d1c8 95bb 1f36 d5bd
00000050: 96e2 ddbd 5158 63bd 78f9 163d e610 d83d
00000060: 1a35 933d b09f 66bc fcf1 f53c 7861 14be
00000070: eaf0 01be 3ce7 6e3d fff5 b9bd dcda 1f3d
00000080: e427 dabd 6499 7dbd 6ea9 ebbd 7ab5 3a3d
00000090: 3633 10bd 9404 c53d 2e67 623d e6bc 483d
000000a0: 45db 94bb 86f2 71bd 0611 44bd 22d9 95bb
000000b0: 4c2e 2b3d dc59 b3bd eada d63d 3b21 0abd
000000c0: bf2a fbbd 4fb8 a7bd 6a83 e23d c492 cd3d
000000d0: 18b1 09be 70c2 8c3d a032 463d 5d9b 593d
000000e0: 7522 c83d d638 b5bd be19 9e3c 3a66 053d
000000f0: 477a 6dbd 4015 ad3c bdfc 5ebd 9c8b 673d
00000100: b924 74bd 21fc 8ebd 01f9 b43c 59e4 c03c
00000110: 1f82 c5bd 169e 96bc 059a 683d 2863 92bc
00000120: 5fdb 2a3c 86a3 23bd b8de bd3c 3f3e e1bd
00000130: 7049 b0bd 28a1 acbd 830a cc3d cd06 55bd
00000140: deb9 b5bc cc0f 78bd 1b0d d13d f972 ca3d
00000150: d5c4 f0bd 7816 06be af08 e9bd 5b3d aebc
00000160: c482 02bd 6b07 cfbd 72b7 45bd b53b 6cbb
00000170: 67bd 91bd 2d6a da3b 76b5 e5bc 1ad7 97bd
00000180: e833 70bc 847f d23d 43aa ffbd 4075 84bc
00000190: 4d76 89bd 5536 d23d 0622 0fbe d84c 10be
000001a0: 5bfa d93d 16de b8bd dbbe 3e3a 93ca 1abd
000001b0: 0418 0cbd 6e3e febc 2c24 7b3d b84e 61bc
000001c0: 9c84 26be daec a5bd 45f4 5ebd 79e9 3f3d
000001d0: 1ada d1bd 7c2c c53d ae4b 23bd b9a6 34bd
000001e0: 63ed a93d 5585 2b3d 553b aa3d fdca 513d
000001f0: d202 89bd a6ef d8bd ca87 eebc c6bc a63d
00000200: d218 2f3e 077d 723d e691 0b3e 73b7 483e
00000210: cf74 0d3d 4e6f 55bd 8f61 a1bd e1a9 273e
00000220: e3f4 df3d 2a13 03be 6179 a7bd 0bfa 163e
00000230: dcce 303e 5f8d 093e 2314 c9bd 4af0 403c
00000240: 0a89 d43c 9f59 583e e6a6 79bb f80b 683e
00000250: 6329 ae3b 3e3f debd da47 923e 4f25 683e
00000260: 6c64 80be ffc7 15bd f91a 5e3d 41e9 1f3d
00000270: 5f61 9c3d 9355 5fbd 37a5 d1bd 09ae 703c
00000280: ce3b 923d c63b 40be a964 fa3d 19ac 9e3d
00000290: a920 f63d f18b 8f3d 160a e539 00cf 673e
000002a0: d804 d53d 9e42 163d cf48 df3d 8f5e 9abc
000002b0: ba41 2f3c 260e f53d ced4 7ebc b2e3 9dbd
000002c0: ac9a 813e 0e08 d43c c02f 86bc e345 fdbd
000002d0: 25fb e13b 0c15 b0bc ba49 263e b460 9cbc
000002e0: bc7f f83d e024 1bbd d844 b1bd ccd2 0f3e
000002f0: 5f27 bebd 08c3 cbbc dec8 e9bd f1ee 213e
00000300: a0d7 efbd d5e4 d23c 25bc bbbe 4e3e 01be
00000310: 28dd 6ebe c45a fa3d cae1 1f3e d10a bdbe
00000320: 948d 36be 95c7 393c 27fb 743e 5422 aabd
00000330: 53aa d33d 12b1 84bd 35df a9bb 0d8c f1bd
00000340: 2c4e 813d a3dd 4b3e 4cda 23be 0999 07be
00000350: 3fcf acbd 09d9 d2bd 7f05 913d 0e90 fbbd
00000360: 192d 073e cd27 223e 82f6 18be 647c ed3d
00000370: 3495 85bd 746f 5c3e cc5a 10be 274c 853c
00000380: b460 d6be 690f 573e b6e2 8f3e 9471 4f3c
00000390: cec2 75be 4fc3 3dbe dac2 f73e 5295 01be
000003a0: 1032 023e 34fd 25be 8193 51be 1607 69be
000003b0: f939 3bbe 4336 643e 075d 61bd 1726 4abc
000003c0: 4efa 953c 2e2a babb 0f80 403e 6cdd 13bd
000003d0: 68e0 26bd 5377 593e bbbb 4abb 5b98 a93c
000003e0: b536 f7bd ddc2 9bbc 5e7a 75bc 4341 8cbd
000003f0: 579e d9be 499f dbbe a458 133e 6929 0dbe
-0.014175766 -0.12607384 0.08076097 0.046759605 0.10782644 0.05839777 -0.08250862 0.08171606
-0.011436546 0.045626152 -0.10022864 -0.0502684 -0.13296741 -0.048686564 0.026966393 -0.1098126
0.017107533 0.06710085 -0.0045710583 -0.104107134 -0.108342335 -0.055504147 0.036859006 0.10550098
0.07187863 -0.014076158 0.030022614 -0.14490306 -0.12689558 0.05832599 -0.09080123 0.03902708
-0.1065214 -0.061913863 -0.115069255 0.045583226 -0.03520509 0.09620014 0.05527418 0.049008273
-0.0045427405 -0.05906918 -0.047867797 -0.0045730034 0.0417922 -0.08757374 0.10490973 -0.033723097
-0.122640125 -0.08189451 0.110602215 0.10037759 -0.13446462 0.068730235 0.048388124 0.05312668
0.09772197 -0.08848731 0.019299384 0.032568194 -0.05797794 0.021128297 -0.05444025 0.056529626
-0.059605334 -0.069816835 0.02209139 0.023546385 -0.09643959 -0.018385928 0.05678751 -0.017869547
0.010428279 -0.03995087 0.02317749 -0.109982006 -0.08607757 -0.084291756 0.099629425 -0.05200844
-0.022183355 -0.06056194 0.10207578 0.098852105 -0.11756293 -0.13094509 -0.113786094 -0.021269491
-0.03186299 -0.10108837 -0.04827065 -0.003604633 -0.07116204 0.006665489 -0.028040629 -0.07414074
-0.014660813 0.10278228 -0.12483647 -0.01616919 -0.06712017 0.10264269 -0.13977823 -0.14091814
0.10643455 -0.090267345 0.00072763645 -0.037790846 -0.03420259 -0.031035628 0.061313793 -0.013751678
-0.16261524 -0.081018165 -0.054432172 0.046853516 -0.10246678 0.09627625 -0.039867096 -0.04410431
0.08297231 0.041875202 0.08312098 0.051218975 -0.06689991 -0.10592584 -0.029117484 0.081414744
0.17099312 0.059201267 0.13629875 0.1960123 0.034535225 -0.0521081 -0.07879936 0.16373397
0.1093538 -0.1280028 -0.08177448 0.14743821 0.1726641 0.13432835 -0.09818294 0.011776039
0.025944252 0.21127938 -0.0038093864 0.22660816 0.0053149923 -0.10851906 0.28570443 0.22670482
-0.25076616 -0.036567684 0.054224942 0.039040808 0.076357596 -0.05452497 -0.1023659 0.014689931
0.07140313 -0.18772802 0.12226231 0.07747669 0.12017948 0.070091136 0.00043685798 0.22637558
0.104013145 0.036684625 0.10902559 -0.018843917 0.010696823 0.11965589 -0.015553666 -0.07709445
0.25313318 0.025882747 -0.01638019 -0.123668455 0.006896394 -0.021494411 0.16239062 -0.01908908
0.121337384 -0.037876964 -0.08655709 0.14045256 -0.09284853 -0.024873272 -0.114152655 0.15813805
-0.11711049 0.025743881 -0.3666698 -0.12621424 -0.23326552 0.122243434 0.15613475 -0.36922315
-0.17827445 0.011339088 0.23923932 -0.08307329 0.10335221 -0.06479086 -0.005184079 -0.11794291
0.06313738 0.19908766 -0.16001242 -0.13241972 -0.084379666 -0.102953024 0.070811264 -0.122833356
0.13200797 0.15835495 -0.14937785 0.11595991 -0.06522599 0.21526891 -0.14097136 0.016271664
-0.41870654 0.21001972 0.28102654 0.0126613565 -0.24000093 -0.18531536 0.48390847 -0.12654617
0.1271441 -0.1620987 -0.20466425 -0.2275661 -0.18283834 0.22286324 -0.05502036 -0.012338183
0.018307831 -0.0056812977 0.1879885 -0.036099836 -0.040741354 0.21236925 -0.003093465 0.020702532
-0.120709814 -0.019013816 -0.014982788 -0.06848385 -0.42503616 -0.42894962 0.14389282 -0.13785328

fc2.bias f4 [64]
00000000: 0a3f fabd 4175 233d 2221 fc3d 6724 92bd
00000010: 39d6 0cbc 235f 973e 49bb 8a3e 57e2 823c
00000020: 8dc2 303e 3efa 363e 3ff9 173c 2d1f 653e
00000030: 53fd 5c3d eaf8 433e b8b0 653e 971c c2bd
00000040: a567 d7bd 99d3 b73e 6c71 ae3e 650e a8bd
00000050: 7470 e33d 5a80 87bd 9125 e23c 5fc3 a33e
00000060: 0f0e 81bd 1e8d 0bbe 64de 1c3e 2c06 473e
00000070: 3607 843e abc5 283e 8ae8 8e3d 00d8 3abd
00000080: a813 663e e044 77be fe94 bd3d 27a6 8e3e
00000090: 383b cb3d eb81 b9bd d930 cb3d 283e f43d
000000a0: 7313 14be 2e1f 87bd 0582 8abd 2f62 bb3e
000000b0: 7227 a03e b38f 833e 9481 a43e 556f 26bc
000000c0: f2a8 313c ce11 243e a3bb adbc 15a1 963e
000000d0: 1425 bbbd 007f 06be c0cc 423e d0e2 dabd
000000e0: e9af 8e3e 602e 113e b52e 773e 5204 883e
000000f0: b67d a03e 4317 ab3e 5a82 8a3d 0987 9b3e
-0.12219055 0.039906744 0.12311007 -0.071358494 -0.008595997 0.2956477 0.27096012 0.015977068
0.17261715 0.17868897 0.0092757335 0.22375174 0.053952526 0.19137922 0.22430694 -0.09478109
-0.105178155 0.35903624 0.3407091 -0.082058705 0.11105433 -0.06616278 0.027605804 0.31984994
-0.063015096 -0.1362805 0.1531921 0.19435948 0.25786752 0.16481654 0.06977947 -0.04561615
0.22468436 -0.24147367 0.09256934 0.2786114 0.099234045 -0.09057983 0.09921426 0.11925918
-0.14460544 -0.06597744 -0.067630805 0.36598346 0.31280094 0.2569557 0.3213011 -0.01015838
0.010843502 0.16022417 -0.021207636 0.2941977 -0.091379315 -0.13134384 0.19023418 -0.10687792
0.27868584 0.14177847 0.24138911 0.26565796 0.3134591 0.33416185 0.06763144 0.3037646

fc3.weight f4 [3, 64]
00000000: 58bf bd3d 57f9 a83d 08d2 c6bd 5983 373e
00000010: 0211 543e 04c9 71be 41f1 3cbe afcd 09bf
00000020: baac 5dbe ec18 31be f0f4 c03e 27fa 3cbe
00000030: ec6d a6bc ca94 15be f360 3cbe 645e 943d
00000040: 6fdf bb3e 1f98 1ebe 3873 34be 8bd1 53bd
00000050: 895b 4dbe d3b6 ac3d c078 b43d 8f57 1abe
00000060: 84c0 563e e123 c03d b237 2fbe 6861 63be
00000070: 7b7a f1bd 896e 92bd eeb7 8b3e 5b36 3f3e
00000080: 38b9 cbbd 57eb a43e bb96 883d 6e9d 83be
00000090: f91d c5be d344 a5bc 8397 1abe 6197 b4be
000000a0: 915b 363e ad8f 8a3e be1e fb3e bb27 1dbe
000000b0: 9a42 babe 8c99 73be 4276 2fbe 6abc b5bd
000000c0: 44bf 69be 9783 dcbe 5a5b 81be 6be2 01be
000000d0: ed5c ab3e acaa dc3d a87c 7abe 941d 7abd
000000e0: f3e6 29be fd2c 0dbe 9ad4 15be bbbb 5cbe
000000f0: 71e5 c9bd c0fd 2ebe 9cf0 1ebe 9046 02be
00000100: a373 1a3c 57a5 0dbe ca14 2dbe 592b 4f3e
00000110: 19e3 493e f330 05be 00dc fbbd d2f0 0abf
00000120: 24a4 d9bd af87 4dbe fecd 303e 2925 8dbe
00000130: 28b2 20be e552 19be b2a5 07be ba3a c83d
00000140: 086c a73e 0d3f 2bbe 8d5d f6bd 5d67 423e
00000150: 0ef0 02be 10bf 11bd 52ef 2ebd 3290 7ebe
00000160: 82ac 84bd 31ff c7bd e484 37be 586b 44be
00000170: 728e 46bd b7f5 57be 8ed5 a13e 2975 3b3e
00000180: 388d 38be 1d3d 713e f230 48bd 9ac1 98be
00000190: 1da5 a8be c145 573d d5f2 6bbe 2639 99be
000001a0: e576 143e bca8 ca3d bec1 eb3e 48f9 45be
000001b0: 05ce aabe 6df5 2cbd c953 56be 5c9c 483c
000001c0: 8614 e5bd afa2 d6be b6e6 ab3b fa71 60be
000001d0: 1f09 803e f47f 053e b84a 12be a232 57be
000001e0: ae19 d5bd c966 81bd c7ca 5bbe 8e6c 39be
000001f0: 0f94 6cbe 5e11 76be 2b46 eebd b038 10bd
00000200: fd21 9abc f942 7d3c f07a 12be 9de6 f23d
00000210: fcfd a83d 6c34 62be 94f7 72bd 8b69 b4be
00000220: 2802 69be 7dba f4bd cb78 6a3e dd7f 9abe
00000230: 1975 dabd 1e62 30be a5ec 45be c0e9 963c
00000240: 3eee e33e 0606 35be 9088 0cbe cec1 d83d
00000250: 592f 20be b5d9 1e3d b5c7 cd3d a46a 51be
00000260: 7662 29be d0b7 bb3d 84f0 61bd 7be0 55be
00000270: f889 2abe fc1e 67be aceb 903e 82a2 c03e
00000280: 63fd 65be 19be af3e 4e86 f63b b611 a4be
00000290: 1312 87be d52d 473d 9f20 0bbe 0165 a6be
000002a0: 3cbf 143e e71c ba3d 19df 023f fbbe 16be
000002b0: 6ede a6be a62f 1ebe 1616 9ebd 6065 49bd
000002c0: 38c9 9abe eef0 e5be 7dc8 25be 721b 01be
000002d0: 68e8 ad3e 3bea 0a3e 294d 07be b9e2 d0bd
000002e0: 6a47 38be 2a72 00be 5753 2abe 7ddd 55be
000002f0: 8be8 61be 1693 11be 02d0 64bd afc3 37be
0.092650115 0.08250683 -0.09708029 0.17921199 0.20709613 -0.23611838 -0.18451406 -0.53829473
-0.21647921 -0.17294663 0.37686872 -0.184548 -0.020316087 -0.1460754 -0.18396358 0.07244566
0.36693904 -0.15487717 -0.17622077 -0.051713508 -0.20054449 0.084333085 0.08812094 -0.15072463
0.20971876 0.09381843 -0.1711109 -0.22205126 -0.117909394 -0.07149989 0.27288765 0.18673079
-0.09947437 0.322108 0.066693746 -0.25706047 -0.3849943 -0.02017442 -0.1509686 -0.35271743
0.17808367 0.2706274 0.49046892 -0.15347187 -0.36378938 -0.23789042 -0.17134956 -0.08873828
-0.22826868 -0.43069145 -0.25265008 -0.12684028 0.33469334 0.107747406 -0.24461615 -0.061063364
-0.16592006 -0.13786693 -0.14631882 -0.21555988 -0.098582156 -0.17088985 -0.15521473 -0.1272223
0.009426984 -0.13832603 -0.16902462 0.2023138 0.19715537 -0.13006954 -0.12297821 -0.5427371
-0.106270105 -0.2007129 0.1726608 -0.27567413 -0.15692961 -0.14973028 -0.13246801 0.09776826
0.3269961 -0.1672327 -0.12029562 0.18984742 -0.12786886 -0.035582602 -0.042708702 -0.24859694
-0.06478216 -0.09765471 -0.17921788 -0.19181573 -0.04847569 -0.21089827 0.31608242 0.18306412
-0.1802262 0.23558469 -0.048874803 -0.29835206 -0.3293847 0.052556757 -0.23041852 -0.29926413
0.1449848 0.09895465 0.4604625 -0.19333375 -0.33360305 -0.042226244 -0.20930399 0.01224431
-0.11185555 -0.41920993 0.0052460087 -0.21918479 0.2500696 0.13037091 -0.14286315 -0.21015409
-0.10405289 -0.06318433 -0.21464072 -0.18107817 -0.23103355 -0.24030063 -0.11634477 -0.03521031
-0.018815035 0.015457862 -0.1430471 0.11860392 0.08251569 -0.2209031 -0.05931814 -0.35236773
-0.22754729 -0.11949632 0.22897641 -0.30175677 -0.10666866 -0.17224929 -0.19328554 0.018422008
0.44517702 -0.17678079 -0.1372397 0.1058384 -0.15643062 0.03878184 0.10047857 -0.20450836
-0.16541466 0.09165919 -0.055161014 -0.20886414 -0.16654193 -0.22570413 0.28304803 0.37623984
-0.2245994 0.3432472 0.0075233346 -0.32044762 -0.26380977 0.048627693 -0.13586663 -0.32498935
0.14526075 0.09087544 0.5112167 -0.14721291 -0.32591575 -0.15447864 -0.07719056 -0.049168944
-0.30231643 -0.44910377 -0.16189761 -0.12608126 0.33966374 0.13565914 -0.13213028 -0.10199494
-0.17995992 -0.1254355 -0.16633354 -0.20885272 -0.22061364 -0.14216265 -0.055862434 -0.17945741

fc3.bias f4 [3]
00000000: 3931 fdbc 6013 0cbe c746 f9bd
-0.03090726 -0.13679266 -0.12171703
