model/checkpoint_5400.pth (torch, 21912 bytes, 6 tensors)

fc1.weight f4 [64, 6]
0	0x3ebb00c3	0.3652402
1	0x3f4c6302	0.79838574
2	0xbe81e0eb	-0.2536691
3	0xbf336af3	-0.70085067
4	0xbdcc3876	-0.099717066
5	0x3e8baf3e	0.27282137
6	0x3ed2fe2e	0.4120955
7	0x3f4e4fb7	0.80590385
8	0xbec4fe53	-0.38475284
9	0xbd9ae88d	-0.07563887
10	0xbda37158	-0.07980603
11	0x3d68771c	0.056754217
12	0xbf500258	-0.81253576
13	0xbea647de	-0.32476705
14	0xbf770f4b	-0.9650771
15	0x3dcf9f1e	0.10137771
16	0x3df518e4	0.11967638
17	0x3e458168	0.19287646
18	0xbd97d51e	-0.07413696
19	0xbf4a2b06	-0.789719
20	0xbcac62c6	-0.021043193
21	0x3f83cba2	1.0296519
22	0x3e8c5c06	0.27413958
23	0x3e9321df	0.2873678
24	0xbe8dfb7c	-0.2773093
25	0x3f84deb9	1.038047
26	0x3f4abbed	0.79193
27	0xbee73588	-0.4515803
28	0xbebc6989	-0.36799267
29	0x3e093c10	0.13401818
30	0xbf01b7e3	-0.50671214
31	0x3f7a8a0d	0.978669
32	0xbf4408d8	-0.76575994
33	0xbeaf5bf3	-0.3424984
34	0xbeea00ff	-0.45703885
35	0xbea678e6	-0.32514113
36	0xbfbba144	-1.4658589
37	0xbebbebbd	-0.36703292
38	0x3f1c636c	0.61089206
39	0xbe807b31	-0.25093988
40	0xbe900492	-0.28128487
41	0xbd879340	-0.066198826
42	0xbe9327b4	-0.2874123
43	0xbf7ac979	-0.9796367
44	0xbf48bcec	-0.7841327
45	0xbecf9796	-0.40545338
46	0x3e16c1e7	0.14722405
47	0xbe49715a	-0.19672146
48	0xbf55f21c	-0.83572555
49	0xbfaef6ce	-1.3669069
50	0x3f98f23e	1.1948926
51	0x3ea0f498	0.3143661
52	0x3e705ea5	0.23473604
53	0x3cd9e9f6	0.02660082
54	0xbe56cee2	-0.20977357
55	0xbf76057f	-0.96102136
56	0xbcf747bd	-0.030185575
57	0x3c2b36b1	0.010450051
58	0xbea72c5e	-0.32651037
59	0xbeec97e8	-0.46209645
60	0x3ea04933	0.31305847
61	0xbe9e1ca1	-0.30881217
62	0x3f5ba076	0.8579172
63	0xbc86348e	-0.016382482
64	0x3f2df24d	0.67947847
65	0x3e80d167	0.2515976
66	0x3ed68b3c	0.41903102
67	0xbefabf55	-0.489741
68	0x3e51d5b2	0.20491675
69	0x3ee0ec16	0.4393012
70	0xbeb609a9	-0.35554245
71	0xbe48889d	-0.19583364
72	0x3f327cf8	0.6972194
73	0x3d55a21b	0.05215655
74	0x3f0fa9dd	0.56118566
75	0x3fab501f	1.3383826
76	0xbe68f014	-0.22747833
77	0xbef56e38	-0.47935653
78	0x3dc36197	0.09540098
79	0xbfbdbf7d	-1.4824063
80	0xbf62cdaa	-0.8859507
81	0x3f7fbad8	0.99894476
82	0x3d5b2d1b	0.053509813
83	0xbeee5bb2	-0.46554333
84	0xbb62c581	-0.0034602585
85	0x3eaf2eae	0.342153
86	0xbf2e1119	-0.6799484
87	0x3ef8603f	0.4851093
88	0x3e9b7474	0.30362284
89	0xbe28bec4	-0.16479021
90	0x3f8828a3	1.0637401
91	0x3ef55d91	0.47922948
92	0x3e2a0e9a	0.16607133
93	0x3de41d25	0.111383714
94	0xbed0a11a	-0.4074791
95	0xbe501c68	-0.20323336
96	0x3ee5829a	0.44826204
97	0x3f082b61	0.5319119
98	0xbf240ac6	-0.6407894
99	0xbf48ed3c	-0.7848699
100	0x3f184f84	0.5949633
101	0x3e990e77	0.29893848
102	0xbf96a41d	-1.1768833
103	0x3acc70d5	0.0015597591
104	0xbf6a3cb6	-0.9149889
105	0x3d1f6c4a	0.038921632
106	0xbe73ab70	-0.23795867
107	0xbe88ccff	-0.267189
108	0xbe2c5da2	-0.16832593
109	0x3e0a652b	0.13515155
110	0x3e544c60	0.2073226
111	0xbf698295	-0.9121488
112	0xbf029fcd	-0.51025087
113	0x3eaa5c28	0.33273435
114	0x3f800b39	1.0003425
115	0x3bc84f1c	0.006112946
116	0xbe8888e6	-0.26666945
117	0xbe88f03b	-0.2674578
118	0x3e91112c	0.28333414
119	0x3e65063d	0.22365661
120	0x3f41b42d	0.7566555
121	0x3e89d982	0.26923758
122	0xbebaf16e	-0.3651232
123	0x3f037b59	0.5136009
124	0xbece06a1	-0.40239432
125	0xbe61c8cd	-0.22049256
126	0xbf273bdd	-0.6532572
127	0xbf51715f	-0.81813616
128	0xbdba8e21	-0.0910914
129	0xbedaa845	-0.42706504
130	0xbe4f7992	-0.20261219
131	0xbe2b7477	-0.16743647
132	0xbe2ec96a	-0.17069021
133	0xbf42971b	-0.7601182
134	0x3e927440	0.28604317
135	0xbea3dd2e	-0.32004684
136	0x3e69a037	0.22815023
137	0x3c6d2e85	0.014476423
138	0x3ea7d36c	0.3277849
139	0x3e82311d	0.25428095
140	0x3f2aa874	0.6666329
141	0x3ecd2950	0.4007058
142	0x3e516012	0.20446804
143	0x3e69e819	0.22842444
144	0xbf3b82cd	-0.7324646
145	0x3f13936a	0.5764681
146	0xbe544307	-0.20728694
147	0x3eeb03d5	0.4590136
148	0xbea422b6	-0.32057732
149	0xbeaad42d	-0.33365002
150	0x3e653612	0.22383907
151	0xbf4239c3	-0.7586939
152	0x3e51d810	0.20492578
153	0x3fc60086	1.546891
154	0xbe683bc8	-0.22679055
155	0xbeb16b4a	-0.34652168
156	0xbd8e0f7b	-0.069365464
157	0xbf869c78	-1.05165
158	0xbdf585e9	-0.11988432
159	0xbe01fe46	-0.12694654
160	0xbec4a3e0	-0.38406277
161	0xbed97fc1	-0.4248028
162	0xbf307d2a	-0.68940985
163	0xbee84a2d	-0.45369092
164	0xbf47a92c	-0.7799251
165	0xbf112e01	-0.5671082
166	0xbec0778a	-0.375912
167	0x3e387f60	0.1801734
168	0xbb378e08	-0.0028008241
169	0xbe61a1a0	-0.22034311
170	0x3eacec03	0.33773813
171	0xbf10777c	-0.5643232
172	0x3e0cb525	0.13740976
173	0x3e692d2a	0.22771135
174	0xbee85e3a	-0.4538439
175	0x3e28794d	0.16452523
176	0xbef4b9cf	-0.4779801
177	0x3f99ae13	1.2006248
178	0x3eb23421	0.34805396
179	0xbea22aef	-0.3167338
180	0xbe9e7abb	-0.3095301
181	0xbd85b6aa	-0.06528981
182	0x3f00ac27	0.50262684
183	0x3da6a15f	0.08136248
184	0x3f2690d0	0.65064716
185	0x3ec21a7b	0.37910828
186	0xbec6655e	-0.38749212
187	0x3e6abeb2	0.22924307
188	0xbf8326e8	-1.0246248
189	0x3ed68c45	0.41903892
190	0x3ede82ec	0.4345926
191	0x3ed6e28d	0.4196972
192	0xbc8745ec	-0.016512834
193	0x3f828dc4	1.0199513
194	0xbf887400	-1.06604
195	0xbf0273f9	-0.5095821
196	0xbb682daa	-0.0035427609
197	0x3ea48100	0.3212967
198	0xbf1ad484	-0.60480523
199	0x3f03f7ce	0.51549995
200	0x3e82df45	0.25560966
201	0xbd4e7550	-0.050404847
202	0xbf3c8ec9	-0.7365537
203	0xbecc54e1	-0.39908507
204	0xbed25d08	-0.41086602
205	0xbf1789d8	-0.5919471
206	0xbe944a18	-0.2896278
207	0x3f58116a	0.8440157
208	0x3c35c689	0.011094698
209	0xbe5ace87	-0.21367846
210	0x3e85f052	0.26159912
211	0x3c9563bf	0.01823604
212	0xbe8e6d21	-0.27817634
213	0x3ddcdea0	0.1078465
214	0x3e297a55	0.16550572
215	0x3e50e465	0.20399626
216	0x3f6fc0ad	0.93653375
217	0x3f778af4	0.966964
218	0x3f9052f8	1.127532
219	0xbfc21550	-1.5162754
220	0x3e83766c	0.25676286
221	0x3f2c66e2	0.67344487
222	0x3f53919d	0.82644063
223	0xbeb61c86	-0.35568637
224	0xbfa983eb	-1.3243383
225	0xbe2ffc4f	-0.17186092
226	0xbdea866f	-0.114514224
227	0xbd234bc6	-0.039867185
228	0xbf96209e	-1.1728704
229	0x3f10af72	0.5651771
230	0xbea51c0c	-0.3224796
231	0x3f1be8e1	0.6090222
232	0x3ecd9247	0.40150663
233	0x3eb55eb8	0.35423827
234	0x3f30430d	0.6885231
235	0x3d7c59db	0.06160913
236	0x3f1995b2	0.5999404
237	0xbf07de0c	-0.5307319
238	0xbe482deb	-0.19548766
239	0xbe50c51a	-0.20387688
240	0xbeb9fdbf	-0.36326405
241	0x3f299041	0.6623574
242	0xbe45a8e1	-0.19302703
243	0xbe8068e3	-0.25080022
244	0x3dbbc199	0.09167785
245	0xbe8f773e	-0.28020662
246	0x3f5bb147	0.8581738
247	0xbf2a26f1	-0.6646567
248	0x3f2c5599	0.6731811
249	0xbf1099a4	-0.56484437
250	0xbefa9986	-0.48945254
251	0xbe0d5c9d	-0.1380486
252	0x3f50de02	0.8158876
253	0xbef77eed	-0.48339024
254	0xbf01cc6a	-0.50702536
255	0xbefdfcc6	-0.49606913

fc1.bias f4 [64]
0	0x3eaf91c1	0.3429089
1	0x3ef65570	0.4811206
2	0x3eb66248	0.35621858
3	0xbdb7263f	-0.08942842
4	0x3eb34855	0.35016122
5	0x3ebf7869	0.37396553
6	0xbf4dfc1a	-0.804628
7	0xbc40c405	-0.011765485
8	0xbec2fabb	-0.38081917
9	0x3e54cb6f	0.20780729
10	0xbf09e3c2	-0.53863156
11	0x3f5971e8	0.8493943
12	0x3bea7ac0	0.007155746
13	0xbd5a735d	-0.053332675
14	0xbf977a76	-1.1834247
15	0x3e9aeaa5	0.30257145
16	0x3f4796c2	0.77964413
17	0xbe2e5f4c	-0.1702854
18	0x3c7ae472	0.015313255
19	0x3f20e5a4	0.62850404
20	0x3f7494d6	0.95539606
21	0xbf4f1fcd	-0.809079
22	0x3f3839a6	0.71962965
23	0x3f4bb132	0.79567254
24	0xbe6835ce	-0.22676775
25	0x3d0cc8cf	0.034371193
26	0x3d924dd0	0.07143748
27	0xbeedaf96	-0.46423024
28	0x3f883df5	1.0643908
29	0xbef921ad	-0.48658505
30	0xbf3f0cc4	-0.74628854
31	0xbd5d2372	-0.05398888
32	0xbee8ed3d	-0.45493498
33	0xbf399e75	-0.7250741
34	0x3e8d73dc	0.27627456
35	0x3f5389bd	0.82632047
36	0x3f41ea58	0.75748205
37	0x3c2c70a6	0.010524904
38	0xbe3538fc	-0.17697519
39	0x3eee4ffb	0.46545395
40	0x3eac01b1	0.3359504
41	0xbf0379c7	-0.5135769
42	0x3e23175c	0.1592688
43	0xbf0b7de6	-0.5448898
44	0x3ef54992	0.47907692
45	0xbe3b63ef	-0.1829984
46	0xbef67c8d	-0.481419
47	0x3c21d74e	0.009877993
48	0x3f357b58	0.7089133
49	0x3ea8f829	0.3300183
50	0xbea86cfc	-0.32895648
51	0xbd20bbd4	-0.039241627
52	0x3ece2fda	0.40270883
53	0xbf50e823	-0.8160421
54	0x3ebf615c	0.37378967
55	0xbef02ea8	-0.46910596
56	0xbf46a39d	-0.77593404
57	0xbf21cd94	-0.6320431
58	0xbf3b73b4	-0.73223424
59	0x3f3795e7	0.7171311
60	0xbf271236	-0.6526216
61	0x3f348edb	0.7053048
62	0xbe0bc610	-0.13649774
63	0x3ee6dbea	0.45089656

fc2.weight f4 [64, 64]
0	0xbd45e2c6	-0.04831197
1	0xbe236beb	-0.15959136
2	0x3da05e4b	0.07830485
3	0x3d006a9d	0.031351674
4	0x3d94e2dc	0.072698325
5	0x3d2e2634	0.042516902
6	0xbda8c5d1	-0.082408555
7	0x3d86d819	0.06584186
8	0xbc3a9453	-0.011387902
9	0x3cf3af69	0.029746728
10	0xbdeda273	-0.1160325
11	0xbdad375d	-0.08457825
12	0xbe186b9b	-0.14884798
13	0xbd843b6e	-0.06456648
14	0x3c35a9a6	0.011087811
15	0xbe0a4bd0	-0.13505483
16	0x3ac58038	0.0015068119
17	0x3d51d6c0	0.051230192
18	0xbcc0f09c	-0.023552231
19	0xbdf8c77b	-0.12147423
20	0xbe12c16a	-0.14331594
21	0xbd635851	-0.055504147
22	0x3b450375	0.0030061875
23	0x3db20b16	0.08693521
24	0x3d65623d	0.05600189
25	0xbcf39ad5	-0.029736916
26	0x3cf5f1fc	0.030022614
27	0xbe20c856	-0.15701422
28	0xbe25f355	-0.16206105
29	0x3d2ddbab	0.04244582
30	0xbdda7884	-0.10667518
31	0x3ca56a52	0.020192299
32	0xbdff0f3c	-0.124540776
33	0xbd9f4cca	-0.07778318
34	0xbdeb7bec	-0.114982456
35	0x3cd72afe	0.026265617
36	0xbd4f2d8f	-0.050580557
37	0x3da485e4	0.0803335
38	0x3d1553b1	0.036456767
39	0x3c8dd177	0.017311795
40	0xbca7509e	-0.020424183
41	0xbd9ca265	-0.07648162
42	0xbd896c80	-0.06710148
43	0xbc8ca2fe	-0.017167564
44	0x3cbd1dbf	0.023085473
45	0xbdd3d9ea	-0.10344298
46	0x3db654fa	0.08902927
47	0xbd5ac11f	-0.05340683
48	0xbe0dd3b7	-0.13850294
49	0xbdc83e5b	-0.09777518
50	0x3dc1fd92	0.09472193
51	0x3da5c27a	0.08093734
52	0xbe089e3a	-0.13341609
53	0x3d4d30df	0.050095435
54	0x3c884563	0.016634649
55	0x3d0fca33	0.03510494
56	0x3da7a08d	0.081849195
57	0xbdc7ca05	-0.09755329
58	0x3aa86b44	0.001284935
59	0xbadc086f	-0.0016787181
60	0xbd996ea7	-0.074918084
61	0x3b354ba7	0.00276635
62	0xbd5efcbd	-0.05444025
63	0x3d243fef	0.040100034
64	0xbd9a990f	-0.07548725
65	0xbdaf827b	-0.08569809
66	0x3bcb878d	0.0062112273
67	0x3bfb357c	0.007666288
68	0xbde60859	-0.11232061
69	0xbd0c5bbb	-0.03426717
70	0x3d278d2d	0.04090612
71	0xbc926328	-0.017869547
72	0x3c2adb5f	0.010428279
73	0xbd23a386	-0.03995087
74	0x3cbddeb8	0.02317749
75	0xbde13e3f	-0.109982006
76	0xbdb04970	-0.08607757
77	0xbdaca128	-0.084291756
78	0x3dcc0a83	0.099629425
79	0xbd8b08d2	-0.06788792
80	0xbcb5b9de	-0.022183355
81	0xbd9c8da3	-0.076442026
82	0x3db08629	0.08619339
83	0x3da9ed39	0.082972
84	0xbdf0c4d5	-0.11756293
85	0xbe1658ea	-0.14682356
86	0xbe04c665	-0.12966307
87	0xbd18283f	-0.037147757
88	0xbd0282c4	-0.03186299
89	0xbdcf076b	-0.10108837
90	0xbd83600b	-0.06414803
91	0xbc9fa2f3	-0.01948688
92	0xbdb24234	-0.087040335
93	0x3bda6a2d	0.006665489
94	0xbce5b576	-0.028040629
95	0xbd97d71a	-0.07414074
96	0xbcfa356b	-0.03054305
97	0x3db1f9ed	0.08690248
98	0xbdffaa43	-0.12483647
99	0xbd03469e	-0.032049768
100	0xbda9fc02	-0.0830002
101	0x3dd23655	0.10264269
102	0xbe1f64c8	-0.15565789
103	0xbe104cd8	-0.14091814
104	0x3dd9fa5b	0.10643455
105	0xbdb8de16	-0.090267345
106	0xbc784a7d	-0.015154478
107	0xbd5bd6bc	-0.053671584
108	0xbd0c1804	-0.03420259
109	0xbcfe3e6e	-0.031035628
110	0x3d7b242c	0.061313793
111	0xbcf2c124	-0.029633112
112	0xbe36c71a	-0.17849389
113	0xbda5ecda	-0.081018165
114	0xbd5ef445	-0.054432172
115	0x3cfdb890	0.030971795
116	0xbdd1da1a	-0.10246678
117	0x3da4a5de	0.08039449
118	0xbd234bae	-0.039867096
119	0xbd75b405	-0.059986133
120	0x3da9ed63	0.08297231
121	0x3cd4f423	0.02599532
122	0x3d89b47f	0.0672388
123	0x3d10bdef	0.035337385
124	0xbda98955	-0.08278147
125	0xbdf97660	-0.12180781
126	0xbcee87ca	-0.029117484
127	0x3d8636ea	0.06553443
128	0x3e05c301	0.1306267
129	0x3c730aad	0.014834088
130	0x3e918683	0.28422937
131	0x3e369715	0.1783107
132	0x3d5d726e	0.054064207
133	0x3e6c960e	0.23104116
134	0xbf01d2a7	-0.50712055
135	0xbea81b2e	-0.32833236
136	0xbd00cce5	-0.031445403
137	0xbf2f7888	-0.6854329
138	0xbe0f78fb	-0.14010994
139	0x3eb28732	0.3486877
140	0x3edf3965	0.43598476
141	0x3dac6826	0.08418302
142	0xbf1530a2	-0.5827733
143	0xbe22aa2a	-0.15885225
144	0x3dd10ffb	0.10208126
145	0x3f34307a	0.7038647
146	0x3dcdd6a3	0.10050704
147	0x3ea912a7	0.33022043
148	0x3e78d3ab	0.24299495
149	0xbe6109ea	-0.21976438
150	0x3d84b38a	0.06479557
151	0x3ec55885	0.38544098
152	0xbebffd95	-0.37498155
153	0xbc161fed	-0.009162885
154	0xbda7df29	-0.08196861
155	0xbceb56ee	-0.028727975
156	0x3e434375	0.19068702
157	0xbde87b17	-0.113516025
158	0xbc602461	-0.013680548
159	0x3c8a20be	0.016861316
160	0x3e7af72c	0.24508351
161	0xbf5b5592	-0.85677445
162	0x3eceb451	0.40371946
163	0x3e81e340	0.2536869
164	0x3e1c4c0f	0.15263389
165	0xbe92a745	-0.28643242
166	0xbe9cb4bc	-0.3060664
167	0x3e06b106	0.13153467
168	0xba0f6dcb	-0.00054713775
169	0xbf1e0c81	-0.6173783
170	0xbe8e9d2c	-0.27854288
171	0x3dfcb6a6	0.12339525
172	0xbd7133fc	-0.058887467
173	0x3dd543d1	0.104133256
174	0xbec80be9	-0.39071587
175	0x3cfcee38	0.03087531
176	0x3e6fdd48	0.23424256
177	0xbd805041	-0.06265307
178	0x3d02e849	0.031959806
179	0xbea7d00c	-0.32775915
180	0x3ddf1fd8	0.108947456
181	0xbdd51294	-0.10403934
182	0x3eba496a	0.36384135
183	0xbd7bd6a4	-0.061483994
184	0x3e843e31	0.25828698
185	0xbef2d486	-0.47427768
186	0xbb849338	-0.00404587
187	0xbdbc099f	-0.091815226
188	0xbe2d1da6	-0.16905841
189	0x3d944d33	0.07241287
190	0xbed5b9b2	-0.41743237
191	0x3c582ea0	0.01319471
192	0xc00fefbe	-2.2490077
193	0xbe08768b	-0.1332647
194	0xbf8c46cb	-1.0959104
195	0xbf3778d6	-0.71668756
196	0xbfa82f3d	-1.3139416
197	0x3e1a451a	0.15065423
198	0x3f5b108f	0.8557214
199	0xbeca9145	-0.39563957
200	0xbfc72c56	-1.5560405
201	0x3edb7602	0.4286347
202	0x3eb901ab	0.36134085
203	0xbe91397b	-0.28364167
204	0x3e6d3fd5	0.23168881
205	0x3db1ca2e	0.08681141
206	0x3d1bfd49	0.03808335
207	0xbeef5a83	-0.46748742
208	0x3ed899d6	0.42304868
209	0x3e839d47	0.2570593
210	0xbf2d71d3	-0.67751807
211	0xbf0f36f7	-0.55943245
212	0x3e189cbb	0.14903538
213	0xbf451884	-0.7699053
214	0x3e3289d0	0.17435384
215	0xbd092abf	-0.03348803
216	0xbdc1ebff	-0.09468841
217	0x3da256b5	0.07926694
218	0xbeac7b2c	-0.33687723
219	0xbecf4c34	-0.40487826
220	0xbf5a326e	-0.852332
221	0x3e78b021	0.24285938
222	0xbeec2ace	-0.46126407
223	0x3cb71b2c	0.022351824
224	0xc02fb29c	-2.7452765
225	0xbdb89823	-0.09013393
226	0x3eec9f54	0.46215308
227	0xbeac18ec	-0.33612764
228	0xc00380c4	-2.0547342
229	0x3d6ce029	0.057830963
230	0x3fcf3723	1.6188701
231	0xbec38c41	-0.38192943
232	0x3e762e58	0.24041116
233	0xbf8d3d98	-1.1034422
234	0xbe431b56	-0.19053397
235	0xbf817a97	-1.0115536
236	0x3f4af557	0.7928061
237	0x3d498763	0.04920138
238	0x3d4be93b	0.049782973
239	0x3f175f8d	0.59130174
240	0x3e1bcbd5	0.15214474
241	0xbda4f0f0	-0.08053768
242	0x3e7c7ac1	0.24656202
243	0x3daa3d25	0.08312444
244	0xbe82ec76	-0.2557103
245	0x3d94b1c8	0.072604716
246	0x3e43b507	0.19112025
247	0x3e8fe519	0.28104475
248	0xbf80a62b	-1.005071
249	0x3dcf514b	0.10122927
250	0xbf24a7fc	-0.64318824
251	0xbfa47ef8	-1.2851248
252	0xc0502f69	-3.2528937
253	0xbf5ae8a4	-0.8551123
254	0x3e59bd32	0.21263579
255	0xbeb0bc18	-0.34518504

fc2.bias f4 [64]
0	0xbe212c42	-0.1573954
1	0x3cc4d264	0.024026103
2	0x3e912aad	0.28352872
3	0x3da63424	0.08115414
4	0xbc78a9fb	-0.015177245
5	0x3e5bd88b	0.21469323
6	0x3ee21bbf	0.44161794
7	0x3d67f80a	0.056633033
8	0xbb2d0179	-0.0026398583
9	0x3dd41cf0	0.10357082
10	0x3ec2b2a2	0.3802691
11	0x3db41dfa	0.0879478
12	0x3e8bca66	0.27302855
13	0x3bf332a4	0.0074218083
14	0x3dcb6cd4	0.09932867
15	0xbde2a19b	-0.1106598
16	0x3d624706	0.055243514
17	0x3e396de2	0.18108323
18	0x3deb3544	0.11484769
19	0xbcf71875	-0.03016303
20	0x3b589f38	0.0033053886
21	0x3e55d787	0.20882998
22	0x3cb25bf5	0.021772364
23	0x3f005348	0.5012708
24	0x3d33b96b	0.043878
25	0xbe138b02	-0.14408496
26	0x3e8850a2	0.26624018
27	0x3d4bf9d3	0.049798798
28	0x3ed58c9b	0.41708836
29	0x3dd6c046	0.10485892
30	0x3e9d5e53	0.30736026
31	0x3e019f20	0.12658358
32	0x3e3af66a	0.18258062
33	0xbd67c1ab	-0.05658118
34	0x3d9d11af	0.076693885
35	0x3f01490f	0.50502104
36	0x3c611b0a	0.013739357
37	0xbdda03ca	-0.10645254
38	0xbc88b876	-0.01668952
39	0x3e4ca483	0.19984631
40	0x3ec4193d	0.38300505
41	0xbd880eda	-0.06643458
42	0x3eafe074	0.34350932
43	0x3ea193ed	0.3155817
44	0x3e4062c6	0.18787679
45	0x3cf5ff76	0.03002904
46	0x3e775980	0.24155235
47	0xbc266f55	-0.01015838
48	0xbe9d4658	-0.3071773
49	0xbe0f5db7	-0.14000593
50	0xbe9a9c10	-0.3019719
51	0x3e25ecaa	0.16203561
52	0x3d7b65ea	0.06137649
53	0xbdb52c99	-0.08846397
54	0x3cfb7082	0.030693296
55	0x3ceddf67	0.02903719
56	0x3da9e220	0.08295083
57	0x3eb65ca6	0.3561756
58	0x3e27ddae	0.16393158
59	0x3dc2fef9	0.095212884
60	0x3e4cb841	0.19992162
61	0x3ec24d0c	0.37949407
62	0x3e7d494e	0.24734995
63	0x3de7361f	0.1128962

fc3.weight f4 [3, 64]
0	0x3dbdbf58	0.092650115
1	0x3da8f957	0.08250683
2	0xbf252c3a	-0.6452061
3	0x3fd6ead8	1.6790419
4	0x3f97738a	1.1832135
5	0xbe602ba8	-0.21891654
6	0xbf62e767	-0.8863434
7	0xbfd16a38	-1.636054
8	0xbdeff8dc	-0.11717388
9	0xbe897811	-0.26849416
10	0x401aa367	2.4162233
11	0xbdbdbcbf	-0.09264516
12	0xbf438b72	-0.7638465
13	0xbc97d0ac	-0.01853212
14	0xbe7da9b2	-0.24771765
15	0x3d7aa0cf	0.061188515
16	0x3fefcbd6	1.8734081
17	0xbddc32da	-0.10751887
18	0xbe023f52	-0.12719467
19	0x3fa7856b	1.3087591
20	0xbe75f67f	-0.24019812
21	0x40048a85	2.0709546
22	0x3d93f36b	0.07224163
23	0xbd969713	-0.07353034
24	0x3fbcac77	1.4740132
25	0x3da58112	0.08081259
26	0xbd878660	-0.06617427
27	0xbe1ea0d5	-0.1549104
28	0xbd903096	-0.07040517
29	0xbe8e890d	-0.27838936
30	0x3f4dd6f2	0.80406106
31	0x3ff69571	1.9264356
32	0xbeb813ac	-0.35952508
33	0x3f66a5e1	0.9009686
34	0x3d8896bb	0.066693746
35	0xbf78e7a9	-0.97228485
36	0xbfc9518b	-1.572801
37	0xbb8ee9dc	-0.0043613743
38	0xbdf1a36b	-0.11798748
39	0xbf8dfb33	-1.1092285
40	0x3fe0c837	1.7561101
41	0x3e8a8c49	0.27060154
42	0x4005553f	2.083328
43	0xbea37fb6	-0.31933373
44	0xbebf591d	-0.37372676
45	0xbf4c7464	-0.798651
46	0xbf58ef06	-0.8473972
47	0xbdb5bc6a	-0.08873828
48	0xbfb8c8f1	-1.4436322
49	0xbf85b54c	-1.0445952
50	0xc0158720	-2.3363724
51	0x3c0e8b95	0.008700271
52	0x3fa4febd	1.289024
53	0x3fbb04ae	1.4610803
54	0xbe8b5a4d	-0.27217332
55	0xbeaf0378	-0.34182334
56	0xbdd6c448	-0.104866564
57	0xbf328a04	-0.69741845
58	0xbea83552	-0.3285318
59	0xbe2494a6	-0.1607233
60	0xb9045e3d	-0.00012623607
61	0xbea6ddfc	-0.32591236
62	0xbf2420c3	-0.6411249
63	0x3bf16552	0.0073668147
64	0x3c1a73a3	0.009426984
65	0xbe0da557	-0.13832603
66	0xbee18ece	-0.44054264
67	0x3f745f01	0.95457464
68	0x3f30d4f2	0.6907493
69	0xbe164c18	-0.14677465
70	0xbf06e586	-0.52693975
71	0xbf99fb52	-1.2029822
72	0xba33616d	-0.00068428257
73	0xbee7177a	-0.451351
74	0x3fd4873a	1.6603768
75	0xbe8a2c3e	-0.2698688
76	0xbf40ac75	-0.7526315
77	0xbdc26f14	-0.09493843
78	0xba75c5d6	-0.0009375488
79	0x3dc83aba	0.09776826
80	0x3fcc5a58	1.5965071
81	0xbe06c4f9	-0.13161077
82	0x3ade75ab	0.0016972324
83	0x400b49eb	2.1763866
84	0xbe008b3b	-0.12553112
85	0x3fa5fb0c	1.2967238
86	0xbd6cd0e7	-0.057816412
87	0xbf2cfe31	-0.67575365
88	0x3f7deb62	0.9918729
89	0xbdd05ca4	-0.1017392
90	0xbe71a0aa	-0.23596445
91	0xbe15ef22	-0.14642003
92	0xbededed9	-0.43529394
93	0xbf22719e	-0.63454616
94	0x3f675079	0.90357167
95	0x3f822ce7	1.0169953
96	0xbeeddd9d	-0.4645814
97	0x3f0a4936	0.5401796
98	0xbd4830f2	-0.048874803
99	0xbfba4e22	-1.4555094
100	0xbf508101	-0.81446844
101	0x3d5745c1	0.052556757
102	0xbedc4273	-0.43019447
103	0xbf23de41	-0.6401101
104	0x3f883336	1.0640628
105	0x3dcaa8bc	0.09895465
106	0x3f650a75	0.8946908
107	0xbdbef968	-0.09324914
108	0xbe9ae3c1	-0.30251887
109	0x3e62223c	0.22083372
110	0xbeb82204	-0.35963452
111	0x3c489c5c	0.01224431
112	0xbf3a6b08	-0.72819567
113	0xbf0f10d7	-0.5588507
114	0xbfc07d3c	-1.5038218
115	0xbe906c17	-0.28207466
116	0x3fe384f2	1.7774947
117	0x3f508ac4	0.8146174
118	0xbda7dc39	-0.08196301
119	0xbf1b2c51	-0.60614496
120	0x3c942391	0.018083366
121	0xbef371cb	-0.47547755
122	0xbe37a563	-0.17934184
123	0xbcd87cc3	-0.026426679
124	0xbeb5a9a1	-0.3548098
125	0xbf19b1cc	-0.6003692
126	0xbe7afc90	-0.24510407
127	0x3e46718a	0.19379249
128	0xbc32c570	-0.010911331
129	0xb9db2291	-0.0004179669
130	0xbd09be5b	-0.033628803
131	0x3fa7f833	1.3122619
132	0x3fbb4a9e	1.4632146
133	0xbe921dd5	-0.28538385
134	0xbee72cc9	-0.45151356
135	0xbf9214f4	-1.1412644
136	0xbe29db48	-0.16587555
137	0xbceea4c0	-0.029131293
138	0x3fc62872	1.5481093
139	0xbe8111ce	-0.25208896
140	0xbf90d0c0	-1.1313705
141	0xbe2c378b	-0.16818063
142	0xbcb81cc1	-0.022474648
143	0x3c96e9c0	0.018422008
144	0x400ec943	2.231034
145	0xbdb37120	-0.08761811
146	0xbdc4db11	-0.09612096
147	0x3fb76c81	1.4329988
148	0xbc4199f2	-0.011816489
149	0x3f8d5ae3	1.1043361
150	0x3db61c6b	0.08892139
151	0xbf69fa15	-0.9139722
152	0x3f9eb43b	1.2398752
153	0x3db599f0	0.08867252
154	0x3f4f0304	0.80863976
155	0xbd85f438	-0.06540722
156	0xbf653b4d	-0.8954361
157	0xbe987aee	-0.29781288
158	0x3f99ea5e	1.2024648
159	0x4029ec88	2.6550617
160	0xbf59e5d2	-0.851163
161	0x3f8011bf	1.0005416
162	0xbc08eda9	-0.008357444
163	0xbf83a3ad	-1.0284325
164	0xbfaa24b9	-1.3292457
165	0x3d472dd5	0.048627693
166	0xbbd98cf2	-0.0066391164
167	0xbf8d9ad0	-1.106287
168	0x3fc5c32b	1.5450186
169	0x3dba1ce7	0.09087544
170	0x3fe88623	1.8165935
171	0xbcd4d095	-0.025978366
172	0xbe48e38e	-0.19618055
173	0xbe086238	-0.13318717
174	0x3c8af572	0.01696274
175	0xbd496560	-0.049168944
176	0xbfa01a58	-1.250804
177	0xbf41e4b2	-0.75739586
178	0xc0346ab5	-2.8190129
179	0xbd766717	-0.060156908
180	0x3fdcbfc0	1.7246017
181	0x3f986811	1.1906759
182	0x3c834840	0.016025662
183	0xbf74fa98	-0.95694876
184	0xbde41ff5	-0.11138908
185	0xbf0ba08b	-0.54541844
186	0xbd9c3cca	-0.07628782
187	0xbdb2c84f	-0.08729612
188	0xbdd274b7	-0.10276168
189	0xbf0f7f86	-0.5605396
190	0xbf97c747	-1.185769
191	0xbe46e890	-0.19424653

fc3.bias f4 [3]
0	0x3d55684f	0.05210143
1	0xbeb3a64a	-0.35087806
2	0x3e0fb1be	0.14032647
