model/checkpoint_2200.pth (torch, 21912 bytes, 6 tensors)

fc1.weight f4 [64, 6]
0.37640575 0.74469304 -0.35690087 -0.8448059 -0.05373409 0.2702278 0.3767866 0.5544792
-0.42448214 0.058608685 -0.09509686 0.03145712 -0.82799137 -0.32227704 -0.86842996 0.17821352
0.19638234 0.22231719 -0.40411592 -0.6193781 -0.15912941 0.75634944 0.15161748 0.23699142
0.002601547 0.77990144 0.62869406 -0.51587856 -0.37547895 0.06378084 -0.44566843 0.866876
-0.70334566 -0.35813197 -0.40765223 -0.31640676 -1.3669982 -0.06667969 0.5104466 -0.35853735
-0.118341595 -0.029622803 -0.19889751 -1.0572522 -0.7660292 -0.4570193 0.20235096 -0.1781512
-0.5432937 -0.8461397 0.55913186 0.6252783 0.16254838 0.09387581 0.011025152 -1.0184102
-0.0113719795 -0.10921171 -0.28497216 -0.4189125 0.29047588 -0.2651097 0.62135357 0.04273903
0.5821931 0.14766753 0.3714626 -0.37953246 0.21008351 0.5412824 -0.30164918 -0.13447042
0.33761606 0.114209555 0.5268242 1.0736908 -0.19330747 -0.40083173 0.12815124 -1.2218047
-1.0760015 0.90060675 0.08316541 -0.41883957 -0.02682818 0.42774248 -0.5252199 0.39337212
0.27290493 -0.13975307 1.0155383 0.23828265 0.21437092 -0.1503937 -0.36765298 -0.1569216
0.8403599 0.3069097 -0.4757335 -0.57792467 0.580922 0.18879941 -1.1346828 0.026751604
-0.8554834 -0.01360518 -0.20971143 -0.2501304 -0.39411587 -0.1983989 -0.04762462 -0.82415456
-0.43502268 0.35343504 0.6508026 -0.081619896 -0.22360273 -0.09749259 0.23664296 0.21113427
0.7176072 0.11867043 -0.23741645 0.24455264 -0.40304378 -0.21704882 -0.6256381 -0.73887306
0.12608503 -0.33672974 -0.117444135 -0.10153687 -0.046921976 -0.34249797 0.36117312 -0.26957664
0.13476454 -0.0019819464 0.5197501 0.23778534 0.6357352 0.39178208 0.20132202 0.22005695
-0.67345965 0.30414438 -0.3094271 0.3654781 -0.3760968 -0.41189525 0.0702789 -0.87454975
-0.004857916 1.3573333 -0.17852485 -0.31973153 0.0014089034 -0.9341984 -0.051862232 -0.40378004
-0.21794029 -0.2812435 -0.6153082 -0.5040306 -0.55993855 -0.4991429 -0.3204501 0.16170374
-0.10232513 -0.21805987 0.3286655 -0.54580617 0.120060004 0.16893911 -0.65768 0.37306294
-0.46325636 0.9357459 0.44271192 -0.25438812 -0.41909757 0.10039677 0.58475095 0.13195017
0.54623336 0.3047114 -0.32389063 0.34908408 -0.9953421 0.5220099 0.4171596 0.38593903
0.092441894 0.943992 -0.9865714 -0.5558122 -0.03102595 0.3005277 -0.29578978 0.19863522
0.3519184 -0.09584468 -0.61942005 -0.37468922 -0.2801253 -0.59220266 -0.333294 0.6490786
0.016297976 -0.11341861 0.31517795 0.07936708 -0.10692503 0.12752137 0.15469848 0.1729115
0.9193029 0.44572914 1.0691798 -1.3818293 0.24266413 0.51155543 0.46810296 -0.3990199
-1.0153741 -0.16798642 -0.038109526 -0.03823785 -0.95911515 0.46688834 -0.19943182 0.59497654
0.37280342 0.35512784 0.6721901 -0.015323648 0.56875825 -0.36432806 -0.16560425 -0.19142586
-0.11213896 0.49044093 -0.06375373 -0.23475595 0.08247911 -0.33938807 0.65028846 -0.63782555
0.4174304 -0.5266248 -0.48465687 -0.13244057 0.7958524 -0.40072423 -0.32487464 -0.40858734
00000000: 41b8 c03e 34a4 3e3f b6bb b6be 3345 58bf
00000010: 4718 5cbd 4c5b 8a3e 2cea c03e 59f2 0d3f
00000020: b955 d9be a90f 703d 24c2 c2bd 2ed9 003d
00000030: 3ef7 53bf 7f01 a5be 6d51 5ebf 9b7d 363e
00000040: 7418 493e 1ea7 633e 48e8 cebe 908f 1ebf
00000050: d2f2 22be 1ea0 413f 9d41 1b3e e1ad 723e
00000060: b77e 2a3b 9fa7 473f 18f2 203f 9e10 04bf
00000070: c73e c0be 879f 823d a72e e4be 96eb 5d3f
00000080: 760e 34bf 135d b7be cbb7 d0be 1100 a2be
00000090: ccf9 aebf 5c8f 88bd a1ac 023f 3592 b7be
000000a0: 145d f2bd 85ab f2bc caab 4bbe 0a54 87bf
000000b0: 7d1a 44bf 6ffe e9be 1735 4f3e 456d 36be
000000c0: 4c15 0bbf 9d9c 58bf 4423 0f3f 3d12 203f
000000d0: 1573 263e f641 c03d d7a2 343c 445b 82bf
000000e0: 8a51 3abc 64aa dfbd dfe7 91be b37b d6be
000000f0: 41b9 943e 75bc 87be 0711 1f3f 1f0f 2f3d
00000100: 9b0a 153f 2836 173e 5930 be3e 1452 c2be
00000110: 2220 573e 7c91 0a3f c371 9abe 9db2 09be
00000120: 03dc ac3e b3e6 e93d f3dd 063f b36e 893f
00000130: 65f2 45be d139 cdbe 143a 033e 1964 9cbf
00000140: 6bba 89bf 2a8e 663f a052 aa3d 2472 d6be
00000150: c5c6 dbbc 1001 db3e d074 06bf 1268 c93e
00000160: 32ba 8b3e 6e1b 0fbe 29fd 813f 5e00 743e
00000170: 0d84 5b3e ce00 1abe 033d bcbe 0eb0 20be
00000180: d421 573f 4523 9d3e 5793 f3be dff2 13bf
00000190: 4eb7 143f a254 413e 493d 91bf 2e26 db3c
000001a0: f600 5bbf 43e8 5ebc 98be 56be 1711 80be
000001b0: 8ec9 c9be 1529 4bbe 0912 43bd cbfb 52bf
000001c0: 4bbb debe 70f5 b43e 009b 263f 5528 a7bd
000001d0: 1df8 64be 32aa c7bd 8852 723e 9533 583e
000001e0: 1bb5 373f 7b09 f33d 4c1d 73be 026c 7a3e
000001f0: c15b cebe 0c42 5ebe d229 20bf c926 3dbf
00000200: 6f1c 013e d767 acbe 8d86 f0bd 90f2 cfbd
00000210: 4231 40bd e55b afbe afeb b83e f305 8abe
00000220: b7ff 093e 8be3 01bb 580e 053f 007e 733e
00000230: 8bbf 223f a997 c83e 5c27 4e3e 9c56 613e
00000240: da67 2cbf d0b8 9b3e 3b6d 9ebe f21f bb3e
00000250: c38f c0be efe3 d2be 62ee 8f3d 7ee2 5fbf
00000260: 272f 9fbb 19bd ad3f 38cf 36be dab3 a3be
00000270: f4aa b83a a027 6fbf 7e6d 54bd 42bc cebe
00000280: bd2b 5fbe 26ff 8fbe d784 1dbf 2608 01bf
00000290: 2258 0fbf a88f ffbe 0912 a4be aa95 253e
000002a0: d68f d1bd 164b 5fbe d846 a83e f4b9 0bbf
000002b0: 05e2 f53d 60fe 2c3e b75d 28bf 1b02 bf3e
000002c0: f02f edbe 0b8d 6f3f 23ab e23e 293f 82be
000002d0: f593 d6be d29c cd3d 3db2 153f f21d 073e
000002e0: f3d5 0b3f 2203 9c3e fed4 a5be 26bb b23e
000002f0: bdce 7ebf 71a2 053f f195 d53e cd99 c53e
00000300: 2d52 bd3d 76a9 713f f18f 7cbf b549 0ebf
00000310: 222a febc c4de 993e c271 97be 0867 4b3e
00000320: a62e b43e 374a c4bd 5092 1ebf 44d7 bfbe
00000330: 956c 8fbe 989a 17bf 83a5 aabe 042a 263f
00000340: 5583 853c 0448 e8bd 015f a13e 358b a23d
00000350: 83fb dabd f694 023e 4769 1e3e b60f 313e
00000360: 6f57 6b3f 9c36 e43e e2da 883f c8df b0bf
00000370: f27c 783e 4cf5 023f 31ab ef3e 564c ccbe
00000380: c7f7 81bf a204 2cbe bc18 1cbd 4b9f 1cbd
00000390: 9288 75bf fd0b ef3e db37 4cbe 6250 183f
000003a0: 17e0 be3e 51d3 b53e a714 2c3f 0a10 7bbc
000003b0: 249a 113f 3589 babe 2994 29be 2405 44be
000003c0: 1ca9 e5bd 131b fb3e 5191 82bd dd63 70be
000003d0: cfea a83d 46c4 adbe 4e79 263f 8948 23bf
000003e0: 70b9 d53e e2d0 06bf f224 f8be 809e 07be
000003f0: fcbc 4b3f ba2b cdbe f855 a6be 5c32 d1be

fc1.bias f4 [64]
0.25046238 0.61972374 0.14271463 0.110852554 0.31522572 0.380448 -0.5989331 0.2216543
-0.26875973 -0.0029834462 -0.79392415 0.77549165 0.15458634 -0.044835668 -0.9225734 0.44644573
0.83736485 -0.115362756 -0.14871578 0.73849887 0.72464156 -0.7010419 0.74759996 0.69865716
-0.3257254 0.009866868 0.059060477 -0.39114675 0.9106304 -0.29112542 -0.5626375 -0.13448891
-0.2980298 -0.6134975 0.108422205 0.7242646 0.31518725 0.1523916 -0.10981754 0.4120691
0.41485023 -0.4067226 0.19747503 -0.30280194 0.3341536 -0.11978877 -0.42985964 0.054133344
0.65493363 0.28656742 -0.33223477 -0.0912896 0.18632786 -0.91573524 0.43933317 -0.6379967
-0.6632275 -0.4882459 -0.27127275 0.607901 -0.47723532 0.66196954 -0.20675357 0.5291115
00000000: 9b3c 803e 37a6 1e3f c923 123e aa06 e33d
00000010: 4465 a13e 15ca c23e ae53 19bf 58f9 623e
00000020: e09a 89be ec85 43bb 9d3e 4bbf 9f86 463f
00000030: e24b 1e3e 9ba5 37bd c52d 6cbf 8994 e43e
00000040: 8b5d 563f 4f43 ecbd f348 18be 430e 3d3f
00000050: 1c82 393f 7b77 33bf b662 3f3f 32db 323f
00000060: 7bc5 a6be a5a8 213c 66e9 713d 6344 c8be
00000070: 131f 693f 640e 95be 0309 10bf 76b7 09be
00000080: 5d97 98be 2c0e 1dbf 760c de3d 6869 393f
00000090: 3960 a13e 8b0c 1c3e 05e8 e0bd b9fa d23e
000000a0: 4067 d43e f23d d0be e536 4a3e db08 9bbe
000000b0: 2e16 ab3e d153 f5bd 9016 dcbe edba 5d3d
000000c0: bba9 273f f7b8 923e ad1a aabe 0bf6 babd
000000d0: bbcc 3e3e a06d 6abf 47f0 e03e c053 23bf
000000e0: 47c9 29bf 5efb f9be 43e4 8abe 669f 1b3f
000000f0: 3058 f4be d676 293f 35b7 53be da73 073f

fc2.weight f4 [64, 64]
-0.04831197 -0.15959136 0.07830485 0.031351674 0.072698325 0.042516902 -0.082408555 0.06584186
-0.011387902 0.029746728 -0.1160325 -0.08457825 -0.14884798 -0.06456648 0.011087811 -0.13505483
0.0015068119 0.051230192 -0.023552231 -0.12147423 -0.14331594 -0.055504147 0.0030061875 0.08693521
0.05600189 -0.029736916 0.030022614 -0.15701422 -0.16206105 0.04244582 -0.10667518 0.020192299
-0.124540776 -0.07778318 -0.114982456 0.026265617 -0.050580557 0.0803335 0.036456767 0.017311795
-0.020424183 -0.07648162 -0.06710148 -0.017167564 0.023085473 -0.10344298 0.08902927 -0.05340683
-0.13850294 -0.09777518 0.09472193 0.08093734 -0.13341609 0.050095435 0.016634649 0.03510494
0.081849195 -0.09755329 0.001284935 -0.0016787181 -0.074918084 0.00276635 -0.05444025 0.040100034
-0.07548725 -0.08569809 0.0062112273 0.007666288 -0.11232061 -0.03426717 0.04090612 -0.017869547
0.010428279 -0.03995087 0.02317749 -0.109982006 -0.08607757 -0.084291756 0.099629425 -0.06788792
-0.022183355 -0.076442026 0.08619339 0.082972 -0.11756293 -0.14682356 -0.12966307 -0.037147757
-0.03186299 -0.10108837 -0.06414803 -0.01948688 -0.087040335 0.006665489 -0.028040629 -0.07414074
-0.03054305 0.08690248 -0.12483647 -0.032049768 -0.0830002 0.10264269 -0.15565789 -0.14091814
0.10643455 -0.090267345 -0.015154478 -0.053671584 -0.03420259 -0.031035628 0.061313793 -0.029633112
-0.17849389 -0.081018165 -0.054432172 0.030971795 -0.10246678 0.08039449 -0.039867096 -0.059986133
0.08297231 0.02599532 0.0672388 0.035337385 -0.08278147 -0.12180781 -0.029117484 0.06553443
0.22523661 0.09056054 0.22975472 0.15345006 0.1141695 0.06909768 -0.14863399 -0.17294045
-0.09106504 -0.52946186 -0.16221625 0.22661148 0.21779501 0.09030001 -0.6697214 -0.001577405
0.09479991 0.51515645 0.014875211 0.2368343 0.05169217 -0.17003165 0.20908585 0.35236394
-0.56438535 0.04347852 0.1409187 -0.057706755 0.15327708 -0.293464 -0.1630998 0.025519509
0.19149366 -0.42726478 0.20799856 0.15102135 0.047312874 -0.09033141 -0.25631118 0.24975783
0.026375754 0.01675332 -0.008492703 -0.11571984 0.03825254 0.08861205 -0.26771912 -0.056948885
0.24903901 0.05533649 -0.17327537 -0.17617142 0.066912904 -0.18205932 0.2152361 -0.01976816
0.2175669 -0.14592521 0.022764446 0.09741903 -0.17081422 0.030640246 -0.30959862 0.14069255
-1.6102804 0.005611961 -1.4357239 -0.3907293 -1.7085631 0.14334613 0.83508533 -0.4290539
-0.85735154 0.2805017 0.3501166 -0.25856617 0.22572005 0.15166666 0.066246815 -0.6399364
0.3598988 0.1826889 -0.5989676 -0.636137 0.11524123 -0.42575905 0.1010107 -0.09380683
0.08081686 0.111334145 -0.38867524 0.049087707 -0.33907247 0.27969286 -0.16056414 -0.019761901
-2.0851197 -0.31285205 0.44757706 -0.36814255 -1.4421818 0.11150777 1.2884911 -0.39034864
0.22156799 -1.2709612 -0.13326624 -1.4706169 0.2353995 0.20286864 0.060867686 0.39502457
0.1761044 -0.12676747 0.31448948 -0.22967678 -0.2856901 0.072604716 0.088219956 0.43648222
-1.0266868 -0.32362208 -0.20516735 -0.9939685 -2.4121127 -0.99699634 0.12949218 -0.3160995
00000000: c6e2 45bd eb6b 23be 4b5e a03d 9d6a 003d
00000010: dce2 943d 3426 2e3d d1c5 a8bd 19d8 863d
00000020: 5394 3abc 69af f33c 73a2 edbd 5d37 adbd
00000030: 9b6b 18be 6e3b 84bd a6a9 353c d04b 0abe
00000040: 3880 c53a c0d6 513d 9cf0 c0bc 7bc7 f8bd
00000050: 6ac1 12be 5158 63bd 7503 453b 160b b23d
00000060: 3d62 653d d59a f3bc fcf1 f53c 56c8 20be
00000070: 55f3 25be abdb 2d3d 8478 dabd 526a a53c
00000080: 3c0f ffbd ca4c 9fbd ec7b ebbd fe2a d73c
00000090: 8f2d 4fbd e485 a43d b153 153d 77d1 8d3c
000000a0: 9e50 a7bc 65a2 9cbd 806c 89bd fea2 8cbc
000000b0: bf1d bd3c ead9 d3bd fa54 b63d 1fc1 5abd
000000c0: b7d3 0dbe 5b3e c8bd 92fd c13d 7ac2 a53d
000000d0: 3a9e 08be df30 4d3d 6345 883c 33ca 0f3d
000000e0: 8da0 a73d 05ca c7bd 446b a83a 6f08 dcba
000000f0: a76e 99bd a74b 353b bdfc 5ebd ef3f 243d
00000100: 0f99 9abd 7b82 afbd 8d87 cb3b 7c35 fb3b
00000110: 5908 e6bd bb5b 0cbd 2d8d 273d 2863 92bc
00000120: 5fdb 2a3c 86a3 23bd b8de bd3c 3f3e e1bd
00000130: 7049 b0bd 28a1 acbd 830a cc3d d208 8bbd
00000140: deb9 b5bc a38d 9cbd 2986 b03d 39ed a93d
00000150: d5c4 f0bd ea58 16be 65c6 04be 3f28 18bd
00000160: c482 02bd 6b07 cfbd 0b60 83bd f3a2 9fbc
00000170: 3442 b2bd 2d6a da3b 76b5 e5bc 1ad7 97bd
00000180: 6b35 fabc edf9 b13d 43aa ffbd 9e46 03bd
00000190: 02fc a9bd 5536 d23d c864 1fbe d84c 10be
000001a0: 5bfa d93d 16de b8bd 7d4a 78bc bcd6 5bbd
000001b0: 0418 0cbd 6e3e febc 2c24 7b3d 24c1 f2bc
000001c0: 1ac7 36be daec a5bd 45f4 5ebd 90b8 fd3c
000001d0: 1ada d1bd dea5 a43d ae4b 23bd 05b4 75bd
000001e0: 63ed a93d 23f4 d43c 7fb4 893d efbd 103d
000001f0: 5589 a9bd 6076 f9bd ca87 eebc ea36 863d
00000200: 6da4 663e ce77 b93d d244 6b3e 0322 1d3e
00000210: b3d1 e93d 1683 8d3d 8233 18be 4d17 31be
00000220: 4f80 babd d08a 07bf 041c 26be d70c 683e
00000230: a805 5f3e 36ef b83d dd72 2bbf eec0 ceba
00000240: 7526 c23d 4be1 033f 28b7 733c b184 723e
00000250: 2bbb 533d c71c 2ebe 9a1a 563e 0c69 b43e
00000260: 8f7b 10bf 8816 323d fe4c 103e eb5d 6cbd
00000270: abf4 1c3e ea40 96be a203 27be 4a0e d13c
00000280: ea16 443e 73c2 dabe 93fd 543e 57a5 1a3e
00000290: 25cb 413d adff b8bd 383b 83be 84c0 7f3e
000002a0: f711 d83c 423e 893c fa24 0bbc 86fe ecbd
000002b0: b2ae 1c3d 3c7a b53d 7b12 89be 3c43 69bd
000002c0: 1504 7f3e 84a8 623d 196f 31be 4866 34be
000002d0: a209 893d c26d 3abe da66 5c3e d6f0 a1bc
000002e0: dcc9 5e3e 6b6d 15be 817c ba3c a183 c73d
000002f0: ece9 2ebe 4101 fb3c b683 9ebe b511 103e
00000300: ab1d cebf 8ae4 b73b cdc5 b7bf ac0d c8be
00000310: 32b2 dabf 54c9 123e 27c8 553f f4ac dbbe
00000320: 647b 5bbf eb9d 8f3e 7c42 b33e c962 84be
00000330: 2823 673e 814e 1b3e 69ac 873d dfd2 23bf
00000340: a844 b83e cd12 3b3e f155 19bf e0d9 22bf
00000350: 9803 ec3d 17fd d9be b3de ce3d cc1d c0bd
00000360: 4f83 a53d 2803 e43d 7100 c7be 3110 493d
00000370: e89a adbe e733 8f3e ed6a 24be b6e3 a1bc
00000380: 9a72 05c0 252e a0be d228 e53e 2e7d bcbe
00000390: 6a99 b8bf 305e e43d 47ed a43f c7db c7be
000003a0: b8e2 623e dbae a2bf f276 08be 2d3d bcbf
000003b0: 910c 713e ccbc 4f3e 6550 793d a940 ca3e
000003c0: b654 343e 55cf 01be c404 a13e 6430 6bbe
000003d0: f945 92be c8b1 943d aaac b43d 997a df3e
000003e0: 796a 83bf cbb1 a5be 6417 52be b874 7ebf
000003f0: 0e60 1ac0 273b 7fbf 9999 043e cbd7 a1be

fc2.bias f4 [64]
-0.1573954 0.024026103 0.17081961 0.084971726 0.01055485 0.20899165 0.38248482 0.02251499
0.068963796 0.13208087 0.17358051 0.16859606 0.19262907 0.08646019 0.12592515 -0.1106598
-0.042215034 0.2812129 0.25326237 -0.021205993 0.022504639 0.24195567 0.021772364 0.45031828
-0.012628702 -0.14408496 0.17536698 0.12351797 0.35873657 0.14683235 0.42964914 0.10130747
0.23722921 -0.06876515 0.076693885 0.4858288 -0.019922858 -0.10645254 0.06506372 0.12867847
0.14491506 -0.06643458 0.22848417 0.3349694 0.2554118 0.08516014 0.3168764 -0.01015838
-0.3330845 -0.0092019355 -0.23840329 0.26659602 0.080217235 0.025241885 0.1080354 -0.029345913
0.17293191 0.26607016 0.19972433 0.188018 0.28053117 0.36394775 0.22253095 0.17038044
00000000: 422c 21be 64d2 c43c 56eb 2e3e a805 ae3d
00000010: 40ee 2c3c e801 563e 0dd5 c33e 5b71 b83c
00000020: e43c 8d3d 3540 073e 17bf 313e 72a4 2c3e
00000030: 8e40 453e 0a12 b13d 86f2 003e 9ba1 e2bd
00000040: ace9 2cbd 23fb 8f3e 9bab 813e 31b8 adbc
00000050: a65b b83c 3ac3 773e f55b b23c 1e90 e63e
00000060: 9ee8 4ebc 028b 13be 6793 333e fdf6 fc3d
00000070: 52ac b73e 385b 163e f9fa db3e 4a7a cf3d
00000080: 37ec 723e bed4 8cbd af11 9d3d 8dbe f83e
00000090: 4335 a3bc ca03 dabd 2140 853d 4ac4 033e
000000a0: 9d64 143e da0e 88bd c1f7 693e 1c81 ab3e
000000b0: 56c5 823e 7168 ae3d a03d a23e 556f 26bc
000000c0: 0d8a aabe b7c3 16bc fe1f 74be 467f 883e
000000d0: ef48 a43d 12c8 ce3c aa41 dd3d d766 f0bc
000000e0: 1015 313e 593a 883e 8984 4c3e ca87 403e
000000f0: c8a1 8f3e 5c57 ba3e 27df 633e 3678 2e3e

fc3.weight f4 [3, 64]
0.092650115 0.08250683 -0.32050565 1.3282199 1.1761763 -0.26491848 -0.8048364 -1.3045983
-0.19700794 -0.17886773 1.6140871 -0.20532615 -0.43703628 -0.16218275 -0.24295099 0.061188515
1.588392 -0.1721629 -0.20009628 1.4911898 -0.26444882 1.9068317 0.07224163 -0.11935505
1.2037807 0.08081259 -0.21515048 -0.22517124 -0.097242974 -0.26141724 0.6579585 1.5296705
-0.39349636 0.8266741 0.066693746 -0.7560186 -1.3677431 -0.0043613743 -0.1656608 -0.9770913
1.1347599 0.27060154 1.8458904 -0.23151393 -0.41364738 -0.37650716 -0.5939166 -0.08873828
-1.2956283 -0.8698622 -2.0486042 -0.11832209 1.4236225 1.1003228 -0.29491773 -0.21646647
-0.17736766 -0.68254405 -0.20583719 -0.26634145 -0.08885595 -0.32593295 -0.6263383 -0.12944694
0.009426984 -0.13832603 -0.39370844 0.92170006 0.83297086 -0.17659491 -0.40201396 -1.0927696
-0.13502938 -0.3201327 1.5716892 -0.3464865 -0.5567142 -0.13804393 -0.12494072 0.09776826
1.1526669 -0.16785058 -0.14337142 1.9377674 -0.17881973 0.7366483 -0.057816412 -0.45664397
0.9644619 -0.1017392 -0.24633965 -0.23042601 -0.27359873 -0.42992407 0.77520907 1.0160736
-0.4003543 0.56820625 -0.048874803 -0.9590568 -0.8813206 0.052556757 -0.29127523 -0.816973
0.79669714 0.09895465 1.2123841 -0.25142127 -0.3702254 0.035731226 -0.42456588 0.01224431
-0.57560295 -0.72506386 -1.1798762 -0.29099923 0.76584196 0.612475 -0.09472053 -0.4623753
-0.08944629 -0.32055077 -0.27074152 -0.16261555 -0.3404134 -0.44623587 -0.48548907 -0.005781399
-0.010911331 -0.0004179669 -0.16181211 1.3539993 1.0216103 -0.24875604 -0.35201532 -0.9702445
-0.26023602 -0.08853511 1.1232238 -0.30963704 -0.5165093 -0.22343087 -0.15928952 0.018422008
1.6822507 -0.17396884 -0.12399223 1.1841235 -0.1178964 1.1720588 0.08892139 -0.77486527
0.90582895 0.08867252 0.22710364 -0.18327616 -0.7268503 -0.29401648 1.0640063 1.8480254
-0.4902131 0.9564808 -0.008357444 -1.0282667 -1.1852001 0.048627693 -0.116341054 -0.97886837
0.891339 0.09087544 1.481111 -0.14005974 -0.3092725 -0.15189569 -0.09797223 -0.049168944
-0.8298 -0.901001 -1.9641936 -0.12146531 1.4472858 0.81120455 -0.11351186 -0.6347319
-0.19831023 -0.3558502 -0.17727306 -0.20921446 -0.16339651 -0.3367186 -0.8061388 -0.25627008
00000000: 58bf bd3d 57f9 a83d 5119 a4be 1c03 aa3f
00000010: f28c 963f 65a3 87be c209 4ebf 14fd a6bf
00000020: 73bc 49be 1a29 37be 689a ce3f 0541 52be
00000030: 38c3 dfbe 3c13 26be 25c8 78be cfa0 7a3d
00000040: 6e50 cb3f 794b 30be 0ae6 4cbe 4fdf be3f
00000050: d665 87be 1013 f43f 6bf3 933d 6c70 f4bd
00000060: 7c15 9a3f 1281 a53d 6850 5cbe 4a93 66be
00000070: 5327 c7bd 7bd8 85be f86f 283f 3ecc c33f
00000080: 5b78 c9be eaa0 533f bb96 883d 6f8a 41bf
00000090: 3512 afbf dce9 8ebb fca2 29be a822 7abf
000000a0: d03f 913f 498c 8a3e 2346 ec3f fd11 6dbe
000000b0: 97c9 d3be 8cc5 c0be eb0a 18bf 6abc b5bd
000000c0: 26d7 a5bf 4aaf 5ebf 551c 03c0 da52 f2bd
000000d0: 4339 b63f 61d7 8c3f 75ff 96be 63a9 5dbe
000000e0: de9f 35be 35bb 2ebf fcc6 52be e85d 88be
000000f0: 1cfa b5bd afe0 a6be b557 20bf bd8d 04be
00000100: a373 1a3c 57a5 0dbe 2794 c9be 89f4 6b3f
00000110: 943d 553f 4cd5 34be c6d4 cdbe e0df 8bbf
00000120: 2445 0abe 6fe8 a3be 1d2d c93f ae66 b1be
00000130: d284 0ebf 635b 0dbe ece0 ffbd ba3a c83d
00000140: 978a 933f 06e1 2bbe f5cf 12be c308 f83f
00000150: 851c 37be fc94 3c3f e7d0 6cbd 3dcd e9be
00000160: fae6 763f a45c d0bd 7640 7cbe ccf4 6bbe
00000170: 2215 8cbe 021f dcbe 1a74 463f b30e 823f
00000180: 3dfb ccbe f775 113f f230 48bd bf84 75bf
00000190: 3a9e 61bf c145 573d 0722 95be 2425 51bf
000001a0: 58f4 4b3f bca8 ca3d 672f 9b3f 4aba 80be
000001b0: 2f8e bdbe e85a 123d b360 d9be 5c9c 483c
000001c0: b75a 13bf c99d 39bf 2f06 97bf dafd 94be
000001d0: 380e 443f 29cb 1c3f d6fc c1bd 75bc ecbe
000001e0: 9e2f b7bd 3b1f a4be a29e 8abe b184 26be
000001f0: aa4a aebe 0779 e4be 0692 f8be e471 bdbb
00000200: 70c5 32bc 9122 dbb9 13b2 25be d94f ad3f
00000210: 20c4 823f e7b9 7ebe 5a3b b4be f261 78bf
00000220: a83d 85be e551 b5bd ccc5 8f3f bf88 9ebe
00000230: f439 04bf 10cb 64be cb1c 23be c0e9 963c
00000240: fe53 d73f e324 32be a3ef fdbd 5c91 973f
00000250: ab73 f1bd 0606 963f 6b1c b63d 925d 46bf
00000260: 68e4 673f f099 b53d db8d 683e bfac 3bbe
00000270: dc12 3abf 5489 96be 5c31 883f 198c ec3f
00000280: 36fd fabe eddb 743f a9ed 08bc 3e9e 83bf
00000290: a3b4 97bf d52d 473d 3844 eebd 1e97 7abf
000002a0: cb2e 643f e71c ba3d 0c95 bd3f d26b 0fbe
000002b0: f758 9ebe 8b8a 1bbe aaa5 c8bd 6065 49bd
000002c0: c66d 54bf 00a8 66bf b26a fbbf cec2 f8bd
000002d0: a940 b93f 1aab 4f3f e878 e8bd ca7d 22bf
000002e0: d611 4bbe ff31 b6be 1287 35be 513c 56be
000002f0: 6a51 27be 6166 acbe 1d5f 4ebf d535 83be

fc3.bias f4 [3]
0.030093318 -0.36093992 -0.011769675
00000000: 4386 f63c 1ecd b8be 98d5 40bc
