model/checkpoint_2800.pth (torch, 21912 bytes, 6 tensors)

fc1.weight f4 [64, 6]
00000000: d556 dc3e 1a01 433f 1321 b8be 7a1f 5fbf
00000010: b478 5bbd 565a 933e f8d4 ee3e 3883 0d3f
00000020: 30d1 efbe 079a a63d f393 b9bd 48da 313d
00000030: 5ff1 74bf 4fa0 95be 0e0f 52bf eacc 743e
00000040: ab47 ff3d 7900 303e 935d b0be a320 30bf
00000050: 8c5a 07be d26c 643f b528 473e 333b 6a3e
00000060: cc2a 32be 31af 403f d16b 2f3f ecec 1ebf
00000070: 5da9 babe 7a47 d63d fc91 efbe 1791 653f
00000080: 0d4e 51bf bb91 abbe e7e2 d4be 11cd 99be
00000090: 29d4 b6bf 2a3a f5bd 3390 e33e 1f19 a9be
000000a0: 50c7 0bbe 07d8 ffbc 0ac0 48be 1da6 80bf
000000b0: 633f 57bf ca63 b4be 130b 263e 8540 40be
000000c0: 5c74 23bf 569c 71bf 6db3 273f 30df 2d3f
000000d0: 191b d13d 7731 f83b 6007 fdbc 2ac2 81bf
000000e0: d212 8bbd 98b5 98bd ff6c 98be 9580 debe
000000f0: b7ac a63e 3e60 79be dae7 363f 0baf 0b3e
00000100: ed1f 1f3f f62a 4c3e cc74 be3e ebe1 dbbe
00000110: d168 713e 37bd 063f 1e54 a0be 6890 15be
00000120: 0834 d23e dc82 233e 8e44 1d3f b18c a03f
00000130: de4c 57be 174b d6be d1ba 493e 0fad a0bf
00000140: a1db 84bf d8d3 763f 2eec df3d 2652 dabe
00000150: 1511 06bd 3c5d c53e 78a9 fdbe 05bf 023f
00000160: f179 8f3e 6ace 25be aeff 803f c706 853e
00000170: c295 723e f08a 0abe 9aa7 c1be 1ef4 2abe
00000180: d661 3f3f 188f a73e fa5b 0dbf 76dc 17bf
00000190: 42b7 133f a5e6 4f3e ce98 99bf b96d 0b3c
000001a0: 83aa 61bf e0db 213c 6596 60be 0e05 7dbe
000001b0: ba00 aebe 1a53 2bbe 54d0 ba3a d2aa 69bf
000001c0: 7f21 fcbe 87c3 c03e 5121 403f 8218 0c3c
000001d0: d26f 65be 24e9 eebd cc94 7b3e a147 613e
000001e0: 6d49 3d3f c227 163e ee34 a1be f046 ab3e
000001f0: 45a3 dbbe 746b 6cbe 057e 24bf 635b 3abf
00000200: cf24 eb3d 879b b6be 00ee 17be 4ffc f8bd
00000210: 4151 b0bb c0a4 06bf 5df4 a83e 0678 79be
00000220: 0684 273e 0f84 1d3b e9c8 e83e 4f14 6d3e
00000230: bf0d 293f 06c8 c33e ea74 433e c27f 5c3e
00000240: 3858 31bf e0b1 a93e b27c 82be 72d0 bb3e
00000250: 8389 c1be a18a cabe 483a c13d 1125 62bf
00000260: aad8 ad3d 527d b13f 589f 56be cfdb a8be
00000270: 5da7 69bd aea7 7abf 7cfb 9ebd 9333 a1be
00000280: d012 77be 68a6 a0be 2ea1 23bf a1a4 f7be
00000290: 2bf0 18bf ec61 03bf ec91 adbe f9f8 273e
000002a0: dca0 25bd f692 6ebe bc78 a63e 0b73 0dbf
000002b0: f6ae f63d c81d 383e 08d0 28bf 1243 b33e
000002c0: 2e6e debe d187 823f 413e d63e 44e3 87be
000002d0: 53f6 d6be 89cd 033e 7818 133f 206f e23d
000002e0: 3460 0e3f 0aea a13e 6b5a c5be 7dd6 db3e
000002f0: 281f 8cbf 633b fe3e 77ce c13e fdde b63e
00000300: 4dd4 973d f58c 783f 0577 82bf 3233 09bf
00000310: 37db 07bd 15f0 a03e 510b bcbe f677 4c3e
00000320: 2ae7 b33e c70e b9bc b2da 26bf 3ce7 c6be
00000330: 8c52 9fbe 9c3c 19bf bb77 a9be 79aa 2b3f
00000340: 4aaa 813c 3ac7 0bbe 6f43 a83e fdf8 933d
00000350: c666 3fbe c2ac e93d d38d 2d3e c924 413e
00000360: ab26 7e3f ed22 f73e da23 913f 4e0b bebf
00000370: b949 693e 65cb 0a3f 75a8 f93e 54c7 a8be
00000380: 7200 8cbf f692 70be 7710 1bbd e4aa 01bd
00000390: 2442 75bf 65f5 f13e b59b 85be 3b9d 1e3f
000003a0: ef9e bc3e f383 b03e 0ed7 2c3f a770 5fbd
000003b0: 217f 183f f5e1 dabe 67b7 37be 112d 44be
000003c0: 56a6 bebe f3ff ef3e 08d1 32be f828 a5be
000003d0: ade4 d03d 033a a3be ccb2 313f c52a 25bf
000003e0: 849b f53e 0464 17bf c93c fcbe 7ea6 efbd
000003f0: 116b 563f ce0c eabe 7b91 a4be bcf4 c4be
0.43034998 0.76173556 -0.35962734 -0.87157404 -0.05358191 0.28779858 0.46646857 0.5527835
-0.46839285 0.08134847 -0.09061422 0.04342106 -0.95680803 -0.29223868 -0.8205422 0.23906294
0.124648415 0.1718768 -0.3444639 -0.687998 -0.13218135 0.89228547 0.19449122 0.22874145
-0.17399138 0.7526732 0.6852389 -0.62080264 -0.3645734 0.10462852 -0.46791065 0.89674515
-0.8175972 -0.3350962 -0.41579363 -0.30039266 -1.4283496 -0.119739845 0.44445953 -0.33026978
-0.1365025 -0.03123094 -0.19604507 -1.0050694 -0.84081095 -0.35232383 0.16215162 -0.18774612
-0.63849425 -0.94379175 0.65508157 0.6791868 0.102102466 0.007574256 -0.030887306 -1.0137379
-0.06790699 -0.07456511 -0.29770657 -0.43457475 0.32553646 -0.2435312 0.7144753 0.13640992
0.6215809 0.19938263 0.37198484 -0.429458 0.2357514 0.5263247 -0.31314176 -0.14605868
0.41055322 0.15967888 0.6143273 1.2542936 -0.21025416 -0.41854164 0.19700171 -1.2552813
-1.0379525 0.96417 0.109337196 -0.426408 -0.032731134 0.38547695 -0.49543357 0.5107272
0.2802272 -0.16192022 1.0078027 0.25981733 0.2368994 -0.13529563 -0.37823182 -0.16694686
0.7475866 0.3272636 -0.5521847 -0.5932077 0.57701504 0.20302828 -1.1999757 0.008510047
-0.88150805 0.009879082 -0.21932371 -0.2470896 -0.3398493 -0.1673092 0.001425276 -0.91276276
-0.49244305 0.37649176 0.75050837 0.008550765 -0.22405937 -0.11665562 0.2456848 0.2199998
0.73940164 0.14663604 -0.31485695 0.3345256 -0.42898002 -0.23087865 -0.6425479 -0.72795695
0.1148163 -0.35665533 -0.14836884 -0.12157499 -0.00538078 -0.5259514 0.32998934 -0.24362192
0.16358957 0.0024035012 0.45465782 0.23152278 0.660366 0.38238543 0.19087568 0.2153311
-0.69275236 0.3314352 -0.2548576 0.3668247 -0.37800226 -0.3955889 0.094349444 -0.8833781
0.08488591 1.386637 -0.20959222 -0.329802 -0.057044376 -0.9791211 -0.077628106 -0.3148466
-0.2412827 -0.31376958 -0.63917816 -0.4836779 -0.5974147 -0.5132129 -0.33900392 0.1640357
-0.04043661 -0.23298249 0.32513988 -0.55253667 0.1204509 0.1798011 -0.6594243 0.35012108
-0.43443435 1.0197698 0.4184437 -0.26540577 -0.41984805 0.12871374 0.5745921 0.11056352
0.55615544 0.3162387 -0.38545546 0.4293708 -1.0947008 0.49654683 0.37852833 0.35717002
0.0741354 0.97090083 -1.0192572 -0.5359374 -0.033168044 0.31433168 -0.36727384 0.19967636
0.35137302 -0.022590054 -0.6517745 -0.38848293 -0.31117666 -0.5985811 -0.3309916 0.67056996
0.01582827 -0.13650218 0.32863948 0.07225225 -0.18691549 0.11409904 0.16948633 0.18861689
0.9927775 0.48268834 1.1339066 -1.48472 0.22782029 0.54216605 0.48761335 -0.32964575
-1.0937636 -0.23493561 -0.0378575 -0.031657115 -0.9580405 0.47257534 -0.26095358 0.61958665
0.36840007 0.3447567 0.6751565 -0.054550793 0.59568983 -0.42750517 -0.17941056 -0.19157816
-0.3723628 0.4687496 -0.17462552 -0.3225782 0.101998664 -0.31880197 0.6941345 -0.64518386
0.47970212 -0.59136987 -0.49265125 -0.11701678 0.8375712 -0.45712894 -0.32142243 -0.38467968

fc1.bias f4 [64]
00000000: 4419 7b3e b2db 1b3f abf5 4c3e b0a4 593b
00000010: 0402 af3e 91ec c73e 9919 26bf 2fee b03d
00000020: 662e 90be ea60 4f3b baa2 3cbf 8703 513f
00000030: 63cc 913d 9a1d a4bd b8df 75bf 3fa3 db3e
00000040: a04c 5a3f 3571 eebd 0764 18be 0d21 3d3f
00000050: 6a04 493f c145 46bf 6316 3a3f 5625 413f
00000060: d5c1 a3be 22c2 743d 37e9 123d 8352 c3be
00000070: df19 773f c9d6 a4be dd3f 19bf e0ac ebbb
00000080: dcf2 c1be 2ebe 30bf fbf2 dd3d b8fa 433f
00000090: cb15 e33e c3dd fb3d 31b1 2ebe 8f36 da3e
000000a0: 99e2 ad3e dc7f bdbe 39aa 7a3e 2d4e a3be
000000b0: 525d c53e 78ea 3dbe eb8b ecbe 4b22 2fbd
000000c0: 4aa7 273f 47ea af3e 428c afbe 9f01 afbd
000000d0: bf1a 6e3e 9c38 6dbf 9c16 d23e 830d 25bf
000000e0: 1b9e 36bf f4de 05bf b22d babe ddb7 1e3f
000000f0: 3f35 07bf 1d0b 1c3f 55e0 7dbe 1729 f13e
0.24521357 0.60882103 0.2001559 0.0033209734 0.34181225 0.39047673 -0.6488281 0.0863918
-0.281604 0.0031643459 -0.736858 0.8164601 0.07119062 -0.080134585 -0.9604449 0.42897984
0.8527317 -0.11642686 -0.14881907 0.73878556 0.7852236 -0.77450186 0.7269041 0.75447595
-0.3198382 0.059755452 0.035866942 -0.3814889 0.9652385 -0.32195118 -0.5986307 -0.007192239
-0.378806 -0.6904019 0.108373605 0.7655444 0.44352564 0.12298157 -0.1705978 0.4261975
0.33961943 -0.3701161 0.24478997 -0.3189558 0.3854776 -0.18546474 -0.462005 -0.042757314
0.6548964 0.34358427 -0.34286696 -0.08545231 0.2325239 -0.92664504 0.41032875 -0.6447374
-0.71335 -0.52293324 -0.36362988 0.61999303 -0.5281562 0.6095446 -0.24792607 0.47101662

fc2.weight f4 [64, 64]
00000000: c6e2 45bd eb6b 23be 4b5e a03d 9d6a 003d
00000010: dce2 943d 3426 2e3d d1c5 a8bd 19d8 863d
00000020: 5394 3abc 69af f33c 73a2 edbd 5d37 adbd
00000030: 9b6b 18be 6e3b 84bd a6a9 353c d04b 0abe
00000040: 3880 c53a c0d6 513d 9cf0 c0bc 7bc7 f8bd
00000050: 6ac1 12be 5158 63bd 7503 453b 160b b23d
00000060: 3d62 653d d59a f3bc fcf1 f53c 56c8 20be
00000070: 55f3 25be abdb 2d3d 8478 dabd 526a a53c
00000080: 3c0f ffbd ca4c 9fbd ec7b ebbd fe2a d73c
00000090: 8f2d 4fbd e485 a43d b153 153d 77d1 8d3c
000000a0: 9e50 a7bc 65a2 9cbd 806c 89bd fea2 8cbc
000000b0: bf1d bd3c ead9 d3bd fa54 b63d 1fc1 5abd
000000c0: b7d3 0dbe 5b3e c8bd 92fd c13d 7ac2 a53d
000000d0: 3a9e 08be df30 4d3d 6345 883c 33ca 0f3d
000000e0: 8da0 a73d 05ca c7bd 446b a83a 6f08 dcba
000000f0: a76e 99bd a74b 353b bdfc 5ebd ef3f 243d
00000100: 0f99 9abd 7b82 afbd 8d87 cb3b 7c35 fb3b
00000110: 5908 e6bd bb5b 0cbd 2d8d 273d 2863 92bc
00000120: 5fdb 2a3c 86a3 23bd b8de bd3c 3f3e e1bd
00000130: 7049 b0bd 28a1 acbd 830a cc3d d208 8bbd
00000140: deb9 b5bc a38d 9cbd 2986 b03d 39ed a93d
00000150: d5c4 f0bd ea58 16be 65c6 04be 3f28 18bd
00000160: c482 02bd 6b07 cfbd 0b60 83bd f3a2 9fbc
00000170: 3442 b2bd 2d6a da3b 76b5 e5bc 1ad7 97bd
00000180: 6b35 fabc edf9 b13d 43aa ffbd 9e46 03bd
00000190: 02fc a9bd 5536 d23d c864 1fbe d84c 10be
000001a0: 5bfa d93d 16de b8bd 7d4a 78bc bcd6 5bbd
000001b0: 0418 0cbd 6e3e febc 2c24 7b3d 24c1 f2bc
000001c0: 1ac7 36be daec a5bd 45f4 5ebd 90b8 fd3c
000001d0: 1ada d1bd dea5 a43d ae4b 23bd 05b4 75bd
000001e0: 63ed a93d 23f4 d43c 7fb4 893d efbd 103d
000001f0: 5589 a9bd 6076 f9bd ca87 eebc ea36 863d
00000200: c0a1 503e 2550 ce3d e42e 813e 7056 e23d
00000210: 4c91 513d a751 da3d e1d0 83be e2be 64be
00000220: f95f 3abd bc5d 09bf 13ae 32be d5aa 8f3e
00000230: 3f50 aa3e 68bc b53d 6cb1 2dbf 9ae3 a2bc
00000240: 0d6d 9d3d 550b 143f ef0f f9bc 0976 713e
00000250: ceed e53d edff 0abe 35bf 443e d336 bf3e
00000260: 4a89 03bf b6f4 dd3d 330b d43d 7def c3bd
00000270: 29f9 203e 1709 67be d696 b4bd 73bd 7e3d
00000280: 50d6 5e3e 8753 1bbf df94 8e3e ff10 2b3e
00000290: c72d 723d afd0 38be 1eaf 82be eab6 5f3e
000002a0: a63a cdbc 9b39 43be e6eb 12be 3239 cbbd
000002b0: 3704 053c d437 143e 5550 8bbe 1ec2 f0bc
000002c0: 7203 793e f8d5 603d 9898 52bd 8fec 7abe
000002d0: 8e7e 143e 14fe 85be 71ef 833e 83eb a0bd
000002e0: 938b 803e abd8 04be 6c77 f03c fbda 9a3d
000002f0: 209f 12be 4b60 a2ba 2beb acbe 5fbb 003e
00000300: 9a2a dabf 0ad3 b1bd d13c a2bf 1b42 aebe
00000310: f525 e1bf ba13 563e 6956 703f c508 c8be
00000320: 3b62 58bf 2867 b53e 9c77 c03e 0660 99be
00000330: 17ef 463e ad4f 153e 6a7e d83c 44e0 20bf
00000340: b737 aa3e 100a 8a3e 25b4 1dbf 8c7a 2ebf
00000350: bc75 f23d 11c6 e0be 374b e83d d58b d4bd
00000360: ca40 b33d 0ac6 ef3d d1bc b1be 4bc5 e0bd
00000370: e8e5 aabe ecbb 863e 441d 07be aead 9c3c
00000380: 4c8a 0fc0 8d85 7dbe 57c0 003f 96cc d0be
00000390: c62e cdbf 13fe 363d c437 b03f 2409 d7be
000003a0: c85b 613e 985e a5bf 3713 1ebe 6fb5 c0bf
000003b0: 57af 003f f22a 743e ab76 d83c 7759 d53e
000003c0: a026 303e 1144 0fbe 2605 9e3e 7169 eebd
000003d0: de29 92be c8b1 943d 0ac9 443d 9f97 ea3e
000003e0: ca99 8dbf 069e 29be c83e 8abe a315 97bf
000003f0: 09e7 21c0 9107 6cbf 0d81 023e f43c a8be
-0.04831197 -0.15959136 0.07830485 0.031351674 0.072698325 0.042516902 -0.082408555 0.06584186
-0.011387902 0.029746728 -0.1160325 -0.08457825 -0.14884798 -0.06456648 0.011087811 -0.13505483
0.0015068119 0.051230192 -0.023552231 -0.12147423 -0.14331594 -0.055504147 0.0030061875 0.08693521
0.05600189 -0.029736916 0.030022614 -0.15701422 -0.16206105 0.04244582 -0.10667518 0.020192299
-0.124540776 -0.07778318 -0.114982456 0.026265617 -0.050580557 0.0803335 0.036456767 0.017311795
-0.020424183 -0.07648162 -0.06710148 -0.017167564 0.023085473 -0.10344298 0.08902927 -0.05340683
-0.13850294 -0.09777518 0.09472193 0.08093734 -0.13341609 0.050095435 0.016634649 0.03510494
0.081849195 -0.09755329 0.001284935 -0.0016787181 -0.074918084 0.00276635 -0.05444025 0.040100034
-0.07548725 -0.08569809 0.0062112273 0.007666288 -0.11232061 -0.03426717 0.04090612 -0.017869547
0.010428279 -0.03995087 0.02317749 -0.109982006 -0.08607757 -0.084291756 0.099629425 -0.06788792
-0.022183355 -0.076442026 0.08619339 0.082972 -0.11756293 -0.14682356 -0.12966307 -0.037147757
-0.03186299 -0.10108837 -0.06414803 -0.01948688 -0.087040335 0.006665489 -0.028040629 -0.07414074
-0.03054305 0.08690248 -0.12483647 -0.032049768 -0.0830002 0.10264269 -0.15565789 -0.14091814
0.10643455 -0.090267345 -0.015154478 -0.053671584 -0.03420259 -0.031035628 0.061313793 -0.029633112
-0.17849389 -0.081018165 -0.054432172 0.030971795 -0.10246678 0.08039449 -0.039867096 -0.059986133
0.08297231 0.02599532 0.0672388 0.035337385 -0.08278147 -0.12180781 -0.029117484 0.06553443
0.20374203 0.1007388 0.25231087 0.11051643 0.051163957 0.10660105 -0.257453 -0.22338441
-0.045501683 -0.5365865 -0.17449217 0.28060022 0.33264348 0.08873826 -0.6784885 -0.01988392
0.076868154 0.5782979 -0.030403106 0.23580183 0.11226998 -0.1357419 0.19213565 0.37346515
-0.5138136 0.108376905 0.103536986 -0.09567163 0.15720047 -0.22562061 -0.08817832 0.06219239
0.21761441 -0.6067433 0.27847955 0.16705702 0.059125688 -0.18048356 -0.2552423 0.2184712
-0.02505238 -0.19064943 -0.143478 -0.099230185 0.008118681 0.14474422 -0.27209726 -0.029389437
0.2431772 0.054891557 -0.051415056 -0.24504302 0.14501402 -0.2617041 0.25768617 -0.0785742
0.25106487 -0.12973277 0.02935382 0.075612985 -0.14318514 -0.0012388317 -0.3377317 0.12571476
-1.7044251 -0.08682831 -1.267481 -0.3403481 -1.7589709 0.20905963 0.9388185 -0.3906919
-0.8452489 0.35430264 0.37591255 -0.29956073 0.19427143 0.14581175 0.026427466 -0.628422
0.33245632 0.26960802 -0.61603004 -0.6815574 0.11838862 -0.43901113 0.11342471 -0.10378233
0.08752592 0.11707695 -0.34714368 -0.10975131 -0.3337853 0.26315248 -0.13194758 0.019125786
-2.242816 -0.24757977 0.5029349 -0.40781087 -1.6029899 0.044675898 1.3767018 -0.4199916
0.22007668 -1.2919493 -0.15437017 -1.5055369 0.5026755 0.23844507 0.026423773 0.4166982
0.17202234 -0.13990809 0.30863303 -0.11641205 -0.28547567 0.072604716 0.04804329 0.45818803
-1.1062558 -0.16564187 -0.27001023 -1.1803478 -2.5297263 -0.92199045 0.12744541 -0.32859004

fc2.bias f4 [64]
00000000: 422c 21be 64d2 c43c e188 543e 4013 ba3d
00000010: 4fdd 19bc e6ac 2e3e 2b2a cb3e ad89 073d
00000020: a21c f33c e972 d93d df6a 703e 87bb dd3d
00000030: 3c49 673e 4cfb 113d 1fb0 b63d 9ba1 e2bd
00000040: ce51 5bbb 3ef6 653e 54a7 4a3e 01cb 873b
00000050: ee72 8b3b 5a89 773e f55b b23c 63dd e63e
00000060: e80d b83b 028b 13be 2d22 583e 9a83 8b3d
00000070: efda b93e 0b04 0d3e 4d83 d03e 5862 dc3d
00000080: 508a 453e 5ebc 11bd af11 9d3d ac4b 043f
00000090: 4673 08bd ca03 dabd cf75 bc3c 2ff5 193e
000000a0: d657 703e da0e 88bd 1a13 853e 11cd a63e
000000b0: 6b44 4e3e 0da5 5e3d 55a1 9b3e 556f 26bc
000000c0: c48e b8be 329b 5cbd 236a 9cbe 69cd 623e
000000d0: 5a21 d33d e055 ad3c 50e7 903d 07c1 5fbd
000000e0: ba52 f53d 02b2 903e 157c 2d3e a35c 0a3e
000000f0: 8b42 743e b7d1 bb3e 2563 773e e3b0 143e
-0.1573954 0.024026103 0.2075534 0.09085703 -0.009391143 0.17058143 0.3968061 0.033090282
0.02967674 0.106176205 0.23478268 0.108267836 0.2258653 0.035640046 0.08920311 -0.1106598
-0.0033465507 0.22457215 0.19790393 0.004144073 0.004255644 0.24173489 0.021772364 0.4509078
0.005616892 -0.14408496 0.21106787 0.068122104 0.36299846 0.13771074 0.40725175 0.10760945
0.19291043 -0.03558003 0.076693885 0.51677966 -0.03331306 -0.10645254 0.023005394 0.15034936
0.23471007 -0.06643458 0.25991136 0.32578328 0.20143287 0.054356623 0.30396524 -0.01015838
-0.36046422 -0.053858943 -0.30549726 0.2214867 0.10309096 0.021159112 0.07075369 -0.054627445
0.119786695 0.2826081 0.16941865 0.135119 0.23853509 0.36683437 0.24158914 0.14520602

fc3.weight f4 [3, 64]
00000000: 58bf bd3d 57f9 a83d 2878 d2be b328 b83f
00000010: c002 953f 7716 68be 3ce2 5ebf 8275 a6bf
00000020: a1d6 31be 6e87 27be eb47 e53f 201e 33be
00000030: e4c1 04bf 15e4 e5bd b099 7abe cfa0 7a3d
00000040: 8a46 d13f f740 14be 00a8 3bbe 7ece c03f
00000050: 05f0 78be eef0 ff3f 6bf3 933d a28d a4bd
00000060: 27c2 a83f 1281 a53d 4667 2ebe 38f8 50be
00000070: 38c8 83bd 5d53 81be 4631 323f 0c0c e13f
00000080: 2c87 e3be 1fad 523f bb96 883d cd11 5bbf
00000090: 9e95 b7bf dce9 8ebb 0c17 12be 3166 84bf
000000a0: 674b a03f 498c 8a3e ea01 0340 7548 81be
000000b0: bceb cebe f02e ecbe 4e4b 2cbf 6abc b5bd
000000c0: 7093 a6bf e308 78bf 657e 0ac0 7fae aabd
000000d0: cd04 b63f a042 9d3f bedc 97be 194d 8cbe
000000e0: 5208 18be cdf5 37bf df3d 45be d549 73be
000000f0: e042 5cbd d288 b4be c553 28bf 69df b8bd
00000100: a373 1a3c 57a5 0dbe 4e7c eebe 2d76 393f
00000110: f6fa 3f3f c444 3cbe b628 dfbe a289 90bf
00000120: 17be f2bd 49ca acbe 0468 d33f 0ba2 b2be
00000130: 2efe 0fbf 94e7 d8bd 02e0 afbd ba3a c83d
00000140: 95fd a13f cec0 0bbe 9527 c4bd ee7c 0240
00000150: dd30 26be 798d 573f e7d0 6cbd 6bce 0abf
00000160: 0715 753f a45c d0bd 93d5 5fbe b240 59be
00000170: 49a3 bbbe faef fdbe eb8c 483f b2db 673f
00000180: f975 d2be 886a 0d3f f230 48bd 08dd 88bf
00000190: 7f65 48bf c145 573d 8267 90be 77cb 46bf
000001a0: 67cc 513f bca8 ca3d c562 8e3f 59bd 60be
000001b0: 1884 b2be 3d6a 423d e674 d2be 5c9c 483c
000001c0: e8df 1ebf d7e3 2bbf d0cd a0bf 7555 94be
000001d0: fb3a 383f 4d05 463f d1be 54bd 5f84 eebe
000001e0: 576b 48bd 0a37 acbe 964c 6abe ca81 f4bd
000001f0: 70e2 b9be c1b0 e6be cc71 e5be 6296 17bc
00000200: 70c5 32bc 9122 dbb9 1723 00be a400 bd3f
00000210: 07ff 943f 381a 7dbe e664 bfbe 8ab8 81bf
00000220: 9a04 7bbe c435 94bd 6718 8f3f 2227 97be
00000230: 4df3 37bf 3bcc 68be 5b45 f9bd c0e9 963c
00000240: e632 f63f 087b 1ebe ae9a d5bd 4210 9f3f
00000250: b375 dbbd e8fe 963f 6b1c b63d 9fa0 51bf
00000260: f295 843f f099 b53d 2704 e63e 3e82 25be
00000270: 6ae5 47bf 9b8e 94be decb 8c3f 0203 0340
00000280: dd68 18bf 3b09 813f a9ed 08bc b5db 89bf
00000290: 0fb2 9ebf d52d 473d 6be9 bbbd 2340 83bf
000002a0: 83dc 853f e71c ba3d 7789 c93f 4f1d d8bd
000002b0: fa5c 90be b9a5 04be bdbf a0bd 6065 49bd
000002c0: f6c9 7abf 35db 6bbf 8753 0bc0 45cf d0bd
000002d0: acb3 ce3f 4b0a 6a3f 4530 98bd cc24 28bf
000002e0: b549 39be e885 d5be d264 20be 1378 43be
000002f0: 6b48 07be a2b8 d5be b088 6fbf 5cc2 7bbe
0.092650115 0.08250683 -0.41107297 1.438742 1.1641464 -0.2266482 -0.87063956 -1.300461
-0.1736703 -0.16360256 1.7912573 -0.1749196 -0.51858354 -0.11225144 -0.2447269 0.061188515
1.6349652 -0.14477907 -0.18325806 1.5063016 -0.2431031 1.9995401 0.07224163 -0.08034827
1.318425 0.08081259 -0.17031583 -0.20407188 -0.06434673 -0.25258914 0.69606435 1.7581801
-0.44439065 0.8229541 0.066693746 -0.85574037 -1.4342535 -0.0043613743 -0.14266604 -1.0343686
1.2523011 0.27060154 2.0469918 -0.25250593 -0.40414226 -0.4612956 -0.67302406 -0.08873828
-1.3013744 -0.9688856 -2.1639645 -0.08334064 1.4220215 1.2285957 -0.296606 -0.2740257
-0.14846924 -0.7185944 -0.19261883 -0.23758633 -0.053774714 -0.35260636 -0.6575282 -0.09026987
0.009426984 -0.13832603 -0.46579212 0.72445947 0.7499231 -0.18385607 -0.43585747 -1.1292002
-0.11852663 -0.3374808 1.6516118 -0.34889254 -0.5624722 -0.10591045 -0.08587648 0.09776826
1.2655512 -0.13647768 -0.09577862 2.038875 -0.16229577 0.84200245 -0.057816412 -0.5422122
0.9573521 -0.1017392 -0.21858816 -0.21216086 -0.36648014 -0.4959715 0.78340024 0.90569603
-0.4110563 0.5524068 -0.048874803 -1.0692453 -0.7827987 0.052556757 -0.2820397 -0.7765421
0.8195252 0.09895465 1.1123892 -0.2194723 -0.34866405 0.047464598 -0.4110481 0.01224431
-0.62060404 -0.6714453 -1.2562809 -0.2897145 0.71965 0.7735184 -0.05193979 -0.46585366
-0.048930492 -0.3363574 -0.22880778 -0.11938818 -0.3630557 -0.45056728 -0.44813383 -0.009252163
-0.010911331 -0.0004179669 -0.12513386 1.476582 1.1640328 -0.24717033 -0.37381667 -1.0134442
-0.24513474 -0.072368175 1.1179322 -0.29522043 -0.7185562 -0.22734158 -0.12171432 0.018422008
1.9234283 -0.1547662 -0.104298934 1.2426836 -0.10715809 1.1796541 0.08892139 -0.81885713
1.035826 0.08867252 0.44925043 -0.16162965 -0.78084433 -0.2901505 1.0999715 2.0470586
-0.5953501 1.0080942 -0.008357444 -1.0770174 -1.2398089 0.048627693 -0.0917538 -1.0253948
1.045792 0.09087544 1.5745076 -0.10552465 -0.28195935 -0.12953843 -0.07849071 -0.049168944
-0.9796442 -0.9213136 -2.176973 -0.101957835 1.6148582 0.91421956 -0.07431082 -0.6568115
-0.18094523 -0.41703725 -0.1566346 -0.19088773 -0.13211219 -0.41742426 -0.93567944 -0.24585861

fc3.bias f4 [3]
00000000: f64f 513d a2e1 c4be 85bf 4e3d
0.051101647 -0.38453394 0.050475616
