model/checkpoint_9000.pth (torch, 21912 bytes, 6 tensors)

fc1.weight f4 [64, 6]
0	0x3ea709a2	0.32624537
1	0x3f6c71b6	0.9236101
2	0xbe39b62a	-0.18135896
3	0xbf135905	-0.5755771
4	0xbdbef4db	-0.09324046
5	0x3e896233	0.26832733
6	0x3ecc2bee	0.39877266
7	0x3f9eee99	1.2416564
8	0xbee456c2	-0.4459744
9	0x3e51b044	0.20477396
10	0xbd5cb965	-0.053887744
11	0x3dd0b6ca	0.10191114
12	0xbf3b0399	-0.73052365
13	0xbeadb214	-0.33924925
14	0xbf8c026b	-1.0938238
15	0x3e018941	0.12650014
16	0x3dea72bf	0.11447667
17	0x3e3403b1	0.17579533
18	0xbde7d311	-0.113195546
19	0xbf3899b6	-0.72109544
20	0xbd4dfac3	-0.050287973
21	0x3fa0bd30	1.2557735
22	0x3e44017a	0.19141188
23	0x3e886eeb	0.26647124
24	0xbe4c574f	-0.1995518
25	0x3f93d8d8	1.155055
26	0x3f40e6d7	0.75352234
27	0xbecfe489	-0.40604046
28	0xbec1dc98	-0.37863612
29	0x3e0b0995	0.13577874
30	0xbef53712	-0.47893578
31	0x3f663b0b	0.8993384
32	0xbf230396	-0.63677347
33	0xbed73411	-0.4203191
34	0xbf076799	-0.5289245
35	0xbec8494c	-0.3911842
36	0xbfb7d2a7	-1.4361161
37	0xbea77e6f	-0.3271365
38	0x3f7d6be2	0.9899274
39	0xbe1dba73	-0.15403156
40	0xbecb3ad0	-0.39693308
41	0xbe005a2e	-0.12534401
42	0xbe6486be	-0.22317025
43	0xbf76e5ed	-0.9644459
44	0xbf730449	-0.94928414
45	0xbeee45d7	-0.4653766
46	0x3e1ad39c	0.15119785
47	0xbe59eaf7	-0.21281038
48	0xbf66c713	-0.90147513
49	0xbfc8f623	-1.5700115
50	0x3fbe0d02	1.484772
51	0x3eb95c67	0.3620331
52	0x3e71db33	0.23618774
53	0x3c911831	0.01771173
54	0xbeadf044	-0.3397237
55	0xbf7cbefe	-0.9872893
56	0xbda9b5ed	-0.08286653
57	0x3ce4f273	0.02794764
58	0xbea40463	-0.32034597
59	0xbeea2f86	-0.45739383
60	0x3e97b6d3	0.2963167
61	0xbeb5b703	-0.3549119
62	0x3f61ef9f	0.8825626
63	0x3c62a56d	0.013833386
64	0x3f40dde9	0.7533861
65	0x3e967db7	0.29392788
66	0x3ebaf0a9	0.36511734
67	0xbf0468f5	-0.5172265
68	0x3ea01969	0.31269386
69	0x3e859c51	0.26095822
70	0xbeb35afd	-0.35030356
71	0xbe326973	-0.17423038
72	0x3f4f57c8	0.8099332
73	0x3e125a1a	0.14292184
74	0x3f04d2be	0.5188407
75	0x3fa55103	1.2915348
76	0xbe3b9692	-0.18319157
77	0xbefa969e	-0.48943037
78	0xbb3d3ca6	-0.002887526
79	0xbfbd7892	-1.480242
80	0xbf4dc333	-0.80375975
81	0x3f816e7f	1.0111846
82	0x3d891855	0.06694094
83	0xbef533a6	-0.47890967
84	0xbde62bdc	-0.11238834
85	0x3eae6501	0.34061435
86	0xbf31089d	-0.6915377
87	0x3f19bcd7	0.6005377
88	0x3eb64567	0.35599825
89	0xbe43d27e	-0.19123265
90	0x3f848741	1.0353776
91	0x3f1c2c9b	0.6100556
92	0x3e7362b8	0.23768127
93	0xbde31dd5	-0.110896744
94	0xbee6333a	-0.44960958
95	0xbe1b6fda	-0.15179387
96	0x3ebd0b99	0.3692291
97	0x3f302e78	0.68820906
98	0xbf42a873	-0.76038283
99	0xbf6aceb7	-0.9172167
100	0x3f22681a	0.63440096
101	0x3ec554fb	0.38541397
102	0xbf94f3e2	-1.1636927
103	0x3e5ed145	0.21759517
104	0xbf7d1583	-0.9886095
105	0x3e008a97	0.12552868
106	0xbe685a59	-0.22690715
107	0xbe7266fb	-0.23672096
108	0xbed277c9	-0.41107014
109	0x3e752e92	0.23943546
110	0x3e6c4e0a	0.23076645
111	0xbf4c4183	-0.7978746
112	0xbeefb3e8	-0.46816945
113	0x3eb069e7	0.34455797
114	0x3f8a3410	1.0797138
115	0x3d0b0256	0.033937775
116	0xbead75ac	-0.3387884
117	0xbea28613	-0.31742916
118	0x3eb1e1cc	0.34742582
119	0x3e779274	0.24176961
120	0x3f33d873	0.7025215
121	0x3ecdf161	0.4022322
122	0xbee4c010	-0.44677782
123	0x3f3cd383	0.7376024
124	0xbece5ae1	-0.4030371
125	0xbe710c2b	-0.23539798
126	0xbf4f33c1	-0.80938345
127	0xbf5f8226	-0.87307966
128	0xbd0eb28c	-0.034838244
129	0xbf099a15	-0.53750736
130	0xbe79b00a	-0.2438356
131	0xbe57f5cb	-0.21089856
132	0xbebe7d37	-0.37204906
133	0xbf42362e	-0.7586392
134	0x3e78b6c1	0.24288465
135	0xbf0c4bab	-0.5480296
136	0x3e6aa39b	0.22913973
137	0x3d51943d	0.05116676
138	0x3eac8f40	0.3370304
139	0x3e8471ff	0.25868222
140	0x3f330feb	0.69946164
141	0x3ee7b825	0.4525768
142	0x3e4f47fc	0.20242304
143	0x3e79dba0	0.24400187
144	0xbf1d96fa	-0.61558497
145	0x3f2f78fc	0.6854398
146	0xbe6a156d	-0.22859736
147	0x3edde260	0.43336773
148	0xbeb68957	-0.35651657
149	0xbeb47c0f	-0.352509
150	0x3e62cf2d	0.22149344
151	0xbf5cf3d3	-0.86309546
152	0x3d65c13f	0.056092497
153	0x3fd3dd14	1.6551843
154	0xbe71cbf4	-0.23612958
155	0xbebed0c7	-0.3726866
156	0xbd10ec67	-0.0353817
157	0xbfa64258	-1.2988997
158	0xbe28af11	-0.16473033
159	0xbcbef3ac	-0.023309551
160	0xbeee270b	-0.46514162
161	0xbf0473c3	-0.5173914
162	0xbefe510d	-0.49671212
163	0xbee1f78b	-0.44134173
164	0xbf49e382	-0.78862774
165	0xbf2996b7	-0.662456
166	0xbec689f4	-0.38777125
167	0x3e4bf3d2	0.19917229
168	0x3dbbe56e	0.091746196
169	0xbe5275ad	-0.20552702
170	0x3ecf2a1c	0.40461814
171	0xbf173228	-0.5906091
172	0x3e0ac106	0.13550195
173	0x3e6fd895	0.23422463
174	0xbee07113	-0.4383627
175	0x3e479d6a	0.19493642
176	0xbf3afaae	-0.73038757
177	0x3fa86b1c	1.3157687
178	0x3ebebf11	0.37255147
179	0xbeb1cd7d	-0.34727088
180	0xbec5f797	-0.3866546
181	0xbdb2eab1	-0.0873617
182	0x3f0d5eb2	0.5522262
183	0xbcbeee32	-0.02330694
184	0x3f39ab1b	0.7252671
185	0x3edd0f3b	0.43175682
186	0xbede2134	-0.43384707
187	0x3e8e3e47	0.2778189
188	0xbf698574	-0.9121926
189	0x3f0d1c93	0.55121726
190	0x3ed6ae16	0.41929692
191	0x3ee27e3f	0.44236943
192	0xbb0c4119	-0.0021401106
193	0x3f8139a4	1.0095716
194	0xbf8c5fc1	-1.0966722
195	0xbf118c8f	-0.568551
196	0xbba3cb64	-0.0049986113
197	0x3ea868d2	0.32892472
198	0xbf193f1b	-0.59861916
199	0x3f272c26	0.6530174
200	0x3e3ed15c	0.18634552
201	0x3dd4f2ef	0.103978984
202	0xbf494d60	-0.7863369
203	0xbed0f329	-0.40810516
204	0xbf158c48	-0.5841718
205	0xbf18480b	-0.5948493
206	0xbecaab42	-0.39583784
207	0x3f7c0bff	0.98455805
208	0x3cad4789	0.021152275
209	0xbe743f6e	-0.23852322
210	0x3d6d93cb	0.058002274
211	0x3d9e2338	0.07721561
212	0xbeeb3bef	-0.45944163
213	0x3d71d329	0.05903927
214	0x3e65779e	0.22408912
215	0x3e5eeec8	0.21770775
216	0x3f87c61d	1.0607334
217	0x3f85e3ce	1.0460145
218	0x3f98ca24	1.1936688
219	0xbfba8642	-1.4572222
220	0x3ea411f1	0.32044938
221	0x3f3a178c	0.7269218
222	0x3f8bfa5b	1.0935777
223	0xbecb1036	-0.39660805
224	0xbfac1033	-1.3442444
225	0xbdf0c694	-0.11756626
226	0xbe085a58	-0.13315713
227	0xbd4980ee	-0.049195223
228	0xbf997251	-1.1988012
229	0x3f46cd27	0.7765679
230	0xbeb0790f	-0.3446736
231	0x3f2e9cde	0.6820811
232	0x3ec540f0	0.38526106
233	0x3ec051eb	0.37562498
234	0x3f3931c1	0.72341543
235	0x3d745f44	0.059661165
236	0x3f408786	0.7520679
237	0xbf0d0cee	-0.55097854
238	0xbe5afe33	-0.21386032
239	0xbe5b5806	-0.21420297
240	0xbeca71b4	-0.39539874
241	0x3f2736da	0.6531807
242	0xbdd852b2	-0.10562648
243	0xbdd1af75	-0.10238544
244	0x3daf7947	0.08568054
245	0xbe9db77b	-0.30804047
246	0x3f705773	0.93883437
247	0xbf50b84c	-0.81531215
248	0x3f01b9ea	0.5067431
249	0xbebd32d9	-0.36952856
250	0xbf181af7	-0.59416145
251	0xbe39a063	-0.18127589
252	0x3f41a5c0	0.7564354
253	0xbee185ad	-0.440473
254	0xbf53d54b	-0.82747334
255	0xbf0efab8	-0.55851316

fc1.bias f4 [64]
0	0x3e929ed8	0.28636813
1	0x3ef40c39	0.47665575
2	0x3ebb8b53	0.36629733
3	0x3cba2a71	0.022725316
4	0x3ecc74d0	0.3993287
5	0x3ed98cd5	0.4249026
6	0xbf546090	-0.8295984
7	0xbe1af088	-0.15130818
8	0xbf242d62	-0.6413175
9	0x3e885fe7	0.26635668
10	0xbefe2be1	-0.49642852
11	0x3f73a0e9	0.95167404
12	0x3c5a02dc	0.013306346
13	0xbd45e308	-0.048312217
14	0xbfb4104a	-1.4067471
15	0x3ede9d3b	0.43479332
16	0x3f1e8084	0.6191485
17	0xbe890f92	-0.26769692
18	0xbc4446aa	-0.011979738
19	0x3f0efea5	0.55857307
20	0x3f54e83e	0.83166873
21	0xbf685f77	-0.9077067
22	0x3f2e8c4d	0.6818283
23	0x3f54eb80	0.83171844
24	0xbe31c067	-0.17358552
25	0xbd9dd78a	-0.077071264
26	0xbc0a18ad	-0.008428735
27	0xbf2228a2	-0.6334325
28	0x3f8cf130	1.1011105
29	0xbf1e83fd	-0.6192015
30	0xbf460273	-0.7734749
31	0xbe9e0835	-0.30865636
32	0xbf0160f3	-0.5053856
33	0xbf3ed2fa	-0.74540675
34	0x3ea13a52	0.31489807
35	0x3f53268d	0.824807
36	0x3f3b6110	0.7319498
37	0xbdd1675f	-0.102247946
38	0xbebdb942	-0.37055403
39	0x3f087007	0.5329594
40	0x3eee20b1	0.46509317
41	0xbf06511b	-0.5246751
42	0xbc502012	-0.012702959
43	0xbf3ebdcf	-0.74508375
44	0x3eda19c0	0.4259777
45	0xbdce1d1c	-0.10064146
46	0xbf0e245c	-0.5552423
47	0x3d029253	0.031877827
48	0x3f401c2c	0.75042987
49	0x3ead9916	0.33905858
50	0xbe5d7d36	-0.21629795
51	0xbd799dd2	-0.060941525
52	0x3edc24a6	0.4299671
53	0xbf6ffce6	-0.9374527
54	0x3e8fca67	0.28084108
55	0xbedb950b	-0.42887148
56	0xbf582bf1	-0.8444205
57	0xbf30649a	-0.68903506
58	0xbf774b1d	-0.9659899
59	0x3f408e02	0.75216687
60	0xbf44d534	-0.7688782
61	0x3f2d3d2f	0.67671484
62	0x3c7743c6	0.015091842
63	0x3efd4000	0.4946289

fc2.weight f4 [64, 64]
0	0xbd45e2c6	-0.04831197
1	0xbe236beb	-0.15959136
2	0x3da05e4b	0.07830485
3	0x3d006a9d	0.031351674
4	0x3d94e2dc	0.072698325
5	0x3d2e2634	0.042516902
6	0xbda8c5d1	-0.082408555
7	0x3d86d819	0.06584186
8	0xbc3a9453	-0.011387902
9	0x3cf3af69	0.029746728
10	0xbdeda273	-0.1160325
11	0xbdad375d	-0.08457825
12	0xbe186b9b	-0.14884798
13	0xbd843b6e	-0.06456648
14	0x3c35a9a6	0.011087811
15	0xbe0a4bd0	-0.13505483
16	0x3ac58038	0.0015068119
17	0x3d51d6c0	0.051230192
18	0xbcc0f09c	-0.023552231
19	0xbdf8c77b	-0.12147423
20	0xbe12c16a	-0.14331594
21	0xbd635851	-0.055504147
22	0x3b450375	0.0030061875
23	0x3db20b16	0.08693521
24	0x3d65623d	0.05600189
25	0xbcf39ad5	-0.029736916
26	0x3cf5f1fc	0.030022614
27	0xbe20c856	-0.15701422
28	0xbe25f355	-0.16206105
29	0x3d2ddbab	0.04244582
30	0xbdda7884	-0.10667518
31	0x3ca56a52	0.020192299
32	0xbdff0f3c	-0.124540776
33	0xbd9f4cca	-0.07778318
34	0xbdeb7bec	-0.114982456
35	0x3cd72afe	0.026265617
36	0xbd4f2d8f	-0.050580557
37	0x3da485e4	0.0803335
38	0x3d1553b1	0.036456767
39	0x3c8dd177	0.017311795
40	0xbca7509e	-0.020424183
41	0xbd9ca265	-0.07648162
42	0xbd896c80	-0.06710148
43	0xbc8ca2fe	-0.017167564
44	0x3cbd1dbf	0.023085473
45	0xbdd3d9ea	-0.10344298
46	0x3db654fa	0.08902927
47	0xbd5ac11f	-0.05340683
48	0xbe0dd3b7	-0.13850294
49	0xbdc83e5b	-0.09777518
50	0x3dc1fd92	0.09472193
51	0x3da5c27a	0.08093734
52	0xbe089e3a	-0.13341609
53	0x3d4d30df	0.050095435
54	0x3c884563	0.016634649
55	0x3d0fca33	0.03510494
56	0x3da7a08d	0.081849195
57	0xbdc7ca05	-0.09755329
58	0x3aa86b44	0.001284935
59	0xbadc086f	-0.0016787181
60	0xbd996ea7	-0.074918084
61	0x3b354ba7	0.00276635
62	0xbd5efcbd	-0.05444025
63	0x3d243fef	0.040100034
64	0xbd9a990f	-0.07548725
65	0xbdaf827b	-0.08569809
66	0x3bcb878d	0.0062112273
67	0x3bfb357c	0.007666288
68	0xbde60859	-0.11232061
69	0xbd0c5bbb	-0.03426717
70	0x3d278d2d	0.04090612
71	0xbc926328	-0.017869547
72	0x3c2adb5f	0.010428279
73	0xbd23a386	-0.03995087
74	0x3cbddeb8	0.02317749
75	0xbde13e3f	-0.109982006
76	0xbdb04970	-0.08607757
77	0xbdaca128	-0.084291756
78	0x3dcc0a83	0.099629425
79	0xbd8b08d2	-0.06788792
80	0xbcb5b9de	-0.022183355
81	0xbd9c8da3	-0.076442026
82	0x3db08629	0.08619339
83	0x3da9ed39	0.082972
84	0xbdf0c4d5	-0.11756293
85	0xbe1658ea	-0.14682356
86	0xbe04c665	-0.12966307
87	0xbd18283f	-0.037147757
88	0xbd0282c4	-0.03186299
89	0xbdcf076b	-0.10108837
90	0xbd83600b	-0.06414803
91	0xbc9fa2f3	-0.01948688
92	0xbdb24234	-0.087040335
93	0x3bda6a2d	0.006665489
94	0xbce5b576	-0.028040629
95	0xbd97d71a	-0.07414074
96	0xbcfa356b	-0.03054305
97	0x3db1f9ed	0.08690248
98	0xbdffaa43	-0.12483647
99	0xbd03469e	-0.032049768
100	0xbda9fc02	-0.0830002
101	0x3dd23655	0.10264269
102	0xbe1f64c8	-0.15565789
103	0xbe104cd8	-0.14091814
104	0x3dd9fa5b	0.10643455
105	0xbdb8de16	-0.090267345
106	0xbc784a7d	-0.015154478
107	0xbd5bd6bc	-0.053671584
108	0xbd0c1804	-0.03420259
109	0xbcfe3e6e	-0.031035628
110	0x3d7b242c	0.061313793
111	0xbcf2c124	-0.029633112
112	0xbe36c71a	-0.17849389
113	0xbda5ecda	-0.081018165
114	0xbd5ef445	-0.054432172
115	0x3cfdb890	0.030971795
116	0xbdd1da1a	-0.10246678
117	0x3da4a5de	0.08039449
118	0xbd234bae	-0.039867096
119	0xbd75b405	-0.059986133
120	0x3da9ed63	0.08297231
121	0x3cd4f423	0.02599532
122	0x3d89b47f	0.0672388
123	0x3d10bdef	0.035337385
124	0xbda98955	-0.08278147
125	0xbdf97660	-0.12180781
126	0xbcee87ca	-0.029117484
127	0x3d8636ea	0.06553443
128	0x3e61393a	0.21994486
129	0xbc80d997	-0.015728755
130	0x3e5c535a	0.21516171
131	0x3dfdd2fa	0.12393756
132	0xbe0bd55c	-0.13655609
133	0x3ed00214	0.40626585
134	0xbd7856e0	-0.060629725
135	0xbddc312f	-0.107515685
136	0x3d75dcc7	0.060025003
137	0xbf217794	-0.63073087
138	0xbe212c03	-0.15739445
139	0x3eef2b8a	0.46712905
140	0x3ea860ff	0.32886502
141	0x3e71628f	0.23572753
142	0xbf2a8eb8	-0.6662402
143	0xbeb654c7	-0.35611555
144	0x3e08197f	0.13290976
145	0x3f593176	0.84841096
146	0x3d774a11	0.06037337
147	0x3eb34a6c	0.35017717
148	0x3e94185a	0.2892483
149	0xbe9c3910	-0.30512285
150	0x3dd31a0e	0.10307704
151	0x3e8eb3d2	0.27871567
152	0xbea89b66	-0.3293106
153	0x3b631ba6	0.003465393
154	0x3db3ec63	0.087853216
155	0x3d37cd61	0.0448736
156	0x3e54877b	0.20754807
157	0xbddab36d	-0.10678754
158	0x3d2739ab	0.04082648
159	0xbe8452d3	-0.2584444
160	0x3ede0d8b	0.43369707
161	0xbf8a4ce3	-1.0804714
162	0x3f007f36	0.5019411
163	0x3e8f05ec	0.27934206
164	0x3df8d747	0.12150436
165	0xbef3145b	-0.47476467
166	0xbe679675	-0.22615989
167	0xbd51ac9e	-0.05119001
168	0xbc2ea8b6	-0.010660341
169	0xbf78a6d2	-0.9712955
170	0xbcb4547c	-0.022012942
171	0x3e0bbdaa	0.1364657
172	0xbb592d46	-0.0033138557
173	0x3e2ad964	0.1668449
174	0xbec6de53	-0.38841495
175	0x3e1a7b77	0.1508616
176	0x3e85f5ff	0.26164243
177	0xbe75a5a0	-0.23988962
178	0x3d111581	0.0354209
179	0xbe9ea5a3	-0.30985746
180	0x3e30859e	0.17238471
181	0xbd2b93a5	-0.04188885
182	0x3e2abd95	0.16673882
183	0x3d516c0e	0.05112844
184	0xbe5ce980	-0.21573448
185	0xbf3b8174	-0.73244405
186	0x3e8a093a	0.26960164
187	0xbe5f2de3	-0.21794848
188	0xbec94e7c	-0.3931769
189	0x3e607e65	0.21923216
190	0xbec9caee	-0.39412636
191	0xbcb40612	-0.02197555
192	0xc041c143	-3.0274208
193	0xbefccb9c	-0.49374092
194	0xbf26432b	-0.6494624
195	0xbed434af	-0.41446444
196	0xbf2d8442	-0.67779934
197	0x3e6faa56	0.23404822
198	0x3f5e9b73	0.86955947
199	0xbe9081c5	-0.28224006
200	0xbffd1c24	-1.9774213
201	0x3ed87bb5	0.4228188
202	0x3e724fa5	0.23663194
203	0xbea79f45	-0.327387
204	0x3e525e5e	0.2054381
205	0x3de1fbc7	0.11034351
206	0x3e8ccc16	0.27499455
207	0xbf02171d	-0.5081652
208	0x3efe4071	0.4965854
209	0x3e1e0abe	0.15433785
210	0xbe9f7d90	-0.31150484
211	0xbf15e867	-0.5855774
212	0xbc81387a	-0.015774
213	0xbf0df63a	-0.55453837
214	0x3dd8896f	0.105730884
215	0xbe3833dd	-0.17988534
216	0xbe2114d3	-0.157306
217	0x3d7e10e8	0.06202784
218	0xbec95a88	-0.39326882
219	0xbf5779b6	-0.8417009
220	0xbf755fd9	-0.95849377
221	0x3e899f19	0.26879194
222	0xbf58c587	-0.846764
223	0x3e25721b	0.16156809
224	0xc048e8ba	-3.1392045
225	0xbd846b9a	-0.06465836
226	0x3ee9d192	0.45667702
227	0xbe6495fb	-0.22322838
228	0xbfc03d79	-1.501876
229	0xbd21c69f	-0.03949606
230	0x3fe27c65	1.7694212
231	0xbf014a81	-0.5050431
232	0x3e64edee	0.22356388
233	0xbd06508a	-0.03279165
234	0x3ebe84f9	0.37210825
235	0xbf23fda1	-0.6405888
236	0x3f0b0315	0.5430158
237	0x3d72191e	0.059105985
238	0x3df8435a	0.12122221
239	0x3f42010e	0.7578286
240	0x3daa1a45	0.08305792
241	0xbde1a9e3	-0.110187314
242	0x3e68b0be	0.22723672
243	0x3e2e76c4	0.17037493
244	0xbe7d82c1	-0.2475691
245	0x3d94b1c8	0.072604716
246	0x3e5fd080	0.2185688
247	0x3f75f248	0.96072817
248	0xbf4c27b8	-0.79748106
249	0x3a3d3241	0.0007217266
250	0xbf9280a7	-1.1445512
251	0xbfb76370	-1.4327221
252	0xc04cd454	-3.2004595
253	0xbf21ef7a	-0.6325604
254	0x3e9e2fda	0.30895883
255	0xbec275cf	-0.37980506

fc2.bias f4 [64]
0	0xbe212c42	-0.1573954
1	0x3cc4d264	0.024026103
2	0x3eceb5f7	0.40373203
3	0xbd812640	-0.06306124
4	0x3c3b6ea4	0.011439953
5	0x3e420f1d	0.18951078
6	0x3efe5dae	0.49680847
7	0x3c97f831	0.018550964
8	0xbd5bfedf	-0.05370986
9	0x3de5445a	0.11194678
10	0x3ed7f60b	0.42179903
11	0x3d8a5eb8	0.067563474
12	0x3e9e7797	0.30950615
13	0xbc9a24b4	-0.01881633
14	0x3cd7072c	0.026248537
15	0xbde2a19b	-0.1106598
16	0x3dca2797	0.098708324
17	0x3e532138	0.2061814
18	0x3d81006a	0.06298907
19	0xbd3ed15b	-0.046586376
20	0xbd02d717	-0.031943407
21	0x3e5a7dda	0.21337071
22	0x3cb25bf5	0.021772364
23	0x3f117740	0.56822586
24	0x3d002e96	0.031294428
25	0xbe138b02	-0.14408496
26	0x3e9566b0	0.29179907
27	0xbd2ac4b9	-0.041691516
28	0x3ed63d94	0.41843855
29	0x3e1ea64a	0.15493122
30	0x3e674c48	0.22587693
31	0x3e3e3e64	0.18578488
32	0x3ddfc7ba	0.10926767
33	0xbd62b9d9	-0.05535302
34	0x3d9d11af	0.076693885
35	0x3f14d308	0.5813451
36	0x3dbb3bb5	0.091422476
37	0xbdda03ca	-0.10645254
38	0x3e2aa98f	0.16666244
39	0x3e69b8fc	0.22824472
40	0x3ed8d542	0.42350203
41	0xbd880eda	-0.06643458
42	0x3ea75929	0.3268521
43	0x3eb2de22	0.349351
44	0x3e085c48	0.13316453
45	0x3dd751d8	0.10513657
46	0x3e998113	0.29981288
47	0xbc266f55	-0.01015838
48	0xbe8f0281	-0.27931598
49	0xbe6de5be	-0.23232171
50	0xbe29bbe7	-0.16575585
51	0x3e834761	0.25640395
52	0x3d5fd6c6	0.054648183
53	0xbd91d217	-0.071201496
54	0xbd372832	-0.044716068
55	0x3d5b9b1d	0.053614724
56	0x3d6869ce	0.05674153
57	0x3ec7006f	0.38867518
58	0x3eadff32	0.3398376
59	0x3d003dde	0.031309
60	0x3e946fdf	0.289916
61	0x3ed11256	0.40834302
62	0x3e88e4b7	0.26736996
63	0x3ddd12f7	0.10794633

fc3.weight f4 [3, 64]
0	0x3dbdbf58	0.092650115
1	0x3da8f957	0.08250683
2	0xbf3eefa1	-0.74584395
3	0x3fbf0ab7	1.4925145
4	0x3fbb6e1d	1.4642979
5	0xbe304f13	-0.17217664
6	0xbf70022e	-0.93753326
7	0xc008dd2a	-2.1384988
8	0xbc80f8d3	-0.015743649
9	0xbee7b3e8	-0.45254445
10	0x402fa4d5	2.7444355
11	0xbaae9504	-0.0013319557
12	0xbf60c6af	-0.8780317
13	0x3ada15b7	0.0016638552
14	0xbe3d8696	-0.18508372
15	0x3d7aa0cf	0.061188515
16	0x3fe4f203	1.7886356
17	0xbec2fa5c	-0.38081634
18	0xbe194220	-0.14966631
19	0x3fb014f2	1.3756392
20	0xbe2ca4fe	-0.16859815
21	0x40199c01	2.4001467
22	0x3d93f36b	0.07224163
23	0xbc57dd97	-0.01317539
24	0x3fcdda39	1.6082221
25	0x3da58112	0.08081259
26	0x3b2c4f45	0.0026292366
27	0xbdc6ec2e	-0.097130165
28	0xbab785bc	-0.0014001648
29	0xbed297e8	-0.4113152
30	0x3f530d1e	0.8244189
31	0x400b8afd	2.1803582
32	0xbe488fa7	-0.19586049
33	0x3f864b05	1.0491644
34	0x3d8896bb	0.066693746
35	0xbf7ef1f2	-0.9958793
36	0xbfe440d9	-1.783229
37	0xbb8ee9dc	-0.0043613743
38	0xbdaa6bc4	-0.08321336
39	0xbf910646	-1.133004
40	0x400c34f3	2.1907318
41	0x3e8a8c49	0.27060154
42	0x40132d7d	2.2996514
43	0xbf06b131	-0.5261412
44	0xbe7f51fd	-0.2493362
45	0xbf9a96f5	-1.2077318
46	0xbf72bb14	-0.9481671
47	0xbdb5bc6a	-0.08873828
48	0xbfc0e0e6	-1.5068634
49	0xbf688d29	-0.90840393
50	0xc014c7d1	-2.3246958
51	0x3e252ef0	0.16131186
52	0x3fc9f015	1.5776392
53	0x3fa97282	1.323807
54	0xbe7d0eb4	-0.2471264
55	0xbe86b2dc	-0.26308334
56	0xbda9ee37	-0.08297389
57	0xbf328e9e	-0.69748867
58	0xbf26d9be	-0.65176
59	0xbd908948	-0.07057434
60	0x3e5125bf	0.20424555
61	0xbeb782e2	-0.35842043
62	0xbedaf4c1	-0.42764857
63	0x3e93b1d6	0.28846616
64	0x3c1a73a3	0.009426984
65	0xbe0da557	-0.13832603
66	0xbec5953c	-0.3859042
67	0x3f7b6391	0.981988
68	0x3f328cf5	0.69746333
69	0xbdd1bd51	-0.10241187
70	0xbebd2aa6	-0.369466
71	0xbfa70986	-1.3049781
72	0x3e15fc50	0.14647031
73	0xbee76bd0	-0.45199442
74	0x3ff20352	1.8907263
75	0xbef1ee73	-0.47252235
76	0xbf2aadf3	-0.66671675
77	0xbdd4923f	-0.10379457
78	0x3db4f6fd	0.08836172
79	0x3dc83aba	0.09776826
80	0x3fe03287	1.751542
81	0xbe386913	-0.18008833
82	0x3d16298b	0.036660712
83	0x4015175f	2.3295515
84	0xbdbd36f9	-0.09239001
85	0x3fb8c9ed	1.4436623
86	0xbd6cd0e7	-0.057816412
87	0xbf3505d1	-0.70712
88	0x3faf6cbf	1.3705062
89	0xbdd05ca4	-0.1017392
90	0xbe5f2bc6	-0.21794042
91	0xbe4ffec1	-0.20312025
92	0xbef93462	-0.48672777
93	0xbf207009	-0.6267095
94	0x3f4bdd4d	0.79634553
95	0x3fa4b644	1.2868123
96	0xbe4a867d	-0.19777866
97	0x3f5a7269	0.85330826
98	0xbd4830f2	-0.048874803
99	0xbfa9c17c	-1.3262172
100	0xbf46eece	-0.7770814
101	0x3d5745c1	0.052556757
102	0xbf496f4d	-0.78685457
103	0xbf1ce240	-0.6128273
104	0x3fa79f85	1.3095556
105	0x3dcaa8bc	0.09895465
106	0x3f232db7	0.6374163
107	0xbe34ae93	-0.1764472
108	0xbea6546f	-0.32486293
109	0xbd5188ae	-0.05115574
110	0xbe8683d2	-0.26272446
111	0x3c489c5c	0.01224431
112	0xbf487d43	-0.78316134
113	0xbee411ac	-0.44544733
114	0xbf893507	-1.0719308
115	0xbefe07e7	-0.49615404
116	0x3fcc979c	1.5983768
117	0x3f6d0833	0.92590636
118	0x3d41c483	0.04730655
119	0xbf302531	-0.6880675
120	0x3e5af8f2	0.21384028
121	0xbf1ecf6d	-0.62035257
122	0xbe916cc1	-0.28403285
123	0x3e98b313	0.29824123
124	0xbf09ac56	-0.5377859
125	0xbf55817f	-0.8340072
126	0x3d3942b5	0.045229632
127	0x3f4a1bc3	0.7894861
128	0xbc32c570	-0.010911331
129	0xb9db2291	-0.0004179669
130	0x3e0cce7b	0.13750641
131	0x3fb50f9b	1.4145387
132	0x3fcbfb4d	1.5936066
133	0xbeb90212	-0.36134392
134	0xbeeb2898	-0.45929408
135	0xbfb88eea	-1.4418614
136	0xbe013e09	-0.12621321
137	0xbe9a12c5	-0.30092445
138	0x3ffa2fc8	1.9545832
139	0xbe3902d5	-0.18067487
140	0xbf9c2f76	-1.2201984
141	0xbe23923f	-0.15973757
142	0x3dc8844f	0.09790861
143	0x3c96e9c0	0.018422008
144	0x402209aa	2.5318398
145	0xbdadc8ec	-0.084855884
146	0xbe3495d2	-0.17635277
147	0x3f8feaea	1.1243565
148	0x3dc68448	0.096931994
149	0x3ff6b4a4	1.9273877
150	0x3db61c6b	0.08892139
151	0xbf6d3214	-0.9265454
152	0x3fb0c1f8	1.3809195
153	0x3db599f0	0.08867252
154	0x3f5b22bb	0.8559987
155	0xb9b966dd	-0.0003536259
156	0xbf6967b9	-0.91173893
157	0xbe948cc3	-0.29013643
158	0x3faf89f3	1.3713974
159	0x405cf9db	3.45275
160	0xbf79ef80	-0.97631073
161	0x3f87a104	1.0596013
162	0xbc08eda9	-0.008357444
163	0xbf8507f1	-1.0393049
164	0xbfb95b5c	-1.4481006
165	0x3d472dd5	0.048627693
166	0x3ce91b2e	0.028455343
167	0xbfa3ccdf	-1.2796897
168	0x40046e69	2.069239
169	0x3dba1ce7	0.09087544
170	0x3ffb1289	1.9615031
171	0xbea2b694	-0.3177992
172	0xbdd1e37d	-0.10248468
173	0xbe41c454	-0.1892255
174	0x3d25f11a	0.040513135
175	0xbd496560	-0.049168944
176	0xbfa795f6	-1.309264
177	0xbf3c4555	-0.7354329
178	0xc0432527	-3.0491426
179	0xbda5f98e	-0.081042394
180	0x3fde75cc	1.7379699
181	0x3fab966b	1.3405279
182	0x3da582af	0.080815665
183	0xbf97ef52	-1.186991
184	0xbe65d71f	-0.22445343
185	0xbf096fde	-0.5368632
186	0x3dfcfe34	0.12353173
187	0x3d59df30	0.053191364
188	0xbdb13936	-0.0865349
189	0xbf04ddff	-0.5190124
190	0xbfaf2a61	-1.3684808
191	0xbe7c5faa	-0.24645868

fc3.bias f4 [3]
0	0x3e05f371	0.13081147
1	0xbed2e18f	-0.41187713
2	0x3e3001b4	0.1718815
