model/checkpoint_9400.pth (torch, 21912 bytes, 6 tensors)

fc1.weight f4 [64, 6]
0.29945624 0.9191912 -0.18376644 -0.58453226 -0.09644693 0.2625036 0.39013505 1.2673233
-0.4706462 0.2311176 -0.05261726 0.1122255 -0.75141984 -0.35653782 -1.082872 0.11027516
0.113917634 0.17997088 -0.09588495 -0.72439164 -0.018764313 1.2501246 0.20162077 0.2677904
-0.19726588 1.1889728 0.7478541 -0.36131254 -0.37166804 0.1488605 -0.50109255 0.9213019
-0.61009395 -0.39038303 -0.5329823 -0.4045528 -1.4184189 -0.3608836 0.9803279 -0.11475914
-0.38782525 -0.12726644 -0.23181237 -0.9491301 -0.95946544 -0.47780818 0.14685592 -0.23749962
-0.916813 -1.5595635 1.5383483 0.36079502 0.22069657 0.017269896 -0.332412 -0.96928316
-0.06633861 0.05143964 -0.32291463 -0.46391007 0.29120028 -0.39135575 0.8734805 -0.03792495
0.75259995 0.31262004 0.37268832 -0.5089935 0.32302162 0.27771372 -0.3431954 -0.18000653
0.8098002 0.13185336 0.5511157 1.2999738 -0.19091298 -0.48435035 -0.009194772 -1.484785
-0.7869617 0.99310094 0.048939735 -0.48637673 -0.111084804 0.35094607 -0.68172735 0.62717056
0.34726655 -0.19484882 1.0248736 0.5932204 0.20228837 -0.115021326 -0.45596266 -0.15864497
0.35453016 0.72914517 -0.767207 -0.936327 0.6339478 0.3917941 -1.1604768 0.23325174
-1.021016 0.15367153 -0.22989021 -0.23275137 -0.41840154 0.25286645 0.2313916 -0.74142474
-0.47238258 0.34824756 1.0861396 0.016652156 -0.33485147 -0.32615435 0.3437077 0.24696158
0.7009329 0.39621198 -0.47023386 0.7529042 -0.41220245 -0.23753464 -0.7871901 -0.876479
-0.06345095 -0.5484101 -0.2538634 -0.20979103 -0.3666986 -0.7741804 0.22474495 -0.5846735
0.21956713 0.039453134 0.3231844 0.2824361 0.70279247 0.45348048 0.20244843 0.24490042
-0.60539 0.70641136 -0.21515109 0.40029472 -0.36138237 -0.35300532 0.17412199 -0.87943876
0.050279886 1.6713403 -0.23878774 -0.3617067 -0.0739601 -1.3296951 -0.15665784 -0.042395957
-0.47851732 -0.53049207 -0.45588222 -0.4318533 -0.74270684 -0.6914121 -0.3733512 0.20412788
0.12055562 -0.20058724 0.410983 -0.58058673 0.13942876 0.23773421 -0.45738286 0.19243284
-0.7552825 1.3365654 0.37165645 -0.33863866 -0.39011458 -0.09202088 0.5558052 -0.026918733
0.72329575 0.42797682 -0.48236313 0.26268572 -0.9846931 0.59577113 0.4081775 0.41896248
-0.0115854675 1.018095 -1.1204016 -0.5577511 -0.009342357 0.33409026 -0.6045103 0.66996956
0.18389395 0.11650313 -0.7768209 -0.40932393 -0.57741714 -0.58852196 -0.39511445 1.00474
0.021601992 -0.24899682 0.057438128 0.03834012 -0.46253252 0.015703319 0.22425954 0.2237142
1.0773268 1.0623282 1.1913761 -1.432397 0.3274268 0.73101634 1.1074048 -0.39782974
-1.3197261 -0.12435896 -0.14254974 -0.07643036 -1.214574 0.786477 -0.35549092 0.6999196
0.39659572 0.3813171 0.70915866 0.04452174 0.7577606 -0.5764104 -0.20936514 -0.21727805
-0.3912536 0.6474299 -0.109290205 -0.11522973 0.08289579 -0.3191222 0.9167057 -0.8665342
0.49927408 -0.38650128 -0.5924061 -0.16599394 0.7188413 -0.46258047 -0.844887 -0.58010584
00000000: 5452 993e 1d50 6b3f 452d 3cbe e8a3 15bf
00000010: f885 c5bd df66 863e c8bf c73e a637 a23f
00000020: 8af8 f0be 18aa 6c3e 3285 57bd 7cd6 e53d
00000030: 0d5d 40bf 208c b6be 8d9b 8abf f1d7 e13d
00000040: a64d e93d 494a 383e 545f c4bd bb71 39bf
00000050: 9eb7 99bc 1504 a03f ad75 4e3e d31b 893e
00000060: 1100 4abe 4330 983f 5e73 3f3f f5fd b8be
00000070: 464b bebe e36e 183e 9a47 00bf 71da 6b3f
00000080: 1e2f 1cbf 49e0 c7be 8771 08bf 8b21 cfbe
00000090: c08e b5bf bcc5 b8be c5f6 7a3f d706 ebbd
000000a0: 0891 c6be 2252 02be 3960 6dbe 31fa 72bf
000000b0: 879f 75bf 46a3 f4be 6661 163e 1a33 73be
000000c0: 42b4 6abf c79f c7bf 99e8 c43f 20ba b83e
000000d0: 48fe 613e 9979 8d3c e831 aabe f122 78bf
000000e0: 8adc 87bd 5fb2 523d 1155 a5be 9f85 edbe
000000f0: 3418 953e c85f c8be 6b9c 5f3f 3157 1bbd
00000100: 64aa 403f bc0f a03e 01d1 be3e 664d 02bf
00000110: 1763 a53e 7e30 8e3e 4fb7 afbe a253 38be
00000120: 114f 4f3f 9104 073e eb15 0d3f 8b65 a63f
00000130: b17e 43be c5fc f7be aba5 16bc 6f0d bebf
00000140: 5276 49bf dd3b 7e3f 0875 483d 5f06 f9be
00000150: 6e80 e3bd 34af b33e af85 2ebf 408e 203f
00000160: eccc b13e 7386 47be 0f2f 833f 4bdd 173f
00000170: af24 4f3e 4d90 ebbd f073 e9be d473 22be
00000180: fa84 b53e 42a9 3a3f ae67 44bf 20b3 6fbf
00000190: 674a 223f 3c99 c83e 818a 94bf 8bd9 6e3e
000001a0: a7b0 82bf 125c 1d3e 5768 6bbe 6056 6ebe
000001b0: ba38 d6be b677 813e ebf1 6c3e 03ce 3dbf
000001c0: 21dc f1be 814d b23e 9f06 8b3f 1a6a 883c
000001d0: a771 abbe b4fd a6be 75fa af3e 7fe3 7c3e
000001e0: 5770 333f 4cdc ca3e 7ec2 f0be 54be 403f
000001f0: 330c d3be 483c 73be 4a85 49bf ee60 60bf
00000200: 92f2 81bd 9b64 0cbf 62fa 81be 76d3 56be
00000210: ebbf bbbe b030 46bf 8a23 663e 2aad 15bf
00000220: 35d6 603e 9c99 213d 6d78 a53e 779b 903e
00000230: 35ea 333f 982e e83e a44e 4f3e 2dc7 7a3e
00000240: d7fa 1abf 60d7 343f 9150 5cbe 6ef3 cc3e
00000250: 1c07 b9be 1dbd b4be 094d 323e e622 61bf
00000260: 48f2 4d3d 7bee d53f c684 74be 9f31 b9be
00000270: 6578 97bd 7333 aabf ea6a 20be 62a7 2dbd
00000280: 3900 f5be 54ce 07bf 6569 e9be e01b ddbe
00000290: 0922 3ebf 6200 31bf e327 bfbe e606 513e
000002a0: dde5 f63d be66 4dbe 5d6c d23e 55a1 14bf
000002b0: 6ac6 0e3e 9970 733e 162e eabe 1d0d 453e
000002c0: 325a 41bf 9314 ab3f c149 be3e 0c62 adbe
000002d0: 19bd c7be 7175 bcbd 4049 0e3f ad84 dcbc
000002e0: e929 393f c71f db3e 4df8 f6be be7e 863e
000002f0: d914 7cbf 7584 183f a4fc d03e 4082 d63e
00000300: f9d0 3dbc f050 823f 5269 8fbf c7c8 0ebf
00000310: af10 19bc e10d ab3e 30c1 1abf 2083 2b3f
00000320: b24e 3c3e 3199 ee3d bcdd 46bf e892 d1be
00000330: 9cd1 13bf 60a9 16bf 714c cabe 529b 803f
00000340: a9f6 b03c 06f9 7ebe 3e44 6b3d 880a 1d3d
00000350: 10d1 ecbe 3fa4 803c 4ba4 653e 5615 653e
00000360: d8e5 893f 5ffa 873f 037f 983f c958 b7bf
00000370: 7ca4 a73e e323 3b3f 71bf 8d3f 57b0 cbbe
00000380: c9ec a8bf e9af febd 8ff8 11be 8587 9cbd
00000390: 2977 9bbf 8f56 493f e802 b6be ee2d 333f
000003a0: 980e cb3e ff3b c33e 6c8b 353f 6e5c 363d
000003b0: 99fc 413f a28f 13bf d163 56be 237e 5ebe
000003c0: 6452 c8be f7bd 253f 8bd3 dfbd 91fd ebbd
000003d0: 45c5 a93d fc63 a3be 3aad 6a3f 2fd5 5dbf
000003e0: daa0 ff3e 7fe3 c5be eda7 17bf 51fa 29be
000003f0: fc05 383f 59d7 ecbe 844a 58bf d181 14bf

fc1.bias f4 [64]
0.2905894 0.48537666 0.3613798 0.013808003 0.38186082 0.42327493 -0.8379522 -0.13430795
-0.6513333 0.2505746 -0.49584368 0.9416301 -0.025924046 -0.0643533 -1.4218386 0.44789827
0.6134963 -0.28973198 0.020160962 0.5556634 0.8191415 -0.93113357 0.6871771 0.8490533
-0.18443401 -0.07299078 0.020021027 -0.6829897 1.0990429 -0.631412 -0.7677999 -0.32430488
-0.50499696 -0.7182218 0.29966527 0.8165311 0.7332104 -0.13939863 -0.37874514 0.5484232
0.44602403 -0.51683664 -0.01446675 -0.7389152 0.43940878 -0.09372401 -0.54802114 0.052694116
0.73966116 0.31948373 -0.20779942 -0.05928406 0.42644915 -0.9307804 0.28953293 -0.36708066
-0.8618811 -0.6991718 -0.99373 0.77442145 -0.76999277 0.6757216 0.018196028 0.51304495
00000000: 22c8 943e 4a83 f83e c606 b93e f63a 623c
00000010: 4383 c33e 7eb7 d83e 0984 56bf 0688 09be
00000020: c7bd 26bf 504b 803e 39df fdbe ac0e 713f
00000030: aa5e d4bc aacb 83bd cffe b5bf ec52 e53e
00000040: 180e 1d3f c057 94be 9a28 a53c f53f 0e3f
00000050: 42b3 513f c55e 6ebf d7ea 2f3f 8f5b 593f
00000060: 45dc 3cbe 317c 95bd 2303 a43c 6ad8 2ebf
00000070: 70ad 8c3f 38a4 21bf 898e 44bf 4a0b a6be
00000080: 7b47 01bf 62dd 37bf ba6d 993e 2f08 513f
00000090: adb3 3b3f 84be 0ebe e2ea c1be 7665 0c3f
000000a0: 435d e43e 684f 04bf f305 6dbc 8c29 3dbf
000000b0: 30fa e03e 60f2 bfbd 1d4b 0cbf c9d5 573d
000000c0: 6f5a 3d3f 5f93 a33e 5fc9 54be d8d3 72bd
000000d0: 8b57 da3e a047 6ebf a93d 943e fff1 bbbe
000000e0: 3da4 5cbf ecfc 32bf 1765 7ebf 7c40 463f
000000f0: 3f1e 45bf 17fc 2c3f d60f 953c ea56 033f

fc2.weight f4 [64, 64]
-0.04831197 -0.15959136 0.07830485 0.031351674 0.072698325 0.042516902 -0.082408555 0.06584186
-0.011387902 0.029746728 -0.1160325 -0.08457825 -0.14884798 -0.06456648 0.011087811 -0.13505483
0.0015068119 0.051230192 -0.023552231 -0.12147423 -0.14331594 -0.055504147 0.0030061875 0.08693521
0.05600189 -0.029736916 0.030022614 -0.15701422 -0.16206105 0.04244582 -0.10667518 0.020192299
-0.124540776 -0.07778318 -0.114982456 0.026265617 -0.050580557 0.0803335 0.036456767 0.017311795
-0.020424183 -0.07648162 -0.06710148 -0.017167564 0.023085473 -0.10344298 0.08902927 -0.05340683
-0.13850294 -0.09777518 0.09472193 0.08093734 -0.13341609 0.050095435 0.016634649 0.03510494
0.081849195 -0.09755329 0.001284935 -0.0016787181 -0.074918084 0.00276635 -0.05444025 0.040100034
-0.07548725 -0.08569809 0.0062112273 0.007666288 -0.11232061 -0.03426717 0.04090612 -0.017869547
0.010428279 -0.03995087 0.02317749 -0.109982006 -0.08607757 -0.084291756 0.099629425 -0.06788792
-0.022183355 -0.076442026 0.08619339 0.082972 -0.11756293 -0.14682356 -0.12966307 -0.037147757
-0.03186299 -0.10108837 -0.06414803 -0.01948688 -0.087040335 0.006665489 -0.028040629 -0.07414074
-0.03054305 0.08690248 -0.12483647 -0.032049768 -0.0830002 0.10264269 -0.15565789 -0.14091814
0.10643455 -0.090267345 -0.015154478 -0.053671584 -0.03420259 -0.031035628 0.061313793 -0.029633112
-0.17849389 -0.081018165 -0.054432172 0.030971795 -0.10246678 0.08039449 -0.039867096 -0.059986133
0.08297231 0.02599532 0.0672388 0.035337385 -0.08278147 -0.12180781 -0.029117484 0.06553443
0.22762606 -0.021890571 0.1812193 0.10803387 -0.15837975 0.4118282 -0.008005508 -0.0848888
0.06388308 -0.61350197 -0.1568159 0.48032433 0.3256222 0.25176752 -0.66223794 -0.3324249
0.1334766 0.8571997 0.029258719 0.3333404 0.30447295 -0.3160359 0.12557124 0.27549624
-0.32581833 0.011238454 0.1166044 0.008061367 0.20415097 -0.104453824 0.064528495 -0.27403927
0.4815904 -1.1009681 0.51324296 0.26963213 0.109192595 -0.5009672 -0.22141823 -0.047696862
-0.005605471 -0.943455 -0.012911573 0.10980023 -0.00038616097 0.15339309 -0.3819912 0.14000809
0.26232493 -0.22638643 0.04219267 -0.3262011 0.1746701 -0.0707278 0.17063257 0.07986433
-0.24698329 -0.772244 0.23580587 -0.22061354 -0.39432228 0.20290118 -0.38392463 -0.036323432
-3.0228007 -0.5019966 -0.6194866 -0.41952494 -0.59672165 0.24747944 0.81725204 -0.26690683
-1.9588847 0.4256718 0.21704872 -0.3224992 0.19546501 0.11245913 0.2938606 -0.5397299
0.5212146 0.12996034 -0.18628824 -0.5833687 -0.03474631 -0.49820027 0.10022783 -0.21462788
-0.15808484 0.06967391 -0.39069563 -0.8072539 -0.95405877 0.27085662 -0.88523847 0.20174085
-3.1853461 -0.09179537 0.4591241 -0.19712548 -1.464132 -0.039433733 1.8283321 -0.52701193
0.21418081 -0.052500714 0.35956007 -0.5034996 0.5158097 0.053385977 0.13060719 0.8414337
0.07366826 -0.12195123 0.2253742 0.2048361 -0.25382003 0.072604716 0.21007104 1.1145145
-0.7703189 0.061847188 -1.0911623 -1.4401112 -3.07357 -0.60971117 0.31191742 -0.369119
00000000: c6e2 45bd eb6b 23be 4b5e a03d 9d6a 003d
00000010: dce2 943d 3426 2e3d d1c5 a8bd 19d8 863d
00000020: 5394 3abc 69af f33c 73a2 edbd 5d37 adbd
00000030: 9b6b 18be 6e3b 84bd a6a9 353c d04b 0abe
00000040: 3880 c53a c0d6 513d 9cf0 c0bc 7bc7 f8bd
00000050: 6ac1 12be 5158 63bd 7503 453b 160b b23d
00000060: 3d62 653d d59a f3bc fcf1 f53c 56c8 20be
00000070: 55f3 25be abdb 2d3d 8478 dabd 526a a53c
00000080: 3c0f ffbd ca4c 9fbd ec7b ebbd fe2a d73c
00000090: 8f2d 4fbd e485 a43d b153 153d 77d1 8d3c
000000a0: 9e50 a7bc 65a2 9cbd 806c 89bd fea2 8cbc
000000b0: bf1d bd3c ead9 d3bd fa54 b63d 1fc1 5abd
000000c0: b7d3 0dbe 5b3e c8bd 92fd c13d 7ac2 a53d
000000d0: 3a9e 08be df30 4d3d 6345 883c 33ca 0f3d
000000e0: 8da0 a73d 05ca c7bd 446b a83a 6f08 dcba
000000f0: a76e 99bd a74b 353b bdfc 5ebd ef3f 243d
00000100: 0f99 9abd 7b82 afbd 8d87 cb3b 7c35 fb3b
00000110: 5908 e6bd bb5b 0cbd 2d8d 273d 2863 92bc
00000120: 5fdb 2a3c 86a3 23bd b8de bd3c 3f3e e1bd
00000130: 7049 b0bd 28a1 acbd 830a cc3d d208 8bbd
00000140: deb9 b5bc a38d 9cbd 2986 b03d 39ed a93d
00000150: d5c4 f0bd ea58 16be 65c6 04be 3f28 18bd
00000160: c482 02bd 6b07 cfbd 0b60 83bd f3a2 9fbc
00000170: 3442 b2bd 2d6a da3b 76b5 e5bc 1ad7 97bd
00000180: 6b35 fabc edf9 b13d 43aa ffbd 9e46 03bd
00000190: 02fc a9bd 5536 d23d c864 1fbe d84c 10be
000001a0: 5bfa d93d 16de b8bd 7d4a 78bc bcd6 5bbd
000001b0: 0418 0cbd 6e3e febc 2c24 7b3d 24c1 f2bc
000001c0: 1ac7 36be daec a5bd 45f4 5ebd 90b8 fd3c
000001d0: 1ada d1bd dea5 a43d ae4b 23bd 05b4 75bd
000001e0: 63ed a93d 23f4 d43c 7fb4 893d efbd 103d
000001f0: 5589 a9bd 6076 f9bd ca87 eebc ea36 863d
00000200: ce16 693e db53 b3bc 8d91 393e dd40 dd3d
00000210: 4d2e 22be 25db d23e 8929 03bc 2eda adbd
00000220: 22d5 823d 770e 1dbf 5994 20be 12ed f53e
00000230: f4b7 a63e ace7 803e 6d88 29bf 9933 aabe
00000240: 17ae 083e 7171 5b3f fbaf ef3c 98ab aa3e
00000250: e1e3 9b3e 75cf a1be bf95 003e d80d 8d3e
00000260: a9d1 a6be 7e21 383c 4ace ee3d d313 043c
00000270: f40c 513e e3eb d5bd 8427 843d e04e 8cbe
00000280: 0493 f63e 86ec 8cbf e463 033f 390d 8a3e
00000290: 5ea0 df3d 633f 00bf 76bb 62be c95d 43bd
000002a0: 19ae b7bb 4486 71bf 108b 53bc f1de e03d
000002b0: a675 cab9 1413 1d3e 5a94 c3be 485e 0f3e
000002c0: 744f 863e d8d1 67be 39d2 2c3d d503 a7be
000002d0: b8dc 323e bdd9 90bd 4eba 2e3e e98f a33d
000002e0: 30e9 7cbe c8b1 45bf 1877 713e 84e8 61be
000002f0: 9ce4 c9be 54c5 4f3e c591 c4be e1c7 14bd
00000300: 9175 41c0 d982 00bf ac96 1ebf f9cb d6be
00000310: c0c2 18bf 406b 7d3e 6e37 513f 03a8 88be
00000320: bcbc fabf a7f1 d93e 0542 5e3e 9d1e a5be
00000330: fb27 483e f950 e63d e674 963e bd2b 0abf
00000340: 526e 053f 5314 053e 58c2 3ebe a757 15bf
00000350: 2652 0ebd 1b14 ffbe 4044 cd3d 69c7 5bbe
00000360: fee0 21be 32b1 8e3d 4209 c8be 31a8 4ebf
00000370: 323d 74bf b8ad 8a3e fd9e 62bf 2795 4e3e
00000380: b6dc 4bc0 36ff bbbd 5012 eb3e 43db 49be
00000390: ad68 bbbf 4485 21bd c906 ea3f 41ea 06bf
000003a0: 3752 5b3e fd0a 57bd 4218 b83e 5ae5 00bf
000003b0: 1b0c 043f 41ab 5a3d e4bd 053e 3368 573f
000003c0: 62df 963d 91c1 f9bd 7fc8 663e 8ec0 513e
000003d0: b3f4 81be c8b1 943d dd1c 573e 69a8 8e3f
000003e0: 9f33 45bf 7a53 7d3d 35ab 8bbf 9055 b8bf
000003f0: 5fb5 44c0 0816 1cbf a4b3 9f3e 2afd bcbe

fc2.bias f4 [64]
-0.1573954 0.024026103 0.4152381 -0.08158661 0.008641398 0.20052364 0.4961073 0.0114788
-0.06152674 0.11225654 0.42783356 0.06883925 0.32546034 -0.030095266 0.016498256 -0.1106598
0.10663939 0.20757893 0.05008737 -0.042766064 -0.033775747 0.21644059 0.021772364 0.5714117
0.039199088 -0.14408496 0.28960577 -0.04420448 0.42272463 0.15846895 0.22979358 0.18324083
0.10284338 -0.05146075 0.076693885 0.5871815 0.089778274 -0.10645254 0.20809594 0.21922855
0.42891663 -0.06643458 0.3262971 0.35101512 0.12613374 0.10126801 0.28875706 -0.01015838
-0.28695574 -0.23725726 -0.15248258 0.28515574 0.052307624 -0.07267078 -0.051667448 0.05152453
0.044153195 0.39655373 0.35685998 0.037952974 0.299413 0.40435377 0.27881998 0.093501695
00000000: 422c 21be 64d2 c43c 179a d43e e116 a7bd
00000010: a694 0d3c 1256 4d3e c701 fe3e 9411 3c3c
00000020: 7703 7cbd c2e6 e53d 000d db3e 98fb 8c3d
00000030: bda2 a63e 598a f6bc 5a27 873c 9ba1 e2bd
00000040: c165 da3d 928f 543e 6a28 4d3d 782b 2fbd
00000050: 7058 0abd 9aa2 5d3e f55b b23c 0a48 123f
00000060: 398f 203d 028b 13be 3547 943e c20f 35bd
00000070: 5d6f d83e af45 223e 024f 6b3e 7ca3 3b3e
00000080: 8d9f d23d 82c8 52bd af11 9d3d 8751 163f
00000090: acdd b73d ca03 dabd 1a17 553e 737d 603e
000000a0: f69a db3e da0e 88bd 6a10 a73e 41b8 b33e
000000b0: 3429 013e 9a65 cf3d f7d7 933e 556f 26bc
000000c0: ddeb 92be 91f3 72be 6524 1cbe efff 913e
000000d0: 8540 563d 6bd4 94bd 3fa1 53bd 630b 533d
000000e0: fbd9 343d 1709 cb3e 5ab6 b63e 9474 1b3d
000000f0: a94c 993e 7507 cf3e 7ec1 8e3e d17d bf3d

fc3.weight f4 [3, 64]
0.092650115 0.08250683 -0.73697054 1.4933852 1.4722003 -0.18192723 -0.9271441 -2.1445553
-0.023629958 -0.468403 2.8018343 0.0020534701 -0.9047916 -0.004018998 -0.19134031 0.061188515
1.7986736 -0.41475758 -0.16414297 1.3887119 -0.1645884 2.3687327 0.07224163 -0.0023931067
1.6492083 0.08081259 0.014572467 -0.10489593 -0.0018423923 -0.42590192 0.83028257 2.2822495
-0.19874422 1.0485468 0.066693746 -0.9947136 -1.7978626 -0.0043613743 -0.06367075 -1.1383759
2.186055 0.27060154 2.3494854 -0.54167557 -0.24070834 -1.2201467 -0.953494 -0.08873828
-1.5299376 -0.924736 -2.3392699 0.1873252 1.5963231 1.310055 -0.25500554 -0.2711076
-0.109203696 -0.6870214 -0.70166 -0.11378252 0.22754598 -0.36648172 -0.40641364 0.35148305
0.009426984 -0.13832603 -0.3778035 0.9566238 0.6700117 -0.0924035 -0.3636426 -1.3209009
0.16351572 -0.43771464 1.8184708 -0.49791104 -0.6528107 -0.109726496 0.11993817 0.09776826
1.7299472 -0.19764765 0.03576129 2.315284 -0.081532545 1.4578933 -0.057816412 -0.71621233
1.3833209 -0.1017392 -0.20248482 -0.23298925 -0.49699536 -0.62765574 0.8134296 1.4177349
-0.19189137 0.8881593 -0.048874803 -1.3268067 -0.7688189 0.052556757 -0.8158771 -0.59272414
1.324342 0.09895465 0.65321374 -0.2128337 -0.31680325 -0.05417721 -0.27013654 0.01224431
-0.7648877 -0.42530268 -1.0259266 -0.5495185 1.5654793 0.906625 0.07594706 -0.68527985
0.21057165 -0.6472771 -0.26730928 0.3528331 -0.55026656 -0.8388156 0.041339993 0.8368762
-0.010911331 -0.0004179669 0.13624199 1.4246509 1.5899647 -0.37228146 -0.47450235 -1.4511349
-0.14439242 -0.311483 1.9066952 -0.18302588 -1.2293656 -0.16632383 0.09661539 0.018422008
2.5681183 -0.06967736 -0.20799012 1.0541937 0.100721166 1.9650595 0.08892139 -0.92592007
1.3810976 0.08867252 0.86370337 -0.03361232 -0.92136663 -0.27702823 1.3973998 3.5564127
-0.97375816 1.0581031 -0.008357444 -1.0370704 -1.4700422 0.048627693 0.03690806 -1.2789057
2.1379979 0.09087544 1.9609913 -0.34478697 -0.11275854 -0.1863041 0.051261395 -0.049168944
-1.3065811 -0.74132967 -3.0285413 -0.093088165 1.6910077 1.3527477 0.07225571 -1.1824496
-0.2652445 -0.5312038 0.14167808 0.061662517 -0.08890857 -0.5081586 -1.3745925 -0.2413689
00000000: 58bf bd3d 57f9 a83d 1aaa 3cbf 3f27 bf3f
00000010: 0f71 bc3f 224b 3abe 5159 6dbf 6540 09c0
00000020: 9d93 c1bc 85d2 efbe 4151 3340 8393 063b
00000030: 6ca0 67bf ccb1 83bb b7ee 43be cfa0 7a3d
00000040: f03a e63f 1b5b d4be 1815 28be 50c1 b13f
00000050: dd89 28be 5199 1740 6bf3 933d abd5 1cbb
00000060: 4219 d33f 1281 a53d 5bc1 6e3c add3 d6bd
00000070: 6d7c f1ba d10f dabe 668d 543f 6010 1240
00000080: 9b83 4bbe c836 863f bb96 883d 8da5 7ebf
00000090: 5d20 e6bf dce9 8ebb cf65 82bd 4db6 91bf
000000a0: 53e8 0b40 498c 8a3e f85d 1640 40ab 0abf
000000b0: 3f7c 76be c42d 9cbf 2f18 74bf 6abc b5bd
000000c0: ffd4 c3bf 80bb 6cbf 99b6 15c0 2dd2 3f3e
000000d0: 5154 cc3f e2af a73f 1690 82be 9ece 8abe
000000e0: 30a6 dfbd a2e0 2fbf fd9f 33bf cf06 e9bd
000000f0: d001 693e 7ea3 bbbe 7315 d0be 96f5 b33e
00000100: a373 1a3c 57a5 0dbe 766f c1be 4ce5 743f
00000110: e385 2b3f 0c3e bdbd 5d2f babe 4813 a9bf
00000120: aa70 273e 221c e0be a7c3 e83f 32ee febe
00000130: 9a1e 27bf 49b8 e0bd 25a2 f53d ba3a c83d
00000140: e96e dd3f 2564 4abe 6e7a 123d 9d2d 1440
00000150: 89fa a6bd 3f9c ba3f e7d0 6cbd b159 37bf
00000160: a910 b13f a45c d0bd 2e58 4fbe bc94 6ebe
00000170: 2d76 febe 0cae 20bf ec3c 503f 5678 b53f
00000180: 2c7f 44be 685e 633f f230 48bd cdd4 a9bf
00000190: 51d1 44bf c145 573d 52dd 50bf c5bc 17bf
000001a0: 0a84 a93f bca8 ca3d 0439 273f 14f1 59be
000001b0: 0934 a2be ece8 5dbd 564f 8abe 5c9c 483c
000001c0: aecf 43bf 46c1 d9be 9051 83bf 3fad 0cbf
000001d0: a061 c83f 9318 683f 228a 9b3d 806e 2fbf
000001e0: 18a0 573e f4b3 25bf c3dc 88be 8aa6 b43e
000001f0: 45de 0cbf 9fbc 56bf 2054 293d 853d 563f
00000200: 70c5 32bc 9122 dbb9 0583 0b3e f65a b63f
00000210: f783 cb3f ad9b bebe f9f1 f2be cabe b9bf
00000220: 9bdb 13be b37a 9fbe 970e f43f 236b 3bbe
00000230: da5b 9dbf cb50 2abe 4ade c53d c0e9 963c
00000240: 0d5c 2440 01b3 8ebd 5dfb 54be d2ef 863f
00000250: e646 ce3d 1287 fb3f 6b1c b63d 1909 6dbf
00000260: cec7 b03f f099 b53d aa1b 5d3f 12ad 09bd
00000270: afde 6bbf a5d6 8dbe ffdd b23f 449c 6340
00000280: 3748 79bf ec6f 873f a9ed 08bc b9be 84bf
00000290: 582a bcbf d52d 473d e82c 173d 2fb3 a3bf
000002a0: f5d4 0840 e71c ba3d c301 fb3f eb87 b0be
000002b0: f3ed e6bd 81c6 3ebe 78f7 513d 6065 49bd
000002c0: 0d3e a7bf c8c7 3dbf 9fd3 41c0 02a5 bebd
000002d0: f172 d83f d626 ad3f cdfa 933d 825a 97bf
000002e0: 21ce 87be f9fc 07bf 0f14 113e d691 7c3d
000002f0: b215 b6bd af16 02bf a6f2 afbf 6929 77be

fc3.bias f4 [3]
0.13911544 -0.41334957 0.17328155
00000000: 4774 0e3e 8ea2 d3be b870 313e
