model/checkpoint_3200.pth (torch, 21912 bytes, 6 tensors)

fc1.weight f4 [64, 6]
000000 d3 9c de 3e 97 c8 45 3f e7 d5 b6 be 6a 20 59 bf
       0.43479022 0.772592 -0.3571007 -0.84815085
000010 05 59 37 bd 89 35 95 3e 4c 02 f7 3e d2 e0 14 3f
       -0.04476263 0.29142407 0.4824394 0.5815555
000020 8d c3 f4 be dc 34 ea 3d d6 25 b5 bd 91 57 3b 3d
       -0.47805443 0.114358634 -0.08845107 0.045737807
000030 94 28 80 bf 49 bf 88 be ee a8 50 bf c7 66 71 3e
       -1.0012383 -0.2670844 -0.81507766 0.23574363
000040 f0 b5 e2 3d 2a 77 29 3e 79 5f 9e be 60 ac 2e bf
       0.11069858 0.16549364 -0.30932215 -0.68231773
000050 d7 b6 08 be 66 a3 7a 3f 21 6e 61 3e f2 5d 7d 3e
       -0.13350998 0.97905576 0.22014667 0.24742869
000060 63 ea 5f be 3f f3 44 3f c1 64 34 3f 30 db 21 bf
       -0.21866755 0.76933664 0.7046624 -0.6322508
000070 29 c3 bc be b7 6a 00 3e 2f d7 ea be 14 8c 74 3f
       -0.36867645 0.12540708 -0.45867297 0.9552624
000080 2c ce 5d bf 45 6e a3 be f0 84 d4 be 72 a4 9c be
       -0.8664272 -0.31920066 -0.41507673 -0.30594212
000090 fb 69 b8 bf 47 fd 3c be a4 c1 f3 3e 59 b1 8b be
       -1.4407343 -0.18455993 0.47608674 -0.27283743
0000a0 c2 c2 40 be 71 90 44 bd dc 8c 4a be 2e 36 7d bf
       -0.18824294 -0.047989313 -0.19780296 -0.98910797
0000b0 0c fc 52 bf b8 13 b1 be d5 df 0f 3e 79 f9 39 be
       -0.82415843 -0.34585357 0.14050229 -0.18161573
0000c0 bc f3 44 bf fd 9a 86 bf 4b 05 5b 3f 07 18 0c 3f
       -0.7693441 -1.0516049 0.8555495 0.5472416
0000d0 8c da f9 3d da 94 0c bc 94 d2 8d bd b5 56 7d bf
       0.12199888 -0.008580411 -0.0692493 -0.9896043
0000e0 1c fd 8a bd cf 8f 20 bd 23 c1 9d be 47 85 e2 be
       -0.06786558 -0.039199647 -0.30811414 -0.44242308
0000f0 a6 46 b6 3e 80 54 51 be bd 1f 52 3f 2c 1a bf 3d
       0.35600775 -0.2044239 0.8207968 0.09331164
000100 b9 63 21 3f 0b d2 62 3e d1 d7 c7 3e 88 3d ec be
       0.6304279 0.22150438 0.39031842 -0.46140695
000110 8f e7 7b 3e 9e 52 ff 3e a6 1f a3 be 6d 37 20 be
       0.24600051 0.4986772 -0.31860083 -0.15646143
000120 43 81 fe 3e 44 fd 3b 3e 47 70 20 3f 89 fc a5 3f
       0.49707994 0.18358332 0.6267132 1.2967693
000130 99 a2 6a be 91 6b de be cb 00 45 3e 6a 9b a9 bf
       -0.22913589 -0.43441442 0.19238584 -1.3250554
000140 87 58 80 bf b0 17 74 3f 0d 27 dd 3d 22 ff d7 be
       -1.0027016 0.95348644 0.10798464 -0.42186838
000150 9c 49 58 bd 2c e3 c1 3e 0d dd f8 be 61 dd 0a 3f
       -0.052804574 0.3786863 -0.48606148 0.5424405
000160 cd 4e 93 3e c5 c7 29 be 10 5f 82 3f 97 b7 97 3e
       0.28771058 -0.16580112 1.0185261 0.29632255
000170 d0 7e 73 3e aa f7 6d bd 82 12 ce be 38 6c 39 be
       0.23778844 -0.05809752 -0.40248495 -0.18107688
000180 02 06 2a 3f 4f 88 cd 3e 15 38 0b bf 4f 3c 1a bf
       0.6641542 0.40143058 -0.5438245 -0.60248274
000190 83 2c 14 3f 91 4a 5f 3e 6b 0b 9b bf a2 08 34 bb
       0.5788042 0.21805789 -1.211286 -0.0027470966
0001a0 eb 3c 67 bf 7e a9 00 3c 2d 23 58 be c4 23 79 be
       -0.9032733 0.00785291 -0.21107168 -0.2433005
0001b0 c8 83 91 be e7 95 98 bd 89 0a ee 3d 05 8b 7f bf
       -0.28420854 -0.074504666 0.11623103 -0.998215
0001c0 7b e7 f9 be 5b 20 c0 3e ff 91 4a 3f b7 a9 68 3d
       -0.48809418 0.37524685 0.7912902 0.056802478
0001d0 ce e4 81 be 1f b4 ee bd e3 31 7c 3e 09 d8 60 3e
       -0.25369877 -0.11655449 0.24628405 0.21957411
0001e0 4f 15 3f 3f 13 13 25 3e 98 e9 a5 be a8 20 ab 3e
       0.7464189 0.16120557 -0.3240478 0.33423352
0001f0 cb fd e3 be c6 47 70 be 29 36 25 bf 86 45 39 bf
       -0.44529566 -0.2346488 -0.64535767 -0.7237171
000200 fa 5b cc 3d 92 17 b9 be d2 18 25 be de d8 01 be
       0.09978481 -0.36150795 -0.1612275 -0.12680385
000210 60 1c bd bc ec d5 1d bf 96 ae ac 3e a1 7c 6e be
       -0.02308482 -0.61654544 0.33726948 -0.2328973
000220 46 af 41 3e ca 84 59 3c 00 da d0 3e f4 01 76 3e
       0.18914518 0.013276288 0.4079132 0.24024183
000230 3d 60 23 3f e7 f4 c3 3e 4f e0 48 3e da 53 62 3e
       0.6381872 0.38272783 0.19616817 0.221023
000240 6c b2 2f bf d7 c3 b0 3e 8c bb 63 be 13 08 b5 3e
       -0.68631625 0.34524414 -0.22239512 0.35357723
000250 62 a6 c1 be b8 24 c9 be 6c c1 05 3e 97 d1 67 bf
       -0.37822253 -0.39285827 0.13062066 -0.90554184
000260 09 15 0b 3e 47 6b b5 3f 33 63 58 be 76 a5 ac be
       0.13582243 1.4173363 -0.21131591 -0.33719987
000270 3a ff 52 bd b5 c3 78 bf 50 a0 c8 bd 82 ea 71 be
       -0.051512934 -0.97173625 -0.09796202 -0.23624614
000280 58 cb 98 be a1 75 af be 94 39 31 bf 9c be ea be
       -0.2984264 -0.3426943 -0.6922848 -0.45848548
000290 08 00 20 bf 08 a8 ff be da 7e b4 be 71 54 17 3e
       -0.6250005 -0.49932885 -0.3525303 0.14778306
0002a0 e2 2d 02 b9 9e 53 68 be 70 43 95 3e 4b 28 0f bf
       -0.00012414859 -0.22688147 0.29153013 -0.5592086
0002b0 f6 3b 03 3e 7d c2 41 3e f0 8c 1c bf a6 27 79 3e
       0.12815842 0.18921848 -0.61152554 0.24331531
0002c0 f8 eb c1 be f3 24 8b 3f 8e ce ce 3e ba ca 91 be
       -0.37875342 1.0870651 0.40391964 -0.2847498
0002d0 7e 24 de be 11 13 f0 3d 04 a6 07 3f aa 5b 06 3e
       -0.43387216 0.11722387 0.52987695 0.13120905
0002e0 62 c3 11 3f 37 66 a9 3e df 84 de be 38 23 b3 3e
       0.56938756 0.33085796 -0.43460748 0.34987807
0002f0 88 bb 91 bf 54 87 de 3e ec 49 c1 3e 79 16 b7 3e
       -1.1385355 0.43462622 0.3775171 0.35759333
000300 15 65 a2 3d 7a bc 83 3f 11 ac 84 bf 58 52 fc be
       0.07929436 1.0291893 -1.036501 -0.49281573
000310 3d 10 91 bc 57 71 a2 3e 78 93 d0 be 5e 7f 86 3e
       -0.017707938 0.31727096 -0.4073751 0.26269048
000320 26 bf b1 3e d6 28 80 bc cf 57 2b bf 53 90 c7 be
       0.34716147 -0.015644472 -0.6693086 -0.38977298
000330 1a 1b b1 be 03 d0 1c bf f3 d1 94 be da f2 2f 3f
       -0.3459099 -0.612549 -0.2906643 0.6872994
000340 7e cc 9f 3c eb 89 24 be b8 28 9c 3e d8 49 84 3d
       0.01950669 -0.16068237 0.30499816 0.06459397
000350 d6 4f 58 be 43 aa b5 3d cc dc 3e 3e 2d a0 3f 3e
       -0.21124205 0.088703655 0.18638915 0.18713446
000360 09 37 82 3f c8 a7 1c 3f ea d4 8a 3f 9e 72 ba bf
       1.0173045 0.61193514 1.0846226 -1.4566228
000370 b0 73 6d 3e 55 4f 16 3f e4 9f 0a 3f 23 87 a7 be
       0.23188663 0.587148 0.54150224 -0.3272029
000380 46 39 95 bf 0d 11 9c be 4b 1f c5 bc 4f 5c c9 ba
       -1.1658103 -0.3048176 -0.024062773 -0.0015362593
000390 5d 62 7b bf 6d 26 04 3f 78 e6 8e be 47 36 1e 3f
       -0.98196965 0.51621133 -0.2791021 0.6180157
0003a0 bc 53 b6 3e 57 f8 ae 3e 58 8f 2f 3f 5d 38 64 bd
       0.3561076 0.34173843 0.685781 -0.055717815
0003b0 93 e4 1a 3f be aa e7 be 99 1e 37 be 9d 93 45 be
       0.60505027 -0.45247453 -0.17882766 -0.19294591
0003c0 13 c9 c6 be ea df 06 3f a5 ee 26 be 67 16 c2 be
       -0.38825282 0.52685416 -0.16301973 -0.37907717
0003d0 df 40 c0 3d 60 d4 9e be 76 0c 32 3f 9d 15 24 bf
       0.09387373 -0.31021404 0.69550264 -0.6409548
0003e0 cd e6 06 3f ea 46 19 bf 38 91 f9 be b7 a5 e4 bd
       0.52695924 -0.5987383 -0.48743606 -0.1116442
0003f0 91 eb 52 3f fb fc fa be 09 ee b6 be 1e 10 d2 be
       0.82390696 -0.49021134 -0.3572848 -0.4102792

fc1.bias f4 [64]
000000 a2 d9 85 3e 21 7b 19 3f 1c da 71 3e 88 58 78 bd
       0.26142603 0.59953505 0.23618358 -0.060631305
000010 98 b1 c1 3e db 22 a3 3e 82 ad 33 bf 3f 73 4d 3c
       0.37830806 0.3186253 -0.70186627 0.012539684
000020 30 15 59 be 3e 47 ec 3c 49 77 27 bf e5 0c 54 3f
       -0.21199489 0.028842565 -0.6541639 0.82832175
000030 18 13 36 3d dc ca a1 bd f6 d6 7a bf 7c 8b ca 3e
       0.044451803 -0.079000205 -0.97984254 0.39559543
000040 88 da 61 3f 9d 8f f3 bd 32 5b 42 be 09 30 3d 3f
       0.8822408 -0.118926264 -0.18980101 0.7390142
000050 bc 9f 4d 3f 5d 12 4e bf 90 0e 31 3f e3 fa 40 3f
       0.8032186 -0.8049677 0.69162846 0.7538282
000060 89 6d a1 be 45 f7 92 3d 82 6d 4b bb 64 f2 c6 be
       -0.3152888 0.07176069 -0.0031040614 -0.38856804
000070 39 a4 7f 3f 82 8b a8 be a1 8e 18 bf 40 81 e1 3c
       0.9985996 -0.32918936 -0.59592634 0.027527452
000080 10 13 d6 be 18 e0 34 bf 24 a8 e2 3d 89 59 4a 3f
       -0.4181142 -0.7065444 0.110672265 0.7904287
000090 a5 c2 04 3f 5d 07 8e 3d a6 99 35 be de 73 d7 3e
       0.51859504 0.06934998 -0.17734393 0.42080587
0000a0 05 98 b0 3e ce 7c d4 be ef 39 78 3e 58 34 c1 be
       0.34490982 -0.41501468 0.2424085 -0.37735248
0000b0 15 00 d5 3e d0 29 55 be f4 30 ed be 7d 03 28 bd
       0.41601625 -0.20816731 -0.4632641 -0.04101895
0000c0 2c ef 2b 3f c1 53 b2 3e af 90 9f be ab 67 eb bd
       0.6716182 0.34829524 -0.31165072 -0.114943825
0000d0 cd c0 90 3e c4 87 68 bf 54 0b c1 3e 03 29 25 bf
       0.28272095 -0.9083216 0.37703955 -0.64515704
0000e0 df 87 3e bf 17 d3 0b bf d6 8f ef be c9 47 23 3f
       -0.7442607 -0.5461897 -0.46789426 0.6378141
0000f0 c5 cb 17 bf 55 6b 20 3f 3c 33 81 be f8 a2 e5 3e
       -0.592953 0.62663776 -0.252344 0.44850898

fc2.weight f4 [64, 64]
000000 c6 e2 45 bd eb 6b 23 be 4b 5e a0 3d 9d 6a 00 3d
       -0.04831197 -0.15959136 0.07830485 0.031351674
000010 dc e2 94 3d 34 26 2e 3d d1 c5 a8 bd 19 d8 86 3d
       0.072698325 0.042516902 -0.082408555 0.06584186
000020 53 94 3a bc 69 af f3 3c 73 a2 ed bd 5d 37 ad bd
       -0.011387902 0.029746728 -0.1160325 -0.08457825
000030 9b 6b 18 be 6e 3b 84 bd a6 a9 35 3c d0 4b 0a be
       -0.14884798 -0.06456648 0.011087811 -0.13505483
000040 38 80 c5 3a c0 d6 51 3d 9c f0 c0 bc 7b c7 f8 bd
       0.0015068119 0.051230192 -0.023552231 -0.12147423
000050 6a c1 12 be 51 58 63 bd 75 03 45 3b 16 0b b2 3d
       -0.14331594 -0.055504147 0.0030061875 0.08693521
000060 3d 62 65 3d d5 9a f3 bc fc f1 f5 3c 56 c8 20 be
       0.05600189 -0.029736916 0.030022614 -0.15701422
000070 55 f3 25 be ab db 2d 3d 84 78 da bd 52 6a a5 3c
       -0.16206105 0.04244582 -0.10667518 0.020192299
000080 3c 0f ff bd ca 4c 9f bd ec 7b eb bd fe 2a d7 3c
       -0.124540776 -0.07778318 -0.114982456 0.026265617
000090 8f 2d 4f bd e4 85 a4 3d b1 53 15 3d 77 d1 8d 3c
       -0.050580557 0.0803335 0.036456767 0.017311795
0000a0 9e 50 a7 bc 65 a2 9c bd 80 6c 89 bd fe a2 8c bc
       -0.020424183 -0.07648162 -0.06710148 -0.017167564
0000b0 bf 1d bd 3c ea d9 d3 bd fa 54 b6 3d 1f c1 5a bd
       0.023085473 -0.10344298 0.08902927 -0.05340683
0000c0 b7 d3 0d be 5b 3e c8 bd 92 fd c1 3d 7a c2 a5 3d
       -0.13850294 -0.09777518 0.09472193 0.08093734
0000d0 3a 9e 08 be df 30 4d 3d 63 45 88 3c 33 ca 0f 3d
       -0.13341609 0.050095435 0.016634649 0.03510494
0000e0 8d a0 a7 3d 05 ca c7 bd 44 6b a8 3a 6f 08 dc ba
       0.081849195 -0.09755329 0.001284935 -0.0016787181
0000f0 a7 6e 99 bd a7 4b 35 3b bd fc 5e bd ef 3f 24 3d
       -0.074918084 0.00276635 -0.05444025 0.040100034
000100 0f 99 9a bd 7b 82 af bd 8d 87 cb 3b 7c 35 fb 3b
       -0.07548725 -0.08569809 0.0062112273 0.007666288
000110 59 08 e6 bd bb 5b 0c bd 2d 8d 27 3d 28 63 92 bc
       -0.11232061 -0.03426717 0.04090612 -0.017869547
000120 5f db 2a 3c 86 a3 23 bd b8 de bd 3c 3f 3e e1 bd
       0.010428279 -0.03995087 0.02317749 -0.109982006
000130 70 49 b0 bd 28 a1 ac bd 83 0a cc 3d d2 08 8b bd
       -0.08607757 -0.084291756 0.099629425 -0.06788792
000140 de b9 b5 bc a3 8d 9c bd 29 86 b0 3d 39 ed a9 3d
       -0.022183355 -0.076442026 0.08619339 0.082972
000150 d5 c4 f0 bd ea 58 16 be 65 c6 04 be 3f 28 18 bd
       -0.11756293 -0.14682356 -0.12966307 -0.037147757
000160 c4 82 02 bd 6b 07 cf bd 0b 60 83 bd f3 a2 9f bc
       -0.03186299 -0.10108837 -0.06414803 -0.01948688
000170 34 42 b2 bd 2d 6a da 3b 76 b5 e5 bc 1a d7 97 bd
       -0.087040335 0.006665489 -0.028040629 -0.07414074
000180 6b 35 fa bc ed f9 b1 3d 43 aa ff bd 9e 46 03 bd
       -0.03054305 0.08690248 -0.12483647 -0.032049768
000190 02 fc a9 bd 55 36 d2 3d c8 64 1f be d8 4c 10 be
       -0.0830002 0.10264269 -0.15565789 -0.14091814
0001a0 5b fa d9 3d 16 de b8 bd 7d 4a 78 bc bc d6 5b bd
       0.10643455 -0.090267345 -0.015154478 -0.053671584
0001b0 04 18 0c bd 6e 3e fe bc 2c 24 7b 3d 24 c1 f2 bc
       -0.03420259 -0.031035628 0.061313793 -0.029633112
0001c0 1a c7 36 be da ec a5 bd 45 f4 5e bd 90 b8 fd 3c
       -0.17849389 -0.081018165 -0.054432172 0.030971795
0001d0 1a da d1 bd de a5 a4 3d ae 4b 23 bd 05 b4 75 bd
       -0.10246678 0.08039449 -0.039867096 -0.059986133
0001e0 63 ed a9 3d 23 f4 d4 3c 7f b4 89 3d ef bd 10 3d
       0.08297231 0.02599532 0.0672388 0.035337385
0001f0 55 89 a9 bd 60 76 f9 bd ca 87 ee bc ea 36 86 3d
       -0.08278147 -0.12180781 -0.029117484 0.06553443
000200 7f 37 36 3e da 20 9d 3d ed 79 81 3e a2 31 fc 3d
       0.17794608 0.076722816 0.25288334 0.12314154
000210 04 d9 cd 3d 4a 02 cd 3d ad 60 a2 be 92 95 75 be
       0.10051158 0.10010202 -0.31714383 -0.23982838
000220 ef 81 47 3c 53 50 0c bf 3b 7c 3e be a0 06 a1 3e
       0.012176975 -0.54810065 -0.18602078 0.31450367
000230 08 9c c1 3e 99 50 ad 3d 8e 70 2d bf 43 e8 5d bb
       0.37814355 0.084626384 -0.6774987 -0.0033860363
000240 12 a1 8b 3d 11 e1 0d 3f 9e 1b 67 bc 10 a7 6e 3e
       0.06817831 0.5542155 -0.014105706 0.23305917
000250 43 4d 0d 3e b9 cb 24 be 38 da 38 3e ad 9d c5 3e
       0.13799004 -0.16093339 0.18051994 0.3859686
000260 41 31 05 bf df 88 d7 3d 2a 5b 9f 3d f1 05 bb bd
       -0.5202828 0.10524153 0.0778106 -0.091319926
000270 da a3 34 3e d2 58 4c be de 1b 30 bd 4b 17 aa 3d
       0.1764063 -0.19955757 -0.042995326 0.08305224
000280 f2 5f 66 3e c7 c9 1c bf 55 18 a6 3e 36 3a 39 3e
       0.22497538 -0.6124539 0.3244044 0.18088612
000290 87 54 99 3d da b8 8c be d9 58 61 be d6 7a 54 3e
       0.074868254 -0.2748478 -0.22006549 0.20749983
0002a0 1e 91 57 bd b0 1e 88 be 9e 2f 40 be 79 81 c6 bd
       -0.05262863 -0.26585913 -0.18768165 -0.09692664
0002b0 8b a1 c0 3b 08 b1 05 3e 5d dc 8f be b6 04 de 3b
       0.0058786324 0.13055813 -0.2809781 0.006775464
0002c0 ac 18 6e 3e d5 29 5c 3d ac 1d 26 bb ff c3 72 be
       0.23251599 0.05375083 -0.0025347276 -0.23707579
0002d0 32 cb 33 3e 31 53 7b be 5a f3 90 3e 81 14 92 bd
       0.17557982 -0.24543454 0.28310663 -0.07132817
0002e0 c8 0d 85 3e 56 a8 11 be 81 b4 9f 3c c7 4e a1 3d
       0.25987077 -0.14224371 0.01949525 0.07876354
0002f0 17 57 ef bd dc ff 98 bb df 68 b6 be d3 be 02 3e
       -0.11686533 -0.0046691727 -0.35626885 0.12768106
000300 f6 8d dc bf c0 44 f4 bd 4d e4 a1 bf f8 f6 d6 be
       -1.7230823 -0.119271755 -1.2647797 -0.41985297
000310 fe a3 e2 bf ca 00 59 3e a8 ac 55 3f a9 4b bf be
       -1.7706296 0.21191707 0.8346658 -0.37362412
000320 3e 44 65 bf 33 ba c4 3e 74 55 cd 3e b7 ef a4 be
       -0.89557254 0.3842331 0.40104258 -0.32214138
000330 ab 78 3d 3e f1 13 14 3e ba b9 29 3d f2 9c 1e bf
       0.18503062 0.14460732 0.04143689 -0.6195823
000340 06 b4 a9 3e 25 69 8b 3e 5a f7 18 bf b5 6f 2c bf
       0.3314516 0.27228656 -0.5975243 -0.6735795
000350 62 2b e9 3d 6f 57 ef be bd 42 ed 3d 45 23 df bd
       0.11385228 -0.46746394 0.11584995 -0.10895399
000360 53 67 92 3d 14 6e df 3d e5 01 a7 be 8f a1 55 be
       0.07148614 0.109096676 -0.32618633 -0.20862411
000370 c4 f1 cf be a5 03 86 3e 59 e4 96 bd c1 87 0e 3c
       -0.4061414 0.26174656 -0.073677726 0.008699358
000380 73 10 16 c0 bf 64 60 be ff 3b 02 3f b6 ab d6 be
       -2.344754 -0.21913432 0.50872797 -0.4192788
000390 04 a9 ce bf 93 8a df 3c 62 4e b3 3f f3 da e0 be
       -1.614533 0.027287757 1.4008296 -0.43917045
0003a0 1d 77 5d 3e a0 41 9a bf 08 d2 05 be 13 d6 bc bf
       0.2162747 -1.2051277 -0.13068402 -1.475283
0003b0 06 70 0d 3f c4 2b 73 3e 69 ee ac 3c 7c aa e4 3e
       0.5524906 0.23747164 0.021109777 0.4466132
0003c0 7a 28 26 3e 60 6b 11 be 90 d1 9c 3e 50 e1 27 bd
       0.16226378 -0.14201117 0.30628633 -0.04098636
0003d0 1a 4c 96 be c8 b1 94 3d 80 e7 01 3d 38 c5 db 3e
       -0.29354936 0.072604716 0.031714916 0.42923903
0003e0 ec 5a 92 bf 7e a2 19 bd af 82 a7 be e3 f1 9a bf
       -1.1433997 -0.03750848 -0.3271689 -1.2105068
0003f0 ec cd 20 c0 2b 3e 69 bf 39 4e 19 3e 9e 2f 94 be
       -2.5125685 -0.91110486 0.14971246 -0.2894258

fc2.bias f4 [64]
000000 42 2c 21 be 64 d2 c4 3c ca 74 60 3e 8e 00 89 3d
       -0.1573954 0.024026103 0.21919551 0.06689559
000010 e0 54 2a bc 7c 61 32 3e b2 da d1 3e 48 9c 29 3d
       -0.010396212 0.1742 0.40987164 0.041408807
000020 fa 98 9d 3c 21 73 b7 3d 4b fc 8b 3e 14 f2 b8 3d
       0.019237984 0.08957506 0.27340922 0.09030548
000030 2b 5d 72 3e e8 0d cf 3c 87 2f 91 3d 9b a1 e2 bd
       0.23668353 0.025275186 0.07089143 -0.1106598
000040 fa b6 0e 3d c4 c4 55 3e 20 12 30 3e 05 f3 2d 3c
       0.03484247 0.20875841 0.17194414 0.010617022
000050 5a 60 c5 bb 1b d9 82 3e f5 5b b2 3c 4d e5 e9 3e
       -0.006023449 0.25556263 0.021772364 0.45682755
000060 62 6d e3 3c 02 8b 13 be 76 c6 5f 3e 66 41 5f 3d
       0.027762119 -0.14408496 0.2185305 0.05450573
000070 71 a4 c1 3e 59 0d fd 3d d5 2d c5 3e da 5c da 3d
       0.3782077 0.123560615 0.3851153 0.10662241
000080 05 5a 3c 3e b6 d7 c4 bc af 11 9d 3d d8 b8 08 3f
       0.18393715 -0.02402864 0.076693885 0.5340705
000090 23 9e 2d bd ca 03 da bd b6 81 65 b9 62 79 26 3e
       -0.04238714 -0.10645254 -0.00021887463 0.16257241
0000a0 5c 0c 8f 3e da 0e 88 bd 9a 92 8b 3e 90 04 a0 3e
       0.27939117 -0.06643458 0.27260286 0.3125348
0000b0 44 10 3a 3e 54 6f 56 3d 92 d9 8c 3e 55 6f 26 bc
       0.18170267 0.052352265 0.27509743 -0.01015838
0000c0 d7 16 b5 be 3d 41 87 bd 16 25 a5 be 56 1e 53 3e
       -0.35368988 -0.0660424 -0.32254857 0.20617041
0000d0 73 d0 c5 3d ab 1b 6f 3c 0a ca 69 3d f0 95 89 bd
       0.09658899 0.014593999 0.057077445 -0.067180514
0000e0 cf a1 e2 3d 02 46 90 3e 77 a1 22 3e 99 76 f3 3d
       0.11066019 0.28178412 0.15881906 0.11887855
0000f0 e2 c6 6b 3e bd e7 bb 3e 9a 38 7c 3e 0f 08 10 3e
       0.23025087 0.3670024 0.24630967 0.14065574

fc3.weight f4 [3, 64]
000000 58 bf bd 3d 57 f9 a8 3d b9 ac dd be a0 d3 c2 3f
       0.092650115 0.08250683 -0.4329584 1.5220833
000010 25 c6 8d 3f 03 69 5c be 5a 2f 66 bf b9 cf a9 bf
       1.1076094 -0.21524434 -0.89916 -1.3266517
000020 47 ae 20 be 40 2a 22 be f9 a8 f0 3f 66 af 1f be
       -0.15691482 -0.1583643 1.8801566 -0.15594253
000030 3c a3 0f bf de 05 b2 bd dc 01 7c be cf a0 7a 3d
       -0.5610845 -0.08692525 -0.24610084 0.061188515
000040 1b 7f cf 3f ed 32 05 be 73 38 31 be 51 fd bd 3f
       1.6210665 -0.13007708 -0.1730669 1.4842931
000050 c8 98 72 be b9 67 02 40 6b f3 93 3d cd b8 97 bd
       -0.23691094 2.0375807 0.07224163 -0.07408295
000060 18 41 b2 3f 12 81 a5 3d 08 fc 14 be 69 96 46 be
       1.3926115 0.08081259 -0.14549267 -0.19393314
000070 68 db 71 bd 65 45 72 be c5 68 3c 3f 6f 8d f5 3f
       -0.059047133 -0.23659284 0.73597366 1.9183787
000080 1c 25 f0 be f4 78 50 3f bb 96 88 3d cb e8 60 bf
       -0.46903312 0.8143456 0.066693746 -0.87855214
000090 66 a7 b6 bf dc e9 8e bb 76 d3 03 be f6 f6 88 bf
       -1.4269836 -0.0043613743 -0.12873635 -1.0700366
0000a0 68 01 aa 3f 49 8c 8a 3e 33 88 05 40 20 4d 86 be
       1.3281679 0.27060154 2.086438 -0.26230717
0000b0 71 99 cd be e8 24 02 bf e7 ef 37 bf 6a bc b5 bd
       -0.4015613 -0.50837564 -0.71850437 -0.08873828
0000c0 ae 81 a5 bf 00 eb 80 bf 02 3f 07 c0 90 f6 6c bd
       -1.29302 -1.0071716 -2.1132207 -0.057852328
0000d0 27 c3 ac 3f 92 83 a8 3f c2 fe 98 be ec 18 94 be
       1.3497056 1.3165152 -0.29881865 -0.28925264
0000e0 09 06 06 be 85 a5 34 bf 87 38 41 be 9d 07 5f be
       -0.1308824 -0.7056506 -0.1886922 -0.21780248
0000f0 59 d6 e2 bc ca 37 b4 be e3 43 2b bf c3 d2 91 bd
       -0.0276901 -0.35198814 -0.6690046 -0.07120278
000100 a3 73 1a 3c 57 a5 0d be c8 60 00 bf ca 90 23 3f
       0.009426984 -0.13832603 -0.50147676 0.63892806
000110 67 12 3c 3f 1f 80 26 be 6a 81 e4 be d7 ea 97 bf
       0.7346558 -0.16259812 -0.44629985 -1.1868542
000120 f7 76 e0 bd 71 61 ad be b7 1a df 3f a3 57 b2 be
       -0.10960191 -0.33863404 1.7430028 -0.34832487
000130 3c 32 10 bf af 8f e0 bd 11 17 75 bd ba 3a c8 3d
       -0.5632665 -0.109649055 -0.05983645 0.09776826
000140 dd 49 b4 3f 70 64 00 be 62 06 95 bd 3b 59 03 40
       1.4085041 -0.12538314 -0.07276608 2.0523212
000150 97 d2 0b be af 79 7a 3f e7 d0 6c bd e3 e5 15 bf
       -0.13654552 0.97841924 -0.057816412 -0.58553904
000160 0e 8b 73 3f a4 5c d0 bd 93 7c 57 be 0e 0e 4c be
       0.95134056 -0.1017392 -0.21043615 -0.19927236
000170 78 80 d3 be 01 68 04 bf f8 76 4c 3f 5d 1b 62 3f
       -0.4130895 -0.517212 0.7986903 0.88323003
000180 aa e1 d6 be 70 e6 08 3f f2 30 48 bd c7 e1 93 bf
       -0.41969043 0.5347662 -0.048874803 -1.1553277
000190 7c 14 42 bf c1 45 57 3d c6 60 95 be 03 fb 37 bf
       -0.75812507 0.052556757 -0.29175395 -0.7186739
0001a0 42 62 5d 3f bc a8 ca 3d 2d d1 85 3f a0 f8 44 be
       0.86478055 0.09895465 1.045446 -0.19235468
0001b0 2d 7d ac be ed e1 a3 3d da f0 ca be 5c 9c 48 3c
       -0.33689252 0.08002076 -0.3963688 0.01224431
0001c0 00 93 24 bf be da 25 bf 67 0a a6 bf ef b2 9a be
       -0.64286804 -0.647869 -1.2971925 -0.3021464
0001d0 36 2a 65 3f 68 c1 64 3f 33 5e 37 bd fc 90 f7 be
       0.89517534 0.89357615 -0.04476757 -0.48352802
0001e0 2d 04 ff bc c9 36 c2 be 24 a0 46 be c8 7e d8 bd
       -0.03112992 -0.37932423 -0.19397026 -0.105710566
0001f0 01 21 c8 be bd 21 e9 be 2c ae cd be 7c ae 1a bb
       -0.3908768 -0.45533553 -0.40171945 -0.0023602536
000200 70 c5 32 bc 91 22 db b9 b5 aa da bd 4e 9a b3 3f
       -0.010911331 -0.0004179669 -0.10677091 1.4031465
000210 b5 b7 a4 3f 40 0e 85 be 49 07 c3 be 43 e7 86 bf
       1.2868563 -0.25987434 -0.38091496 -1.0539325
000220 1c fb 6f be 33 6d 9a bd fe 04 8e 3f 70 90 92 be
       -0.23435634 -0.07540359 1.1095273 -0.28625822
000230 16 35 58 bf 3b 15 67 be 34 53 c9 bd c0 e9 96 3c
       -0.84456 -0.22566693 -0.09830323 0.018422008
000240 af 6b 09 40 18 aa 13 be 22 e9 b6 bd d0 57 ae 3f
       2.1471975 -0.14420354 -0.08931185 1.3620548
000250 e6 64 bf bd a0 8b 8f 3f 6b 1c b6 3d 1c 68 58 bf
       -0.09345417 1.1214485 0.08892139 -0.8453386
000260 4e d4 8c 3f f0 99 b5 3d 35 7e 10 3f 24 cd 15 be
       1.100229 0.08867252 0.56442577 -0.14629036
000270 94 13 52 bf 36 2d 8e be b6 c7 8e 3f 2a fc 0a 40
       -0.82061124 -0.27768868 1.1154697 2.1716409
000280 cd af 21 bf ee c1 85 3f a9 ed 08 bc 52 57 8a bf
       -0.63158876 1.0449808 -0.008357444 -1.0807898
000290 5d d3 9d bf d5 2d 47 3d f7 ce a5 bd 77 83 83 bf
       -1.2330128 0.048627693 -0.08096116 -1.0274495
0002a0 a8 fd 96 3f e7 1c ba 3d f8 21 d2 3f 94 98 ad bd
       1.179616 0.09087544 1.6416616 -0.084763676
0002b0 13 ef 89 be 06 8b f7 bd ac 4e 5d bd 60 65 49 bd
       -0.26940212 -0.120870635 -0.054030105 -0.049168944
0002c0 62 d0 89 bf f8 7e 6f bf d3 3b 18 c0 39 0a b6 bd
       -1.0766718 -0.93553114 -2.3786514 -0.088886686
0002d0 3b 7b d2 3f 2d db 7b 3f 07 0e 58 bd 36 1e 3c bf
       1.6443857 0.9838131 -0.052747753 -0.734836
0002e0 5a 5a 2d be f6 8e dd be f7 1b 0c be e3 ae 36 be
       -0.16928998 -0.43273133 -0.13682543 -0.17840151
0002f0 88 01 fd bd 3f f4 e0 be e3 53 78 bf bf 1e 74 be
       -0.12353808 -0.43936345 -0.97003 -0.23839854

fc3.bias f4 [3]
000000 47 08 86 3d f9 98 c9 be d8 36 8a 3d
       0.065445475 -0.3937452 0.06748742
