model/checkpoint_1200.pth (torch, 21912 bytes, 6 tensors)

fc1.weight f4 [64, 6]
0	0x3e963886	0.2934
1	0x3f35c583	0.71004504
2	0xbecb3488	-0.39688516
3	0xbf38b604	-0.72152734
4	0xbd926c35	-0.07149545
5	0x3e5adb4c	0.21372718
6	0x3e7aa39d	0.24476476
7	0x3ee08bf1	0.43856767
8	0xbe35f46d	-0.17769022
9	0x3dd8814b	0.10571536
10	0xbdf95738	-0.12174839
11	0xbc9b9331	-0.018991085
12	0xbf1b9ba4	-0.60784364
13	0xbf09193a	-0.5355412
14	0xbf4d661b	-0.80233926
15	0x3de6a8f5	0.11262695
16	0x3e7a1df1	0.24425484
17	0x3e876dbb	0.26450905
18	0xbe876b4d	-0.26449051
19	0xbf0288da	-0.5099007
20	0xbeb17710	-0.3466115
21	0x3f38b323	0.7214834
22	0x3d6e741f	0.05821621
23	0x3e4c55f2	0.1995466
24	0x3e748558	0.23878992
25	0x3f504d02	0.81367505
26	0x3f0b7639	0.5447727
27	0xbf0aab24	-0.5416739
28	0xbea92a87	-0.33040258
29	0x3b92a2c2	0.0044749686
30	0xbe81b134	-0.25330508
31	0x3f52243d	0.82086545
32	0xbf228740	-0.63487625
33	0xbec59aae	-0.38594574
34	0xbed3d8d1	-0.41376355
35	0xbe98d815	-0.29852358
36	0xbfaee3f9	-1.3663322
37	0xbc41102a	-0.011783639
38	0x3f188c42	0.59589016
39	0xbeaf03ca	-0.34182578
40	0xbe215fe1	-0.15759231
41	0xba586221	-0.00082543684
42	0xbe8f47d8	-0.279845
43	0xbf63cb95	-0.88982517
44	0xbf5196d9	-0.818708
45	0xbedb02d8	-0.42775607
46	0x3de86d2b	0.11348947
47	0xbe20f925	-0.15720041
48	0xbe7a7c25	-0.2446142
49	0xbf30e37e	-0.69097126
50	0x3ec08c25	0.37606922
51	0x3f01e7a1	0.5074406
52	0x3dfc26a8	0.123120606
53	0x3ddd88b2	0.10817088
54	0x3d08ad16	0.033368193
55	0xbf782d49	-0.969441
56	0x3d87113e	0.065950856
57	0xbe3fbab6	-0.18723568
58	0xbe7c3f50	-0.24633527
59	0xbecb263d	-0.3967761
60	0x3d7041e4	0.05865659
61	0xbd34e66f	-0.04416507
62	0x3ef0cafa	0.4702986
63	0x3db5d480	0.08878422
64	0x3ee77aa0	0.45210743
65	0x3d90e35a	0.07074614
66	0x3e730ecd	0.23736115
67	0xbecde420	-0.40213108
68	0x3e2a544b	0.16633718
69	0x3f125f32	0.57176507
70	0xbe8e3826	-0.27777213
71	0xbe02094a	-0.12698856
72	0x3ed28000	0.4111328
73	0x3d7ffcae	0.062496834
74	0x3f071e3b	0.52780503
75	0x3f48db5a	0.78459704
76	0xbe47f99d	-0.19528814
77	0xbeb94482	-0.3618508
78	0x3e0df1e1	0.138618
79	0xbf8d1e84	-1.1024938
80	0xbf9025ab	-1.1261495
81	0x3f4354c0	0.76301193
82	0x3daf1248	0.08548409
83	0xbeb943a9	-0.36184433
84	0xbe17df47	-0.14831267
85	0x3ecd5405	0.40103164
86	0xbf0128a5	-0.50452644
87	0x3e7830c7	0.24237357
88	0x3e774546	0.2414752
89	0xbde65cee	-0.11248194
90	0x3f58a910	0.8463297
91	0x3e8d2d64	0.27573693
92	0x3ec2f297	0.38075706
93	0xbe2a9407	-0.1665803
94	0xbea7d89f	-0.32782456
95	0xbdd179e6	-0.102283284
96	0x3f4be1db	0.79641503
97	0x3e9ff961	0.31244949
98	0xbe890efd	-0.26769248
99	0xbf1ecdb9	-0.6203266
100	0x3f056bcb	0.52117604
101	0x3e034a74	0.1282137
102	0xbf822cc9	-1.0169917
103	0x3e0f4a56	0.139932
104	0xbf49299f	-0.78579134
105	0xbe25530b	-0.1614496
106	0xbe4bf23c	-0.19916624
107	0xbe6b1aa3	-0.2295938
108	0xbe44cd83	-0.19219021
109	0xbde827cb	-0.11335715
110	0xbe170425	-0.14747675
111	0xbeeebab2	-0.46626812
112	0xbec9f7df	-0.39446923
113	0x3eab425b	0.33449063
114	0x3eb76f8c	0.3582729
115	0xbe6e37c5	-0.23263462
116	0xbea0c0d0	-0.31397104
117	0xbdb063db	-0.08612796
118	0x3e53450b	0.20631807
119	0x3e39c681	0.1814213
120	0x3f23a6d1	0.63926417
121	0x3d3dfc06	0.046382926
122	0xbe631e60	-0.22179556
123	0x3e2a9440	0.16658115
124	0xbead81a1	-0.33887962
125	0xbe6054ce	-0.2190735
126	0xbf1572b3	-0.5837814
127	0xbf212eef	-0.6296224
128	0xbd7e27ad	-0.062049557
129	0xbea884e9	-0.32913902
130	0xbe253f14	-0.16137344
131	0xbddbf62f	-0.10740315
132	0xbd7f0d99	-0.062268827
133	0xbe371c57	-0.17881905
134	0x3eb7e9a2	0.35920435
135	0xbe30a40f	-0.17250083
136	0x3d20873c	0.03919147
137	0xbd12d536	-0.035847865
138	0x3f00a8f3	0.50257796
139	0x3e753f05	0.23949821
140	0x3f28cb35	0.6593507
141	0x3e88a980	0.26691818
142	0x3e5afe02	0.21385959
143	0x3e6a8e13	0.2290576
144	0xbf1fd121	-0.6242848
145	0x3e7726ef	0.24135946
146	0xbe9fe153	-0.31226596
147	0x3ea11d70	0.31467772
148	0xbead344a	-0.33828956
149	0xbed47e01	-0.41502383
150	0x3c4b881c	0.012422588
151	0xbf4fae71	-0.8112555
152	0xbcf720d4	-0.03016702
153	0x3f9bc337	1.216895
154	0xbe3e00ef	-0.18555044
155	0xbe8e0ada	-0.27742654
156	0xbc1fa88f	-0.009744777
157	0xbf5342fb	-0.8252408
158	0x3d25cf00	0.040480614
159	0xbeebe14d	-0.46070328
160	0xbe5d08cb	-0.21585386
161	0xbe46d973	-0.19418888
162	0xbf456d8c	-0.7712028
163	0xbec6da0e	-0.38838238
164	0xbedaf858	-0.42767596
165	0xbed9acc2	-0.42514616
166	0xbe8ee881	-0.2791176
167	0x3e1cd62c	0.15316075
168	0xbe407651	-0.18795134
169	0xbe543e99	-0.20727004
170	0x3eb5567f	0.35417554
171	0xbeedeeb8	-0.4647119
172	0x3de59af8	0.112111986
173	0x3e26df21	0.16296054
174	0xbf40f3ab	-0.7537181
175	0x3eab4bcb	0.33456263
176	0xbed09c94	-0.4074446
177	0x3f0c734a	0.5486342
178	0x3ec83d85	0.39109436
179	0xbe74d7f6	-0.23910508
180	0xbeaa8919	-0.33307722
181	0x3d9e5d17	0.07732599
182	0x3ee7a54f	0.45243308
183	0x3e2c7d44	0.1684466
184	0x3efe4d8a	0.49668533
185	0x3e977bb4	0.29586565
186	0xbec791af	-0.38978335
187	0x3e15c5bf	0.14626215
188	0xbf4dfc2a	-0.80462897
189	0x3f158a69	0.5841432
190	0x3ed1d4d1	0.4098268
191	0x3eb7e010	0.35913134
192	0x3d0a197f	0.03371572
193	0x3f6b1aec	0.91837955
194	0xbf656731	-0.8961058
195	0xbf0f6f81	-0.56029516
196	0xbd8554de	-0.06510328
197	0x3e95dac6	0.29268473
198	0xbe7d216c	-0.2471978
199	0x3e995c8f	0.2995343
200	0x3ea5ec80	0.32406998
201	0x3dcdf4ce	0.100564584
202	0xbf0ccd53	-0.550008
203	0xbeb433b3	-0.35195693
204	0xbe8267b2	-0.25469738
205	0xbefe7204	-0.49696362
206	0xbe8991a7	-0.26868936
207	0x3f137977	0.57607216
208	0x3c14e246	0.009087151
209	0xbd7fc450	-0.062443078
210	0x3e4435ad	0.191611
211	0x3d1f6cc0	0.03892207
212	0x3b3fab86	0.0029246523
213	0x3d9216bf	0.07133245
214	0x3dd2d2ca	0.10294111
215	0x3e133977	0.1437739
216	0x3ec58bfe	0.38583368
217	0x3e6fc7d9	0.2341608
218	0x3f8de540	1.1085587
219	0xbf9695dd	-1.1764485
220	0x3eac7f2f	0.33690783
221	0x3ed4c1fb	0.41554245
222	0x3eadbc73	0.33932838
223	0xbecd6c97	-0.4012191
224	0xbf840ba2	-1.031605
225	0x3d1658d5	0.03670581
226	0xbb346a1e	-0.002752907
227	0xbd8e1e43	-0.06939366
228	0xbf6857b6	-0.90758836
229	0x3ee3b6b4	0.4447533
230	0xbde21eee	-0.110410556
231	0x3f008e76	0.5021738
232	0x3ea1fdf9	0.31639078
233	0x3ea30915	0.31842867
234	0x3f2991a7	0.6623787
235	0x3cdf66ef	0.027270762
236	0x3f016ced	0.5055683
237	0xbeba6038	-0.36401534
238	0xbde622e8	-0.112371266
239	0xbe33322c	-0.17499608
240	0x3e0906b7	0.13381468
241	0x3f15c94d	0.58510286
242	0xbe1402d7	-0.14454208
243	0xbe97fe01	-0.29685977
244	0x3dc30fd7	0.095245056
245	0xbee6b44f	-0.4505944
246	0x3f14e9da	0.5816933
247	0xbefb4769	-0.4907792
248	0x3e8dbd3a	0.2768343
249	0xbea65bb3	-0.32491836
250	0xbedfc93a	-0.4370821
251	0xbe201ca9	-0.15635933
252	0x3f30d6e1	0.6907788
253	0xbde11c11	-0.10991681
254	0xbed113df	-0.40835473
255	0xbe98d8e4	-0.29852974

fc1.bias f4 [64]
0	0x3e74aa7b	0.23893158
1	0x3f22f790	0.63659
2	0x3e7028c4	0.23453051
3	0x3e4c63f0	0.19959998
4	0x3e2e12cd	0.1699936
5	0x3ebd844b	0.37014994
6	0xbf0599b1	-0.5218764
7	0x3e5cb92a	0.2155501
8	0xbe98b7b3	-0.2982765
9	0xbd815efa	-0.063169435
10	0xbf2ad14b	-0.66725606
11	0x3f2f5288	0.6848531
12	0x3e662e9a	0.22478715
13	0xbd0c6cba	-0.034283377
14	0xbf36ee56	-0.7145742
15	0x3f15f9aa	0.5858408
16	0x3f5415b5	0.8284562
17	0xbdf78332	-0.120855704
18	0xbe791d19	-0.24327506
19	0x3f38a1a0	0.7212162
20	0x3f25f870	0.6483221
21	0xbf07f0ac	-0.5310161
22	0x3f324a96	0.6964506
23	0x3f207f99	0.626947
24	0xbeee7899	-0.46576384
25	0x3da3a804	0.07991031
26	0xbd4b3e72	-0.0496201
27	0xbe90b773	-0.2826496
28	0x3f53cfc3	0.82738894
29	0xbe89f118	-0.26941752
30	0xbee46fd5	-0.4461657
31	0xbd07eddc	-0.033185825
32	0xbde31d48	-0.11089569
33	0xbf0c8bfd	-0.54901105
34	0x3e4066ce	0.18789217
35	0x3f251907	0.64491314
36	0x3e1fef17	0.1561855
37	0x3e431fbb	0.19055073
38	0x3d0f69f3	0.03501315
39	0x3ec98bb8	0.3936441
40	0x3f076834	0.52893376
41	0xbee037ff	-0.43792722
42	0xbc2fb511	-0.010724322
43	0xbe8b2b35	-0.27181402
44	0x3e7532d7	0.23945175
45	0x3ce26be1	0.027639331
46	0xbe86d2ea	-0.2633279
47	0x3e5f09ca	0.21781078
48	0x3f332d1c	0.69990706
49	0x3e5364f9	0.20643987
50	0xbeccef3b	-0.40026268
51	0xbe9b6def	-0.3035731
52	0x3e1c233a	0.15247813
53	0xbf3f75f3	-0.7478935
54	0x3ebf87e9	0.3740838
55	0xbf0dc37b	-0.55376405
56	0xbf2e0597	-0.6797728
57	0xbeac923f	-0.33705327
58	0xbe2600a2	-0.16211179
59	0x3eee243e	0.46512026
60	0xbf100107	-0.5625157
61	0x3f3c6fc1	0.7360802
62	0xbe87d712	-0.26531273
63	0x3f0d2bb5	0.55144817

fc2.weight f4 [64, 64]
0	0xbcf5ed5b	-0.030020406
1	0xbe115ab4	-0.14194757
2	0x3da56602	0.08076097
3	0x3d3f8700	0.046759605
4	0x3dbc4f77	0.09194844
5	0x3d2e2634	0.042516902
6	0xbda8fa48	-0.08250862
7	0x3d86d819	0.06584186
8	0xbc3b605a	-0.011436546
9	0x3cf3af69	0.029746728
10	0xbdeda273	-0.1160325
11	0xbd8776de	-0.06614469
12	0xbe186b9b	-0.14884798
13	0xbd843b6e	-0.06456648
14	0x3c35a9a6	0.011087811
15	0xbe00b5a1	-0.12569286
16	0x3ac58038	0.0015068119
17	0x3d51d6c0	0.051230192
18	0xbb95c8d1	-0.0045710583
19	0xbdd5361f	-0.104107134
20	0xbdfe684b	-0.12422236
21	0xbd635851	-0.055504147
22	0x3cabe5f1	0.020983668
23	0x3dd810e6	0.10550098
24	0x3d65623d	0.05600189
25	0xbcf562fc	-0.029954426
26	0x3cf5f1fc	0.030022614
27	0xbe146178	-0.14490306
28	0xbe122a3f	-0.14273928
29	0x3d2ddbab	0.04244582
30	0xbdb9f5ff	-0.09080123
31	0x3d1fdadc	0.03902708
32	0xbdda27e4	-0.1065214
33	0xbd9f4cca	-0.07778318
34	0xbdeba96e	-0.115069255
35	0x3d3ab57a	0.045583226
36	0xbd103336	-0.03520509
37	0x3da485e4	0.0803335
38	0x3d62672e	0.05527418
39	0x3d07b2e4	0.033129588
40	0xbca7509e	-0.020424183
41	0xbd71f286	-0.05906918
42	0xbd441106	-0.047867797
43	0xbb95d922	-0.0045730034
44	0x3d2b2e4c	0.0417922
45	0xbdd3d9ea	-0.10344298
46	0x3db654fa	0.08902927
47	0xbd0a213b	-0.033723097
48	0xbe0dd3b7	-0.13850294
49	0xbdc83e5b	-0.09777518
50	0x3dc1fd92	0.09472193
51	0x3dcd92c4	0.10037759
52	0xbe09b118	-0.13446462
53	0x3d8cc270	0.068730235
54	0x3d052651	0.032507244
55	0x3d599b5d	0.05312668
56	0x3da7a08d	0.081849195
57	0xbdb538d6	-0.08848731
58	0x3c9e19be	0.019299384
59	0x3c8afe89	0.016967075
60	0xbd6d7a47	-0.05797794
61	0x3cad1540	0.021128297
62	0xbd5efcbd	-0.05444025
63	0x3d678b9c	0.056529626
64	0xbd9a990f	-0.07548725
65	0xbdaf827b	-0.08569809
66	0x3bcb878d	0.0062112273
67	0x3bfb357c	0.007666288
68	0xbde60859	-0.11232061
69	0xbd0c5bbb	-0.03426717
70	0x3d278d2d	0.04090612
71	0xbc926328	-0.017869547
72	0x3c2adb5f	0.010428279
73	0xbd23a386	-0.03995087
74	0x3cbddeb8	0.02317749
75	0xbde13e3f	-0.109982006
76	0xbdb04970	-0.08607757
77	0xbdaca128	-0.084291756
78	0x3dcc0a83	0.099629425
79	0xbd8b08d2	-0.06788792
80	0xbcb5b9de	-0.022183355
81	0xbd9c8da3	-0.076442026
82	0x3db08629	0.08619339
83	0x3da9ed39	0.082972
84	0xbdf0c4d5	-0.11756293
85	0xbe1658ea	-0.14682356
86	0xbe04c665	-0.12966307
87	0xbd18283f	-0.037147757
88	0xbd0282c4	-0.03186299
89	0xbdcf076b	-0.10108837
90	0xbd83600b	-0.06414803
91	0xbc9fa2f3	-0.01948688
92	0xbdb24234	-0.087040335
93	0x3bda6a2d	0.006665489
94	0xbce5b576	-0.028040629
95	0xbd97d71a	-0.07414074
96	0xbcfa356b	-0.03054305
97	0x3db1f9ed	0.08690248
98	0xbdffaa43	-0.12483647
99	0xbd03469e	-0.032049768
100	0xbda9fc02	-0.0830002
101	0x3dd23655	0.10264269
102	0xbe1f64c8	-0.15565789
103	0xbe104cd8	-0.14091814
104	0x3dd9fa5b	0.10643455
105	0xbdb8de16	-0.090267345
106	0xbc784a7d	-0.015154478
107	0xbd5bd6bc	-0.053671584
108	0xbd0c1804	-0.03420259
109	0xbcfe3e6e	-0.031035628
110	0x3d7b242c	0.061313793
111	0xbcf2c124	-0.029633112
112	0xbe36c71a	-0.17849389
113	0xbda5ecda	-0.081018165
114	0xbd5ef445	-0.054432172
115	0x3cfdb890	0.030971795
116	0xbdd1da1a	-0.10246678
117	0x3da4a5de	0.08039449
118	0xbd234bae	-0.039867096
119	0xbd75b405	-0.059986133
120	0x3da9ed63	0.08297231
121	0x3cd4f423	0.02599532
122	0x3d89b47f	0.0672388
123	0x3d10bdef	0.035337385
124	0xbda98955	-0.08278147
125	0xbdf97660	-0.12180781
126	0xbcee87ca	-0.029117484
127	0x3d8636ea	0.06553443
128	0x3e1a0914	0.15042526
129	0x3c8509cc	0.016240023
130	0x3e58ec3f	0.2118387
131	0x3e2c604c	0.1683361
132	0x3dbd1063	0.09231641
133	0x3d2ebb56	0.042659126
134	0xbdf9f471	-0.122048266
135	0x3d2ea24f	0.04263526
136	0x3daf0172	0.085451975
137	0xbeadf40f	-0.33975264
138	0xbe1500d6	-0.145511
139	0x3e1ca0b3	0.15295677
140	0x3e12d4ed	0.14339037
141	0x3e32dea3	0.17467742
142	0xbebd3e9c	-0.3696183
143	0x3c00887d	0.007845041
144	0x3d348495	0.044071753
145	0x3ec4ae2a	0.38414127
146	0x3a4c7f85	0.00078009843
147	0x3e494a0f	0.19657157
148	0xbc128628	-0.008943118
149	0xbde5afe0	-0.11215186
150	0x3e702936	0.2345322
151	0x3e9944c5	0.2993528
152	0xbf0136ea	-0.5047442
153	0xbc24fcd2	-0.010070043
154	0x3e30b69f	0.17257164
155	0xbb85e635	-0.0040862807
156	0x3e17211f	0.14758728
157	0xbe4c9a90	-0.19980836
158	0xbde1bdcc	-0.11022529
159	0xbcd9440b	-0.026521703
160	0x3da8053c	0.082041234
161	0xbeb33767	-0.35003206
162	0x3e02feb9	0.12792481
163	0x3daaf14b	0.08346804
164	0x3cfc481d	0.030796105
165	0xbdc4e569	-0.09614069
166	0xbded7b5f	-0.11595797
167	0x3ea33cad	0.3188223
168	0x3d9d89b7	0.07692283
169	0x3e34a9a2	0.17642835
170	0x3d7cccbb	0.061718684
171	0xbe2862ec	-0.16443986
172	0x3d4823ec	0.048862383
173	0x3d1e99b7	0.038720813
174	0xbe2920f6	-0.1651648
175	0xbdecf9ea	-0.11571105
176	0x3e641514	0.22273666
177	0x3dd886df	0.105725996
178	0xbe4286ee	-0.18996784
179	0xbe6de222	-0.23230794
180	0xbbf435fb	-0.007452724
181	0xbdb8edc1	-0.09029723
182	0x3e619676	0.22030053
183	0xbd3cd04f	-0.046097096
184	0x3e82cc64	0.25546563
185	0xbe260f32	-0.16216734
186	0xbdd4eaf0	-0.10396373
187	0x3da33c36	0.07970469
188	0xbe4ac74c	-0.19802588
189	0x3cf197f8	0.02949141
190	0xbe6b39f3	-0.22971325
191	0x3e3b462a	0.18288484
192	0xbfc51a32	-1.5398619
193	0x3dec2823	0.11531093
194	0xbfe8ddfc	-1.8192744
195	0xbe8f1d77	-0.27952167
196	0xbfa9aa5a	-1.3255112
197	0x3de750e6	0.11294727
198	0x3f4239af	0.7586927
199	0xbf04450a	-0.51667845
200	0xbec28187	-0.37989447
201	0x3e374f2e	0.17901298
202	0x3e9367da	0.2879017
203	0xbe746307	-0.23865901
204	0x3e5f5d50	0.2181294
205	0x3e03c4c1	0.12868024
206	0x3e002a68	0.12516177
207	0xbf07ced6	-0.5304998
208	0x3eb99a55	0.36250558
209	0x3e3ed818	0.1863712
210	0xbf143429	-0.5789209
211	0xbef68363	-0.48147115
212	0x3d4ba3d3	0.04971678
213	0xbde7f780	-0.11326504
214	0x3d183ddc	0.03716837
215	0xbde7c35f	-0.11316561
216	0x3e279d98	0.16368711
217	0x3d25b4c3	0.04045559
218	0xbed793a8	-0.4210484
219	0xbc37568a	-0.011190066
220	0xbea3ffb5	-0.32031026
221	0x3e8e829c	0.27834022
222	0xbd8c39da	-0.06846972
223	0xbc81ba81	-0.015836002
224	0xc0098702	-2.1488652
225	0xbbf8bf3e	-0.007591157
226	0x3ea9fa93	0.33198985
227	0xbeacf0b0	-0.3377738
228	0xbf6fdf14	-0.93699765
229	0x3e03f349	0.12885775
230	0x3f855cbb	1.0418924
231	0xbed33168	-0.4124863
232	0x3e4e3557	0.20137535
233	0xbf3351d1	-0.70046717
234	0xbefc2617	-0.4924781
235	0xbfac8090	-1.3476734
236	0xbe056fbe	-0.13030908
237	0x3e8549f2	0.26032978
238	0x3d0ba164	0.03408946
239	0x3e8c030f	0.27346084
240	0x3df919e3	0.121631406
241	0xbe25a363	-0.16175608
242	0x3e9f916b	0.31165633
243	0xbe921b66	-0.28536528
244	0xbef0c0b7	-0.4702203
245	0x3d94b1c8	0.072604716
246	0x3d9b2fe3	0.07577493
247	0x3f22461a	0.63388216
248	0xbf8cfdcc	-1.1014953
249	0xbe0d5368	-0.13801348
250	0xbee45eb0	-0.4460349
251	0xbee1d379	-0.44106653
252	0xbff996de	-1.9499166
253	0xbfa2ee2e	-1.2728937
254	0x3e25c6b6	0.16189083
255	0xbeacb53f	-0.3373203

fc2.bias f4 [64]
0	0xbe0d6101	-0.13806535
1	0x3cc4d264	0.024026103
2	0x3dfc397a	0.1231565
3	0x3b125189	0.002232643
4	0x3d2304a0	0.039799333
5	0x3e8f8854	0.28033698
6	0x3eb0ca5e	0.34529394
7	0x3d1429c8	0.03617266
8	0x3e2e4ac7	0.17020713
9	0x3e540680	0.20705605
10	0x3da9d1ca	0.08291967
11	0x3e7dcfc9	0.24786295
12	0x3dc76f23	0.097379945
13	0x3e41bacc	0.18918914
14	0x3e694219	0.2277912
15	0xbde2a19b	-0.1106598
16	0xbdb46fd5	-0.08810393
17	0x3ebee997	0.3728759
18	0x3eb18000	0.3466797
19	0xbdeff184	-0.11715987
20	0x3df055c7	0.11735111
21	0x3e13b861	0.14425804
22	0x3ce22591	0.027605804
23	0x3ed2e4fd	0.4119033
24	0xbcaa6d98	-0.020804211
25	0xbe0b8d1e	-0.1362805
26	0x3e3e8716	0.18606219
27	0x3e567dc8	0.20946419
28	0x3ea922a4	0.3303424
29	0x3e33529a	0.17511979
30	0x3e9c4bb4	0.30526507
31	0x3bf1cc0e	0.0073790615
32	0x3e52c252	0.2058194
33	0xbd90dd57	-0.07073467
34	0x3dbd94fe	0.09256934
35	0x3ed6688d	0.4187664
36	0x3d863e16	0.06554811
37	0xbdda03ca	-0.10645254
38	0x3e07d03a	0.13263026
39	0x3e13a737	0.14419256
40	0xbc99fd96	-0.018797677
41	0xbd880eda	-0.06643458
42	0x3de971b5	0.11398641
43	0x3ec29314	0.38002837
44	0x3ead37bc	0.33831584
45	0x3e62d471	0.22151352
46	0x3eaf85ea	0.34281856
47	0xbc266f55	-0.01015838
48	0xbe58a81e	-0.21157882
49	0x3e01081d	0.12600751
50	0xbdbff65e	-0.09373163
51	0x3ea9fe34	0.33201754
52	0xbd0d5f23	-0.034514558
53	0xbc45a42a	-0.012063066
54	0x3e4dcb3c	0.20097059
55	0xbca63eb2	-0.020293567
56	0x3e8d5d1c	0.276101
57	0x3e6c9df0	0.23107123
58	0x3e8946dd	0.26811877
59	0x3e8f72cc	0.2801727
60	0x3eaed20f	0.34144637
61	0x3eb1734e	0.34658283
62	0x3e2c8bdd	0.16850229
63	0x3e8e6f49	0.2781928

fc3.weight f4 [3, 64]
0	0x3dbdbf58	0.092650115
1	0x3da8f957	0.08250683
2	0xbdf65ca8	-0.120293915
3	0x3f9989e0	1.1995201
4	0x3f849c35	1.0360171
5	0xbe98a576	-0.29813737
6	0xbf17b8ff	-0.59266657
7	0xbf94fb9f	-1.1639289
8	0xbe71ee15	-0.23625977
9	0xbe595234	-0.21222764
10	0x3fb06b40	1.378273
11	0xbe725a67	-0.23667298
12	0xbe577eca	-0.2104446
13	0xbe4bb6f6	-0.19894013
14	0xbe759932	-0.2398422
15	0x3d7aa0cf	0.061188515
16	0x3fa7e99b	1.3118166
17	0xbe4b8e34	-0.19878465
18	0xbe70e7ec	-0.23525971
19	0x3f96b768	1.1774721
20	0xbe930296	-0.2871291
21	0x3faade97	1.3349179
22	0x3db478c0	0.08812094
23	0xbe3c75ce	-0.18404314
24	0x3f7cb9c4	0.98720956
25	0x3dc023e1	0.09381843
26	0xbe75bb1f	-0.23997162
27	0xbe81568e	-0.25261348
28	0xbe28f299	-0.16498794
29	0xbdcdd831	-0.10051001
30	0x3f1ef66e	0.6209477
31	0x3f838cbb	1.0277323
32	0xbe7b2196	-0.24524531
33	0x3f39ad36	0.72529924
34	0x3d8896bb	0.066693746
35	0xbf0b48ba	-0.54407847
36	0xbf975a03	-1.1824344
37	0xbb8ee9dc	-0.0043613743
38	0xbe533212	-0.20624569
39	0xbf54caf8	-0.83122206
40	0x3f56add0	0.83858967
41	0x3e8a8c49	0.27060154
42	0x3fb91f05	1.4462591
43	0xbe507d41	-0.2036028
44	0xbed971fd	-0.4246978
45	0xbeb38e62	-0.35069567
46	0xbec44fb1	-0.3834205
47	0xbdb5bc6a	-0.08873828
48	0xbf7bdc4c	-0.9838302
49	0xbf3bcd49	-0.73360115
50	0xbfb8c5f7	-1.4435414
51	0xbe24c456	-0.16090521
52	0x3fae4376	1.3614337
53	0x3f478260	0.7793331
54	0xbe9ec0f7	-0.31006595
55	0xbe23f760	-0.16012335
56	0xbe4dc7d0	-0.20095754
57	0xbeed7281	-0.46376422
58	0xbe4b5f8b	-0.19860666
59	0xbe91366a	-0.28361827
60	0xbe088a86	-0.13334092
61	0xbe3b2850	-0.18277097
62	0xbed3b25b	-0.41347012
63	0xbe13fc97	-0.14451824
64	0x3c1a73a3	0.009426984
65	0xbe0da557	-0.13832603
66	0xbe8a99af	-0.27070376
67	0x3f8a56a0	1.0807686
68	0x3f511211	0.8166819
69	0xbe412cf1	-0.188648
70	0xbe61975e	-0.22030398
71	0xbf7fa2ce	-0.99857795
72	0xbe2adee0	-0.16686583
73	0xbe938c5a	-0.28818017
74	0x3faaa333	1.3331054
75	0xbeb0fb7e	-0.34566873
76	0xbe99138b	-0.29897723
77	0xbe5ada30	-0.21372294
78	0xbe38a2a2	-0.1803079
79	0x3dc83aba	0.09776826
80	0x3f8c564c	1.0963836
81	0xbe638971	-0.22220398
82	0xbe2e6495	-0.17030556
83	0x3faddde5	1.3583342
84	0xbe38a4b7	-0.18031584
85	0x3f235e63	0.638159
86	0xbd2eef52	-0.042708702
87	0xbec7923b	-0.38978752
88	0x3f48f040	0.7849159
89	0xbdc7ff31	-0.09765471
90	0xbe8460da	-0.25855142
91	0xbe7619e1	-0.2403331
92	0xbe382122	-0.17981389
93	0xbeb0b7e4	-0.34515297
94	0x3f2c3834	0.6727326
95	0x3f9ba0f3	1.2158493
96	0xbe8eb000	-0.27868652
97	0x3f31b8e5	0.6942275
98	0xbd4830f2	-0.048874803
99	0xbf32e13a	-0.6987492
100	0xbf67216d	-0.9028538
101	0x3d5745c1	0.052556757
102	0xbe9c0bdb	-0.30477795
103	0xbf3caaca	-0.73698103
104	0x3f444a60	0.7667599
105	0x3dcaa8bc	0.09895465
106	0x3f8b6cd6	1.0892589
107	0xbe8dced8	-0.27696872
108	0xbec482fa	-0.38381177
109	0xbd9045a8	-0.07044536
110	0xbe9c4532	-0.30521542
111	0x3c489c5c	0.01224431
112	0xbf13d639	-0.5774875
113	0xbf3afb70	-0.73039913
114	0xbf880ea6	-1.062947
115	0xbe98d481	-0.29849628
116	0x3f8b3de9	1.0878268
117	0x3f269e7b	0.6508557
118	0xbe35454f	-0.1770222
119	0xbed39818	-0.41326976
120	0xbe20f89e	-0.1571984
121	0xbe46e607	-0.19423686
122	0xbe94f6dc	-0.2909459
123	0xbe6c6b15	-0.23087724
124	0xbea6f73b	-0.32610497
125	0xbeadb6a7	-0.33928415
126	0xbe90ef23	-0.28307447
127	0xbdaa72c4	-0.08322671
128	0xbb4070ff	-0.0029364226
129	0xb9db2291	-0.0004179669
130	0xbe47937e	-0.19489858
131	0x3f80aaad	1.0052086
132	0x3f42d2af	0.7610273
133	0xbe8405f2	-0.25785786
134	0xbe45c987	-0.19315158
135	0xbf8032bd	-1.0015484
136	0xbe8fb111	-0.28064778
137	0xbe24bf37	-0.16088568
138	0x3f97e02e	1.1865289
139	0xbeb36034	-0.35034335
140	0xbe4e767e	-0.20162389
141	0xbe78d4b6	-0.24299893
142	0xbe6336e3	-0.22188906
143	0x3c96e9c0	0.018422008
144	0x3fb51d0a	1.4149487
145	0xbe5e9454	-0.2173627
146	0xbe284656	-0.16433081
147	0x3f809ad9	1.0047256
148	0xbe37901d	-0.17926069
149	0x3f67769c	0.9041536
150	0x3dcdc7b5	0.10047857
151	0xbf0f97c1	-0.56090933
152	0x3f236e91	0.63840586
153	0x3dbbb7d0	0.09165919
154	0xbca6943a	-0.020334352
155	0xbe6dc15e	-0.23218295
156	0xbefe0797	-0.49615166
157	0xbe8ec904	-0.27887738
158	0x3f64f667	0.8943848
159	0x3fbe5f83	1.4872898
160	0xbe95403d	-0.29150572
161	0x3f5ece48	0.8703351
162	0x3bf6864e	0.0075233346
163	0xbf3fba72	-0.7489387
164	0xbf8101dd	-1.0078694
165	0x3d472dd5	0.048627693
166	0xbe2d95ad	-0.16951628
167	0xbf3eb395	-0.7449277
168	0x3f39083e	0.722782
169	0x3dba1ce7	0.09087544
170	0x3fa6dfd3	1.3037056
171	0xbe3a9276	-0.18219933
172	0xbebbafd8	-0.36657596
173	0xbe3cf024	-0.18450981
174	0xbdfa4835	-0.12220804
175	0xbd496560	-0.049168944
176	0xbf2537e2	-0.64538395
177	0xbf4e43f6	-0.8057245
178	0xbfb99a1f	-1.4500159
179	0xbe313b11	-0.17307688
180	0x3f9e7028	1.2377977
181	0x3f342d24	0.7038138
182	0xbe2694f0	-0.16267753
183	0xbf0f9a08	-0.5609441
184	0xbe6e976c	-0.2329995
185	0xbe885e8d	-0.26634637
186	0xbe5f39df	-0.2179942
187	0xbe83d5fc	-0.25749195
188	0xbe631a39	-0.22177972
189	0xbe528c45	-0.20561321
190	0xbeecc881	-0.46246722
191	0xbe881217	-0.265763

fc3.bias f4 [3]
0	0xbd1d5fc7	-0.03842142
1	0xbe8bba3d	-0.27290526
2	0xbdbf2faf	-0.09335267
