model/checkpoint_7400.pth (torch, 21912 bytes, 6 tensors)

fc1.weight f4 [64, 6]
0.3055118 0.8598409 -0.21203554 -0.64856464 -0.08831046 0.27778572 0.43527162 1.1215055
-0.315425 0.16451266 -0.080027685 0.08350788 -0.7508107 -0.33568987 -1.0671556 0.122564584
0.14690593 0.19332948 -0.06728042 -0.8088438 -0.026182923 1.1597022 0.24916983 0.27023768
-0.26944658 1.0992835 0.76303524 -0.4457083 -0.3869228 0.13957514 -0.5085213 0.8654718
-0.64705276 -0.40757886 -0.48301747 -0.37026066 -1.514401 -0.35511646 0.8020296 -0.21585597
-0.36539316 -0.08519755 -0.24235082 -0.9942077 -0.86813486 -0.3552246 0.14698792 -0.20415422
-0.8296183 -1.512355 1.3969724 0.38934776 0.24822599 0.019075084 -0.2683557 -0.96450883
-0.027402032 0.00085214496 -0.322551 -0.4566438 0.31234294 -0.2126174 0.84950733 0.062323354
0.73261416 0.2742298 0.3618695 -0.52411497 0.2729188 0.267207 -0.34846953 -0.18087687
0.81089467 0.12312143 0.5315632 1.2715127 -0.21988031 -0.47392383 0.03810833 -1.4413402
-0.79183835 1.0814129 0.05847967 -0.46285558 -0.16201977 0.37506333 -0.6725621 0.55127746
0.35949513 -0.17454627 1.0371454 0.5607417 0.23541279 -0.02828553 -0.4354771 -0.18692227
0.38072968 0.6340097 -0.7483435 -0.8792729 0.6233747 0.36865747 -1.1239176 0.070755325
-0.9969547 0.07681717 -0.23972933 -0.26545382 -0.30765355 0.2647826 0.18197386 -0.8901964
-0.48230278 0.35436758 1.0290817 0.024207493 -0.32899636 -0.30279735 0.29213664 0.22612602
0.71217924 0.33282104 -0.3912201 0.67338413 -0.40007138 -0.24492145 -0.7868771 -0.8531949
-0.020641072 -0.49496818 -0.21754113 -0.18191557 -0.28331667 -0.793681 0.25650832 -0.5183462
0.21180372 0.020202188 0.2783046 0.23102157 0.6822473 0.42220175 0.20466183 0.24141851
-0.68858004 0.6660457 -0.2200977 0.47914487 -0.33728513 -0.34727433 0.27444965 -0.88099873
0.13974306 1.6033245 -0.2284735 -0.35972595 0.023514671 -1.0819795 -0.099057294 -0.04115588
-0.4601064 -0.4812593 -0.6020696 -0.52212304 -0.77083004 -0.7072909 -0.3684209 0.19748297
0.020194817 -0.19201109 0.3723299 -0.60734457 0.12747821 0.22869056 -0.40019232 0.17767292
-0.59962475 1.3331987 0.36246666 -0.33279344 -0.3541256 -0.09478794 0.5131646 -0.012498492
0.6916832 0.4138353 -0.5617737 0.14457346 -0.77827996 0.4258176 0.4725356 0.43387073
-0.012109703 1.0245826 -1.0566602 -0.57416093 0.0020664379 0.33354715 -0.557895 0.63911116
0.21272379 0.027700095 -0.77725697 -0.4003511 -0.5006759 -0.57248205 -0.36460522 0.9314107
0.03271448 -0.23748688 0.093452975 0.029147971 -0.42251286 0.10226679 0.23189718 0.21775562
1.0102917 1.0544729 1.1950282 -1.4867262 0.305286 0.71448237 0.99558246 -0.3487191
-1.4149507 -0.07888284 -0.1451953 -0.04433007 -1.1902186 0.7271561 -0.34029627 0.65411466
0.41930434 0.37955835 0.73436815 0.018288175 0.67772526 -0.59218556 -0.21109927 -0.2122703
-0.37399098 0.64279705 -0.1274911 -0.12337064 0.06654066 -0.29062742 0.85343194 -0.79192305
0.5675326 -0.4316169 -0.5767561 -0.19114983 0.8305858 -0.46429613 -0.6623569 -0.53577155
00000000: 0b6c 9c3e 891e 5c3f d81f 59be 5508 26bf
00000010: 1ddc b4bd ee39 8e3e ecdb de3e 7e8d 8f3f
00000020: 637f a1be 0276 283e 8ee5 a3bd 2e06 ab3d
00000030: 2135 40bf 8bdf abbe 8e98 88bf 2403 fb3d
00000040: 826e 163e 2af8 453e 51ca 89bd 6310 4fbf
00000050: 927d d6bc 1f71 943f 6026 7f3e 985c 8a3e
00000060: e7f4 89be 52b5 8c3f 4756 433f e133 e4be
00000070: bf1a c6be c9ec 0e3e 742e 02bf 8f8f 5d3f
00000080: 40a5 25bf 2dae d0be 114e f7be ce92 bdbe
00000090: e4d7 c1bf d3d1 b5be d051 4d3f 5909 5dbe
000000a0: d014 bbbe 0e7c aebd d02a 78be 6584 7ebf
000000b0: 163e 5ebf 00e0 b5be 0084 163e ce0d 51be
000000c0: dd61 54bf d994 c1bf fecf b23f 9758 c73e
000000d0: f42e 7e3e 5a43 9c3c eb65 89be 0dea 76bf
000000e0: 3a7a e0bc 7b62 5f3a 6825 a5be 37cd e9be
000000f0: 6aeb 9f3e 60b8 59be 5079 593f c646 7f3d
00000100: 9a8c 3b3f d967 8c3e f646 b93e 662c 06bf
00000110: 03bc 8b3e 5bcf 883e 996a b2be c937 39be
00000120: cb96 4f3f 1727 fc3d 8714 083f eec0 a23f
00000130: 4e28 61be 25a6 f2be 7b17 1c3d d67d b8bf
00000140: ebb5 4abf bd6b 8a3f 6188 6f3d 68fb ecbe
00000150: 83e8 25be 4d08 c03e 082d 2cbf 8520 0d3f
00000160: bf0f b83e 42bc 32be 2ec1 843f c58c 0f3f
00000170: 0d10 713e 0eb7 e7bc dbf6 debe 8d68 3fbe
00000180: 00ef c23e 764e 223f 7193 3fbf 0718 61bf
00000190: 7c95 1f3f acc0 bc3e 88dc 8fbf 2be8 903d
000001a0: 6c38 7fbf 5252 9d3d 9b7b 75be 90e9 87be
000001b0: c484 9dbe 9691 873e 5b57 3a3e e9e3 63bf
000001c0: 64f0 f6be ab6f b53e f3b8 833f cb4e c63c
000001d0: 3672 a8be 4108 9bbe ef92 953e 948d 673e
000001e0: 6151 363f 8567 aa3e 004e c8be e762 2c3f
000001f0: 28d6 ccbe b0cc 7abe c770 49bf fb6a 5abf
00000200: 7717 a9bc 786c fdbe 1ac3 5ebe 1348 3abe
00000210: e20e 91be ae2e 4bbf 0f55 833e 56b2 04bf
00000220: 13e3 583e 0f7f a53c f17d 8e3e eb90 6c3e
00000230: c2a7 2e3f d42a d83e df92 513e 6a36 773e
00000240: c846 30bf f981 2a3f 4b61 61be 7a52 f53e
00000250: a3b0 acbe f1cd b1be aa84 8c3e 2289 61bf
00000260: ce18 0f3e bd39 cd3f f5f4 69be 002e b8be
00000270: d7a1 c03c 4e7e 8abf 8dde cabd 1193 28bd
00000280: 1193 ebbe 9e67 f6be 3c21 1abf dba9 05bf
00000290: 1e55 45bf 0411 35bf aaa1 bcbe fa38 4a3e
000002a0: 9a6f a53c 8e9e 44be 06a2 be3e ef7a 1bbf
000002b0: a689 023e dc2d 6a3e 02e6 ccbe e4ef 353e
000002c0: 0281 19bf 41a6 aa3f 3b95 b93e e763 aabe
000002d0: f34f b5be 2e20 c2bd c15e 033f 7ac6 4cbc
000002e0: 2612 313f 38e2 d33e 67d0 0fbf 110b 143e
000002f0: 5b3d 47bf c404 da3e 30f0 f13e 4e24 de3e
00000300: c767 46bc 8625 833f a440 87bf 36fc 12bf
00000310: 136d 073b b1c6 aa3e 35d2 0ebf ca9c 233f
00000320: 44d4 593e 4feb e23c 50fa 46bf d2fa ccbe
00000330: 4c2c 00bf 2f8e 12bf 89ad babe ee70 6e3f
00000340: 9eff 053d c32f 73be 4664 bf3d bac7 ee3c
00000350: 9b53 d8be 4071 d13d 7476 6d3e 54fb 5e3e
00000360: 3d51 813f f8f8 863f aff6 983f 0b4d bebf
00000370: 724e 9c3e 51e8 363f 7ede 7e3f 4f8b b2be
00000380: 1b1d b5bf 548d a1bd 14ae 14be 7393 35bd
00000390: 1559 98bf e726 3a3f 503b aebe 0f74 273f
000003a0: 0faf d63e 7955 c23e 8dff 3b3f 15d1 953c
000003b0: 677f 2d3f 7999 17bf 682a 58be 635d 59be
000003c0: bf7b bfbe 598e 243f 078d 02be bfa9 fcbd
000003d0: 7846 883d 1ecd 94be 847a 5a3f 78bb 4abf
000003e0: d149 113f e4fc dcbe 4aa6 13bf c8bc 43be
000003f0: 45a1 543f 39b8 edbe 3990 29bf 5328 09bf

fc1.bias f4 [64]
0.3171356 0.4355241 0.4043309 -0.066971876 0.4423181 0.4077715 -0.8056695 -0.07592384
-0.5142485 0.24635713 -0.46586433 0.92815346 0.036625717 -0.019483196 -1.3035426 0.37868938
0.6549095 -0.20841584 0.018726239 0.6588695 0.85425884 -0.86432433 0.69751346 0.860187
-0.22068456 -0.022131765 0.02116897 -0.5218654 1.0981724 -0.5853392 -0.7483037 -0.20804715
-0.4557859 -0.75030035 0.3127835 0.79898953 0.740695 -0.03289978 -0.33852184 0.48351958
0.44821224 -0.44252747 0.114714526 -0.6983442 0.43104526 -0.14539404 -0.49697497 0.03748366
0.74537134 0.34513897 -0.2278635 -0.018871821 0.42314655 -0.9128856 0.3390085 -0.48990455
-0.8244487 -0.6615437 -0.8313419 0.74458545 -0.7504476 0.7189498 -0.035892222 0.48806116
00000000: 995f a23e 04fd de3e 7604 cf3e 8d28 89bd
00000010: 8577 e23e 6dc7 d03e 5b40 4ebf f57d 9bbd
00000020: caa5 03bf 0b45 7c3e c585 eebe 779b 6d3f
00000030: d904 163d 399b 9fbc 7cda a6bf 93e3 c13e
00000040: 26a8 273f f66a 55be c567 993c acab 283f
00000050: b5b0 5a3f 5c44 5dbf 3e90 323f 3735 5c3f
00000060: 22fb 61be ad4d b5bc 8c6a ad3c f998 05bf
00000070: ea90 8c3f cad8 15bf d590 3fbf 500a 55be
00000080: c55c e9be af13 40bf 2925 a03e 948a 4c3f
00000090: 309e 3d3f ebc1 06bd bc52 adbe e18f f73e
000000a0: 137c e53e f692 e2be 73ef ea3d afc6 32bf
000000b0: f7b1 dc3e 2de2 14be 8173 febe 7788 193d
000000c0: a8d0 3e3f 0eb6 b03e 0d55 69be 1499 9abc
000000d0: aaa6 d83e dfb2 69bf 8692 ad3e c5d4 fabe
000000e0: 120f 53bf ee5a 29bf d3d2 54bf 279d 3e3f
000000f0: 551d 40bf 180d 383f b903 13bd 27e3 f93e

fc2.weight f4 [64, 64]
-0.04831197 -0.15959136 0.07830485 0.031351674 0.072698325 0.042516902 -0.082408555 0.06584186
-0.011387902 0.029746728 -0.1160325 -0.08457825 -0.14884798 -0.06456648 0.011087811 -0.13505483
0.0015068119 0.051230192 -0.023552231 -0.12147423 -0.14331594 -0.055504147 0.0030061875 0.08693521
0.05600189 -0.029736916 0.030022614 -0.15701422 -0.16206105 0.04244582 -0.10667518 0.020192299
-0.124540776 -0.07778318 -0.114982456 0.026265617 -0.050580557 0.0803335 0.036456767 0.017311795
-0.020424183 -0.07648162 -0.06710148 -0.017167564 0.023085473 -0.10344298 0.08902927 -0.05340683
-0.13850294 -0.09777518 0.09472193 0.08093734 -0.13341609 0.050095435 0.016634649 0.03510494
0.081849195 -0.09755329 0.001284935 -0.0016787181 -0.074918084 0.00276635 -0.05444025 0.040100034
-0.07548725 -0.08569809 0.0062112273 0.007666288 -0.11232061 -0.03426717 0.04090612 -0.017869547
0.010428279 -0.03995087 0.02317749 -0.109982006 -0.08607757 -0.084291756 0.099629425 -0.06788792
-0.022183355 -0.076442026 0.08619339 0.082972 -0.11756293 -0.14682356 -0.12966307 -0.037147757
-0.03186299 -0.10108837 -0.06414803 -0.01948688 -0.087040335 0.006665489 -0.028040629 -0.07414074
-0.03054305 0.08690248 -0.12483647 -0.032049768 -0.0830002 0.10264269 -0.15565789 -0.14091814
0.10643455 -0.090267345 -0.015154478 -0.053671584 -0.03420259 -0.031035628 0.061313793 -0.029633112
-0.17849389 -0.081018165 -0.054432172 0.030971795 -0.10246678 0.08039449 -0.039867096 -0.059986133
0.08297231 0.02599532 0.0672388 0.035337385 -0.08278147 -0.12180781 -0.029117484 0.06553443
0.16970108 0.02202261 0.30095375 0.13804598 -0.015584432 0.3314059 -0.21174386 -0.2190502
0.014639633 -0.6609129 -0.16487525 0.41686976 0.3644138 0.17703035 -0.6318502 -0.3109897
0.15627219 0.7849552 0.1308799 0.35634 0.2811276 -0.1540219 0.0668694 0.27309605
-0.38198137 0.037910763 0.034453258 0.03162793 0.19979054 -0.0839855 -0.02623258 -0.14412215
0.3327699 -0.9721855 0.4971283 0.2994441 0.11992187 -0.40862992 -0.20910957 0.0032857652
-0.0017337193 -0.8221259 -0.12392442 0.18237849 -0.054682862 0.17984426 -0.38789394 0.07680816
0.27392414 -0.19541705 0.061698098 -0.31272495 0.17116977 -0.040581424 0.24995112 -0.076414295
-0.0031257758 -0.60883665 0.115468234 -0.2147169 -0.28396866 0.23031914 -0.38641557 -0.017490152
-2.5022552 -0.33731133 -0.7848512 -0.46847072 -0.83420974 0.18752567 0.8830329 -0.32430363
-1.7750473 0.416496 0.32340464 -0.33843237 0.2139653 0.096823625 0.20946166 -0.5035992
0.4130402 0.248393 -0.56862336 -0.63285285 0.041570622 -0.91596264 0.16499472 -0.042431355
-0.12864865 0.0550034 -0.36300594 -0.5716789 -0.929887 0.27624902 -0.47486278 0.16345404
-2.939382 -0.06646536 0.47753328 -0.25016314 -1.5998337 -0.087062 1.8317769 -0.47518262
0.24437433 -0.45182207 0.3110665 -0.8808236 0.5391444 0.062728345 0.083449505 0.73976797
0.123853065 -0.102595516 0.25246248 0.09316118 -0.25434235 0.072604716 0.20622963 0.69105947
-0.8940871 0.12326411 -0.8072404 -1.335345 -3.1078596 -0.7948621 0.27200294 -0.33423835
00000000: c6e2 45bd eb6b 23be 4b5e a03d 9d6a 003d
00000010: dce2 943d 3426 2e3d d1c5 a8bd 19d8 863d
00000020: 5394 3abc 69af f33c 73a2 edbd 5d37 adbd
00000030: 9b6b 18be 6e3b 84bd a6a9 353c d04b 0abe
00000040: 3880 c53a c0d6 513d 9cf0 c0bc 7bc7 f8bd
00000050: 6ac1 12be 5158 63bd 7503 453b 160b b23d
00000060: 3d62 653d d59a f3bc fcf1 f53c 56c8 20be
00000070: 55f3 25be abdb 2d3d 8478 dabd 526a a53c
00000080: 3c0f ffbd ca4c 9fbd ec7b ebbd fe2a d73c
00000090: 8f2d 4fbd e485 a43d b153 153d 77d1 8d3c
000000a0: 9e50 a7bc 65a2 9cbd 806c 89bd fea2 8cbc
000000b0: bf1d bd3c ead9 d3bd fa54 b63d 1fc1 5abd
000000c0: b7d3 0dbe 5b3e c8bd 92fd c13d 7ac2 a53d
000000d0: 3a9e 08be df30 4d3d 6345 883c 33ca 0f3d
000000e0: 8da0 a73d 05ca c7bd 446b a83a 6f08 dcba
000000f0: a76e 99bd a74b 353b bdfc 5ebd ef3f 243d
00000100: 0f99 9abd 7b82 afbd 8d87 cb3b 7c35 fb3b
00000110: 5908 e6bd bb5b 0cbd 2d8d 273d 2863 92bc
00000120: 5fdb 2a3c 86a3 23bd b8de bd3c 3f3e e1bd
00000130: 7049 b0bd 28a1 acbd 830a cc3d d208 8bbd
00000140: deb9 b5bc a38d 9cbd 2986 b03d 39ed a93d
00000150: d5c4 f0bd ea58 16be 65c6 04be 3f28 18bd
00000160: c482 02bd 6b07 cfbd 0b60 83bd f3a2 9fbc
00000170: 3442 b2bd 2d6a da3b 76b5 e5bc 1ad7 97bd
00000180: 6b35 fabc edf9 b13d 43aa ffbd 9e46 03bd
00000190: 02fc a9bd 5536 d23d c864 1fbe d84c 10be
000001a0: 5bfa d93d 16de b8bd 7d4a 78bc bcd6 5bbd
000001b0: 0418 0cbd 6e3e febc 2c24 7b3d 24c1 f2bc
000001c0: 1ac7 36be daec a5bd 45f4 5ebd 90b8 fd3c
000001d0: 1ada d1bd dea5 a43d ae4b 23bd 05b4 75bd
000001e0: 63ed a93d 23f4 d43c 7fb4 893d efbd 103d
000001f0: 5589 a9bd 6076 f9bd ca87 eebc ea36 863d
00000200: 1fc6 2d3e c368 b43c 9c16 9a3e ed5b 0d3e
00000210: d855 7fbc 09ae a93e 62d3 58be b24e 60be
00000220: 12db 6f3c 9631 29bf 0fd5 28be f46f d53e
00000230: 7294 ba3e 7247 353e efc0 21bf 0b3a 9fbe
00000240: d105 203e d3f2 483f 6105 063e 3272 b63e
00000250: f5ef 8f3e ebb7 1dbe d3f2 883d 3fd3 8b3e
00000260: 1093 c3be 5148 1b3d dc1e 0d3d 4a8c 013d
00000270: e495 4c3e 9700 acbd b5e5 d6bc c294 13be
00000280: d160 aa3e 26e1 78bf 9a87 fe3e bd50 993e
00000290: 9999 f53d f137 d1be d220 56be fe55 573b
000002a0: f73d e3ba d876 52bf 16cc fdbd 6dc1 3a3e
000002b0: 23fb 5fbd 1829 383e 099a c6be 994d 9d3d
000002c0: c93f 8c3e 681b 48be 25b7 7c3d 7c1d a0be
000002d0: 2147 2f3e b538 26bd 30f3 7f3e 197f 9cbd
000002e0: d1d9 4cbb b8dc 1bbf 9c7a ec3d bfde 5bbe
000002f0: 5764 91be c8d8 6b3e 43d8 c5be 8247 8fbc
00000300: f324 20c0 12b4 acbe 02ec 48bf 65db efbe
00000310: c58e 55bf bb06 403e 720e 623f 200b a6be
00000320: c034 e3bf f73e d53e 4b95 a53e 0247 adbe
00000330: b819 5b3e 774b c63d 1e7d 563e e1eb 00bf
00000340: 017a d33e bc5a 7e3e 4d91 11bf a502 22bf
00000350: f545 2a3d 877c 6abf 60f4 283e 80cc 2dbd
00000360: 79bc 03be 3f4b 613d eadb b9be 8c59 12bf
00000370: 130d 6ebf 8370 8d3e 3721 f3be 7f60 273e
00000380: d61e 3cc0 fe1e 88bd 3e7f f43e 6215 80be
00000390: 5ac7 ccbf 904d b2bd aa77 ea3f 234b f3be
000003a0: 443d 7a3e 3955 e7be 1c44 9f3e a87d 61bf
000003b0: 5e05 0a3f b877 803d 93e7 aa3d 6f61 3d3f
000003c0: ada6 fd3d 991d d2bd c342 813e 4acb be3d
000003d0: 2939 82be c8b1 943d dc2d 533e 46e9 303f
000003e0: e4e2 64bf e571 fc3d 4fa7 4ebf 96ec aabf
000003f0: 2ce7 46c0 157c 4bbf f843 8b3e 4a21 abbe

fc2.bias f4 [64]
-0.1573954 0.024026103 0.3596758 0.015915398 -0.025057493 0.19593976 0.47689945 0.020159207
-0.04340957 0.11458028 0.42226514 0.06733485 0.29444703 -0.03006422 0.057846796 -0.1106598
0.07182113 0.18728982 0.075908996 -0.046251033 -0.015883721 0.20736682 0.021772364 0.5444867
0.00975276 -0.14408496 0.30562183 -0.013975918 0.42976412 0.14019515 0.2792879 0.16289291
0.1258365 -0.0680157 0.076693885 0.5266138 0.07319561 -0.10645254 0.06511841 0.20742643
0.3984696 -0.06643458 0.3343662 0.32913455 0.17480499 0.057647876 0.2811709 -0.01015838
-0.30071965 -0.20161071 -0.2037207 0.24106483 0.073914774 -0.09561218 -0.0050329673 0.05147028
0.07143378 0.37478366 0.2521828 0.04155663 0.28523564 0.38464698 0.2538495 0.11788611
00000000: 422c 21be 64d2 c43c 6d27 b83e 0261 823c
00000010: 5f45 cdbc 6fa4 483e 2a2c f43e ec24 a53c
00000020: 3cce 31bd 11a9 ea3d 2333 d83e dbe6 893d
00000030: c3c1 963e 3d49 f6bc c3f0 6c3d 9ba1 e2bd
00000040: f516 933d e7c8 3f3e 2d76 9b3d b971 3dbd
00000050: 941e 82bc f857 543e f55b b23c 7b63 0b3f
00000060: 0aca 1f3c 028b 13be 777a 9c3e 40fb 64bc
00000070: 0b0a dc3e 518f 0f3e d3fe 8e3e 66cd 263e
00000080: 49db 003e d14b 8bbd af11 9d3d 29d0 063f
00000090: 94e7 953d ca03 dabd cd5c 853d 9867 543e
000000a0: 3504 cc3e da0e 88bd 0c32 ab3e 5384 a83e
000000b0: 1400 333e 2e20 6c3d a2f5 8f3e 556f 26bc
000000c0: edf7 99be 0a73 4ebe 299c 50be b3d9 763e
000000d0: a160 973d 52d0 c3bd 97eb a4bb 80d2 523d
000000e0: e04b 923d a5e3 bf3e 1b1e 813e 4937 2a3d
000000f0: 680a 923e 73f0 c43e 90f8 813e 466e f13d

fc3.weight f4 [3, 64]
0.092650115 0.08250683 -0.71949273 1.5760348 1.2693774 -0.1920867 -0.9767677 -2.0357726
-0.011297864 -0.39190114 2.7534149 -0.012729999 -0.8271017 0.026831634 -0.22743437 0.061188515
1.8002028 -0.25560063 -0.12777519 1.3929242 -0.21310914 2.2460737 0.07224163 -0.0401638
1.499697 0.08081259 -0.021881863 -0.09424328 -0.02996917 -0.3848073 0.8723644 1.8739363
-0.21993043 1.0264839 0.066693746 -0.9808883 -1.7296665 -0.0043613743 -0.035200737 -1.1209654
2.0430489 0.27060154 2.0741823 -0.4195438 -0.3170573 -1.086404 -0.9091194 -0.08873828
-1.4652016 -0.9591969 -2.2459 0.09358114 1.4811137 1.387047 -0.25118032 -0.3124402
-0.07308814 -0.712677 -0.541978 -0.07407886 0.12855901 -0.34638768 -0.5437737 0.11926573
0.009426984 -0.13832603 -0.2934409 0.9723779 0.6737923 -0.09732585 -0.36124235 -1.2874252
0.13109887 -0.50706387 1.8016808 -0.28077334 -0.6533851 -0.055178996 0.03796446 0.09776826
1.7237868 -0.20032422 0.07810677 2.294644 -0.10900953 1.5795617 -0.057816412 -0.70604134
1.2392901 -0.1017392 -0.22216853 -0.14916514 -0.44847083 -0.71972233 0.8103071 1.3062594
-0.2907602 0.7221158 -0.048874803 -1.4082289 -0.79757786 0.052556757 -0.6772569 -0.6722744
1.293609 0.09895465 0.7915926 -0.12987946 -0.3253138 0.059439093 -0.36211652 0.01224431
-0.7997117 -0.5131584 -1.2727635 -0.3788284 1.786549 0.9605413 -0.059656598 -0.6371995
0.12506902 -0.591636 -0.23596469 0.083401896 -0.48852825 -0.8137693 -0.06958776 0.5782059
-0.010911331 -0.0004179669 0.05562745 1.3165249 1.5583785 -0.3489567 -0.4476489 -1.3868647
-0.14480013 -0.18466762 2.0562818 -0.22106327 -1.2427874 -0.15131651 0.049381096 0.018422008
2.3552973 -0.09821177 -0.16909087 1.2122606 0.053791646 1.7602262 0.08892139 -0.92386895
1.3530955 0.08867252 0.8912742 -0.026443463 -0.9049058 -0.29095283 1.2463372 3.1792524
-0.92850727 0.98630434 -0.008357444 -1.0117121 -1.3428378 0.048627693 0.045324247 -1.1740401
1.921879 0.09087544 1.9087459 -0.18537347 -0.13594519 -0.19214128 0.01501351 -0.049168944
-1.3344051 -0.771981 -2.9287603 -0.06476559 1.7277323 1.3084576 0.060541753 -1.1099706
-0.13256782 -0.55046874 -0.0032562767 -0.04170088 -0.107464395 -0.545871 -1.3091811 -0.2668119
00000000: 58bf bd3d 57f9 a83d ad30 38bf 82bb c93f
00000010: f57a a23f 60b2 44be 730d 7abf 194a 02c0
00000020: ad1a 39bc 44a7 c8be f337 3040 7c91 50bc
00000030: f0bc 53bf 04ce db3c 8ee4 68be cfa0 7a3d
00000040: 0c6d e63f 16de 82be 80d7 02be 574b b23f
00000050: 4839 5abe acbf 0f40 6bf3 933d cc82 24bd
00000060: 12f6 bf3f 1281 a53d 9841 b3bc 9f02 c1bd
00000070: e881 f5bc 7605 c5be 4653 5f3f 25dd ef3f
00000080: 7135 61be d363 833f bb96 883d 7f1b 7bbf
00000090: b665 ddbf dce9 8ebb a62e 10bd cb7b 8fbf
000000a0: 50c1 0240 498c 8a3e 67bf 0440 72ce d6be
000000b0: 5655 a2be 490f 8bbf 0dbc 68bf 6abc b5bd
000000c0: ba8b bbbf ee8d 75bf d3bc 0fc0 78a7 bf3d
000000d0: 2295 bd3f c28a b13f b59a 80be 29f8 9fbe
000000e0: 3caf 95bd 0072 36bf 12bf 0abf a8b6 97bd
000000f0: f9a4 033e ba59 b1be c134 0bbf 9741 f43d
00000100: a373 1a3c 57a5 0dbe e33d 96be c2ed 783f
00000110: a77d 2c3f c652 c7bd c2f4 b8be 59ca a4bf
00000120: c83e 063e f0ce 01bf 7a9d e63f 86c1 8fbe
00000130: 3f44 27bf 5f03 62bd 9f80 1b3d ba3a c83d
00000140: 0ca5 dc3f cb21 4dbe 71f6 9f3d 73db 1240
00000150: 6340 dfbd 142f ca3f e7d0 6cbd 20bf 34bf
00000160: 0fa1 9e3f a45c d0bd 2680 63be bfbe 18be
00000170: f89d e5be b93f 38bf 4970 4f3f 8233 a73f
00000180: 85de 94be 95dc 383f f230 48bd d840 b4bf
00000190: 102e 4cbf c145 573d b560 2dbf 2d1a 2cbf
000001a0: fb94 a53f bca8 ca3d d0a5 4a3f 1fff 04be
000001b0: 888f a6be 6876 733d 5667 b9be 5c9c 483c
000001c0: e8b9 4cbf 595e 03bf eae9 a2bf ccf5 c1be
000001d0: a3ad e43f 09e6 753f 7a5a 74bd 821f 23bf
000001e0: 1812 003e 7575 17bf baa0 71be 9dce aa3d
000001f0: 6020 fabe 2f53 50bf 0784 8ebd 4d05 143f
00000200: 70c5 32bc 9122 dbb9 9cd9 633d e383 a83f
00000210: f278 c73f 74aa b2be 3d32 e5be c884 b1bf
00000220: 7c46 14be 8219 3dbe 1f9a 0340 695e 62be
00000230: a813 9fbf b7f2 1abe d543 4a3d c0e9 963c
00000240: 31bd 1640 4123 c9bd 2826 2dbe 5b2b 9b3f
00000250: a154 5c3d 184f e13f 6b1c b63d ad82 6cbf
00000260: 3c32 ad3f f099 b53d 8c2a 643f f69f d8bc
00000270: e8a7 67bf c5f7 94be fa87 9f3f df78 4b40
00000280: a7b2 6dbf 717e 7c3f a9ed 08bc c87f 81bf
00000290: 1ce2 abbf d52d 473d eba5 393d f246 96bf
000002a0: 2200 f63f e71c ba3d c951 f43f 8bd2 3dbe
000002b0: 3735 0bbe afc0 44be 3afb 753c 6065 49bd
000002c0: c9cd aabf 8ca0 45bf cf70 3bc0 d2a3 84bd
000002d0: 5526 dd3f 8a7b a73f a1fa 773d 8413 8ebf
000002e0: dcbf 07be 85eb 0cbf 4267 55bb 8bce 2abd
000002f0: 4b16 dcbd 34be 0bbf 3f93 a7bf 929b 88be

fc3.bias f4 [3]
0.103598155 -0.3961526 0.14841913
00000000: 452b d43d 83d4 cabe 2ffb 173e
