model/checkpoint_5200.pth (torch, 21912 bytes, 6 tensors)

fc1.weight f4 [64, 6]
000000 89 92 bb 3e ce d5 4a 3f e5 a2 83 be 4b 63 39 bf
       0.36635235 0.7923249 -0.25710216 -0.72417134
000010 9e 78 c9 bd a0 8e 86 3e f7 f6 da 3e e1 40 4c 3f
       -0.09837459 0.2628069 0.42766544 0.797865
000020 ee 97 bd be c1 09 5f bd 4a 31 91 bd 16 f9 6c 3d
       -0.37029976 -0.05445266 -0.07089479 0.057854734
000030 fb 25 4c bf 56 d0 a5 be 31 6b 77 bf 4f d6 00 3e
       -0.79745454 -0.3238551 -0.96647936 0.12581752
000040 92 a8 e0 3d fa c3 41 3e 61 64 aa bd a0 8c 44 bf
       0.10969652 0.18922415 -0.08319927 -0.76777077
000050 ec 6d 14 bd e4 65 81 3f 94 1a 89 3e 04 8b 98 3e
       -0.036237642 1.010922 0.2677809 0.2979356
000060 55 a4 97 be 8e 44 81 3f dc 1e 4a 3f 89 36 fb be
       -0.29617563 1.0099046 0.7895334 -0.49065045
000070 b5 6c b6 be a3 dc 04 3e f1 60 03 bf 9f 00 7f 3f
       -0.35629812 0.12974791 -0.51319796 0.9961032
000080 6c b3 44 bf 25 39 af be 55 90 e8 be 38 ba a2 be
       -0.76836276 -0.34223285 -0.45422617 -0.317827
000090 b1 3b bc bf 78 e2 ba be cf 79 1d 3f 37 12 86 be
       -1.4705716 -0.36500907 0.6151399 -0.26185772
0000a0 92 d8 86 be d1 4c 64 bd 2e 58 97 be 38 b6 7d bf
       -0.26337105 -0.05573732 -0.29559463 -0.9910617
0000b0 da 88 47 bf 31 d8 c3 be 0f 71 1a 3e d8 d3 4c be
       -0.77943194 -0.38250878 0.15082191 -0.20002687
0000c0 90 ec 55 bf a8 b6 ab bf 9b af 97 3f cb 26 b2 3e
       -0.8356409 -1.3415117 1.1850466 0.34795222
0000d0 07 63 69 3e 45 75 d2 3c 6e 62 62 be 95 d1 79 bf
       0.22791682 0.025690684 -0.2210786 -0.9758542
0000e0 59 60 a9 bc 05 3f b7 bc 13 c2 a2 be c7 88 ea be
       -0.020675825 -0.022368917 -0.31788692 -0.45807478
0000f0 10 f6 a3 3e 20 ac 98 be 14 93 57 3f 78 02 85 bc
       0.32023668 -0.2981882 0.842088 -0.016236529
000100 6f ea 2e 3f 8c 41 7b 3e 78 94 dc 3e d2 38 02 bf
       0.6832647 0.24536723 0.43082023 -0.5086795
000110 f2 eb 59 3e 0d 79 e4 3e e3 b5 b4 be 4a 5a 45 be
       0.21281412 0.44623604 -0.3529502 -0.19272724
000120 39 a0 2c 3f 2e ca 56 3d c5 88 10 3f 90 b8 ab 3f
       0.6743198 0.052438907 0.56458694 1.3415699
000130 b4 99 66 be 89 78 f6 be 8b a3 cd 3d b3 82 bc bf
       -0.2251957 -0.48138836 0.10040959 -1.4727386
000140 f1 a3 60 bf 2e 07 83 3f f4 36 75 3d 32 b3 ec be
       -0.87750155 1.0236566 0.05986686 -0.46230465
000150 b6 cc 41 3b 85 24 a6 3e 12 dc 2c bf 88 40 f4 3e
       0.002957148 0.32449737 -0.675233 0.47705483
000160 63 9d 9d 3e f2 9d 1f be 6b 76 86 3f 1a 97 ee 3e
       0.3078414 -0.15587595 1.0504888 0.46599656
000170 a2 3d 27 3e 01 c8 d4 3d e9 6e d1 be ca 7c 5b be
       0.16332105 0.1038971 -0.4090493 -0.21434322
000180 7b e0 e8 3e b8 e8 05 3f b5 5a 21 bf b6 01 4a bf
       0.45483765 0.52308226 -0.6302903 -0.7890886
000190 80 86 16 3f 37 30 96 3e 53 27 95 bf fb 13 18 3d
       0.5879898 0.2933366 -1.1652626 0.03712843
0001a0 c5 18 6a bf e3 02 8f 3d 17 3f 71 be 7d f7 88 be
       -0.91444045 0.069829725 -0.23559223 -0.2675132
0001b0 96 72 35 be f6 e9 df 3d 7b f5 55 3e f3 14 70 bf
       -0.17719492 0.109332964 0.20894425 -0.93781966
0001c0 47 57 00 bf 6a e9 ad 3e b9 bb 7f 3f a6 20 05 bb
       -0.50133175 0.33967143 0.9989582 -0.002031365
0001d0 b4 3f 85 be f2 3a 78 be 2a 59 8a 3e 11 d6 5f 3e
       -0.26025164 -0.24241236 0.27021152 0.21859004
0001e0 f7 53 3f 3f ef 68 88 3e 6c 49 b4 be 3d cf 05 3f
       0.74737495 0.26642558 -0.35212266 0.52269346
0001f0 bb 72 d4 be 97 76 65 be 36 da 35 bf 39 b6 4d bf
       -0.41493782 -0.2240852 -0.7103609 -0.80356175
000200 8b 20 25 bd 16 18 db be e7 66 3a be 4e 5c 22 be
       -0.04031424 -0.42791814 -0.18203317 -0.15855524
000210 39 59 2b be c7 f3 40 bf 23 3a 94 3e 05 43 9f be
       -0.16733254 -0.75371975 0.28950605 -0.3110582
000220 30 1d 64 3e fa db a8 3b ca 1c a6 3e d9 94 81 3e
       0.22276759 0.0051531764 0.3244384 0.25308874
000230 0b 97 2b 3f 78 02 cb 3e 40 a8 4d 3e b4 98 63 3e
       0.6702735 0.3965032 0.20083714 0.2222622
000240 d1 67 3b bf 9b 20 11 3f 25 b3 31 be 54 3b e6 3e
       -0.73205286 0.56690377 -0.17353494 0.4496714
000250 7f 51 a6 be 70 ee ae be 80 8c 62 3e d2 dc 40 bf
       -0.32484052 -0.34166288 0.22123909 -0.75336945
000260 49 6a 63 3e 83 af c6 3f af 44 61 be b3 46 b2 be
       0.22208513 1.5522312 -0.21998857 -0.34819564
000270 1d ef 9c bd a4 7a 86 bf 96 f4 f5 bd 0a 01 18 be
       -0.07662795 -1.0506177 -0.12009542 -0.14844146
000280 46 eb bc be a9 f3 d7 be cf 21 36 bf cf a3 dc be
       -0.3689825 -0.42178085 -0.7114534 -0.43093726
000290 5e c0 45 bf 71 bc 11 bf c1 bc bc be 38 70 39 3e
       -0.77246654 -0.56928164 -0.36862758 0.18109214
0002a0 81 9a 36 3c 0d 25 68 be f3 b6 aa 3e 47 b1 10 bf
       0.011145235 -0.22670384 0.33342704 -0.56520504
0002b0 2b 27 11 3e b0 0a 6a 3e dc b4 f0 be c6 97 10 3e
       0.14175098 0.2285564 -0.47012985 0.14120397
0002c0 4a 3d de be 16 38 98 3f 26 02 b7 3e f8 fe a0 be
       -0.43406135 1.1892116 0.35743827 -0.31444526
0002d0 ab 0e a7 be 21 f5 5c bd 49 4d 00 3f 11 8a c1 3d
       -0.32628378 -0.05394471 0.5011793 0.09450162
0002e0 21 52 23 3f 15 95 bf 3e 95 25 c2 be ba 7b 38 3e
       0.63797194 0.37418428 -0.37919298 0.18015948
0002f0 c2 4f 82 bf 5c e9 d2 3e 79 f0 e2 3e 24 13 db 3e
       -1.018059 0.41193664 0.4432409 0.4278804
000300 f6 60 72 bc 77 e5 81 3f ee 77 87 bf 37 8a 05 bf
       -0.014793625 1.0148152 -1.0583475 -0.52164024
000310 cc 3b 12 bc 85 4a a4 3e 73 d9 17 bf cf 17 fe 3e
       -0.0089253895 0.32088104 -0.59316176 0.4962754
000320 86 ae 86 3e c1 7d 14 bd 31 11 3c bf 91 56 ca be
       0.26305026 -0.03625274 -0.7346373 -0.3951917
000330 a4 2e d3 be 4a 7b 1b bf d9 0b 95 be b0 27 4d 3f
       -0.4124652 -0.60735 -0.29110602 0.80138683
000340 2d 48 b7 3c 2a 6b 4f be ad 43 88 3e 1a f3 9b 3c
       0.022373283 -0.20255724 0.26614133 0.019036818
000350 c9 58 8a be f0 d2 c9 3d fe ab 2e 3e 9e b5 4f 3e
       -0.27020863 0.09854686 0.17057797 0.20284125
000360 da 3d 72 3f ce fc 78 3f e1 69 8f 3f 4b 46 c0 bf
       0.9462563 0.9726075 1.1204187 -1.5021452
000370 ed d9 81 3e 2a 30 29 3f 38 26 55 3f d4 a1 b2 be
       0.25361577 0.6608912 0.8326144 -0.3488909
000380 88 50 a8 bf 48 db 41 be e5 e9 cc bd b4 be 04 bd
       -1.3149576 -0.18931305 -0.10005549 -0.03240843
000390 f6 02 95 bf 9b 4a 12 3f c9 91 ac be d4 cc 1d 3f
       -1.1641529 0.5714509 -0.33704975 0.6164067
0003a0 a7 e0 c9 3e 19 27 b6 3e 88 82 30 3f 30 50 88 3d
       0.3942921 0.35576704 0.68949175 0.066559196
0003b0 43 c4 1a 3f bc c7 07 bf 82 4c 47 be 3c a7 4c be
       0.6045572 -0.53039145 -0.19462779 -0.1998567
0003c0 12 0b b5 be 83 5f 21 3f 65 e0 4b be 35 46 8d be
       -0.35360008 0.63036364 -0.19909818 -0.27592626
0003d0 45 f1 c9 3d c8 6f 98 be 22 dd 5b 3f da 29 2b bf
       0.09860472 -0.29772782 0.85884297 -0.66860735
0003e0 75 ce 29 3f 2b 12 0d bf 77 a7 fb be 8e d0 06 be
       0.66330653 -0.5510585 -0.49151203 -0.13165495
0003f0 54 0a 4f 3f ec 75 f3 be 5f 43 01 bf b5 10 fa be
       0.80875134 -0.47550905 -0.50493425 -0.4884087

fc1.bias f4 [64]
000000 04 ab b4 3e 35 18 f8 3e 49 ae b1 3e 98 a2 a0 bd
       0.35286725 0.48455968 0.34703282 -0.07843512
000010 af 17 b4 3e 58 3d a9 3e fd 2b 4c bf 96 a1 3d bc
       0.3517432 0.33054614 -0.7975462 -0.01157417
000020 41 6d b4 be df 01 51 3e d8 be 07 bf e3 0f 59 3f
       -0.35239604 0.2041087 -0.5302558 0.84789866
000030 26 f2 a8 3b ee 75 6e bd b2 8c 95 bf da e7 96 3e
       0.0051558195 -0.058217935 -1.1683562 0.29473764
000040 bb 53 49 3f d3 2d 33 be 5f 69 9c 3b 36 83 24 3f
       0.7864339 -0.1749795 0.0047733034 0.6426271
000050 93 be 73 3f 85 89 4f bf fc 4f 37 3f 3a f0 49 3f
       0.9521267 -0.81069213 0.7160642 0.7888218
000060 c0 1f 57 be 45 8b 60 3d 15 ca 7c 3d 2e 31 e8 be
       -0.21008205 0.054820318 0.061716158 -0.4535002
000070 52 5e 87 3f 01 c7 f7 be be 16 3b bf 8a aa be bd
       1.0575659 -0.48394015 -0.73081577 -0.093098715
000080 d4 b5 e5 be de ee 36 bf 44 14 8d 3e 40 51 51 3f
       -0.44865286 -0.7145823 0.27554524 0.817646
000090 4e 44 41 3f 1d 0b 99 3c 99 2b 25 be b6 1f ed 3e
       0.7549485 0.018682057 -0.16129912 0.46313256
0000a0 f1 08 a6 3e 13 5f 02 bf 1d 39 2a 3e 52 e6 0f bf
       0.32428697 -0.5092632 0.1662335 -0.56210816
0000b0 47 80 00 3f 82 95 2e be 5f 92 fa be bc da 4b bc
       0.50195736 -0.1704922 -0.48939797 -0.012442287
0000c0 36 7e 35 3f 29 0c a1 3e 29 cb a1 be c7 a7 15 bd
       0.7089571 0.3145459 -0.3160031 -0.036536958
0000d0 b0 39 c9 3e 7f 9c 50 bf d2 81 c5 3e 2e 67 f5 be
       0.39301825 -0.81488794 0.38575608 -0.47930282
0000e0 0b 7b 43 bf 3b 47 1f bf 50 32 38 bf 6a d0 34 3f
       -0.76359624 -0.62218064 -0.7195177 0.70630515
0000f0 e5 18 28 bf d4 bb 34 3f 0a 2f 0b be b2 91 e0 3e
       -0.65662986 0.705991 -0.13592163 0.43861157

fc2.weight f4 [64, 64]
000000 c6 e2 45 bd eb 6b 23 be 4b 5e a0 3d 9d 6a 00 3d
       -0.04831197 -0.15959136 0.07830485 0.031351674
000010 dc e2 94 3d 34 26 2e 3d d1 c5 a8 bd 19 d8 86 3d
       0.072698325 0.042516902 -0.082408555 0.06584186
000020 53 94 3a bc 69 af f3 3c 73 a2 ed bd 5d 37 ad bd
       -0.011387902 0.029746728 -0.1160325 -0.08457825
000030 9b 6b 18 be 6e 3b 84 bd a6 a9 35 3c d0 4b 0a be
       -0.14884798 -0.06456648 0.011087811 -0.13505483
000040 38 80 c5 3a c0 d6 51 3d 9c f0 c0 bc 7b c7 f8 bd
       0.0015068119 0.051230192 -0.023552231 -0.12147423
000050 6a c1 12 be 51 58 63 bd 75 03 45 3b 16 0b b2 3d
       -0.14331594 -0.055504147 0.0030061875 0.08693521
000060 3d 62 65 3d d5 9a f3 bc fc f1 f5 3c 56 c8 20 be
       0.05600189 -0.029736916 0.030022614 -0.15701422
000070 55 f3 25 be ab db 2d 3d 84 78 da bd 52 6a a5 3c
       -0.16206105 0.04244582 -0.10667518 0.020192299
000080 3c 0f ff bd ca 4c 9f bd ec 7b eb bd fe 2a d7 3c
       -0.124540776 -0.07778318 -0.114982456 0.026265617
000090 8f 2d 4f bd e4 85 a4 3d b1 53 15 3d 77 d1 8d 3c
       -0.050580557 0.0803335 0.036456767 0.017311795
0000a0 9e 50 a7 bc 65 a2 9c bd 80 6c 89 bd fe a2 8c bc
       -0.020424183 -0.07648162 -0.06710148 -0.017167564
0000b0 bf 1d bd 3c ea d9 d3 bd fa 54 b6 3d 1f c1 5a bd
       0.023085473 -0.10344298 0.08902927 -0.05340683
0000c0 b7 d3 0d be 5b 3e c8 bd 92 fd c1 3d 7a c2 a5 3d
       -0.13850294 -0.09777518 0.09472193 0.08093734
0000d0 3a 9e 08 be df 30 4d 3d 63 45 88 3c 33 ca 0f 3d
       -0.13341609 0.050095435 0.016634649 0.03510494
0000e0 8d a0 a7 3d 05 ca c7 bd 44 6b a8 3a 6f 08 dc ba
       0.081849195 -0.09755329 0.001284935 -0.0016787181
0000f0 a7 6e 99 bd a7 4b 35 3b bd fc 5e bd ef 3f 24 3d
       -0.074918084 0.00276635 -0.05444025 0.040100034
000100 0f 99 9a bd 7b 82 af bd 8d 87 cb 3b 7c 35 fb 3b
       -0.07548725 -0.08569809 0.0062112273 0.007666288
000110 59 08 e6 bd bb 5b 0c bd 2d 8d 27 3d 28 63 92 bc
       -0.11232061 -0.03426717 0.04090612 -0.017869547
000120 5f db 2a 3c 86 a3 23 bd b8 de bd 3c 3f 3e e1 bd
       0.010428279 -0.03995087 0.02317749 -0.109982006
000130 70 49 b0 bd 28 a1 ac bd 83 0a cc 3d d2 08 8b bd
       -0.08607757 -0.084291756 0.099629425 -0.06788792
000140 de b9 b5 bc a3 8d 9c bd 29 86 b0 3d 39 ed a9 3d
       -0.022183355 -0.076442026 0.08619339 0.082972
000150 d5 c4 f0 bd ea 58 16 be 65 c6 04 be 3f 28 18 bd
       -0.11756293 -0.14682356 -0.12966307 -0.037147757
000160 c4 82 02 bd 6b 07 cf bd 0b 60 83 bd f3 a2 9f bc
       -0.03186299 -0.10108837 -0.06414803 -0.01948688
000170 34 42 b2 bd 2d 6a da 3b 76 b5 e5 bc 1a d7 97 bd
       -0.087040335 0.006665489 -0.028040629 -0.07414074
000180 6b 35 fa bc ed f9 b1 3d 43 aa ff bd 9e 46 03 bd
       -0.03054305 0.08690248 -0.12483647 -0.032049768
000190 02 fc a9 bd 55 36 d2 3d c8 64 1f be d8 4c 10 be
       -0.0830002 0.10264269 -0.15565789 -0.14091814
0001a0 5b fa d9 3d 16 de b8 bd 7d 4a 78 bc bc d6 5b bd
       0.10643455 -0.090267345 -0.015154478 -0.053671584
0001b0 04 18 0c bd 6e 3e fe bc 2c 24 7b 3d 24 c1 f2 bc
       -0.03420259 -0.031035628 0.061313793 -0.029633112
0001c0 1a c7 36 be da ec a5 bd 45 f4 5e bd 90 b8 fd 3c
       -0.17849389 -0.081018165 -0.054432172 0.030971795
0001d0 1a da d1 bd de a5 a4 3d ae 4b 23 bd 05 b4 75 bd
       -0.10246678 0.08039449 -0.039867096 -0.059986133
0001e0 63 ed a9 3d 23 f4 d4 3c 7f b4 89 3d ef bd 10 3d
       0.08297231 0.02599532 0.0672388 0.035337385
0001f0 55 89 a9 bd 60 76 f9 bd ca 87 ee bc ea 36 86 3d
       -0.08278147 -0.12180781 -0.029117484 0.06553443
000200 8e 56 ff 3d d0 a0 f3 3b 04 4d 89 3e c6 f6 2d 3e
       0.12467681 0.007434942 0.2681657 0.16988668
000210 55 79 65 3d 10 d4 51 3e 67 5c 06 bf c3 57 a1 be
       0.056023914 0.20491052 -0.52484745 -0.3151227
000220 50 98 c0 bc 81 99 2c bf cb 6d 09 be 6c 27 b1 3e
       -0.023510128 -0.6742173 -0.13420789 0.3460039
000230 86 d6 dd 3e 19 b9 b9 3d b0 5d 16 bf 64 e7 03 be
       0.4332773 0.09068508 -0.58736706 -0.12881237
000240 9b 27 bf 3d 9c a2 30 3f 2e 1f a4 3d 1d f4 a3 3e
       0.09333726 0.6899812 0.080137596 0.3202218
000250 8b f0 6e 3e 2e 74 83 be 16 cf 97 3d 4a 18 c6 3e
       0.23333947 -0.25674576 0.074125454 0.38690406
000260 b9 9b ca be e6 7d bd bb 36 69 a6 bd 83 89 83 bd
       -0.39571932 -0.0057828305 -0.08125536 -0.06422713
000270 6d 81 41 3e a3 93 fc bd b6 80 81 bc c6 84 9e 3c
       0.18897028 -0.12332847 -0.015808444 0.01935042
000280 c7 57 65 3e f4 60 58 bf a8 38 ca 3e a1 c4 6d 3e
       0.22396766 -0.8452294 0.3949635 0.23219539
000290 6c 7b 14 3e a2 b2 7a be 33 45 aa be 4d 46 08 3e
       0.14500207 -0.24482206 -0.3325592 0.13308068
0002a0 8a e4 89 bc 45 c0 18 bf 4c e6 93 be 3e 6f f8 3d
       -0.016832609 -0.5966838 -0.2888664 0.12130593
0002b0 3a 32 94 bd b3 4e f8 3d 9e df c3 be 77 87 d3 3b
       -0.072361425 0.12124386 -0.38256544 0.0064553577
0002c0 13 a4 6d 3e a8 63 6d bd c9 d8 07 3d c7 b9 a1 be
       0.2320712 -0.057956368 0.033165727 -0.3158705
0002d0 d4 e4 df 3d 35 dd fa bd e3 f3 bd 3e ec e9 a0 bd
       0.109323174 -0.12249223 0.37100133 -0.07857117
0002e0 29 22 8f 3e 88 0b e2 be 2d 63 c3 bc 57 2e a3 bd
       0.2795575 -0.44149423 -0.023851002 -0.07967823
0002f0 bf 50 2e be 56 eb 65 3d c6 86 d3 be 00 d9 a0 3c
       -0.1702299 0.056132637 -0.4131376 0.019634724
000300 58 29 0d c0 9b 0e e8 bd b7 ce 8d bf 4c ba 2e bf
       -2.2056484 -0.11330911 -1.1078709 -0.68253016
000310 f2 16 a9 bf 01 39 24 3e 40 c5 51 3f f0 c6 c9 be
       -1.3210127 0.1603737 0.81941605 -0.3940959
000320 d0 ce c2 bf 07 02 da 3e cd d5 bb 3e 23 03 92 be
       -1.5219364 0.42579672 0.36686555 -0.28518018
000330 84 0d 68 3e a2 01 b5 3d bf 5d 11 3d 0a fa ef be
       0.22661406 0.08838202 0.035489794 -0.46870452
000340 20 15 d7 3e 41 61 88 3e 6c a1 1b bf 33 a4 0e bf
       0.42008305 0.266367 -0.60793185 -0.557193
000350 6e 4f 25 3e 4a f5 38 bf ae 9b 28 3e 24 96 0d bd
       0.16143581 -0.7224928 0.16465637 -0.034567013
000360 3f a0 af bd 09 dd a8 3d 77 60 ac be bd 77 e4 be
       -0.085754864 0.08245284 -0.33667347 -0.44622603
000370 2e f2 56 bf 2f 2d 76 3e 8c b4 ed be 0f 42 4f 3c
       -0.83963287 0.24040674 -0.4642681 0.012650027
000380 14 c7 2a c0 b3 a0 c7 bd cc 66 ec 3e ec 8e ae be
       -2.6684008 -0.09747448 0.46172178 -0.34093416
000390 68 0d 02 c0 3f 05 b3 3d a7 7e cd 3f e7 7b c5 be
       -2.0320683 0.08741235 1.6054276 -0.38571092
0003a0 8a ef 72 3e f7 7c 9a bf 5f a4 47 be c4 9e 85 bf
       0.2372419 -1.2069386 -0.19496296 -1.0439076
0003b0 6f d6 4b 3f 82 75 6f 3d 2b fa 2a 3d 2f 73 1c 3f
       0.79624075 0.058461674 0.041742485 0.61113256
0003c0 56 9c 1a 3e db 8c b7 bd 88 04 78 3e 54 0e eb 3d
       0.150987 -0.08962413 0.24220479 0.11477342
0003d0 b6 b9 86 be c8 b1 94 3d 9e 98 39 3e a7 71 94 3e
       -0.2631356 0.072604716 0.18124625 0.2899296
0003e0 52 63 83 bf 56 6f e6 3d fb 11 1e bf e9 cd a2 bf
       -1.0264685 0.112517044 -0.61746186 -1.2719089
0003f0 5b 72 4e c0 9e 2c 58 bf b8 93 52 3e 10 5d a8 be
       -3.2257297 -0.8444308 0.20564163 -0.328835

fc2.bias f4 [64]
000000 42 2c 21 be 64 d2 c4 3c 05 cc 88 3e 8c 61 a8 3d
       -0.1573954 0.024026103 0.26718155 0.082217306
000010 f3 16 a2 bc 47 b0 5b 3e 02 b2 e2 3e 4f 83 50 3d
       -0.019786334 0.21453963 0.44276434 0.050906476
000020 62 56 2c 3b 10 b8 b9 3d 72 47 b9 3e 11 bb b7 3d
       0.0026296605 0.0906831 0.3618732 0.08971227
000030 25 d5 8b 3e df 3d 2f 3c cb 99 c2 3d 9b a1 e2 bd
       0.27311054 0.010695904 0.0950199 -0.1106598
000040 75 3d 59 3d 5c 56 3a 3e 03 87 fd 3d 13 12 93 bc
       0.053037126 0.18197006 0.12379267 -0.017952954
000050 fc 74 e5 ba 39 5e 61 3e f5 5b b2 3c 07 63 fe 3e
       -0.0017506178 0.220086 0.021772364 0.49684927
000060 73 3e 25 3d 02 8b 13 be 5f 1d 82 3e cf 55 4b 3d
       0.04034276 -0.14408496 0.25413033 0.04964238
000070 c8 f3 d5 3e 09 67 cd 3d 90 14 a1 3e ba e3 fb 3d
       0.41787553 0.10029418 0.31461 0.12299295
000080 a2 60 41 3e 82 40 54 bd af 11 9d 3d 46 ad 01 3f
       0.18884519 -0.051819332 0.076693885 0.5065502
000090 c3 36 7f 3c ca 03 da bd 2f cb fe bc 08 b0 4f 3e
       0.015577021 -0.10645254 -0.031102745 0.20281994
0000a0 6a 87 c4 3e da 0e 88 bd 3c 8d aa 3e 58 d4 a1 3e
       0.38384563 -0.06643458 0.33310878 0.31607318
0000b0 e9 99 3f 3e f3 ee e6 3c 0a 7b 7a 3e 55 6f 26 bc
       0.18711056 0.028190112 0.24460998 -0.01015838
0000c0 9b ba 9c be 88 fc 03 be 1e 8a a0 be 1d 0c 24 3e
       -0.3061112 -0.12889302 -0.31355375 0.16020246
0000d0 d9 d8 89 3d b8 98 a9 bd 62 3c 06 3d d0 75 89 3c
       0.067308135 -0.08281082 0.03277243 0.01677981
0000e0 7c cf a8 3d 76 db b2 3e c8 e3 29 3e e7 92 c5 3d
       0.082426995 0.3493306 0.16590798 0.0964716
0000f0 cc db 45 3e 13 27 c2 3e f9 5b 7c 3e 18 5c f5 3d
       0.19322127 0.37920436 0.2464446 0.11980456

fc3.weight f4 [3, 64]
000000 58 bf bd 3d 57 f9 a8 3d c2 51 20 bf b5 43 d5 3f
       0.092650115 0.08250683 -0.6262475 1.6661288
000010 f0 32 96 3f 67 c1 60 be 59 92 65 bf 2e e4 cc bf
       1.1734295 -0.21948777 -0.89676434 -1.6007135
000020 a5 ab f8 bd 7a 4e 80 be da 0b 16 40 6f ab ca bd
       -0.121421136 -0.25059873 2.3444734 -0.098959796
000030 7d b9 3f bf c6 15 b7 bc 54 aa 7c be cf a0 7a 3d
       -0.7489241 -0.02234925 -0.2467435 0.061188515
000040 f4 ce ef 3f 24 8e ca bd aa 0d 03 be 10 44 aa 3f
       1.8735032 -0.098903924 -0.12798181 1.3302021
000050 11 1c 76 be 3a 72 04 40 6b f3 93 3d 6f fc 96 bd
       -0.24034144 2.0694718 0.07224163 -0.07372367
000060 af 84 be 3f 12 81 a5 3d db ff 7c bd ad fd 21 be
       1.4884242 0.08081259 -0.06176744 -0.15819426
000070 a9 7f 8c bd 4c 72 87 be ec 5f 46 3f ba e3 f3 3f
       -0.06860287 -0.2645439 0.77490115 1.9053872
000080 18 c6 bf be 06 d8 62 3f bb 96 88 3d f0 1d 79 bf
       -0.3745582 0.88610876 0.066693746 -0.97311306
000090 08 45 c9 bf dc e9 8e bb 5a f6 ec bd 99 fa 8d bf
       -1.5724192 -0.0043613743 -0.11570425 -1.1092101
0000a0 f3 a8 de 3f 49 8c 8a 3e 86 a2 05 40 0d 3b a3 be
       1.7395309 0.27060154 2.0880446 -0.3188099
0000b0 f1 65 c1 be cb 74 42 bf 84 98 58 bf 6a bc b5 bd
       -0.37773088 -0.7595946 -0.8460772 -0.08873828
0000c0 e4 70 b7 bf ff f1 84 bf a6 d1 14 c0 db 82 cb 3b
       -1.4331326 -1.0386351 -2.325296 0.0062106675
0000d0 9e 9f a1 3f 90 d1 ba 3f fa 88 8b be 72 bb af be
       1.2626836 1.4595203 -0.27252942 -0.34322697
0000e0 54 d5 d5 bd 8d 90 2e bf f0 4a 99 be 3d bf 28 be
       -0.1044108 -0.68189317 -0.29939985 -0.16479202
0000f0 7e e0 96 39 c9 17 a2 be 79 5a 28 bf 43 f7 fd bb
       0.0002877749 -0.31658772 -0.6576305 -0.007750423
000100 a3 73 1a 3c 57 a5 0d be 39 ff d7 be c6 fa 76 3f
       0.009426984 -0.13832603 -0.42186907 0.964764
000110 8b 44 2d 3f 0a 2e 1d be 3c 1e 06 bf 7d 76 9b bf
       0.67682713 -0.15349594 -0.52389884 -1.2145535
000120 8d 1a 2d bc 49 74 e1 be 49 92 cc 3f 41 1e 89 be
       -0.010565412 -0.4403403 1.5982143 -0.26780894
000130 18 08 43 bf bf 71 dd bd de 07 c4 ba ba 3a c8 3d
       -0.76184225 -0.10812711 -0.0014955958 0.09776826
000140 04 bc ca 3f 20 7a 04 be 56 9b b7 bb a2 fb 0a 40
       1.5838628 -0.12937212 -0.0056032343 2.1716084
000150 e5 ed fd bd b6 5e 9e 3f e7 d0 6c bd 08 7e 2e bf
       -0.123988904 1.2372653 -0.057816412 -0.6816106
000160 8b c4 7d 3f a4 5c d0 bd 4a 68 6f be ee 7e 0b be
       0.99128026 -0.1017392 -0.23379627 -0.13622639
000170 fa 73 e1 be 8c e7 22 bf 39 7b 6b 3f b8 68 80 3f
       -0.44033796 -0.6363456 0.919849 1.0031958
000180 b7 88 00 bf 61 ff 05 3f f2 30 48 bd 13 84 b7 bf
       -0.5020861 0.523428 -0.048874803 -1.4337181
000190 ef eb 53 bf c1 45 57 3d c0 83 ce be ea 0d 25 bf
       -0.8278188 0.052556757 -0.40334892 -0.64474356
0001a0 0e f8 84 3f bc a8 ca 3d 88 0d 68 3f 11 66 b6 bd
       1.03882 0.09895465 0.9064565 -0.08906186
0001b0 a7 5b 97 be 38 62 6f 3e 36 97 b9 be 5c 9c 48 3c
       -0.29562113 0.23377311 -0.36248177 0.01224431
0001c0 ef 31 3b bf cf c0 14 bf dd 4a c2 bf 1c 0a 8c be
       -0.7312307 -0.581067 -1.5179096 -0.27351463
0001d0 67 a6 e2 3f f3 49 48 3f 3b e6 98 bd f7 4f 1c bf
       1.7707032 0.7823784 -0.07465788 -0.61059517
0001e0 8a 4b 42 3c 42 8c f5 be 4b 3a 21 be 12 d9 e1 bc
       0.01185883 -0.4795857 -0.15744893 -0.027569328
0001f0 a6 b3 b3 be c6 0f 19 bf 3b 03 81 be 77 11 1b 3e
       -0.35097998 -0.59789693 -0.25197777 0.15143381
000200 70 c5 32 bc 91 22 db b9 66 b5 1b bd 89 89 a7 3f
       -0.010911331 -0.0004179669 -0.038014792 1.3088847
000210 89 31 bc 3f 2f 23 90 be b4 4d e5 be 8d f1 90 bf
       1.4702617 -0.28151843 -0.44785845 -1.1323715
000220 d1 ae 2e be bc 6e 91 bc 82 fc ba 3f 8d 29 83 be
       -0.17058875 -0.017752998 1.4608309 -0.25617638
000230 50 68 8f bf 4f 10 31 be 79 46 05 bd c0 e9 96 3c
       -1.1203709 -0.17291377 -0.03253791 0.018422008
000240 6d f2 0d 40 2f 33 be bd 10 2f b7 bd 8b 57 b8 3f
       2.2179215 -0.09287106 -0.08944523 1.4401716
000250 f8 7d c5 bc 8b f5 8d 3f 6b 1c b6 3d 5f 50 68 bf
       -0.024107918 1.1090559 0.08892139 -0.90747637
000260 9b 2f 9e 3f f0 99 b5 3d 51 90 4a 3f 5a 29 9e bd
       1.2358278 0.08867252 0.7912646 -0.07722731
000270 c1 d1 64 bf d3 3c 92 be f4 b5 99 3f 1f 9c 26 40
       -0.8938256 -0.2856203 1.2008653 2.6032789
000280 48 fa 53 bf 00 f8 82 3f a9 ed 08 bc ad aa 84 bf
       -0.82803774 1.0231934 -0.008357444 -1.0364586
000290 51 f1 a7 bf d5 2d 47 3d 22 0f af bc 4b a4 8a bf
       -1.3120519 0.048627693 -0.02136952 -1.0831388
0002a0 6d 3e c1 3f e7 1c ba 3d 65 1d e9 3f 51 9c 73 bc
       1.5097176 0.09087544 1.8212095 -0.014868812
0002b0 59 75 51 be e4 80 00 be 38 21 ae 3c 60 65 49 bd
       -0.20454921 -0.12549168 0.021256074 -0.049168944
0002c0 3c 87 9e bf 01 8f 44 bf 30 54 33 c0 e3 68 68 bd
       -1.238502 -0.76780707 -2.8020134 -0.056740653
0002d0 3a 95 df 3f b8 ba 95 3f e6 29 3b 3c a5 da 6f bf
       1.7467415 1.1697607 0.011423564 -0.93693
0002e0 a4 21 e3 bd 76 97 0b bf a4 38 9e bd 34 23 cb bd
       -0.11090401 -0.54527986 -0.07725647 -0.09918824
0002f0 34 cb c8 bd 32 6a 0d bf 4c 81 96 bf 16 29 48 be
       -0.09804383 -0.55240166 -1.1758208 -0.19546923

fc3.bias f4 [3]
000000 30 e8 5f 3d e3 1a b5 be 47 4d 0e 3e
       0.05466479 -0.35372075 0.13896666
