model/checkpoint_6000.pth (torch, 21912 bytes, 6 tensors)

fc1.weight f4 [64, 6]
000000 41 a4 a8 3e ba ac 4f 3f fc ff 88 be ae b9 36 bf
       0.32937816 0.81122935 -0.267578 -0.71377075
000010 b1 1c a5 bd 92 01 8e 3e 36 5e ca 3e a9 58 60 3f
       -0.08062113 0.27735573 0.39525002 0.87635285
000020 22 d0 c5 be 67 bc 45 bd ec de c0 bd d8 f3 80 3d
       -0.38635355 -0.048275378 -0.09417519 0.062965095
000030 35 8b 51 bf 90 ec 98 be 26 b8 7c bf 3a 0e 8a 3d
       -0.8185304 -0.29867983 -0.9871849 0.06740995
000040 f0 1c 10 3e 4b a2 43 3e 76 70 81 bd 05 fa 45 bf
       0.14073539 0.19104879 -0.06320278 -0.77334625
000050 4a 3d 74 bd b1 a8 86 3f 53 d1 86 3e c4 95 8e 3e
       -0.059628762 1.052023 0.26331577 0.27848637
000060 86 be 98 be fc 4f 86 3f ee b3 43 3f c3 12 dc be
       -0.29832858 1.0493159 0.76446426 -0.42983064
000070 cb 69 c1 be 38 ae 01 3e 7d 91 08 bf 8a 7a 6a 3f
       -0.37776026 0.12664115 -0.53347 0.9159323
000080 0a c9 3c bf a3 71 ad be 95 a2 ed be 0c ab af be
       -0.7374426 -0.3387576 -0.46413103 -0.34310186
000090 f4 c4 c3 bf 9f 8c a5 be 95 b7 1f 3f 4b a6 48 be
       -1.529448 -0.32333848 0.623895 -0.19594686
0000a0 d5 62 a4 be b8 4e 79 bd af 42 92 be 06 18 7f bf
       -0.32106653 -0.060866088 -0.285665 -0.9964603
0000b0 86 d6 4f bf 0d 8e bd be 6f d1 04 3e a6 b6 52 be
       -0.8118671 -0.3702244 0.12970518 -0.20577487
0000c0 7b 45 3e bf 17 c9 bd bf ef c6 9f 3f fc 6c c1 3e
       -0.7432477 -1.4826993 1.2482585 0.3777846
0000d0 46 2e 78 3e 15 78 ef 3c 47 96 64 be 0a 19 6f bf
       0.24236402 0.029232064 -0.22322951 -0.9339758
0000e0 56 58 ab bd 60 2e 00 3d 88 16 a7 be 5f f6 ed be
       -0.08366458 0.031294227 -0.32634377 -0.4647703
0000f0 a4 8e 8f 3e d1 e7 7d be 78 ad 56 3f ff 68 f8 3c
       0.28038514 -0.24795462 0.8385844 0.030323504
000100 fd b7 30 3f 91 82 88 3e 2e f9 c5 3e 19 06 f8 be
       0.69030744 0.26662114 0.38666672 -0.48442152
000110 15 1e 4a 3e 0c f9 c1 3e a8 90 b7 be 56 91 40 be
       0.19738038 0.3788532 -0.3585255 -0.18805441
000120 09 0b 3c 3f f1 c1 f3 3d cb 11 0f 3f f3 62 a6 3f
       0.7345434 0.11902226 0.55886525 1.2998947
000130 98 6d 6c be 86 bb f1 be fe 41 72 3d b8 8a bc bf
       -0.23088682 -0.47213382 0.059144966 -1.4729834
000140 48 be 5a bf 4c 76 85 3f ba 35 76 3d a4 08 f2 be
       -0.85446596 1.0426726 0.06010983 -0.47272217
000150 f2 6d c4 3c 02 a4 bd 3e b1 2e 31 bf 57 c7 01 3f
       0.023978207 0.3703919 -0.6921187 0.50694793
000160 5b b2 98 3e ea 05 33 be 9d 92 8c 3f 0a 58 f8 3e
       0.29823574 -0.17482725 1.0982243 0.48504668
000170 ca 57 3b 3e 2c 2f 94 3d f7 ff d1 be 82 d8 3b be
       0.18295208 0.0723556 -0.41015598 -0.1834431
000180 2c 27 cf 3e e3 e5 0a 3f 5f e4 32 bf f1 b8 50 bf
       0.40459573 0.5425703 -0.69879717 -0.815322
000190 42 83 18 3f 21 42 a6 3e 03 65 94 bf 9c d2 95 bd
       0.59575284 0.32472327 -1.1593326 -0.07315561
0001a0 c2 7d 73 bf 31 f4 41 3c ae bb 73 be 07 e5 84 be
       -0.95113766 0.011838005 -0.23802063 -0.25955984
0001b0 6c d1 4f be 9f 8c 45 3e 18 68 32 3e 09 7c 6a bf
       -0.20294732 0.19291924 0.17422521 -0.9159551
0001c0 61 7b fe be d3 e1 af 3e 73 27 82 3f 44 44 a1 bc
       -0.49703506 0.34351978 1.0168289 -0.019685872
0001d0 4a 9f 8e be 08 e3 aa be 51 20 98 3e 54 82 62 3e
       -0.27855903 -0.33376336 0.29712155 0.22120029
0001e0 24 52 3f 3f 74 d8 7a 3e bf 92 ac be 03 74 09 3f
       0.7473471 0.24496633 -0.33705708 0.53692645
0001f0 67 c8 cd be 97 7a 5e be 51 06 38 bf f0 85 59 bf
       -0.40191957 -0.21726452 -0.7188464 -0.8497
000200 ee 0c f5 bd 45 c4 e2 be eb 1a 46 be d9 70 2f be
       -0.11965357 -0.44290367 -0.19346206 -0.17132892
000210 29 e7 57 be d5 82 48 bf dc e3 88 3e 85 de c3 be
       -0.21084274 -0.78324634 0.26736343 -0.38255706
000220 05 dc 70 3e fc 8a a7 3c a9 3f a0 3e a9 82 74 3e
       0.23521431 0.020452015 0.3129857 0.23877968
000230 b8 77 20 3f 95 12 e8 3e f4 97 51 3e ba 88 73 3e
       0.62682676 0.45326677 0.20468122 0.23782626
000240 fd b3 2f bf 96 a3 1c 3f d7 f8 74 be 0e c3 f5 3e
       -0.68634015 0.6118711 -0.2392305 0.48000377
000250 90 fb a5 be b0 30 aa be 75 41 72 3e 31 06 58 bf
       -0.3241849 -0.3324027 0.23657782 -0.8438445
000260 a6 9a 1d 3e 42 53 c3 3f 0b 6f 6b be 91 86 b6 be
       0.15391025 1.5259783 -0.22991578 -0.3564954
000270 10 82 80 bd 13 b1 81 bf 76 47 1e be 4b cb 94 bd
       -0.062748075 -1.0132164 -0.15456948 -0.072653376
000280 11 d9 cf be 42 94 e6 be 2c 0a 34 bf 44 f3 f7 be
       -0.40595296 -0.45034987 -0.7032802 -0.48427784
000290 e2 83 53 bf 64 04 15 bf ba da c3 be b9 1c 3a 3e
       -0.8262311 -0.58209825 -0.38252813 0.1817502
0002a0 1c d5 0c bb 33 43 5b be 63 6c b7 3e a9 d8 0f bf
       -0.0021489328 -0.21412353 0.3582488 -0.5618997
0002b0 8a f6 03 3e 8a 29 69 3e 95 37 d5 be 98 6d 34 3e
       0.12887016 0.22769752 -0.41643968 0.17619932
0002c0 5e e9 0c bf 8f f0 9a 3f d5 c7 b7 3e 4a 71 a1 be
       -0.5504359 1.2104663 0.35894647 -0.31531745
0002d0 ce e9 9c be b9 b7 ac bd db 17 00 3f 7a f0 a2 3d
       -0.3064713 -0.0843348 0.500364 0.079560235
0002e0 9b 46 2b 3f d1 49 cb 3e b9 8e d1 be 35 f9 53 3e
       0.6690461 0.39704755 -0.409292 0.20700534
0002f0 7f 8f 81 bf a2 ac cb 3e f8 49 de 3e 55 e3 df 3e
       -1.0121917 0.39780146 0.4341581 0.43728128
000300 94 1b 2f bd 08 b9 83 3f 59 6c 8a bf 51 66 01 bf
       -0.04275091 1.0290842 -1.0814315 -0.5054675
000310 a2 1d 1b ba 1a 70 ab 3e aa 00 16 bf a6 6c 0e 3f
       -0.00059171964 0.33483964 -0.58594763 0.55634534
000320 28 07 86 3e bc 5e 0c bd be af 3f bf 2e 07 c9 be
       0.26177335 -0.034270033 -0.74877536 -0.3926329
000330 48 75 e4 be f0 26 13 bf 74 7b 8b be 88 91 6a 3f
       -0.44620728 -0.5748129 -0.27242625 0.91628313
000340 82 2d 2c 3c 30 00 65 be 35 b3 7d 3e 57 2c fa 3b
       0.010508897 -0.22363353 0.24775393 0.0076346803
000350 9e 68 a6 be f2 48 f6 3d 7f e9 37 3e 2b d7 51 3e
       -0.32501692 0.12025632 0.17960165 0.20492236
000360 24 72 73 3f 58 21 74 3f d2 19 97 3f 22 99 c2 bf
       0.9509604 0.9536338 1.1804755 -1.5202982
000370 a2 94 8f 3e 97 5f 2d 3f d8 b8 58 3f 6e bd cf be
       0.28043085 0.67723984 0.8465705 -0.4057421
000380 29 3d b1 bf 30 2c 22 be de 68 1b be 70 fd 3d bd
       -1.384679 -0.15837169 -0.15176722 -0.046384275
000390 d2 90 9a bf b2 d1 20 3f 5b fe a6 be 93 8c 1e 3f
       -1.2075446 0.6281997 -0.32615933 0.6193325
0003a0 a0 2b c9 3e 94 61 b9 3e 52 5e 32 3f 66 35 96 3d
       0.39291096 0.3620726 0.6967517 0.07334404
0003b0 4c 14 14 3f f5 70 0e bf 27 0f 58 be 6c fe 4f be
       0.5784347 -0.5564111 -0.2109953 -0.20311898
0003c0 9f bf d7 be 78 e9 2a 3f eb d1 3e be ab b5 11 be
       -0.42138383 0.66762495 -0.18634765 -0.14229457
0003d0 c2 86 9b 3d a2 c7 7f be f9 fd 60 3f fb 00 34 bf
       0.075940624 -0.24978498 0.8788753 -0.70313996
0003e0 30 5a 27 3f c3 f6 0e bf 6c d8 04 bf 4a 4c 16 be
       0.6537199 -0.5584528 -0.51892734 -0.1467754
0003f0 0e d3 55 3f 4d 4a f7 be 37 a7 00 bf e4 ff 0c bf
       0.8352517 -0.48298874 -0.5025515 -0.5507796

fc1.bias f4 [64]
000000 23 27 a4 3e b4 28 fc 3e 0b e3 be 3e 83 aa 43 bd
       0.3206111 0.49249804 0.37282595 -0.047770035
000010 ec 05 c8 3e 6a 7e ce 3e 8c 42 4d bf c0 0f f4 bc
       0.39067018 0.4033082 -0.8017967 -0.029792666
000020 35 80 e5 be 5e 21 54 3e 2e ef fa be 64 a8 63 3f
       -0.44824377 0.20715854 -0.49010605 0.8892882
000030 c5 79 07 3c 10 d7 dc bc d8 e0 9d bf f5 2f b2 3e
       0.008268778 -0.026958019 -1.2334242 0.34802213
000040 6d df 3a 3f 61 4c 04 be 40 f4 7a 3d 62 89 20 3f
       0.7299717 -0.12919761 0.06126809 0.6270963
000050 db cf 6c 3f 22 31 44 bf bc 16 31 3f 57 ea 4d 3f
       0.9250466 -0.7663747 0.69175315 0.804357
000060 fe 5d 64 be 95 99 dc 3c 02 e8 5e 3d 17 32 eb be
       -0.2230148 0.026928702 0.05442048 -0.45936653
000070 68 61 88 3f b8 b0 fc be ba 74 44 bf 81 60 de bd
       1.0654726 -0.49353576 -0.7674061 -0.108582504
000080 24 1c fb be 9f a0 43 bf 07 d5 80 3e df 5c 56 3f
       -0.49044907 -0.76416963 0.25162527 0.8373546
000090 65 b7 42 3f 1f ee 2d 3c 7e de 5d be 59 31 f8 3e
       0.7606109 0.0106158545 -0.21666905 0.4847515
0000a0 7b f8 e2 3e f4 cf fb be e0 12 11 3e d8 8c 0b bf
       0.443302 -0.49182093 0.14167356 -0.54511786
0000b0 50 09 eb 3e 60 56 1b be 6e d7 00 bf 25 17 26 3d
       0.45905542 -0.15169668 -0.5032872 0.040549416
0000c0 30 61 3b 3f 9f df a4 3e 15 ad 8b be 17 42 54 bd
       0.7319517 0.3220186 -0.2728049 -0.05182084
0000d0 c5 ad d8 3e 0a 7a 53 bf 16 13 a8 3e 0d a2 f0 be
       0.42320076 -0.8260809 0.3282706 -0.46998635
0000e0 03 60 48 bf ce 48 27 bf 47 c4 4f bf b2 dd 3b 3f
       -0.782715 -0.65345466 -0.8115887 0.73385155
0000f0 cc 69 33 bf e1 36 37 3f 62 8c a8 bd ad 88 e3 3e
       -0.7008331 0.71568114 -0.08229901 0.44440213

fc2.weight f4 [64, 64]
000000 c6 e2 45 bd eb 6b 23 be 4b 5e a0 3d 9d 6a 00 3d
       -0.04831197 -0.15959136 0.07830485 0.031351674
000010 dc e2 94 3d 34 26 2e 3d d1 c5 a8 bd 19 d8 86 3d
       0.072698325 0.042516902 -0.082408555 0.06584186
000020 53 94 3a bc 69 af f3 3c 73 a2 ed bd 5d 37 ad bd
       -0.011387902 0.029746728 -0.1160325 -0.08457825
000030 9b 6b 18 be 6e 3b 84 bd a6 a9 35 3c d0 4b 0a be
       -0.14884798 -0.06456648 0.011087811 -0.13505483
000040 38 80 c5 3a c0 d6 51 3d 9c f0 c0 bc 7b c7 f8 bd
       0.0015068119 0.051230192 -0.023552231 -0.12147423
000050 6a c1 12 be 51 58 63 bd 75 03 45 3b 16 0b b2 3d
       -0.14331594 -0.055504147 0.0030061875 0.08693521
000060 3d 62 65 3d d5 9a f3 bc fc f1 f5 3c 56 c8 20 be
       0.05600189 -0.029736916 0.030022614 -0.15701422
000070 55 f3 25 be ab db 2d 3d 84 78 da bd 52 6a a5 3c
       -0.16206105 0.04244582 -0.10667518 0.020192299
000080 3c 0f ff bd ca 4c 9f bd ec 7b eb bd fe 2a d7 3c
       -0.124540776 -0.07778318 -0.114982456 0.026265617
000090 8f 2d 4f bd e4 85 a4 3d b1 53 15 3d 77 d1 8d 3c
       -0.050580557 0.0803335 0.036456767 0.017311795
0000a0 9e 50 a7 bc 65 a2 9c bd 80 6c 89 bd fe a2 8c bc
       -0.020424183 -0.07648162 -0.06710148 -0.017167564
0000b0 bf 1d bd 3c ea d9 d3 bd fa 54 b6 3d 1f c1 5a bd
       0.023085473 -0.10344298 0.08902927 -0.05340683
0000c0 b7 d3 0d be 5b 3e c8 bd 92 fd c1 3d 7a c2 a5 3d
       -0.13850294 -0.09777518 0.09472193 0.08093734
0000d0 3a 9e 08 be df 30 4d 3d 63 45 88 3c 33 ca 0f 3d
       -0.13341609 0.050095435 0.016634649 0.03510494
0000e0 8d a0 a7 3d 05 ca c7 bd 44 6b a8 3a 6f 08 dc ba
       0.081849195 -0.09755329 0.001284935 -0.0016787181
0000f0 a7 6e 99 bd a7 4b 35 3b bd fc 5e bd ef 3f 24 3d
       -0.074918084 0.00276635 -0.05444025 0.040100034
000100 0f 99 9a bd 7b 82 af bd 8d 87 cb 3b 7c 35 fb 3b
       -0.07548725 -0.08569809 0.0062112273 0.007666288
000110 59 08 e6 bd bb 5b 0c bd 2d 8d 27 3d 28 63 92 bc
       -0.11232061 -0.03426717 0.04090612 -0.017869547
000120 5f db 2a 3c 86 a3 23 bd b8 de bd 3c 3f 3e e1 bd
       0.010428279 -0.03995087 0.02317749 -0.109982006
000130 70 49 b0 bd 28 a1 ac bd 83 0a cc 3d d2 08 8b bd
       -0.08607757 -0.084291756 0.099629425 -0.06788792
000140 de b9 b5 bc a3 8d 9c bd 29 86 b0 3d 39 ed a9 3d
       -0.022183355 -0.076442026 0.08619339 0.082972
000150 d5 c4 f0 bd ea 58 16 be 65 c6 04 be 3f 28 18 bd
       -0.11756293 -0.14682356 -0.12966307 -0.037147757
000160 c4 82 02 bd 6b 07 cf bd 0b 60 83 bd f3 a2 9f bc
       -0.03186299 -0.10108837 -0.06414803 -0.01948688
000170 34 42 b2 bd 2d 6a da 3b 76 b5 e5 bc 1a d7 97 bd
       -0.087040335 0.006665489 -0.028040629 -0.07414074
000180 6b 35 fa bc ed f9 b1 3d 43 aa ff bd 9e 46 03 bd
       -0.03054305 0.08690248 -0.12483647 -0.032049768
000190 02 fc a9 bd 55 36 d2 3d c8 64 1f be d8 4c 10 be
       -0.0830002 0.10264269 -0.15565789 -0.14091814
0001a0 5b fa d9 3d 16 de b8 bd 7d 4a 78 bc bc d6 5b bd
       0.10643455 -0.090267345 -0.015154478 -0.053671584
0001b0 04 18 0c bd 6e 3e fe bc 2c 24 7b 3d 24 c1 f2 bc
       -0.03420259 -0.031035628 0.061313793 -0.029633112
0001c0 1a c7 36 be da ec a5 bd 45 f4 5e bd 90 b8 fd 3c
       -0.17849389 -0.081018165 -0.054432172 0.030971795
0001d0 1a da d1 bd de a5 a4 3d ae 4b 23 bd 05 b4 75 bd
       -0.10246678 0.08039449 -0.039867096 -0.059986133
0001e0 63 ed a9 3d 23 f4 d4 3c 7f b4 89 3d ef bd 10 3d
       0.08297231 0.02599532 0.0672388 0.035337385
0001f0 55 89 a9 bd 60 76 f9 bd ca 87 ee bc ea 36 86 3d
       -0.08278147 -0.12180781 -0.029117484 0.06553443
000200 ca 7a d8 3d 87 70 61 bb e4 6a aa 3e a1 d6 40 3e
       0.10570295 -0.0034399347 0.33284676 0.18831874
000210 56 e1 96 3b 10 54 75 3e 74 59 d2 be 37 c7 8e be
       0.004604499 0.23957849 -0.41083872 -0.27886364
000220 d0 62 a4 bb c1 42 2b bf 20 b5 05 be 1b 1e c7 3e
       -0.005016662 -0.66898733 -0.13057375 0.38890156
000230 a6 1b e6 3e 9d d1 04 3e 92 37 19 bf bf 25 68 be
       0.4494297 0.12970586 -0.5985042 -0.22670649
000240 33 85 f4 3d 57 cd 31 3f 06 36 04 3e 0c 61 ab 3e
       0.11939468 0.6945395 0.12911233 0.33472478
000250 1a 48 82 3e 3d 8a 05 be b7 45 95 3d bb a2 bb 3e
       0.25445634 -0.13041015 0.07288688 0.3664759
000260 eb e9 ba be 4f 39 d2 3c 55 8a 11 bd 0e 66 f6 b8
       -0.3650659 0.025662092 -0.035532314 -0.00011749203
000270 36 75 42 3e 5b f7 a2 bd d2 1c 35 bc e4 8b 8f bc
       0.18990025 -0.079573356 -0.011054235 -0.01752276
000280 58 14 93 3e 81 ce 61 bf 16 56 e7 3e c5 f2 94 3e
       0.2872646 -0.88205725 0.45182866 0.29091468
000290 fd bd 2d 3e aa 7a bd be 21 85 8b be 28 dd ce 3d
       0.16967006 -0.37007648 -0.27250007 0.10100776
0002a0 de da 28 3c cb ee 27 bf 2a 71 88 be 23 51 10 3e
       0.010306088 -0.65598744 -0.26648837 0.14093451
0002b0 5d 4a 89 bd 17 ca 16 3e 38 f3 bd be 44 38 de 3c
       -0.06703637 0.14725529 -0.37099624 0.027126439
0002c0 ab d6 7d 3e d9 5f a3 bd d5 16 82 3d 55 21 aa be
       0.2478892 -0.07977266 0.06352011 -0.33228555
0002d0 81 19 21 3e b5 c6 c3 bd 0d bd a6 3e 85 ae 83 ba
       0.15732385 -0.09559385 0.3256611 -0.0010046518
0002e0 0d b9 41 3e e4 5f 08 bf 39 c1 9f 3d 19 36 ee bd
       0.18918248 -0.5327132 0.07800526 -0.11631412
0002f0 9e b4 09 be 1e 22 fe 3d 4d 5b ce be 35 73 a9 3b
       -0.13447806 0.12408851 -0.40304032 0.0051712045
000300 2f f4 17 c0 18 8b 59 be 20 fa 80 bf 0d d9 23 bf
       -2.3742788 -0.21244466 -1.0076332 -0.6400307
000310 65 f6 90 bf 08 02 13 3e cd e7 66 3f bd 07 bf be
       -1.1325194 0.14356244 0.9019745 -0.3731059
000320 27 10 d6 bf fb a2 d4 3e 8f c6 ac 3e 86 a8 95 be
       -1.6723679 0.41530594 0.33745238 -0.29230136
000330 82 b0 56 3e 71 a4 a7 3d 52 35 5c 3d 6e 66 01 bf
       0.2096577 0.081856616 0.053761788 -0.5054692
000340 bd 11 db 3e c0 68 8e 3e 78 41 4b bf ad 70 11 bf
       0.4278697 0.27814293 -0.7939677 -0.56812555
000350 d5 ce c7 3d 3e 4a 63 bf 66 a3 46 3e 6c a7 92 bd
       0.09756247 -0.8878516 0.19398269 -0.071608394
000360 d7 88 db bd cc b2 99 3d e4 66 b1 be fd 55 01 bf
       -0.107194595 0.07504806 -0.34648812 -0.5052183
000370 90 24 43 bf 47 a5 70 3e 06 53 e9 be 86 f9 a4 3d
       -0.76227665 0.23500548 -0.45571154 0.08055405
000380 b0 d1 40 c0 70 40 aa bd 7d f6 ea 3e 1a c9 a5 be
       -3.0127983 -0.08313072 0.4589118 -0.3237999
000390 a7 b7 f9 bf ba 40 bc bb eb dd db 3f 6b aa d6 be
       -1.9509171 -0.0057450207 1.7177099 -0.41926894
0003a0 9d 7d 6c 3e e0 d3 60 bf 0a 7a b3 bd 26 1a 45 bf
       0.23094793 -0.87823296 -0.087635115 -0.76993024
0003b0 08 fd 51 3f 99 bf 8b 3d a3 40 53 3d d6 2d 22 3f
       0.8202672 0.06823654 0.051575314 0.6335119
0003c0 8b f1 0d 3e f3 03 c5 bd 52 54 77 3e 20 38 3b 3d
       0.13861673 -0.09619894 0.2415326 0.04570782
0003d0 21 42 84 be c8 b1 94 3d b0 5b 3a 3e 78 e0 80 3e
       -0.25831702 0.072604716 0.18199039 0.25171256
0003e0 6d 52 7c bf e2 e1 1a 3e ca cd 3e bf 5f 67 ab bf
       -0.9856327 0.1512523 -0.7453276 -1.3390921
0003f0 82 11 4b c0 96 26 51 bf 8f 28 63 3e cb b8 a3 be
       -3.1729436 -0.816995 0.2218344 -0.31976923

fc2.bias f4 [64]
000000 42 2c 21 be 64 d2 c4 3c 05 83 9e 3e a2 55 7e 3d
       -0.1573954 0.024026103 0.30959335 0.062093385
000010 e1 36 f2 bc c9 fc 5f 3e d1 05 e4 3e 83 14 24 3d
       -0.029567184 0.21873774 0.44535688 0.040058624
000020 0b 6e 78 bc ae 21 fb 3d eb e1 cb 3e b4 02 b6 3d
       -0.015162955 0.12262283 0.398208 0.08887234
000030 12 6c 8e 3e f0 f8 57 bb a8 43 b0 3d 9b a1 e2 bd
       0.27816826 -0.0032954775 0.086066544 -0.1106598
000040 ef 29 7a 3d c2 25 43 3e dc 2c cb 3d a0 37 10 bd
       0.061075147 0.19057372 0.099206656 -0.035209298
000050 90 5a e8 3a f6 5c 57 3e f5 5b b2 3c 29 10 03 3f
       0.0017727185 0.21031556 0.021772364 0.51196533
000060 00 d2 f8 3c 02 8b 13 be 88 c5 93 3e 33 39 22 3d
       0.030373573 -0.14408496 0.28861642 0.03960533
000070 65 fc dc 3e 3c 24 ef 3d 00 1a 95 3e fe 9d 18 3e
       0.43161312 0.11676833 0.291214 0.14904019
000080 ba 3a 29 3e 05 27 89 bd af 11 9d 3d 8f 8b fd 3e
       0.16526309 -0.066968955 0.076693885 0.49520537
000090 d7 51 c8 3c ca 03 da bd 93 f6 60 3c 52 e4 50 3e
       0.024453087 -0.10645254 0.013730663 0.20399597
0000a0 a5 7e c5 3e da 0e 88 bd bd de b8 3e fc 86 a3 3e
       0.38573185 -0.06643458 0.36107436 0.31938922
0000b0 a7 d7 41 3e 92 65 f1 3c ba ac 87 3e 55 6f 26 bc
       0.18929921 0.029467378 0.26498967 -0.01015838
0000c0 1e e6 a1 be fd 8e 31 be 21 1b 7f be 31 bd 47 3e
       -0.31620878 -0.17339702 -0.24912693 0.19505765
0000d0 35 6e 45 3d a2 a2 bf bd c6 b3 01 3d 00 2e 3c 3d
       0.048200805 -0.093571916 0.031665586 0.045942307
0000e0 f6 d9 a8 3d 48 e4 b9 3e 9a c3 3b 3e 34 61 af 3d
       0.08244698 0.36306977 0.18336335 0.08563462
0000f0 7a 38 6e 3e 34 8c c4 3e 16 55 7e 3e d2 ba d4 3d
       0.23263732 0.38388216 0.24837145 0.10387196

fc3.weight f4 [3, 64]
000000 58 bf bd 3d 57 f9 a8 3d 97 96 28 bf 32 68 da 3f
       0.092650115 0.08250683 -0.6585478 1.7063048
000010 7b b3 96 3f 48 58 56 be 1f cc 68 bf 09 6b db bf
       1.1773523 -0.20932114 -0.90936464 -1.714204
000020 25 78 c5 bd 1f 44 a4 be d0 bc 23 40 5e 93 a0 bd
       -0.096420564 -0.32083222 2.5583992 -0.07840608
000030 87 e9 46 bf 07 74 43 bc ec cf 72 be cf a0 7a 3d
       -0.77700084 -0.011929519 -0.23712128 0.061188515
000040 ee ec eb 3f d7 01 10 be 11 d5 ff bd 2e 55 ad 3f
       1.843168 -0.14063202 -0.12491811 1.354162
000050 f0 f4 6a be 3b 3b 07 40 6b f3 93 3d 0c 38 83 bd
       -0.22944999 2.1129901 0.07224163 -0.064071745
000060 95 0f bf 3f 12 81 a5 3d fa 61 88 bd 04 68 0c be
       1.492663 0.08081259 -0.066593125 -0.13711554
000070 1f ac 7b bd 7f 09 a0 be 8c 30 60 3f 7a 8d e8 3f
       -0.061443444 -0.31257245 0.87574077 1.8168175
000080 c3 d1 9e be 1f df 70 3f bb 96 88 3d 4e 3c 7c bf
       -0.3101941 0.94090456 0.066693746 -0.9852952
000090 74 24 cd bf dc e9 8e bb a2 a0 fd bd cf bf 8d bf
       -1.602675 -0.0043613743 -0.12384154 -1.107416
0000a0 81 12 ed 3f 49 8c 8a 3e 69 22 06 40 cf 3c a0 be
       1.8521272 0.27060154 2.0958502 -0.31296393
0000b0 10 b2 ba be 93 7f 60 bf 5e e2 5f bf 6a bc b5 bd
       -0.36463976 -0.8769466 -0.87454784 -0.08873828
0000c0 54 c2 b9 bf 1e a4 88 bf d5 b4 15 c0 2a e5 ee 3c
       -1.4512429 -1.0675085 -2.339162 0.029162008
0000d0 22 31 b3 3f 7e 76 bd 3f 76 3e 8e be 91 0e a8 be
       1.3999369 1.4801786 -0.2778203 -0.32823613
0000e0 37 a5 c6 bd 53 2f 35 bf fc bc d4 be da 22 14 be
       -0.09699481 -0.70775336 -0.41550434 -0.1446642
0000f0 f8 15 a8 3c 88 96 b4 be 37 7e 1c bf ba 6d 09 3d
       0.020518288 -0.35271096 -0.6113009 0.03355191
000100 a3 73 1a 3c 57 a5 0d be 05 f2 d9 be b9 33 71 3f
       0.009426984 -0.13832603 -0.4256746 0.9421955
000110 34 2f 41 3f e2 94 fd bd c3 26 ee be 4d 67 95 bf
       0.7546265 -0.12381913 -0.46513948 -1.167215
000120 40 06 d4 3c 1c 51 f3 be f8 ec e2 3f 63 32 86 be
       0.025881886 -0.4752282 1.7728567 -0.26210317
000130 6b 24 38 bf 7e fd 91 bd 93 89 cc b9 ba 3a c8 3d
       -0.7193057 -0.07128428 -0.00039012413 0.09776826
000140 3b bc cf 3f 32 6b 02 be d2 14 23 3d 97 e6 0f 40
       1.6229318 -0.12736204 0.039814778 2.248449
000150 34 62 04 be 80 88 ab 3f e7 d0 6c bd 9a dd 2e bf
       -0.12928087 1.3401031 -0.057816412 -0.6830689
000160 81 41 74 3f a4 5c d0 bd a7 e6 6e be dc a7 0b be
       0.9541245 -0.1017392 -0.23330174 -0.13638252
000170 fe 08 e5 be 5b 4f 27 bf ce a3 59 3f d8 08 8f 3f
       -0.44733423 -0.6535546 0.8501557 1.1174574
000180 de a6 c6 be 99 cd 08 3f f2 30 48 bd e5 fd b9 bf
       -0.38799185 0.5343872 -0.048874803 -1.4530607
000190 76 24 47 bf c1 45 57 3d 08 c0 f3 be c9 f6 23 bf
       -0.7779001 0.052556757 -0.47607446 -0.6404844
0001a0 0f 4e 96 3f bc a8 ca 3d f0 56 56 3f d9 9e 21 be
       1.1742572 0.09895465 0.83726406 -0.15783252
0001b0 18 10 9a be 98 df 11 3e 79 98 b0 be 5c 9c 48 3c
       -0.30090404 0.1424545 -0.34491327 0.01224431
0001c0 ff fb 39 bf 35 a7 08 bf e5 a2 b4 bf e5 aa a6 be
       -0.7265014 -0.5338014 -1.4112211 -0.32552257
0001d0 04 7f dc 3f bc ce 5b 3f fd ae 8a bd 6c 49 1f bf
       1.7226262 0.85862327 -0.067716576 -0.6222141
0001e0 c8 85 29 3d 5f 36 02 bf 0f cf 6a be e5 01 b4 b9
       0.04138735 -0.50864214 -0.22930549 -0.00034333687
0001f0 a4 68 d1 be 4e e6 26 bf 47 ed 35 be 5c 39 94 3e
       -0.40900147 -0.6519517 -0.17766295 0.28950012
000200 70 c5 32 bc 91 22 db b9 9a 71 89 bc 0c db 8d 3f
       -0.010911331 -0.0004179669 -0.016777802 1.1082473
000210 8c 9c bf 3f d1 b5 98 be 6f 73 e3 be 0d 62 9a bf
       1.4969649 -0.29826215 -0.44424006 -1.2061173
000220 c8 72 21 be e3 6a 83 bd 26 7c d9 3f bc ea 7a be
       -0.15766442 -0.064168714 1.6991012 -0.24503607
000230 c2 7c 92 bf 2e 93 23 be a3 e4 5d bb c0 e9 96 3c
       -1.1444323 -0.15974113 -0.0033858202 0.018422008
000240 ea 20 13 40 cf ec a6 bd 72 b1 03 be 47 a1 a8 3f
       2.298884 -0.081506364 -0.12860659 1.3174218
000250 fa d5 20 3c 2e 27 ae 3f 6b 1c b6 3d ca 86 6d bf
       0.009816641 1.3605707 0.08892139 -0.92783797
000260 84 f4 a1 3f f0 99 b5 3d 54 e9 55 3f 65 b9 5a bd
       1.2652745 0.08867252 0.83559155 -0.053399462
000270 25 b4 69 bf 1e 3b 9b be af e4 9a 3f c9 a4 32 40
       -0.91290504 -0.3031854 1.2101039 2.7913077
000280 f7 a4 60 bf 28 5d 80 3f a9 ed 08 bc e5 06 81 bf
       -0.87751716 1.0028429 -0.008357444 -1.0080229
000290 57 b1 ae bf d5 2d 47 3d 2a a7 72 3c af ff 8f bf
       -1.364787 0.048627693 0.014810363 -1.1249903
0002a0 f0 44 d6 3f e7 1c ba 3d be ec ee 3f 67 80 b8 bd
       1.6739788 0.09087544 1.8665998 -0.09008866
0002b0 29 71 3c be 3e 7d 01 be 6c 74 55 3c 60 65 49 bd
       -0.18402542 -0.12645432 0.013028245 -0.049168944
0002c0 89 6c a6 bf ab 0d 3f bf f9 4a 36 c0 03 01 85 bd
       -1.3001872 -0.7463023 -2.848326 -0.064943336
0002d0 b6 43 df 3f d1 f4 9b 3f f6 01 f4 3c f9 3d 80 bf
       1.7442539 1.2184087 0.029786091 -1.0018913
0002e0 70 7b 06 be db 75 0c bf f2 90 4e bd 92 8e 91 bd
       -0.13133025 -0.54867333 -0.0504312 -0.07107271
0002f0 65 e8 e1 bd a5 2c 0f bf 2c 36 9d bf 61 e7 59 be
       -0.11030654 -0.559275 -1.2282157 -0.2127967

fc3.bias f4 [3]
000000 77 51 76 3d 8f 99 c5 be 1d 45 17 3e
       0.060136285 -0.38593718 0.14772458
