model/checkpoint_1800.pth (torch, 21912 bytes, 6 tensors)

fc1.weight f4 [64, 6]
000000 4b 95 a8 3e 1e bb 38 3f 13 bc b1 be b5 f0 54 bf
       0.32926401 0.7216052 -0.34713802 -0.8317979
000010 cd 3f 45 bd 12 2a 83 3e 0d 33 9e 3e 88 d3 08 3f
       -0.04815655 0.25618035 0.30898324 0.5344777
000020 96 d4 b8 be 1b fe bf 3d 2a 87 bb bd c9 3f ef 3c
       -0.3609969 0.09374639 -0.0915664 0.02920522
000030 a6 b8 35 bf 8c f1 c1 be 3e 70 5b bf 54 26 24 3e
       -0.70984876 -0.37879598 -0.85718143 0.16030246
000040 d8 7b 71 3e c4 97 86 3e e9 d8 c2 be 1e 45 18 bf
       0.23582399 0.26287663 -0.38056114 -0.59480464
000050 d2 20 4e be a0 65 37 3f db 2b fc 3d 02 a0 72 3e
       -0.20129707 0.7163944 0.12313052 0.2369385
000060 86 47 a4 3d de a8 55 3f 11 85 1a 3f e2 6d ff be
       0.080214545 0.83460796 0.60359293 -0.4988852
000070 a0 04 bf be bf 9d 04 3d f9 f1 bf be 6c f9 59 3f
       -0.37308216 0.032377 -0.37489298 0.8514621
000080 65 44 1d bf 83 19 bd be e8 59 d6 be aa 38 a7 be
       -0.61432487 -0.36933526 -0.41865468 -0.3266042
000090 2f bc ab bf b9 7f 42 bd 33 50 1a 3f 93 9b d4 be
       -1.3416804 -0.047485087 0.60278624 -0.41524944
0000a0 26 fb d3 bd c1 7c 7d 3b f0 2c 9b be 12 65 74 bf
       -0.10350637 0.0038679095 -0.30307722 -0.9546672
0000b0 20 08 56 bf e4 78 d5 be d7 11 50 3e 30 22 3a be
       -0.8360615 -0.41693795 0.20319305 -0.18177104
0000c0 67 9e d0 be ab db 4a bf a4 b2 e0 3e 91 de 10 3f
       -0.4074585 -0.79241437 0.43886292 0.5658961
0000d0 fd 76 1c 3e a7 83 d0 3d 09 2e 0a 3d 79 e8 81 bf
       0.15279765 0.10181361 0.03373531 -1.014907
0000e0 c0 00 8a 3d 25 4c 0a be bc 8b 89 be b2 c6 d1 be
       0.06738424 -0.1350561 -0.2686442 -0.40971905
0000f0 61 ad 62 3e 82 36 7c be 53 77 0d 3f 03 52 ae bc
       0.22136451 -0.24630168 0.552602 -0.02127934
000100 3d b2 0c 3f 19 e7 e0 3d b8 e8 ab 3e 1e 5c c3 be
       0.5495947 0.109815784 0.33575988 -0.38156217
000110 9c 29 50 3e 22 b8 0e 3f e7 19 94 be fd ea 07 be
       0.20328373 0.55749714 -0.28926012 -0.13273235
000120 41 13 9e 3e 0e af 01 3e 28 3a 07 3f 29 0b 75 3f
       0.30874065 0.12664434 0.52823114 0.95720154
000130 06 ec 47 be 8f 7d bd be 4b b9 0d 3e 8f 95 97 bf
       -0.1952363 -0.37009856 0.13840215 -1.1842517
000140 8e 70 8b bf 19 07 5d 3f 5b 06 ac 3d 34 94 ca be
       -1.0893724 0.86338955 0.0839965 -0.39566195
000150 f7 ec 73 bd 12 34 e6 3e aa aa 00 bf 56 02 b1 3e
       -0.05955216 0.44961601 -0.5026041 0.34572095
000160 9a 12 85 3e a0 a7 06 be e9 7c 7a 3f 08 24 87 3e
       0.25990754 -0.13149881 0.9784685 0.26394677
000170 e1 aa 6a 3e 1b 37 16 be d4 5f b6 be 55 96 0a be
       0.22916748 -0.14669459 -0.35619986 -0.1353391
000180 7a d4 56 3f a2 93 a6 3e 81 ab d4 be 2f 86 18 bf
       0.83917964 0.3253451 -0.41537097 -0.5957975
000190 fa 91 10 3f bf 46 26 3e 75 7b 8d bf 0b 23 8a 3d
       0.5647274 0.16237925 -1.1053301 0.06744965
0001a0 7e 7b 57 bf 56 24 7d bd 9b c5 44 be fe 66 78 be
       -0.8417281 -0.06180223 -0.19216006 -0.24258038
0001b0 a2 33 ba be 07 17 04 be fe 9d 3c bd f9 96 3a bf
       -0.36367518 -0.12899409 -0.04604911 -0.72886616
0001c0 33 5c d5 be 2a 12 ad 3e b1 d3 0b 3f e7 01 30 be
       -0.41671905 0.3380292 0.5461989 -0.17188226
0001d0 b8 6f 8a be 19 3e b7 bd 46 e8 6c 3e 88 1d 4b 3e
       -0.2703836 -0.08947391 0.2313548 0.19835484
0001e0 91 22 35 3f d0 38 cd 3d 90 a3 4c be 3a 93 29 3e
       0.7075587 0.10020602 -0.19984269 0.16560069
0001f0 0c b7 c2 be 20 88 66 be c3 0f 1d bf 9a 1a 33 bf
       -0.3803028 -0.22512865 -0.61352175 -0.69962466
000200 ef 91 97 3d 3f 5a af be 19 41 ff bd 11 42 de bd
       0.074008815 -0.3424854 -0.12463588 -0.10852445
000210 d4 0e cf bd da a4 83 be fd 02 b0 3e dc 99 8b be
       -0.1011025 -0.2571171 0.3437728 -0.27265823
000220 e2 ae f5 3d df c1 2e bc 60 77 15 3f 0f d6 79 3e
       0.11996247 -0.01066634 0.58385277 0.24398063
000230 be 02 24 3f 01 e9 a9 3e b8 de 4c 3e 3d 9b 59 3e
       0.64066684 0.3318558 0.20006835 0.21250625
000240 05 89 26 bf d1 f0 81 3e b3 21 9e be 57 d6 b2 3e
       -0.65052825 0.2537904 -0.30885085 0.34929153
000250 85 97 bc be 56 ee d7 be 84 a9 ce 3c 3f 21 58 bf
       -0.3683435 -0.42174023 0.025227316 -0.8442573
000260 1f cc b5 3c 3d 74 a9 3f 45 2b 45 be 27 ef a0 be
       0.02219206 1.3238598 -0.19254787 -0.3143246
000270 6c 22 fb 3c 4a e5 64 bf 2a 89 22 bd 14 a0 d7 be
       0.030656062 -0.8941237 -0.03968159 -0.42114317
000280 13 29 51 be 0d 26 7c be 6c 33 23 bf ef 0e 00 bf
       -0.20425825 -0.2462389 -0.6375034 -0.50022787
000290 18 aa f8 be e4 d3 e0 be a5 fb a4 be 0b 28 15 3e
       -0.4856727 -0.4391166 -0.3222324 0.14566056
0002a0 44 9d 11 be d4 52 37 be bd 08 a5 3e 7f 19 06 bf
       -0.14220148 -0.1790269 0.3223323 -0.52382654
0002b0 f0 fd 06 3e a7 5d 20 3e ca a7 2b bf 77 06 bb 3e
       0.13182807 0.15660726 -0.670529 0.3652837
0002c0 e1 c2 f2 be 55 0e 59 3f 34 80 d7 3e dc 4f 7e be
       -0.47414306 0.84787494 0.4209 -0.24835151
0002d0 bf 4a ba be ff bf ec 3d 34 df 08 3f bb e4 23 3e
       -0.36385152 0.11560058 0.5346558 0.16005222
0002e0 b4 6b 08 3f de 34 9e 3e ac 5b b8 be c0 41 98 3e
       0.5328934 0.3089971 -0.3600744 0.29737663
0002f0 6f c6 6e bf 31 9d 1b 3f 33 75 d7 3e 28 e0 c1 3e
       -0.93271536 0.6078673 0.42081603 0.3786633
000300 bb a8 5c 3d 19 3a 71 3f 5c 0c 78 bf 37 4d 08 bf
       0.05387185 0.94229275 -0.9689386 -0.5324282
000310 ae 3a 29 bd 97 29 99 3e f9 7d 8d be 4e 5d 8d 3e
       -0.041315727 0.29914543 -0.27635172 0.27610248
000320 0c 83 a6 3e f3 48 a4 bd 35 d1 19 bf 1f ea ba be
       0.32521856 -0.080217265 -0.6008485 -0.36506745
000330 db 28 89 be f2 0c 16 bf 7d ae 95 be a0 36 1f 3f
       -0.26788983 -0.586135 -0.29234686 0.62192726
000340 46 11 9f 3c fd 24 c2 bd 29 30 90 3e c7 58 ac 3d
       0.019417416 -0.09479711 0.28161743 0.084153704
000350 5b ca 0a bd 27 e0 ef 3d 78 ac fb 3d f6 32 23 3e
       -0.033884387 0.117126755 0.12288755 0.15937409
000360 4a 76 3a 3f 89 79 cf 3e 8e 76 88 3f 4d 16 a7 bf
       0.72836745 0.4052241 1.066118 -1.3053681
000370 8c e6 90 3e 56 43 f6 3e b0 6e e4 3e 6e 54 f3 be
       0.28300893 0.48098248 0.44615698 -0.47525352
000380 4a 38 81 bf a7 0c e7 bd 93 10 e8 ba fd 9c 05 bd
       -1.0095303 -0.1128171 -0.0017705135 -0.03262042
000390 63 dc 72 bf 32 75 de 3e 09 4a 35 be 50 6c 15 3f
       -0.94867533 0.43448788 -0.17704023 0.58368397
0003a0 24 04 bf 3e 7e 4e b4 3e 3b 53 2f 3f c5 8c 7d 3b
       0.37307847 0.35216135 0.68486375 0.0038688642
0003b0 87 1d 0c 3f 9c db b1 be ae 13 0e be e0 1e 42 be
       0.54732555 -0.3473786 -0.13874695 -0.1895709
0003c0 72 8c 6e 3d 05 f7 0a 3f a7 d9 9e bd 47 db 55 be
       0.058239408 0.5428317 -0.07756358 -0.20884429
0003d0 c4 27 62 3d 16 24 cb be 00 ed 22 3f 61 cc 1b bf
       0.055213705 -0.3967597 0.63642883 -0.6085873
0003e0 66 6b b6 3e d1 4c f4 be dd 9b ee be 92 57 0f be
       0.35628814 -0.47714856 -0.4660329 -0.13998249
0003f0 aa a3 42 3f 77 7c 9d be a6 a8 af be b6 58 cc be
       0.7603098 -0.30759022 -0.34308356 -0.3991143

fc1.bias f4 [64]
000000 fc 17 84 3e 9f cb 1f 3f c6 7b 04 3e 35 8a f0 3d
       0.2579955 0.62420076 0.12937841 0.11745111
000010 a3 1a 63 3e c8 ad c2 3e c7 f0 14 bf 40 6e 64 3e
       0.2217813 0.3802321 -0.581799 0.22307682
000020 e7 4f 9d be d2 83 67 bd 55 0f 4a bf 3e a0 3b 3f
       -0.30725023 -0.056522198 -0.78929645 0.73291385
000030 fd 2b 4e 3e 09 2b 5e bd a8 eb 5c bf 06 60 ff 3e
       0.20133968 -0.05424026 -0.8629708 0.49877948
000040 7e 84 5a 3f 66 a0 07 be c0 b6 30 be d0 17 3a 3f
       0.8535842 -0.13244781 -0.17257214 0.72692585
000050 f9 ba 30 3f 90 b4 21 bf 37 e5 3e 3f 35 c8 2e 3f
       0.690353 -0.6316614 0.74568504 0.6827424
000060 e3 75 cc be cc 7e 20 3d 9e d8 f5 3c b9 92 d7 be
       -0.3993369 0.039183423 0.030010518 -0.42104128
000070 75 6b 61 3f ba 0d 90 be 1a 04 fc be 5c 09 2b be
       0.8805459 -0.28135473 -0.4922188 -0.16702789
000080 9f c8 68 be fe c7 12 bf 5c f6 09 3e 27 b7 34 3f
       -0.22732781 -0.57336414 0.13472885 0.7059197
000090 d3 b3 74 3e 3b 52 02 3e 68 7d 55 bd 5f cc c2 3e
       0.23896722 0.12726681 -0.05212155 0.38046548
0000a0 ba 5c e7 3e e1 96 d5 be 69 f5 18 3e 7d af a1 be
       0.45187932 -0.41716674 0.14937367 -0.315792
0000b0 04 0c 91 3e 7f 83 90 bd c1 bb c2 be 00 e1 0b 3e
       0.2832948 -0.07056331 -0.3803387 0.1366005
0000c0 b0 a0 2e 3f be c3 8a 3e 1c 21 a8 be b8 d7 25 be
       0.6821394 0.27102464 -0.3283776 -0.16195571
0000d0 7c fe 37 3e 52 7f 62 bf 73 9c df 3e 17 ce 1b bf
       0.17968172 -0.88475525 0.4367405 -0.60861343
0000e0 e9 fe 27 bf 16 91 d5 be f0 92 63 be 43 a5 12 3f
       -0.6562334 -0.41712254 -0.22224021 0.5728342
0000f0 7d 16 09 bf 2a f2 2f 3f ea bd 54 be 66 dd 0f 3f
       -0.5354994 0.6872889 -0.20775571 0.561972

fc2.weight f4 [64, 64]
000000 ff d8 13 bd c5 4b 17 be e3 bb c0 3d 68 96 40 3d
       -0.036095615 -0.14774998 0.094108365 0.04701844
000010 7f b8 b0 3d 34 26 2e 3d 85 78 88 bd 19 d8 86 3d
       0.0862894 0.042516902 -0.06663612 0.06584186
000020 16 56 91 3b 69 af f3 3c 73 a2 ed bd b2 c0 8d bd
       0.004435311 0.029746728 -0.1160325 -0.06921519
000030 9b 6b 18 be 6e 3b 84 bd a6 a9 35 3c 26 80 07 be
       -0.14884798 -0.06456648 0.011087811 -0.13232478
000040 38 80 c5 3a c0 d6 51 3d b5 14 09 bc 3d 63 e1 bd
       0.0015068119 0.051230192 -0.008366753 -0.11005256
000050 b8 a5 05 be 51 58 63 bd 91 90 97 3c 20 0c cc 3d
       -0.13051498 -0.055504147 0.018501552 0.0996325
000060 3d 62 65 3d fe 65 67 bc fc f1 f5 3c 57 aa 10 be
       0.05600189 -0.014123438 0.030022614 -0.1412748
000070 9c e1 16 be ab db 2d 3d 84 78 da bd 48 1c 11 3d
       -0.147345 0.04244582 -0.10667518 0.03542736
000080 76 13 e6 bd ca 4c 9f bd b8 37 cb bd b6 d0 24 3d
       -0.11234181 -0.07778318 -0.09922737 0.040238105
000090 d3 57 2a bd e4 85 a4 3d ce df 53 3d 77 d1 8d 3c
       -0.041587662 0.0803335 0.05172711 0.017311795
0000a0 9e 50 a7 bc 18 0a 79 bd 7f 05 58 bd 83 cb ba ba
       -0.020424183 -0.06080064 -0.052739616 -0.0014251325
0000b0 d3 09 1d 3d ea d9 d3 bd fa 54 b6 3d 05 ec 1f bd
       0.038339447 -0.10344298 0.08902927 -0.039043445
0000c0 b7 d3 0d be 5b 3e c8 bd 92 fd c1 3d b9 65 c4 3d
       -0.13850294 -0.09777518 0.09472193 0.095897146
0000d0 2c f9 f2 bd 5a f7 85 3d 63 45 88 3c d0 28 4f 3d
       -0.11863932 0.06541319 0.016634649 0.05057603
0000e0 8d a0 a7 3d c9 a9 c2 bd 25 f8 88 3c d0 5f 37 3c
       0.081849195 -0.0950504 0.016719887 0.011192277
0000f0 07 1a 73 bd ff 2d 94 3c bd fc 5e bd ef 30 4e 3d
       -0.059350993 0.018088339 -0.05444025 0.050339635
000100 0f 99 9a bd 7b 82 af bd 8d 87 cb 3b 7c 35 fb 3b
       -0.07548725 -0.08569809 0.0062112273 0.007666288
000110 59 08 e6 bd bb 5b 0c bd 2d 8d 27 3d 28 63 92 bc
       -0.11232061 -0.03426717 0.04090612 -0.017869547
000120 5f db 2a 3c 86 a3 23 bd b8 de bd 3c 3f 3e e1 bd
       0.010428279 -0.03995087 0.02317749 -0.109982006
000130 70 49 b0 bd 28 a1 ac bd 83 0a cc 3d d2 08 8b bd
       -0.08607757 -0.084291756 0.099629425 -0.06788792
000140 de b9 b5 bc a3 8d 9c bd 29 86 b0 3d 39 ed a9 3d
       -0.022183355 -0.076442026 0.08619339 0.082972
000150 d5 c4 f0 bd ea 58 16 be 65 c6 04 be 3f 28 18 bd
       -0.11756293 -0.14682356 -0.12966307 -0.037147757
000160 c4 82 02 bd 6b 07 cf bd 0b 60 83 bd f3 a2 9f bc
       -0.03186299 -0.10108837 -0.06414803 -0.01948688
000170 34 42 b2 bd 2d 6a da 3b 76 b5 e5 bc 1a d7 97 bd
       -0.087040335 0.006665489 -0.028040629 -0.07414074
000180 6b 35 fa bc ed f9 b1 3d 43 aa ff bd 9e 46 03 bd
       -0.03054305 0.08690248 -0.12483647 -0.032049768
000190 02 fc a9 bd 55 36 d2 3d c8 64 1f be d8 4c 10 be
       -0.0830002 0.10264269 -0.15565789 -0.14091814
0001a0 5b fa d9 3d 16 de b8 bd 7d 4a 78 bc bc d6 5b bd
       0.10643455 -0.090267345 -0.015154478 -0.053671584
0001b0 04 18 0c bd 6e 3e fe bc 2c 24 7b 3d 24 c1 f2 bc
       -0.03420259 -0.031035628 0.061313793 -0.029633112
0001c0 1a c7 36 be da ec a5 bd 45 f4 5e bd 90 b8 fd 3c
       -0.17849389 -0.081018165 -0.054432172 0.030971795
0001d0 1a da d1 bd de a5 a4 3d ae 4b 23 bd 05 b4 75 bd
       -0.10246678 0.08039449 -0.039867096 -0.059986133
0001e0 63 ed a9 3d 23 f4 d4 3c 7f b4 89 3d ef bd 10 3d
       0.08297231 0.02599532 0.0672388 0.035337385
0001f0 55 89 a9 bd 60 76 f9 bd ca 87 ee bc ea 36 86 3d
       -0.08278147 -0.12180781 -0.029117484 0.06553443
000200 26 53 41 3e f7 0d 96 3d 57 12 75 3e 72 c2 41 3e
       0.18879375 0.07326882 0.23932777 0.18921831
000210 c7 e5 f4 3d cf 77 5d 3d 4e 44 49 be 1a cc e9 bd
       0.11957889 0.054069337 -0.19654962 -0.114158824
000220 d8 14 5a bd 54 50 f9 be df 24 81 be 29 a1 4c 3e
       -0.053242534 -0.48694098 -0.25223443 0.19983353
000230 73 67 35 3e 84 e4 d1 3d 8d 85 19 bf a0 3d 67 3c
       0.17715244 0.10248664 -0.5996941 0.014113814
000240 15 da 85 3d d7 cd f6 3e 93 fa ff 3b 24 d5 4c 3e
       0.065357365 0.48203918 0.007811853 0.20003182
000250 3f 0c fb 3c 1f 99 00 be 8d 44 5a 3e 05 88 a6 3e
       0.030645488 -0.12558411 0.21315213 0.3252565
000260 34 3b 09 bf 27 14 79 3c b6 e2 21 3e 69 03 17 bd
       -0.5360596 0.015202559 0.1580914 -0.036868487
000270 c3 7e 0c 3e bb 1b 86 be 29 3e 25 be d2 5a aa 3c
       0.13720231 -0.26193032 -0.16136993 0.02079526
000280 cf d9 0e 3e 29 63 b9 be 43 c7 38 3e 7a bf fd 3d
       0.13950275 -0.36208466 0.18044762 0.12390037
000290 17 66 ad 3c 2a e0 9d bd 0a c1 4b be 39 3f 8b 3e
       0.021166844 -0.077087715 -0.19897857 0.27196673
0002a0 86 13 39 3d e3 ed f4 3d 9c 5d 74 3d d6 65 20 be
       0.045184635 0.11959436 0.059659585 -0.15663847
0002b0 6e 48 32 3d 16 91 8d 3d d8 67 7f be b6 62 80 bd
       0.043526106 0.069124386 -0.24941957 -0.062688276
0002c0 ff 70 71 3e 38 83 9d 3d 26 61 61 be 4a 12 3e be
       0.23578261 0.076910436 -0.22009715 -0.18561664
0002d0 c2 9c e4 3b a7 f9 15 be 7f 66 62 3e 9b 2e c3 bc
       0.006976695 -0.14646016 0.22109412 -0.023825934
0002e0 2e e1 79 3e a3 51 1b be 28 d0 1c bd 36 62 d2 3d
       0.24402305 -0.1516786 -0.03828445 0.102726385
0002f0 28 74 56 be f3 3f 0c 3d 33 c1 9a be 92 46 21 3e
       -0.20942748 0.034240674 -0.30225524 0.15749577
000300 a2 a3 d0 bf 0a 9a 9e 3d 28 2d cb bf f9 b4 d6 be
       -1.6299937 0.07744224 -1.5873156 -0.41934946
000310 34 9f cf bf 72 c8 d4 3d 7f 5f 4e 3f d4 61 e2 be
       -1.622046 0.103897944 0.80614465 -0.44215262
000320 19 0a 3e bf eb ab 7f 3e e8 65 ab 3e 50 51 7a be
       -0.7423416 0.24967925 0.33476186 -0.24445081
000330 60 de 69 3e a7 fd 25 3e d6 45 de 3d 4d 98 1c bf
       0.22838736 0.16210042 0.10853164 -0.6116989
000340 e5 46 bf 3e 6b f0 1c 3e 27 3d 20 bf f6 e5 15 bf
       0.37358776 0.15326087 -0.6259331 -0.5855402
000350 9f ff dc 3d 9a 4e c6 be d4 f3 9b 3d 36 b2 fa bd
       0.10790943 -0.38731843 0.07614866 -0.12241022
000360 28 91 e0 3d ca 23 b7 3d 46 04 c3 be 22 ea 12 bd
       0.10965186 0.08942373 -0.38089198 -0.035867818
000370 af f7 ab be f2 af 95 3e 55 01 bd bd 9d 8e 04 bd
       -0.33587405 0.29235798 -0.0922877 -0.03236257
000380 86 c3 03 c0 2c 51 92 be 51 b4 cf 3e 86 2c b4 be
       -2.0588088 -0.28577554 0.40567258 -0.3519022
000390 25 9b 9b bf fc 50 1e 3e 41 e4 9f 3f a2 98 cc be
       -1.2156721 0.1546058 1.2491533 -0.399602
0003a0 86 c3 61 3e e2 ce 88 bf fb ac 12 be 9a 69 ae bf
       0.22047243 -1.0688136 -0.143238 -1.3625977
0003b0 05 76 fa bd 5b 69 63 3e 3f bf 8a 3d 4b e9 c1 3e
       -0.12229542 0.22208159 0.067747585 0.378733
0003c0 3c 11 2d 3e 0c 98 0a be ff 09 a5 3e e5 2c 73 be
       0.16901106 -0.13534564 0.3223419 -0.23747595
0003d0 5d 94 b4 be c8 b1 94 3d d4 bf bc 3d 7b 4a b9 3e
       -0.35269442 0.072604716 0.09216276 0.36189637
0003e0 c2 68 83 bf 4c f7 91 be 8b 47 55 be 40 13 4d bf
       -1.0266345 -0.28508985 -0.20828073 -0.801075
0003f0 a1 07 0d c0 67 22 93 bf e2 16 21 3e e2 e8 a9 be
       -2.2035906 -1.1494874 0.15731385 -0.33185488

fc2.bias f4 [64]
000000 32 fa 11 be 64 d2 c4 3c 93 74 1a 3e c3 2b 74 3d
       -0.14255598 0.024026103 0.15083532 0.059612047
000010 f1 7d 0e 3d 5c 9a 74 3e ef 18 c0 3e da 48 86 3c
       0.034788076 0.23887008 0.37519023 0.01639216
000020 b0 63 e0 3d 8d 1e 29 3e b3 97 0d 3e 96 78 51 3e
       0.10956514 0.1651556 0.138274 0.20456156
000030 28 ce 27 3e 31 5d ff 3d 3d 2d 2c 3e 9b a1 e2 bd
       0.16387236 0.12468947 0.16814132 -0.1106598
000040 67 93 6b bd 67 22 a4 3e 6a cf 94 3e 09 89 9c bd
       -0.05751362 0.32057497 0.29064494 -0.07643325
000050 c2 ae 5c 3d 8b 1c 72 3e f5 5b b2 3c e6 ec e2 3e
       0.0538776 0.23643701 0.021772364 0.44321364
000060 88 8b 4e bc 1e 8d 0b be 43 9e 2b 3e 18 ea 23 3e
       -0.012606509 -0.1362805 0.16759591 0.16007268
000070 61 ed b3 3e 0b 50 22 3e 68 6d d1 3e ae 0b b4 3d
       0.35142043 0.15850846 0.40903783 0.0879129
000080 d5 5b 79 3e e3 86 87 bd af 11 9d 3d 36 f7 e4 3e
       0.24351437 -0.066175245 0.076693885 0.44719857
000090 19 45 18 bc ca 03 da bd 2c 6c c5 3d d6 df 04 3e
       -0.009293818 -0.10645254 0.09639773 0.12976012
0000a0 37 87 9c 3d da 0e 88 bd c2 5c 36 3e 22 2b b0 3e
       0.07642978 -0.06643458 0.17808822 0.34407908
0000b0 d2 57 94 3e cd d4 1f 3e 2f 41 a7 3e 55 6f 26 bc
       0.28973252 0.15608521 0.3266692 -0.01015838
0000c0 3d ca a0 be 41 02 25 3d 56 0a 40 be fe d6 98 3e
       -0.31404296 0.040285353 -0.18753943 0.29851526
0000d0 5a ec 8a 3d d2 fb fd 3c 55 c9 12 3e 47 99 59 bc
       0.06783362 0.031003866 0.14334615 -0.013281173
0000e0 ee bb 5c 3e 6b 5e 82 3e bb 6a 63 3e f7 96 67 3e
       0.21556064 0.2546266 0.22208683 0.22616182
0000f0 1a 38 9f 3e 73 50 ba 3e 5d a4 4f 3e 5f aa 4d 3e
       0.3109749 0.36389503 0.20277543 0.20084523

fc3.weight f4 [3, 64]
000000 58 bf bd 3d 57 f9 a8 3d fe 1a 82 be bb 93 a7 3f
       0.092650115 0.08250683 -0.25411218 1.3091959
000010 d2 89 91 3f 59 59 8e be 92 3b 3d bf 67 17 9f bf
       1.1370184 -0.27802542 -0.7391902 -1.2429017
000020 4f 98 57 be cf 09 40 be 7a 85 c1 3f da bc 5f be
       -0.21054195 -0.18753742 1.5118859 -0.21849385
000030 13 51 b0 be ad 7a 3c be 00 67 77 be cf a0 7a 3d
       -0.34436855 -0.18406172 -0.24160385 0.061188515
000040 40 1b bf 3f 0e 9f 3c be 25 4d 5a be c5 e6 b8 3f
       1.4930191 -0.1842005 -0.21318491 1.4445425
000050 c8 41 8d be f1 64 e1 3f 6b f3 93 3d e6 c5 17 be
       -0.2758925 1.760893 0.07224163 -0.14821586
000060 e7 a8 8e 3f e1 23 c0 3d 91 37 63 be 33 a4 73 be
       1.1145295 0.09381843 -0.22189166 -0.23793106
000070 c9 35 02 be 66 b3 55 be a5 48 23 3f 35 41 a5 3f
       -0.1271583 -0.20869216 0.6378272 1.2910525
000080 6a ee b8 be e6 92 49 3f bb 96 88 3d 09 ae 30 bf
       -0.36119395 0.78739774 0.066693746 -0.69015557
000090 f7 56 a7 bf dc e9 8e bb 62 03 38 be 43 03 70 bf
       -1.3073415 -0.0043613743 -0.1797004 -0.93754977
0000a0 3e 7a 86 3f 49 8c 8a 3e 0f ed d5 3f 05 f0 60 be
       1.0506055 0.27060154 1.671297 -0.2196656
0000b0 0a 01 d7 be ff 0e bd be b7 59 05 bf 6a bc b5 bd
       -0.4199298 -0.36925504 -0.5209002 -0.08873828
0000c0 ab 07 99 bf dc be 4d bf 3b 55 ea bf 67 ab 0c be
       -1.1955465 -0.80369353 -1.830726 -0.1373726
0000d0 b5 a9 b1 3f 29 99 80 3f 06 5f 98 be e1 44 34 be
       1.3879915 1.0046741 -0.29759997 -0.176044
0000e0 69 1e 41 be bf f9 1d bf 77 57 4b be 36 46 8d be
       -0.18859257 -0.6170921 -0.19857584 -0.2759263
0000f0 e0 a7 df bd 3e 65 8d be ee 96 10 bf 28 f0 0e be
       -0.109206915 -0.27616304 -0.564803 -0.139588
000100 a3 73 1a 3c 57 a5 0d be 23 95 b1 be 77 9b 76 3f
       0.009426984 -0.13832603 -0.34684095 0.9633097
000110 6f a9 5b 3f c5 c6 3f be 1f bd a8 be 5b 54 82 bf
       0.8580541 -0.18728168 -0.32956788 -1.0181993
000120 f4 19 19 be a0 0e 9f be fc e0 c2 3f c8 c6 b2 be
       -0.14951307 -0.31065845 1.522491 -0.34917283
000130 df 25 f3 be 5c 33 39 be ca cf 1d be ba 3a c8 3d
       -0.4748983 -0.18085998 -0.15411296 0.09776826
000140 af 97 8d 3f 04 64 40 be fc c6 24 be 07 80 ec 3f
       1.1061915 -0.18788153 -0.16091532 1.8476571
000150 af 21 31 be 3e 3e 22 3f e7 d0 6c bd 70 40 d7 be
       -0.17298006 0.63376224 -0.057816412 -0.4204135
000160 03 8e 54 3f 31 ff c7 bd 61 15 92 be 79 87 6d be
       0.8302919 -0.09765471 -0.28531936 -0.2319621
000170 87 7d 60 be 4a d4 c6 be 1d a8 37 3f 3b 2b 91 3f
       -0.21922885 -0.3883384 0.71740896 1.1341318
000180 4e 0b c2 be a3 de 22 3f f2 30 48 bd 56 a8 5c bf
       -0.3789925 0.63620967 -0.048874803 -0.8619436
000190 fd c0 6c bf c1 45 57 3d d9 2c 9c be 82 6d 53 bf
       -0.92481977 0.052556757 -0.30502966 -0.8258897
0001a0 36 de 50 3f bc a8 ca 3d b2 64 94 3f 8c 1d 89 be
       0.81589067 0.09895465 1.159323 -0.26780355
0001b0 16 f7 c1 be fc 0a 8e ba 1c 5b c5 be 5c 9c 48 3c
       -0.37883824 -0.0010837014 -0.38546073 0.01224431
0001c0 a2 11 10 bf 32 1f 39 bf 85 5c 92 bf 2a e6 96 be
       -0.56276906 -0.72313225 -1.1434485 -0.29472476
0001d0 cf 6d 5f 3f d1 c6 17 3f 51 b4 0d be b6 b7 e9 be
       0.8727693 0.59287745 -0.13838317 -0.45647973
0001e0 97 17 01 be 97 dc 95 be 9b 74 94 be 6c fd 47 be
       -0.12606655 -0.2926986 -0.28995213 -0.19530267
0001f0 f9 d7 ad be 69 3c e0 be f4 86 de be 66 0f 24 bd
       -0.33953837 -0.4379609 -0.43462336 -0.040053748
000200 f9 8f 59 3b 91 22 db b9 b9 c6 3b be e7 f2 94 3f
       0.0033197387 -0.0004179669 -0.18337525 1.1636628
000210 15 36 68 3f 46 ea 83 be 04 d7 a0 be e4 b6 7d bf
       0.9070752 -0.25764674 -0.31414044 -0.99107194
000220 fa 18 89 be 36 49 f3 bd 9b 50 95 3f 3a fb a5 be
       -0.26776868 -0.11879198 1.1665224 -0.32418233
000230 83 7c c9 be 60 62 66 be f9 b5 3b be c0 e9 96 3c
       -0.39352807 -0.22498465 -0.18331136 0.018422008
000240 9a af d4 3f af 5e 42 be 7d 9a 0a be f8 34 8c 3f
       1.6616089 -0.18981431 -0.13535495 1.0953665
000250 4d 35 09 be 9e f0 8a 3f 6b 1c b6 3d 24 06 3a bf
       -0.13399239 1.085468 0.08892139 -0.7266562
000260 9e 81 4d 3f d0 b7 bb 3d 8e fe 98 3d ea 61 4c be
       0.80275905 0.09165919 0.074704275 -0.19959226
000270 bd 62 2c bf 6c 2f 94 be 13 59 81 3f 63 12 dc 3f
       -0.6733816 -0.2894243 1.0105308 1.7193111
000280 63 60 cf be 1b fb 6a 3f a9 ed 08 bc c2 d4 78 bf
       -0.40503225 0.91789407 -0.008357444 -0.9719964
000290 44 01 8f bf d5 2d 47 3d ef 0f 0b be f5 5b 60 bf
       -1.1172261 0.048627693 -0.13580297 -0.87640315
0002a0 e4 48 4f 3f e7 1c ba 3d 1c 90 b6 3f 72 85 21 be
       0.809706 0.09087544 1.4262729 -0.15773562
0002b0 3b a8 a8 be 29 04 2b be f9 5a d2 bd 60 65 49 bd
       -0.3294085 -0.16700806 -0.10271258 -0.049168944
0002c0 1d e5 40 bf cf 97 60 bf f8 fb e7 bf a5 1b 0f be
       -0.753496 -0.8773164 -1.812377 -0.1397539
0002d0 c8 53 a4 3f 77 26 49 3f e7 65 06 be 47 79 28 bf
       1.2838068 0.7857432 -0.1312481 -0.65810055
0002e0 3f 9a 57 be 44 32 a5 be 7b f4 43 be 1b 51 67 be
       -0.21054934 -0.32264912 -0.1913623 -0.22589533
0002f0 af 8d 3d be 74 11 8b be f1 35 34 bf c3 e2 86 be
       -0.18511079 -0.27161753 -0.7039481 -0.2634488

fc3.bias f4 [3]
000000 96 54 24 3c ef 04 b2 be aa ef 40 bd
       0.0100299325 -0.3476939 -0.04710356
