model/checkpoint_10000.pth (torch, 21922 bytes, 6 tensors)

fc1.weight f4 [64, 6]
0.25516465 0.940157 -0.18359824 -0.56603557 -0.13258816 0.26019078 0.46565303 1.3164839
-0.4968151 0.19003591 -0.036791015 0.12689415 -0.74966455 -0.36274686 -1.0798475 0.11069322
0.1263946 0.18037938 -0.06624953 -0.7151126 -0.035697628 1.2261822 0.21939246 0.27532566
-0.15495247 1.2171501 0.7207782 -0.36916575 -0.38987607 0.15534866 -0.5074744 0.9332276
-0.56046444 -0.3631674 -0.5278383 -0.41515592 -1.4099162 -0.3583382 0.96156925 -0.11081233
-0.38100824 -0.10433486 -0.25476062 -0.9893271 -0.9557685 -0.46912372 0.1648964 -0.22391918
-0.9438712 -1.5156654 1.5795456 0.3376095 0.23245189 0.02874887 -0.33476278 -0.9785116
-0.06005381 0.035324838 -0.32290494 -0.46475637 0.32047477 -0.41787198 0.9018292 -0.011305193
0.7636473 0.28814688 0.3555458 -0.52036345 0.34012923 0.2941554 -0.33299136 -0.18999705
0.79356855 0.13637345 0.593372 1.2977477 -0.21682142 -0.48466522 -0.06753629 -1.4973406
-0.7592016 1.0104041 0.067816526 -0.48477507 -0.100180805 0.34609374 -0.7262229 0.62834364
0.33821726 -0.19649132 1.0190475 0.60875905 0.20370056 -0.11207912 -0.4576812 -0.1575389
0.3545665 0.77253556 -0.7981188 -0.95140535 0.64968276 0.39988106 -1.1809453 0.2800002
-1.0515983 0.17724308 -0.21347556 -0.22395195 -0.4148067 0.1955988 0.2656029 -0.652227
-0.4609089 0.34444645 1.0691282 0.034417156 -0.37889123 -0.33225435 0.34566888 0.24510999
0.73532695 0.40226406 -0.4500431 0.76634336 -0.4112761 -0.23683335 -0.8291057 -0.876279
-0.043494206 -0.5765961 -0.24830675 -0.21119204 -0.38418764 -0.796727 0.2038689 -0.6268814
0.22214969 0.031292945 0.27212176 0.25087926 0.7164315 0.37240538 0.20905498 0.25954127
-0.5774548 0.7060545 -0.22541808 0.36896777 -0.36944792 -0.35519648 0.14812788 -0.91975576
0.062369116 1.652604 -0.2529045 -0.37104443 -0.07560537 -1.3703827 -0.11467214 -0.04190594
-0.49822244 -0.5448719 -0.32997236 -0.4963116 -0.7665821 -0.7194013 -0.3549477 0.19606124
0.10834178 -0.17314824 0.41143966 -0.5613058 0.1287843 0.23304416 -0.44029647 0.17889512
-0.7997233 1.3626727 0.37105918 -0.33427367 -0.3882287 -0.08378776 0.53040147 -0.024928184
0.73020715 0.43194252 -0.5055323 0.26387674 -0.9958716 0.6166464 0.40327567 0.41796854
0.02534549 1.0102936 -1.1650593 -0.5694782 -0.0056773224 0.32155877 -0.5795824 0.6102384
0.1856527 0.12146207 -0.78012526 -0.41078678 -0.5977869 -0.60432106 -0.43264753 1.0439749
0.009564635 -0.2549016 0.07997494 0.008574162 -0.44621205 -0.021880247 0.21956526 0.21915269
1.1099563 1.0307727 1.2029277 -1.422168 0.31871083 0.7261198 1.1487921 -0.40888837
-1.335742 -0.16780236 -0.13548857 -0.07289753 -1.169531 0.80992067 -0.34299847 0.69935435
0.41851452 0.4027981 0.68430126 0.026708396 0.7422432 -0.5939967 -0.21046396 -0.22303341
-0.40972134 0.65759426 -0.08147415 -0.20394301 0.077638984 -0.3225832 0.94713503 -0.9787984
0.465085 -0.4487498 -0.5753076 -0.16191167 0.670834 -0.5235689 -0.8616941 -0.5621071
00000000: f1a4 823e 21ae 703f 2d01 3cbe b5e7 10bf
00000010: 31c5 07be ba37 853e 136a ee3e 8b82 a83f
00000020: 8c5e febe c698 423e 2db2 16bd 8af0 013e
00000030: 04ea 3fbf f5b9 b9be 7138 8abf 20b3 e23d
00000040: 966d 013e 5fb5 383e d5ad 87bd 9f11 37bf
00000050: ad37 12bd 8af3 9c3f 6ba8 603e 7cf7 8c3e
00000060: dcab 1ebe 93cb 9b3f ec84 383f 4b03 bdbe
00000070: d69d c7be b813 1f3e d8e9 01bf 01e8 6e3f
00000080: 997a 0fbf 14f1 b9be 6920 07bf 518f d4be
00000090: 2278 b4bf 1b78 b7be 6729 763f 93f1 e2bd
000000a0: 8313 c3be 84ad d5bd fc6f 82be 8a44 7dbf
000000b0: 3fad 74bf fc30 f0be 9ada 283e 124b 65be
000000c0: 8ba1 71bf 5301 c2bf 8d2e ca3f 27db ac3e
000000d0: de07 6e3e c082 eb3c 0766 abbe bc7f 7abf
000000e0: fcfa 75bd c7b0 103d cc53 a5be 8cf4 edbe
000000f0: 4515 a43e 51f3 d5be 47de 663f 6b39 39bc
00000100: 647e 433f fd87 933e 190a b63e 8a36 05bf
00000110: 6b25 ae3e 899b 963e d87d aabe 968e 42be
00000120: 4f27 4b3f 7ba5 0b3e 3ae7 173f 991c a63f
00000130: 6f06 5ebe 0a26 f8be 7750 8abd dba8 bfbf
00000140: 095b 42bf ec54 813f 64e3 8a3d 7034 f8be
00000150: 982b cdbd 3333 b13e bee9 39bf 21db 203f
00000160: d02a ad3e 0535 49be 2670 823f a2d7 1b3f
00000170: e196 503e bd89 e5bd 3155 eabe e151 21be
00000180: be89 b53e e4c4 453f 8451 4cbf 4d8f 73bf
00000190: 9c51 263f 36bd cc3e 3729 97bf 305c 8f3e
000001a0: c69a 86bf 367f 353e 5699 5abe a953 65be
000001b0: 8b61 d4be 0d4b 483e 1afd 873e 59f8 26bf
000001c0: 40fc ebbe 495b b03e 31d9 883f 01f9 0c3d
000001d0: 08fe c1be 3e1d aabe 83fb b03e 1dfe 7a3e
000001e0: 633e 3c3f 8ef5 cd3e 0d6c e6be 142f 443f
000001f0: c892 d2be 7184 72be 4540 54bf d253 60bf
00000200: fb26 32bd cd9b 13bf 2044 7ebe ba42 58be
00000210: 3eb4 c4be 4df6 4bbf 02c3 503e 4d7b 20bf
00000220: 357b 633e 082d 003d 8b53 8b3e 3f73 803e
00000230: 0e68 373f ebab be3e 8212 563e 98e2 843e
00000240: 14d4 13bf fdbf 343f ffd3 66be 58e9 bc3e
00000250: 4728 bdbe 50dc b5be d6ae 173e 1d75 6bbf
00000260: c276 7f3d 8788 d33f b37c 81be 89f9 bdbe
00000270: fdd6 9abd b368 afbf 3ad9 eabd 90a5 2bbd
00000280: 0317 ffbe ba7c 0bbf 23f2 a8be 8e1c febe
00000290: b93e 44bf af2a 38bf b4bb b5be 47c4 483e
000002a0: 4ce2 dd3d c64d 31be 38a8 d23e bdb1 0fbf
000002b0: 08e0 033e 21a3 6e3e 8a6e e1be 4830 373e
000002c0: abba 4cbf 0f6c ae3f 78fb bd3e eb25 abbe
000002d0: eac5 c6be eb98 abbd 64c8 073f 3136 ccbc
000002e0: dbee 3a3f 9227 dd3e 916a 01bf da1a 873e
000002f0: 71f1 7ebf 8adc 1d3f 267a ce3e f9ff d53e
00000300: 58a1 cf3c 4d51 813f aa20 95bf 53c9 11bf
00000310: d508 babb 5aa3 a43e 835f 14bf 9538 1c3f
00000320: be1b 3e3e 1bc1 f83d 4ab6 47bf a552 d2be
00000330: 9008 19bf c9b4 1abf fa83 ddbe f8a0 853f
00000340: fdb4 1c3c 7682 82be e7c9 a33d a47a 0c3c
00000350: e875 e4be 343e b3bc b7d5 603e 9069 603e
00000360: 0c13 8e3f 5cf0 833f 89f9 993f 9a09 b6bf
00000370: 112e a33e fde2 393f 9f0b 933f d159 d1be
00000380: 98f9 aabf 62d4 2bbe 84bd 0abe 4d4b 95bd
00000390: 31b3 95bf f656 4f3f 7f9d afbe e308 333f
000003a0: 8947 d63e 8d3b ce3e 5e2e 2f3f 91cb da3c
000003b0: a603 3e3f 2b10 18bf dd83 57be df62 64be
000003c0: ffc6 d1be 1958 283f ebdb a6bd 70d6 50be
000003d0: 3001 9f3d a029 a5be 7177 723f 8892 7abf
000003e0: 9f1f ee3e 89c2 e5be 5c47 13bf 2ccc 25be
000003f0: c7bb 2b3f 9d08 06bf fc97 5cbf 40e6 0fbf

fc1.bias f4 [64]
0.28941002 0.47403705 0.36746234 0.029121054 0.37892106 0.4093866 -0.8758797 -0.11486158
-0.6579471 0.26330635 -0.5012825 0.94613993 -0.068468906 -0.08953231 -1.4311182 0.43879402
0.5882856 -0.2638752 0.091817506 0.53955346 0.82437044 -0.9525094 0.7343467 0.8849007
-0.17343847 -0.08190391 0.032599434 -0.7234527 1.1236615 -0.6398989 -0.78292525 -0.35106173
-0.53468573 -0.696016 0.2547307 0.81928587 0.7393896 -0.17877859 -0.4265643 0.5472367
0.40088928 -0.519358 -0.02942171 -0.74501723 0.4180818 -0.10499107 -0.5365524 0.035379563
0.7399165 0.29691693 -0.18456392 -0.06630648 0.43266296 -0.9089905 0.32094517 -0.37219307
-0.9242891 -0.70871747 -1.0405161 0.8199743 -0.8004144 0.6744065 -0.019129666 0.50991064
00000000: 8d2d 943e fcb4 f23e 0624 bc3e 478f ee3c
00000010: f101 c23e 1f9b d13e a739 60bf 8c3c ebbd
00000020: 396f 28bf 17d0 863e 0d54 00bf 3a36 723f
00000030: 6d39 8cbd b75c b7bd e22e b7bf 9ca9 e03e
00000040: e399 163f a61a 87be d10a bc3d 2d20 0a3f
00000050: f109 533f a8d7 73bf 25fe 3b3f da88 623f
00000060: db99 31be 3dbd a7bd fc86 053d 3234 39bf
00000070: 24d4 8f3f 6ad0 23bf ca6d 48bf 5dbe b3be
00000080: 2ae1 08bf 1b2e 32bf 106c 823e b8bc 513f
00000090: a348 3d3f bc11 37be a366 dabe b417 0c3f
000000a0: 5c41 cd3e a5f4 04bf cc05 f1bc 73b9 3ebf
000000b0: d10e d63e 8f05 d7bd 805b 09bf 29ea 103d
000000c0: 2b6b 3d3f 7f05 983e 53fe 3cbe b1cb 87bd
000000d0: 0086 dd3e 9ab3 68bf ed52 a43e 1790 bebe
000000e0: 369e 6cbf 826e 35bf a22f 85bf d6e9 513f
000000f0: f5e7 4cbf e8a5 2c3f d1b5 9cbc 8189 023f

fc2.weight f4 [64, 64]
-0.04831197 -0.15959136 0.07830485 0.031351674 0.072698325 0.042516902 -0.082408555 0.06584186
-0.011387902 0.029746728 -0.1160325 -0.08457825 -0.14884798 -0.06456648 0.011087811 -0.13505483
0.0015068119 0.051230192 -0.023552231 -0.12147423 -0.14331594 -0.055504147 0.0030061875 0.08693521
0.05600189 -0.029736916 0.030022614 -0.15701422 -0.16206105 0.04244582 -0.10667518 0.020192299
-0.124540776 -0.07778318 -0.114982456 0.026265617 -0.050580557 0.0803335 0.036456767 0.017311795
-0.020424183 -0.07648162 -0.06710148 -0.017167564 0.023085473 -0.10344298 0.08902927 -0.05340683
-0.13850294 -0.09777518 0.09472193 0.08093734 -0.13341609 0.050095435 0.016634649 0.03510494
0.081849195 -0.09755329 0.001284935 -0.0016787181 -0.074918084 0.00276635 -0.05444025 0.040100034
-0.07548725 -0.08569809 0.0062112273 0.007666288 -0.11232061 -0.03426717 0.04090612 -0.017869547
0.010428279 -0.03995087 0.02317749 -0.109982006 -0.08607757 -0.084291756 0.099629425 -0.06788792
-0.022183355 -0.076442026 0.08619339 0.082972 -0.11756293 -0.14682356 -0.12966307 -0.037147757
-0.03186299 -0.10108837 -0.06414803 -0.01948688 -0.087040335 0.006665489 -0.028040629 -0.07414074
-0.03054305 0.08690248 -0.12483647 -0.032049768 -0.0830002 0.10264269 -0.15565789 -0.14091814
0.10643455 -0.090267345 -0.015154478 -0.053671584 -0.03420259 -0.031035628 0.061313793 -0.029633112
-0.17849389 -0.081018165 -0.054432172 0.030971795 -0.10246678 0.08039449 -0.039867096 -0.059986133
0.08297231 0.02599532 0.0672388 0.035337385 -0.08278147 -0.12180781 -0.029117484 0.06553443
0.25933364 -0.015553367 0.1308466 0.10355315 -0.17438293 0.405693 0.079846285 -0.03985165
0.06395994 -0.6030978 -0.14750926 0.48568994 0.30037624 0.2611497 -0.64874667 -0.29581973
0.13666324 0.8522413 0.018737849 0.34333128 0.3272365 -0.39446038 0.10955188 0.30210218
-0.33072063 -0.005233405 0.15187332 -0.053562682 0.21980149 -0.12272218 0.10385867 -0.25750175
0.58221906 -1.1485343 0.50143546 0.28053662 0.13247469 -0.46767217 -0.18000033 -0.051899776
-0.021785958 -0.8845338 0.00951333 0.11507145 0.046044275 0.124277346 -0.36449796 0.14020614
0.26559526 -0.23287371 0.02425821 -0.3349857 0.19246593 -0.059395343 0.1683819 0.14442031
-0.27248687 -0.7900615 0.19240682 -0.206309 -0.41312104 0.2040853 -0.35996485 -0.029152147
-3.2670655 -0.54551566 -0.63189137 -0.446796 -0.6854307 0.26224205 0.7826562 -0.25669843
-1.9144368 0.42455184 0.15499882 -0.3351861 0.1962454 0.11061071 0.29594034 -0.5595366
0.57634014 0.08585431 -0.05545299 -0.58253264 -0.07619664 -0.44032612 0.11813935 -0.25521338
-0.14536561 0.056048784 -0.3882981 -0.9288193 -0.89525557 0.2774048 -0.94964814 0.16393232
-3.2481072 -0.088461846 0.45929113 -0.17012185 -1.4923638 -0.0447615 1.825744 -0.54002947
0.22198877 -0.022011427 0.2095478 -0.2663975 0.41172385 0.039138593 0.13028969 0.85749084
0.060267884 -0.10261786 0.23513009 0.22381575 -0.278924 0.072604716 0.22332987 1.1439303
-0.7411438 -0.10018465 -1.1069438 -1.4960304 -3.0387135 -0.6047916 0.3133039 -0.35044113
00000000: c6e2 45bd eb6b 23be 4b5e a03d 9d6a 003d
00000010: dce2 943d 3426 2e3d d1c5 a8bd 19d8 863d
00000020: 5394 3abc 69af f33c 73a2 edbd 5d37 adbd
00000030: 9b6b 18be 6e3b 84bd a6a9 353c d04b 0abe
00000040: 3880 c53a c0d6 513d 9cf0 c0bc 7bc7 f8bd
00000050: 6ac1 12be 5158 63bd 7503 453b 160b b23d
00000060: 3d62 653d d59a f3bc fcf1 f53c 56c8 20be
00000070: 55f3 25be abdb 2d3d 8478 dabd 526a a53c
00000080: 3c0f ffbd ca4c 9fbd ec7b ebbd fe2a d73c
00000090: 8f2d 4fbd e485 a43d b153 153d 77d1 8d3c
000000a0: 9e50 a7bc 65a2 9cbd 806c 89bd fea2 8cbc
000000b0: bf1d bd3c ead9 d3bd fa54 b63d 1fc1 5abd
000000c0: b7d3 0dbe 5b3e c8bd 92fd c13d 7ac2 a53d
000000d0: 3a9e 08be df30 4d3d 6345 883c 33ca 0f3d
000000e0: 8da0 a73d 05ca c7bd 446b a83a 6f08 dcba
000000f0: a76e 99bd a74b 353b bdfc 5ebd ef3f 243d
00000100: 0f99 9abd 7b82 afbd 8d87 cb3b 7c35 fb3b
00000110: 5908 e6bd bb5b 0cbd 2d8d 273d 2863 92bc
00000120: 5fdb 2a3c 86a3 23bd b8de bd3c 3f3e e1bd
00000130: 7049 b0bd 28a1 acbd 830a cc3d d208 8bbd
00000140: deb9 b5bc a38d 9cbd 2986 b03d 39ed a93d
00000150: d5c4 f0bd ea58 16be 65c6 04be 3f28 18bd
00000160: c482 02bd 6b07 cfbd 0b60 83bd f3a2 9fbc
00000170: 3442 b2bd 2d6a da3b 76b5 e5bc 1ad7 97bd
00000180: 6b35 fabc edf9 b13d 43aa ffbd 9e46 03bd
00000190: 02fc a9bd 5536 d23d c864 1fbe d84c 10be
000001a0: 5bfa d93d 16de b8bd 7d4a 78bc bcd6 5bbd
000001b0: 0418 0cbd 6e3e febc 2c24 7b3d 24c1 f2bc
000001c0: 1ac7 36be daec a5bd 45f4 5ebd 90b8 fd3c
000001d0: 1ada d1bd dea5 a43d ae4b 23bd 05b4 75bd
000001e0: 63ed a93d 23f4 d43c 7fb4 893d efbd 103d
000001f0: 5589 a9bd 6076 f9bd ca87 eebc ea36 863d
00000200: 61c7 843e 8dd3 7ebc a7fc 053e ad13 d43d
00000210: 7091 32be feb6 cf3e 7386 a33d 7c3b 23bd
00000220: 6efd 823d 9e64 1abf ab0c 17be 5aac f83e
00000230: eaca 993e 6ab5 853e 4314 26bf af75 97be
00000240: 73f1 0b3e 7c2c 5a3f 1e80 993c 1ec9 af3e
00000250: 8b8b a73e b6f6 c9be bc5c e03d 23ad 9a3e
00000260: 3754 a9be fc7c abbb ae84 1b3e 8b64 5bbd
00000270: a413 613e c455 fbbd dbb3 d43d 45d7 83be
00000280: 4f0c 153f 2c03 93bf 135e 003f 7fa2 8f3e
00000290: 72a7 073e ba72 efbe 0252 38be dc94 54bd
000002a0: 7778 b2bc cf70 62bf ccdd 1b3c 95aa eb3d
000002b0: ec98 3c3d 1f85 fe3d 7a9f babe 3392 0f3e
000002c0: 1afc 873e 7276 6ebe 27b9 c63c 3f83 abbe
000002d0: ca15 453e 8848 73bd 4e6c 2c3e ebe2 133e
000002e0: 6683 8bbe 7841 4abf 4b06 453e ab42 53be
000002f0: 9a84 d3be bdfb 503e 504d b8be 7cd0 eebc
00000300: 9a17 51c0 eaa6 0bbf a2c3 21bf 72c2 e4be
00000310: 6378 2fbf 9744 863e 285c 483f fa6d 83be
00000320: 440c f5bf dc5e d93e 03b8 1e3e 839d abbe
00000330: 8ef4 483e de87 e23d 7e85 973e ca3d 0fbf
00000340: 078b 133f 62d4 af3d ad22 63bd dc20 15bf
00000350: fc0c 9cbd 6d72 e1be 0bf3 f13d 54ab 82be
00000360: b9da 14be 6993 653d 02cf c6be 1ac7 6dbf
00000370: 782f 65bf 0008 8e3e 241c 73bf e0dd 273e
00000380: fde0 4fc0 7c2b b5bd 3528 eb3e 6c34 2ebe
00000390: c705 bfbf d657 37bd fbb1 e93f 5f3f 0abf
000003a0: 0651 633e 4f51 b4bc b393 563e 4165 88be
000003b0: 78cd d23e ca4f 203d a96a 053e 8584 5b3f
000003c0: 75db 763d 5029 d2bd f1c5 703e f52f 653e
000003d0: 20cf 8ebe c8b1 943d 96b0 643e 4f6c 923f
000003e0: 9abb 3dbf 9c2d cdbd 56b0 8dbf ed7d bfbf
000003f0: 487a 42c0 9fd3 1abf 5e69 a03e 056d b3be

fc2.bias f4 [64]
-0.1573954 0.024026103 0.41585755 -0.106330454 0.013352592 0.20329681 0.5045281 0.010037485
-0.08698018 0.09678533 0.4304701 0.071469896 0.34936336 -0.041527014 -0.0063495766 -0.1106598
0.11787286 0.19718109 0.0171034 -0.019242112 -0.04483093 0.21678746 0.021772364 0.57685626
0.047850713 -0.14408496 0.28833055 -0.041452125 0.42454386 0.15689547 0.23906876 0.1934278
0.08941093 -0.046090417 0.076693885 0.6119857 0.09227759 -0.10645254 0.22510119 0.21774313
0.42730471 -0.06643458 0.32003212 0.344314 0.11435896 0.101502076 0.2787462 -0.01015838
-0.28903612 -0.2325873 -0.12390987 0.34511596 0.08350866 -0.08194375 -0.07143733 0.04016962
0.03155002 0.4125308 0.35506094 0.057792097 0.32139742 0.42397413 0.29351273 0.078247935
00000000: 422c 21be 64d2 c43c 48eb d43e c8c3 d9bd
00000010: d4c4 5a3c 0a2d 503e c128 013f 4374 243c
00000020: aa22 b2bd 6337 c63d 9466 dc3e cf5e 923d
00000030: c1df b23e 3b18 2abd 1c10 d0bb 9ba1 e2bd
00000040: 5367 f13d d7e9 493e 6e1c 8c3c a2a1 9dbc
00000050: a3a0 37bd 88fd 5d3e f55b b23c daac 133f
00000060: 1cff 433d 028b 13be 10a0 933e b4c9 29bd
00000070: d05d d93e 35a9 203e 71ce 743e f011 463e
00000080: 141d b73d 4ec9 3cbd af11 9d3d 18ab 1c3f
00000090: 08fc bc3d ca03 dabd ed80 663e 0ef8 5e3e
000000a0: afc7 da3e da0e 88bd 40db a33e ed49 b03e
000000b0: 0835 ea3d 52e0 cf3d d2b7 8e3e 556f 26bc
000000c0: 8bfc 93be 5d2b 6ebe 75c4 fdbd 0ab3 b03e
000000d0: 9706 ab3d 20d2 a7bd bc4d 92bd e688 243d
000000e0: 983a 013d 3d37 d33e 8cca b53e 68b7 6c3d
000000f0: 348e a43e 2313 d93e 4d47 963e 7440 a03d

fc3.weight f4 [3, 64]
0.092650115 0.08250683 -0.71206504 1.4968457 1.4778903 -0.19913429 -0.9267894 -2.1793056
-0.03394595 -0.4737471 2.877213 0.011497573 -0.9070488 -0.010896938 -0.18400475 0.061188515
1.7897135 -0.4758298 -0.17646816 1.3777412 -0.15895179 2.3977647 0.07224163 0.017626233
1.6469711 0.08081259 0.029860353 -0.1132813 0.009340133 -0.43302685 0.8057532 2.5154521
-0.17380933 1.054349 0.066693746 -1.0048952 -1.8358611 -0.0043613743 -0.023413958 -1.1432288
2.2112365 0.27060154 2.3770072 -0.5964689 -0.2252091 -1.2237328 -0.96272796 -0.08873828
-1.5507445 -0.9336085 -2.3586311 0.21173577 1.6327264 1.3026805 -0.25573105 -0.2696449
-0.13303478 -0.6591575 -0.7681036 -0.14843124 0.26015115 -0.36546633 -0.3928391 0.42259696
0.009426984 -0.13832603 -0.35244447 0.97544855 0.6971997 -0.07310289 -0.348592 -1.3322046
0.16994013 -0.41807267 1.8169621 -0.5237698 -0.66763496 -0.09481615 0.14780633 0.09776826
1.7227244 -0.23281583 -0.012114333 2.243441 -0.06943094 1.472821 -0.057816412 -0.69223255
1.329589 -0.1017392 -0.17689295 -0.3281726 -0.49153435 -0.5920214 0.8237394 1.5631276
-0.21596333 0.91700166 -0.048874803 -1.2805144 -0.7366609 0.052556757 -0.84844357 -0.5948512
1.3328902 0.09895465 0.654131 -0.28872702 -0.31370196 -0.010357004 -0.25257045 0.01224431
-0.75504696 -0.4082244 -0.9459466 -0.5831745 1.5334836 0.87384725 0.07084667 -0.6853254
0.16157389 -0.692706 -0.24091643 0.41457823 -0.5286332 -0.8606247 0.017533615 0.83535564
-0.010911331 -0.0004179669 0.13767396 1.4167289 1.608744 -0.39402658 -0.49051186 -1.446229
-0.15490001 -0.33335495 1.8309791 -0.17557092 -1.2675799 -0.19279805 0.12263469 0.018422008
2.5876687 -0.03662143 -0.25025114 1.0125587 0.14693034 1.9153017 0.08892139 -0.9252062
1.4754509 0.08867252 0.88122743 -0.041331973 -0.9312734 -0.26605725 1.4389997 3.6613386
-0.98198754 1.0488287 -0.008357444 -1.0266124 -1.5108498 0.048627693 0.053598635 -1.2697201
2.2212453 0.09087544 1.966149 -0.40609035 -0.108878516 -0.19248904 0.058344837 -0.049168944
-1.3184272 -0.7422365 -3.1330218 -0.09840952 1.6453387 1.3829281 0.078515045 -1.1682292
-0.3156534 -0.5181222 0.17540683 0.04305477 -0.09122338 -0.49206722 -1.4018188 -0.23302685
00000000: 58bf bd3d 57f9 a83d e549 36bf a498 bf3f
00000010: 822b bd3f dce9 4bbe 1242 6dbf be79 0bc0
00000020: e90a 0bbd fb8e f2be 4224 3840 5160 3c3c
00000030: 5a34 68bf 1289 32bc be6b 3cbe cfa0 7a3d
00000040: 5515 e53f f79f f3be 12b4 34be d359 b03f
00000050: 42c4 22be fa74 1940 6bf3 933d e464 903c
00000060: f3cf d23f 1281 a53d b39d f43c 0700 e8bd
00000070: 5b07 193c b2b5 ddbe d745 4e3f 2bfd 2040
00000080: 13fb 31be e8f4 863f bb96 883d 68a0 80bf
00000090: 7ffd eabf dce9 8ebb a1ce bfbc 5255 92bf
000000a0: e684 0d40 498c 8a3e e320 1840 30b2 18bf
000000b0: 379d 66be 47a3 9cbf 5775 76bf 6abc b5bd
000000c0: cc7e c6bf f700 6fbf d0f3 16c0 43d1 583e
000000d0: 2efd d03f 3cbe a63f 2eef 82be e50e 8abe
000000e0: 453a 08be 8cbe 28bf 70a2 44bf 5cfe 17be
000000f0: 8832 853e 671e bbbe 3522 c9be a15e d83e
00000100: a373 1a3c 57a5 0dbe 9a73 b4be ffb6 793f
00000110: ae7b 323f f8b6 95bd a77a b2be ae85 aabf
00000120: c904 2e3e 9f0d d6be 3792 e83f c715 06bf
00000130: 20ea 2abf f82e c2bd 8b5a 173e ba3a c83d
00000140: 3c82 dc3f 4667 6ebe 327b 46bc 8a94 0f40
00000150: cf31 8ebd 6685 bc3f e7d0 6cbd 2736 31bf
00000160: f92f aa3f a45c d0bd 6d23 35be 3d06 a8be
00000170: 64aa fbbe b78e 17bf 96e0 523f 9114 c83f
00000180: 7e25 5dbe 9fc0 6a3f f230 48bd e5e7 a3bf
00000190: cf95 3cbf c145 573d 9933 59bf 2b48 18bf
000001a0: 259c aa3f bca8 ca3d 2175 273f 07d4 93be
000001b0: 8b9d a0be 6cb0 29bc ea50 81be 5c9c 483c
000001c0: c24a 41bf ca02 d1be 8e29 72bf ed4a 15bf
000001d0: 3149 c43f 74b4 5f3f 0f18 913d 7c71 2fbf
000001e0: a073 253e 2e55 31bf ccb2 76be 9943 d43e
000001f0: 8154 07bf e651 5cbf a8a2 8f3c ded9 553f
00000200: 70c5 32bc 9122 dbb9 67fa 0c3e 5f57 b53f
00000210: 53eb cd3f dabd c9be 5f24 fbbe 081e b9bf
00000220: 1c9e 1ebe 80ad aabe 865d ea3f ddc8 33be
00000230: 0f40 a2bf da6c 45be e527 fb3d c0e9 963c
00000240: 5d9c 2540 5a00 16bd eb20 80be 869b 813f
00000250: e874 163e 9b28 f53f 6b1c b63d 50da 6cbf
00000260: 93db bc3f f099 b53d 1f98 613f b74b 29bd
00000270: ef67 6ebf a838 88be 2431 b83f 5f53 6a40
00000280: 8963 7bbf 0540 863f a9ed 08bc 0968 83bf
00000290: 8763 c1bf d52d 473d 3e8a 5b3d 3086 a2bf
000002a0: e228 0e40 e71c ba3d c5aa fb3f 13eb cfbe
000002b0: b3fb debd d91b 45be fffa 6e3d 6065 49bd
000002c0: 39c2 a8bf 3603 3ebf 6e83 48c0 ee8a c9bd
000002d0: 759a d23f ca03 b13f 7fcc a03d 8988 95bf
000002e0: 539d a1be a8a3 04bf d99d 333e 335a 303d
000002f0: 53d3 babd 3cf0 fbbe cc6e b3bf 979e 6ebe

fc3.bias f4 [3]
0.16529422 -0.44459125 0.17986506
00000000: e342 293e 77a1 e3be 8c2e 383e
