model/checkpoint_6800.pth (torch, 21912 bytes, 6 tensors)

fc1.weight f4 [64, 6]
00000000: 8381 9b3e 30cf 5d3f da38 76be a591 26bf
00000010: 3a0f a1bd f8a7 8c3e 3815 e33e 2672 843f
00000020: 4ef1 b0be 7260 d63d 3aa0 a3bd 1637 a53d
00000030: 77a6 46bf eaac a5be 4435 87bf c6c3 593d
00000040: 0d1e 113e 2af4 3f3e d354 2ebd b23a 4cbf
00000050: e5e6 08bd 405c 8c3f ba06 843e 0eca 8c3e
00000060: f0f8 96be 5128 8a3f 5f26 473f 4888 e4be
00000070: f0ec c3be e3b6 0a3e aa26 0ebf 7e9b 5b3f
00000080: 3bf1 31bf edb5 b0be 2c8f edbe 8ab6 b4be
00000090: fee1 c3bf 3adf a9be 664a 3b3f d5ed 44be
000000a0: 61f1 bbbe 5236 a5bd 1ea3 85be 336d 83bf
000000b0: 5b7d 4fbf 322d a6be 47ce 0f3e 7f56 4dbe
000000c0: 2063 3fbf 9ed4 c3bf 0bb9 aa3f 9889 bf3e
000000d0: 3b0f 803e a62c ee3c e33d 7fbe cd99 74bf
000000e0: 572b 87bd 45c6 943c 8b48 a4be fb0a eabe
000000f0: 94ee 9a3e af95 60be 167b 533f 4c8e cf3c
00000100: 4967 343f 9962 883e a304 c33e fe67 fabe
00000110: 84d4 783e 5559 903e 5295 b2be c7e0 40be
00000120: 6cfe 493f a080 ed3d 7bbf 0f3f 4ad8 a43f
00000130: 5ba0 5cbe bd23 f4be 933b 903d f342 bbbf
00000140: 91cf 53bf 1655 893f 93b9 ac3d 2de7 e9be
00000150: c130 b3bd d33f c13e 82b4 24bf dd71 0a3f
00000160: 15f6 a93e 7866 34be f52d 893f 1451 f23e
00000170: 3a22 533e 68c7 bb3b 3e08 dfbe 46fa 39be
00000180: 38c2 c23e bd2a 1d3f 2b31 37bf 78ce 5abf
00000190: e635 1c3f ebfc b33e c60b 8fbf 5b71 babc
000001a0: bcce 7ebf 68ee 253d ebde 5cbe 14e9 88be
000001b0: d2f7 77be 6a02 793e f909 343e 2a09 6dbf
000001c0: 80bf f7be 7ae0 b43e 9a89 803f 7e28 08b9
000001d0: ea58 97be 5de3 aebe 61d5 963e 0345 6a3e
000001e0: e4e2 3a3f 35e2 913e 6019 b5be 72bc 253f
000001f0: 781e cdbe 6e31 77be bba0 3dbf 55c7 5cbf
00000200: 84b6 0bbd 3f79 e3be c1ba 50be 7e61 3bbe
00000210: c2db 94be 00c8 45bf f7d6 953e faa5 f8be
00000220: 7168 6b3e 1423 b93c 5d09 923e b9ff 473e
00000230: 76d6 273f 1278 da3e 0fb5 4b3e fa5e 6c3e
00000240: 3dd0 38bf 134e 243f 6ed9 74be de3a fc3e
00000250: 6e77 a5be eb28 abbe f76b 833e 83de 5dbf
00000260: c2e4 143e 76f0 c63f 7d18 6dbe bce8 babe
00000270: ea49 10bd ff92 84bf 48f8 03be 58cc e5bc
00000280: c0c2 debe d81d ecbe 8596 2cbf 15be 03bf
00000290: bd5d 49bf 0498 28bf f871 bfbe 7728 4d3e
000002a0: bac4 d13c 2dbb 58be b7d4 b83e d55e 1bbf
000002b0: 21a5 003e 635b 613e bcd8 dbbe db33 403e
000002c0: 902b 11bf ddd6 a63f 444f b93e 89fa a1be
000002d0: cd23 9fbe 560f d9bd fba2 f23e 0dfd db3c
000002e0: 707e 2d3f dee5 cf3e e6b0 e8be b0c5 1f3e
000002f0: d2fa 65bf d648 cd3e 5954 e53e 0b26 db3e
00000300: e29d b2bc a1a3 833f f5ba 8abf 4137 06bf
00000310: 0af8 47bb 7a80 a73e bb58 0fbf 36c0 163f
00000320: 0b4d 893e cbf5 0abb f3fc 42bf eaaa cdbe
00000330: 2500 ecbe 3715 19bf e7e6 b0be 246d 6d3f
00000340: aa51 9c3c e9a5 5dbe 7337 143e f149 063d
00000350: d498 d1be 3c34 023e b9a3 5b3e f2a8 653e
00000360: 0b8c 803f e1e3 823f 5326 973f ce06 bfbf
00000370: a410 963e bf8a 343f 3fa4 723f 30ed b0be
00000380: 8c0a b4bf a57c 0cbe c4ce 1abe 4d8e 35bd
00000390: c17a 98bf 0543 2d3f d5af acbe 5372 213f
000003a0: d1c2 d33e 4525 bc3e 4f72 373f 58d0 533d
000003b0: 1f2d 263f 97ef 0fbf d725 61be 3e61 54be
000003c0: 27db d2be f5ae 203f b6be 1fbe 036a d9bd
000003d0: 8760 873d f204 8abe 4dee 653f bda6 43bf
000003e0: 0c1d 193f 7d4e e0be ad05 11bf 7ce6 32be
000003f0: a77d 593f cae5 e1be 7ec9 1cbf e742 0ebf
0.30372247 0.8664427 -0.24045125 -0.65065986 -0.07864232 0.274719 0.44352126 1.0347335
-0.345591 0.10467614 -0.07989545 0.080671474 -0.77597755 -0.32358485 -1.056313 0.05316522
0.1417162 0.18745485 -0.042561363 -0.7977706 -0.033423323 1.0965652 0.25786382 0.27497905
-0.294868 1.0793554 0.77792925 -0.44635224 -0.38266706 0.13546328 -0.55527747 0.8578414
-0.69508713 -0.34513798 -0.46398294 -0.35295516 -1.5303342 -0.3317812 0.731604 -0.1923135
-0.36707595 -0.080670014 -0.2610101 -1.02677 -0.8105065 -0.32456356 0.14043532 -0.20052527
-0.7476063 -1.5299261 1.3337721 0.37409663 0.2501162 0.029074024 -0.24925952 -0.9554718
-0.06600063 0.018160949 -0.32086596 -0.45711502 0.30260146 -0.219321 0.8260969 0.025336407
0.704701 0.26637724 0.38089475 -0.48907465 0.24299818 0.28193155 -0.34879547 -0.18835746
0.7890384 0.11596799 0.5615155 1.2878506 -0.21545546 -0.47683516 0.07042613 -1.4629806
-0.82738596 1.0729091 0.08433833 -0.45684186 -0.087495334 0.37744007 -0.64337933 0.5407999
0.33195558 -0.17617214 1.071715 0.47327483 0.20618525 0.005730558 -0.43560976 -0.18161878
0.38038802 0.6139334 -0.715594 -0.85471296 0.6101974 0.351539 -1.1175468 -0.02275913
-0.995342 0.040510565 -0.21569411 -0.26740324 -0.2421563 0.24317327 0.1758193 -0.9259211
-0.4838829 0.35327512 1.0041993 -0.00012985055 -0.29560024 -0.3415784 0.2945967 0.22877888
0.7300246 0.28492895 -0.35370922 0.6474067 -0.40062308 -0.2413995 -0.7407338 -0.86241657
-0.034109607 -0.4442844 -0.20383741 -0.18298909 -0.29073912 -0.772583 0.29265568 -0.4856413
0.2298906 0.022599734 0.2852277 0.19531144 0.65561616 0.4266973 0.19893287 0.23083106
-0.72192746 0.6418163 -0.23911068 0.49263662 -0.3231768 -0.33429655 0.25668308 -0.8666765
0.14540389 1.5542133 -0.23153873 -0.36505687 -0.03522674 -1.035736 -0.1288768 -0.02805154
-0.43507957 -0.4611652 -0.67417175 -0.5146192 -0.7865866 -0.6585696 -0.3739164 0.20034967
0.025606502 -0.21165152 0.3609979 -0.6069158 0.12562992 0.22007518 -0.42938793 0.18769781
-0.56707096 1.3034321 0.36193287 -0.31636456 -0.31082 -0.10598628 0.4738997 0.026854062
0.67771053 0.40605062 -0.45447463 0.15602756 -0.89835846 0.40094632 0.44790915 0.42802462
-0.0218038 1.028431 -1.0838305 -0.5242806 -0.0030512833 0.32715207 -0.55994767 0.5888704
0.26816592 -0.0021203633 -0.7616722 -0.4016946 -0.4609386 -0.59797996 -0.34551165 0.9274466
0.01908191 -0.21645321 0.14474277 0.03278536 -0.4093691 0.12715238 0.21449174 0.22427729
1.0042738 1.0225793 1.1808571 -1.4923952 0.2930957 0.7052421 0.9478187 -0.3455596
-1.4065719 -0.13719423 -0.15117937 -0.04432516 -1.1912462 0.6768039 -0.337279 0.6306507
0.4135957 0.36747184 0.71658796 0.051712364 0.649126 -0.5622496 -0.21987091 -0.2074022
-0.41182825 0.62766963 -0.15600094 -0.10615923 0.06610208 -0.26956898 0.89816743 -0.764263
0.59809947 -0.43809882 -0.56649286 -0.17470735 0.84957355 -0.44120628 -0.6124495 -0.55570835

fc1.bias f4 [64]
00000000: 6999 a23e 3d2c df3e 039d c63e 13eb f7bc
00000010: 021c d93e 13f8 dd3e 1e66 49bf 1b57 62bd
00000020: 76da 00bf 3981 623e d08e f4be b731 6c3f
00000030: 877c 983c 006e 22bd ef57 a4bf 22f1 bf3e
00000040: 3e80 2d3f 290f 46be 99de 7c3d 10cc 293f
00000050: ff08 5a3f e9ed 50bf 6008 303f 0539 593f
00000060: 8e84 50be 30c8 0e3b 2f81 6a3d 7d50 f5be
00000070: 4d20 8b3f 4ac8 0abf 817e 44bf e688 43be
00000080: f848 e8be 65e0 3fbf 750d 903e ee90 503f
00000090: c065 3f3f c33f 25bc b62a 95be bade ff3e
000000a0: 1636 f23e a77c edbe c69c 133e ce3b 1abf
000000b0: e357 f23e 74b5 1fbe 3b76 02bf 04dc e23c
000000c0: 86a7 403f 515f b53e 6992 6abe 4d02 3fbd
000000d0: 4917 cf3e 62ff 5fbf 9abc ad3e f0a7 febe
000000e0: be5d 4abf a0a5 2bbf 8136 53bf a34e 403f
000000f0: ee5d 44bf a6bf 373f b760 47bd 6da8 fd3e
0.31757668 0.4358844 0.38791665 -0.03026346 0.4240418 0.43353328 -0.78671443 -0.05525885
-0.50333345 0.22119607 -0.47765207 0.9226336 0.018614067 -0.039655685 -1.2839335 0.37488657
0.6777381 -0.1934172 0.061735723 0.66327 0.85169977 -0.8161302 0.6876278 0.8485263
-0.20363066 0.0021786802 0.057252105 -0.4791297 1.0869232 -0.54211867 -0.7675553 -0.19095191
-0.4536817 -0.74951774 0.28135267 0.81471145 0.74764633 -0.010086003 -0.29134148 0.49974614
0.4730689 -0.46384165 0.14415273 -0.60247505 0.47332677 -0.15596563 -0.50961655 0.027692802
0.7525562 0.35424283 -0.22907414 -0.046633054 0.40447453 -0.8749906 0.33932954 -0.497375
-0.7904929 -0.670496 -0.8250504 0.7511999 -0.76705825 0.7177681 -0.04867622 0.4954256

fc2.weight f4 [64, 64]
00000000: c6e2 45bd eb6b 23be 4b5e a03d 9d6a 003d
00000010: dce2 943d 3426 2e3d d1c5 a8bd 19d8 863d
00000020: 5394 3abc 69af f33c 73a2 edbd 5d37 adbd
00000030: 9b6b 18be 6e3b 84bd a6a9 353c d04b 0abe
00000040: 3880 c53a c0d6 513d 9cf0 c0bc 7bc7 f8bd
00000050: 6ac1 12be 5158 63bd 7503 453b 160b b23d
00000060: 3d62 653d d59a f3bc fcf1 f53c 56c8 20be
00000070: 55f3 25be abdb 2d3d 8478 dabd 526a a53c
00000080: 3c0f ffbd ca4c 9fbd ec7b ebbd fe2a d73c
00000090: 8f2d 4fbd e485 a43d b153 153d 77d1 8d3c
000000a0: 9e50 a7bc 65a2 9cbd 806c 89bd fea2 8cbc
000000b0: bf1d bd3c ead9 d3bd fa54 b63d 1fc1 5abd
000000c0: b7d3 0dbe 5b3e c8bd 92fd c13d 7ac2 a53d
000000d0: 3a9e 08be df30 4d3d 6345 883c 33ca 0f3d
000000e0: 8da0 a73d 05ca c7bd 446b a83a 6f08 dcba
000000f0: a76e 99bd a74b 353b bdfc 5ebd ef3f 243d
00000100: 0f99 9abd 7b82 afbd 8d87 cb3b 7c35 fb3b
00000110: 5908 e6bd bb5b 0cbd 2d8d 273d 2863 92bc
00000120: 5fdb 2a3c 86a3 23bd b8de bd3c 3f3e e1bd
00000130: 7049 b0bd 28a1 acbd 830a cc3d d208 8bbd
00000140: deb9 b5bc a38d 9cbd 2986 b03d 39ed a93d
00000150: d5c4 f0bd ea58 16be 65c6 04be 3f28 18bd
00000160: c482 02bd 6b07 cfbd 0b60 83bd f3a2 9fbc
00000170: 3442 b2bd 2d6a da3b 76b5 e5bc 1ad7 97bd
00000180: 6b35 fabc edf9 b13d 43aa ffbd 9e46 03bd
00000190: 02fc a9bd 5536 d23d c864 1fbe d84c 10be
000001a0: 5bfa d93d 16de b8bd 7d4a 78bc bcd6 5bbd
000001b0: 0418 0cbd 6e3e febc 2c24 7b3d 24c1 f2bc
000001c0: 1ac7 36be daec a5bd 45f4 5ebd 90b8 fd3c
000001d0: 1ada d1bd dea5 a43d ae4b 23bd 05b4 75bd
000001e0: 63ed a93d 23f4 d43c 7fb4 893d efbd 103d
000001f0: 5589 a9bd 6076 f9bd ca87 eebc ea36 863d
00000200: e0aa 0f3e b7a3 c73b bc23 a63e 8683 283e
00000210: 19e0 653c 057d 883e 69d5 bbbe f96d 69be
00000220: ff5a 2a3d 5aca 29bf cce8 2cbe 63c2 d03e
00000230: c128 cd3e 08ba 293e b2a5 27bf 5c0b 93be
00000240: 9c44 e63d e9c4 383f 240c 0f3e 3bab a93e
00000250: 45f1 853e 9207 56be 5cd9 6b3d 945c 9c3e
00000260: 6a59 c5be c8f1 133d 89cc a23b 7b9d 06bc
00000270: 3aa6 423e fd79 b5bd 8c03 cdbc ea22 c4bd
00000280: 2f7d 8e3e 2503 72bf 19a4 fa3e 8b59 983e
00000290: 320c 213e d086 d5be 2fa0 74be 8ef7 083d
000002a0: eb83 8fbc 983a 3bbf c593 60be c4d8 363e
000002b0: 7843 9cbd ad4d 373e 80b4 c0be ff8a 4a3d
000002c0: 0f33 7f3e 7406 19be c3b2 9a3d f7a3 a3be
000002d0: cf11 353e 0311 69bd 7d93 8a3e 381e e1bc
000002e0: 391b 963d 3fd0 1ebf 1971 f53d 0a3f 2ebe
000002f0: 1217 66be 11b4 4c3e 1b37 d5be c509 61bc
00000300: 0548 1ac0 5811 95be 4661 5bbf 3ce9 f5be
00000310: 8a35 83bf 8d26 2e3e 2184 6b3f 4807 b5be
00000320: 4267 e1bf 912b cd3e fc7f b43e 384d a8be
00000330: a1a0 583e 0923 a93d 66b1 0f3e 60a6 06bf
00000340: 7299 db3e 1c81 963e bb1c 43bf f632 15bf
00000350: de09 753d 4acc 69bf fd75 4d3e 86d4 77bc
00000360: 5179 e5bd 1b49 8e3d efbd c8be c203 0bbf
00000370: 51fa 4cbf 466a 843e ed98 f1be 8c2c 983d
00000380: ce06 3ec0 26b2 ccbd a0b2 ef3e 9a71 91be
00000390: 9e40 dabf b5aa 31bd 90dc df3f 6bdd ebbe
000003a0: 8416 7b3e f208 3cbf 6edc 463e 567e 4ebf
000003b0: 641f 2f3f 5e21 663d 2336 893d b131 313f
000003c0: 4296 0e3e 8da3 d5bd a914 793e f888 353d
000003d0: a468 82be c8b1 943d a731 523e d908 fd3e
000003e0: b295 6dbf 0449 263e 8bf0 4cbf 4aa3 aebf
000003f0: fb64 46c0 1e3a 4cbf ccc8 803e 57d1 a6be
-0.04831197 -0.15959136 0.07830485 0.031351674 0.072698325 0.042516902 -0.082408555 0.06584186
-0.011387902 0.029746728 -0.1160325 -0.08457825 -0.14884798 -0.06456648 0.011087811 -0.13505483
0.0015068119 0.051230192 -0.023552231 -0.12147423 -0.14331594 -0.055504147 0.0030061875 0.08693521
0.05600189 -0.029736916 0.030022614 -0.15701422 -0.16206105 0.04244582 -0.10667518 0.020192299
-0.124540776 -0.07778318 -0.114982456 0.026265617 -0.050580557 0.0803335 0.036456767 0.017311795
-0.020424183 -0.07648162 -0.06710148 -0.017167564 0.023085473 -0.10344298 0.08902927 -0.05340683
-0.13850294 -0.09777518 0.09472193 0.08093734 -0.13341609 0.050095435 0.016634649 0.03510494
0.081849195 -0.09755329 0.001284935 -0.0016787181 -0.074918084 0.00276635 -0.05444025 0.040100034
-0.07548725 -0.08569809 0.0062112273 0.007666288 -0.11232061 -0.03426717 0.04090612 -0.017869547
0.010428279 -0.03995087 0.02317749 -0.109982006 -0.08607757 -0.084291756 0.099629425 -0.06788792
-0.022183355 -0.076442026 0.08619339 0.082972 -0.11756293 -0.14682356 -0.12966307 -0.037147757
-0.03186299 -0.10108837 -0.06414803 -0.01948688 -0.087040335 0.006665489 -0.028040629 -0.07414074
-0.03054305 0.08690248 -0.12483647 -0.032049768 -0.0830002 0.10264269 -0.15565789 -0.14091814
0.10643455 -0.090267345 -0.015154478 -0.053671584 -0.03420259 -0.031035628 0.061313793 -0.029633112
-0.17849389 -0.081018165 -0.054432172 0.030971795 -0.10246678 0.08039449 -0.039867096 -0.059986133
0.08297231 0.02599532 0.0672388 0.035337385 -0.08278147 -0.12180781 -0.029117484 0.06553443
0.14030027 0.0060925144 0.32449138 0.16456422 0.01403048 0.26657882 -0.36686257 -0.22795857
0.041590687 -0.6632439 -0.1688568 0.40773305 0.40070155 0.16574872 -0.65487206 -0.28719604
0.11243555 0.7217546 0.13969475 0.3313845 0.26160637 -0.20901325 0.057580337 0.30539382
-0.3854478 0.036119252 0.00496823 -0.008216257 0.19008723 -0.08861158 -0.025026105 -0.09576972
0.27829883 -0.9453605 0.48953322 0.29755816 0.15727308 -0.41704416 -0.2388923 0.03343921
-0.017518958 -0.7313628 -0.2193137 0.17856127 -0.07630056 0.17900725 -0.3763771 0.049448963
0.24921821 -0.14943868 0.07553627 -0.31961033 0.17682575 -0.05690099 0.2706565 -0.02748023
0.07329411 -0.6203651 0.11984462 -0.17016235 -0.22469738 0.19990565 -0.41643605 -0.013735239
-2.4106457 -0.29114795 -0.856953 -0.48029506 -1.0250714 0.17006893 0.9199849 -0.35357118
-1.7609637 0.400723 0.35253894 -0.32871413 0.21155025 0.082586356 0.14032516 -0.5259762
0.42890507 0.29395378 -0.76215714 -0.58280885 0.059823863 -0.91327345 0.2006454 -0.015126353
-0.1120478 0.069475375 -0.39207408 -0.5430261 -0.8006945 0.2586233 -0.47186986 0.07430372
-2.9691653 -0.099949166 0.46815968 -0.28406984 -1.705097 -0.04337569 1.7489185 -0.46067366
0.24520308 -0.7345115 0.19420025 -0.80661523 0.68407273 0.056184165 0.06699779 0.6921645
0.13924506 -0.104315855 0.24324287 0.044320077 -0.2547046 0.072604716 0.20526753 0.49420813
-0.9280654 0.16238791 -0.8005454 -1.3643582 -3.0999134 -0.7977618 0.25153196 -0.3258159

fc2.bias f4 [64]
00000000: 422c 21be 64d2 c43c 179b a63e 8b87 523d
00000010: 31d9 d6bc c8b1 513e 25eb e93e b6a8 ce3c
00000020: d07e 16bd ed68 f83d 7801 cf3e 7e84 b43d
00000030: ffea 923e 4472 9fbb f139 813d 9ba1 e2bd
00000040: 871c 623d b0ef 423e 5404 9e3d e0a6 34bd
00000050: be02 36bc 9d4d 583e f55b b23c 1cf1 093f
00000060: 1573 4b3c 028b 13be 707f 9d3e 6932 593c
00000070: e272 e23e 3c11 093e 9c4e 8b3e 2c6a 223e
00000080: 47d9 103e f1f7 a7bd af11 9d3d 653b 003f
00000090: fca6 803d ca03 dabd 3df8 e23c 2876 503e
000000a0: 346d ca3e da0e 88bd 4ba2 b03e c200 a33e
000000b0: 1864 3b3e 3744 0e3d 2dbb 8f3e 556f 26bc
000000c0: 373d 9bbe db1b 4dbe d1db 64be 991a 6b3e
000000d0: baa0 843d 9426 d1bd fef8 4f3c d31f 2b3d
000000e0: b0ad ab3d 3593 bb3e e15f 573e 399f 663d
000000f0: 6843 873e 8819 bf3e c3d4 833e 56e3 033e
-0.1573954 0.024026103 0.325402 0.051398795 -0.026226612 0.20477974 0.45687214 0.025226932
-0.03674203 0.12129388 0.40430808 0.088143334 0.28694913 -0.0048659164 0.063098796 -0.1106598
0.055202987 0.19036746 0.07715669 -0.044104457 -0.011109052 0.21123357 0.021772364 0.5388353
0.012417574 -0.14408496 0.3076129 0.013256648 0.44228274 0.1338548 0.27208412 0.15860814
0.14145385 -0.08201588 0.076693885 0.5009063 0.0628185 -0.10645254 0.02770626 0.20357573
0.3953644 -0.06643458 0.3449882 0.31836516 0.18299901 0.034733023 0.2807249 -0.01015838
-0.3032014 -0.20030157 -0.22349478 0.22959365 0.06475969 -0.10212436 0.012693642 0.041778397
0.08382738 0.36635748 0.21032669 0.05630419 0.26418614 0.37324166 0.25748262 0.1287969

fc3.weight f4 [3, 64]
00000000: 58bf bd3d 57f9 a83d e420 33bf 0870 d03f
00000010: c782 9d3f 72a7 4cbe 320c 74bf 5226 f6bf
00000020: e558 35bd 9510 b9be 012a 2940 0099 1fbd
00000030: 18b3 4abf e026 af3b db46 6dbe cfa0 7a3d
00000040: a493 e53f 48bd 5bbe 30c4 01be bcb5 a93f
00000050: 53a2 65be 9ca7 0940 6bf3 933d 4258 47bd
00000060: 96b4 c13f 1281 a53d c918 2bbd d00f e1bd
00000070: 58b8 30bd cd35 b8be c182 5c3f 65c2 e53f
00000080: c904 7dbe e78e 773f bb96 883d 71fe 78bf
00000090: f8bc d9bf dce9 8ebb 8d98 bfbd 3ad4 8dbf
000000a0: 3a0d fd3f 498c 8a3e 8abe 0640 17e1 b0be
000000b0: 6165 acbe 18cd 80bf e475 64bf 6abc b5bd
000000c0: 3c90 b9bf 3bef 83bf 0195 13c0 a602 843d
000000d0: 9e7e b93f f9c2 b73f f79e 85be 14c9 a6be
000000e0: 9dd3 84bd 8fe6 33bf 2b05 00bf 8fa9 d0bd
000000f0: 8454 aa3d 6987 a9be 843d 14bf 1e3b aa3d
00000100: a373 1a3c 57a5 0dbe 94d1 b5be 38fb 6e3f
00000110: ae35 303f 98bb f6bd 0f58 bdbe ef7c 9cbf
00000120: d7f1 843d a9e4 f1be 4612 ec3f 0582 84be
00000130: 7cda 2cbf 7c7e 7cbd 8e05 ad3c ba3a c83d
00000140: 72c3 dd3f ef1c 2cbe 14f1 a03d 045d 1240
00000150: fbbe f5bd ce94 bf3f e7d0 6cbd 622e 34bf
00000160: d4c3 903f a45c d0bd 5315 6abe ea2a 0abe
00000170: e0e3 e8be ffcc 2dbf faf6 543f a41f ae3f
00000180: 4bf5 a1be 8326 233f f230 48bd 2e7e b5bf
00000190: 013c 41bf c145 573d c019 18bf 1ba2 2bbf
000001a0: 754e a53f bca8 ca3d 6a82 543f 373a 31be
000001b0: 2644 a1be 757c 883d 925e b4be 5c9c 483c
000001c0: 45cb 41bf 735b 08bf 2551 abbf fe30 b2be
000001d0: 7e19 e73f b2bd 6b3f aaff 7bbd e94d 22bf
000001e0: ab14 ba3d 9d92 0fbf 39a9 70be 3ed5 163d
000001f0: f70e e5be d7c3 3abf d257 e5bd c8f7 cf3e
00000200: 70c5 32bc 9122 dbb9 8eb9 ca3c ca37 a13f
00000210: 6b91 c63f 8c3f a8be 3dfa ddbe 24c1 a9bf
00000220: 1a9d 10be 1b08 0fbe 4dc0 f63f e041 69be
00000230: ddc6 99bf 84d1 16be 73d6 da3c c0e9 963c
00000240: cdf2 1240 7079 b4bd 5e69 22be b4d2 a23f
00000250: 0e80 153d 25b8 d83f 6b1c b63d 8460 6ebf
00000260: b18d a93f f099 b53d 0d9c 613f 6ce8 d9bc
00000270: b457 6bbf 12c9 94be c3ae 9f3f 08d2 4140
00000280: be9b 67bf e0b1 823f a9ed 08bc 591b 80bf
00000290: 5290 abbf d52d 473d acac 2a3d be27 93bf
000002a0: 59c8 e73f e71c ba3d a95e f23f b0e3 1bbe
000002b0: 6a37 21be 8f1a 2cbe b614 403c 6065 49bd
000002c0: 53fa a9bf 39b6 3fbf 3d8a 39c0 5477 76bd
000002d0: 9225 dc3f c007 a73f 4e5f 3c3d 6c77 86bf
000002e0: 7902 fdbd d2ff 0cbf e5ae 8cbc 5502 48bd
000002f0: 1547 d9bd f1f0 0cbf 0542 a2bf b073 76be
0.092650115 0.08250683 -0.6997206 1.6284189 1.2305535 -0.1998575 -0.9533111 -1.9230444
-0.04427423 -0.36145464 2.6431887 -0.03896427 -0.79179525 0.0053452104 -0.2317156 0.061188515
1.7935681 -0.21458924 -0.12672496 1.3258586 -0.22425203 2.150855 0.07224163 -0.048668154
1.5133235 0.08081259 -0.041771684 -0.10989344 -0.043144554 -0.35978547 0.86137015 1.794995
-0.24708857 0.96702427 0.066693746 -0.97263247 -1.7010794 -0.0043613743 -0.093552686 -1.1080391
1.9769661 0.27060154 2.1053796 -0.3454673 -0.33671096 -1.006259 -0.89242387 -0.08873828
-1.4497142 -1.0307382 -2.3059695 0.06445818 1.4491765 1.4356376 -0.26097843 -0.32575285
-0.064856745 -0.7027368 -0.50007886 -0.10188591 0.08316901 -0.33111122 -0.57906365 0.08312057
0.009426984 -0.13832603 -0.35511458 0.9335208 0.6883191 -0.120474994 -0.36981246 -1.2225627
0.0649144 -0.47244766 1.8443077 -0.25880447 -0.6752088 -0.061644062 0.021120813 0.09776826
1.732527 -0.16807912 0.07858482 2.2869272 -0.11999317 1.4967287 -0.057816412 -0.70383275
1.1309762 -0.1017392 -0.22859697 -0.13492933 -0.45486355 -0.67890924 0.83189356 1.3603406
-0.31632456 0.6373064 -0.048874803 -1.4179132 -0.75482184 0.052556757 -0.5941429 -0.6704423
1.2914568 0.09895465 0.83011496 -0.17307363 -0.31497306 0.06664363 -0.352284 0.01224431
-0.7570079 -0.5326454 -1.3384138 -0.34803003 1.8054655 0.9208633 -0.061523117 -0.6340013
0.09085973 -0.5608309 -0.23502053 0.036824457 -0.4473798 -0.7295508 -0.11198391 0.4061873
-0.010911331 -0.0004179669 0.024746682 1.259515 1.5513128 -0.32860982 -0.4335498 -1.3262067
-0.1412243 -0.13967936 1.9277436 -0.22779036 -1.2013813 -0.14728361 0.026713585 0.018422008
2.2960694 -0.08812225 -0.15860507 1.2720551 0.036499076 1.6931196 0.08892139 -0.9311602
1.3246366 0.08867252 0.8812874 -0.026600085 -0.919307 -0.29059654 1.2475208 3.0284443
-0.9047202 1.0210533 -0.008357444 -1.0008346 -1.3403418 0.048627693 0.04166858 -1.1496503
1.8108016 0.09087544 1.8935138 -0.15223575 -0.15743795 -0.16807006 0.011723688 -0.049168944
-1.3279518 -0.74887425 -2.8990624 -0.060172394 1.7198966 1.304924 0.045989327 -1.0505195
-0.12353987 -0.5507785 -0.01717324 -0.04883035 -0.10609261 -0.5505515 -1.2676398 -0.24067569

fc3.bias f4 [3]
00000000: 9f90 b73d aba6 ccbe 1efd 153e
0.08963131 -0.39970908 0.14647338
