model/checkpoint_3400.pth (torch, 21912 bytes, 6 tensors)

fc1.weight f4 [64, 6]
0	0x3ed6b68a	0.4193614
1	0x3f457d64	0.77144456
2	0xbebd7c84	-0.3700906
3	0xbf5436a6	-0.82895887
4	0xbd5d43d0	-0.05401975
5	0x3e9340a8	0.28760266
6	0x3ef23fa3	0.47314176
7	0x3f0f0924	0.5587332
8	0xbef53623	-0.47892866
9	0x3ddf3a79	0.10899825
10	0xbdab57bb	-0.08366343
11	0x3d1e15bd	0.03859495
12	0xbf7c33f0	-0.9851675
13	0xbe8d5a87	-0.2760813
14	0xbf52d08d	-0.82349473
15	0x3e651487	0.22371112
16	0x3dde3504	0.10849956
17	0x3e295f50	0.16540265
18	0xbe972af1	-0.2952495
19	0xbf301be9	-0.6879259
20	0xbe157840	-0.14596653
21	0x3f7d2b5e	0.988943
22	0x3e6dbe74	0.23217183
23	0x3e876bbe	0.26449388
24	0xbe6c0d5c	-0.23051971
25	0x3f49552d	0.7864559
26	0x3f3b71cf	0.73220533
27	0xbf23da7e	-0.6400527
28	0xbebd0293	-0.36916026
29	0x3e014d89	0.12627234
30	0xbee28a34	-0.44246066
31	0x3f7bc5b2	0.98348534
32	0xbf61cb26	-0.88200605
33	0xbea7d9bd	-0.3278331
34	0xbed46083	-0.41479883
35	0xbe9b24d1	-0.30301526
36	0xbfb7bba4	-1.4354138
37	0xbe4a0fc1	-0.19732572
38	0x3efed563	0.49772176
39	0xbe8fa7c9	-0.28057697
40	0xbe642fce	-0.22283861
41	0xbd505c66	-0.050869368
42	0xbe54e527	-0.2079054
43	0xbf7d8826	-0.9903587
44	0xbf499d94	-0.7875607
45	0xbeb8dbbe	-0.3610515
46	0x3e16d6cb	0.14730375
47	0xbe461e01	-0.19347383
48	0xbf4ac222	-0.79202473
49	0xbf8c6b42	-1.0970232
50	0x3f65b327	0.8972649
51	0x3f0c674a	0.54845107
52	0x3df36047	0.11883598
53	0xbc91eb68	-0.017812446
54	0xbdabfead	-0.08398185
55	0xbf7d1182	-0.9885484
56	0xbd5a52da	-0.05330167
57	0xbd0f9b66	-0.03506031
58	0xbe9e2907	-0.30890676
59	0xbee04b65	-0.4380752
60	0x3eb0b68b	0.3451427
61	0xbe50e579	-0.20400037
62	0x3f5666c9	0.8375059
63	0x3da0b27b	0.078465424
64	0x3f20cded	0.6281422
65	0x3e64503e	0.22296235
66	0x3ecb4f8e	0.39709133
67	0xbef49153	-0.47767124
68	0x3e71dbc4	0.2361899
69	0x3ef0385f	0.46918008
70	0xbea81dea	-0.32835323
71	0xbe270aeb	-0.16312759
72	0x3f08b4aa	0.5340067
73	0x3e4e8db5	0.20171244
74	0x3f1f8ed4	0.62327313
75	0x3fa55688	1.2917032
76	0xbe74e2c9	-0.23914637
77	0xbedf9201	-0.4366608
78	0x3e1eac53	0.15495424
79	0xbfad8ee7	-1.3559235
80	0xbf733340	-0.95000076
81	0x3f794d17	0.97383255
82	0x3de4a1f8	0.111637056
83	0xbed82ae7	-0.42220232
84	0xbd9f7d7d	-0.07787607
85	0x3ebb0188	0.36524606
86	0xbefb84cc	-0.49124753
87	0x3f0db33e	0.55351627
88	0x3e92d99e	0.28681654
89	0xbe297070	-0.16546798
90	0x3f85c72c	1.0451407
91	0x3eac3301	0.33632663
92	0x3e5e57fc	0.21713251
93	0xbc408052	-0.011749344
94	0xbed14c6f	-0.40878627
95	0xbe3640a3	-0.17798094
96	0x3f1d5ed5	0.6147283
97	0x3ee51431	0.44741967
98	0xbf08490d	-0.53236467
99	0xbf1f8ceb	-0.623244
100	0x3f1248f8	0.5714259
101	0x3e6fd20a	0.23419967
102	0xbf9c92bb	-1.2232279
103	0xbc4cb832	-0.012495087
104	0xbf685335	-0.90751964
105	0x3b39db03	0.00283593
106	0xbe5baf53	-0.214536
107	0xbe75a9da	-0.23990574
108	0xbe847ba8	-0.25875592
109	0xbd3fc1fc	-0.046815857
110	0x3e26e9d1	0.16300131
111	0xbf831d9c	-1.0243411
112	0xbef7e467	-0.48416445
113	0x3ebc5a46	0.36787623
114	0x3f50a7e4	0.8150618
115	0x3d962c1a	0.073326305
116	0xbe7cd3a8	-0.24690115
117	0xbdff3e4b	-0.12463053
118	0x3e82fd99	0.25584105
119	0x3e5c6534	0.21522981
120	0x3f3d1398	0.7385802
121	0x3e2fbd71	0.1716211
122	0xbeae4007	-0.34033224
123	0x3ebdf26f	0.37099025
124	0xbee24fa0	-0.44201374
125	0xbe68f030	-0.22747874
126	0xbf29648d	-0.66169053
127	0xbf3e9f91	-0.7446223
128	0x3d8fdaca	0.070241526
129	0xbec5ac79	-0.3860815
130	0xbe2d3efe	-0.16918561
131	0xbe098491	-0.13429476
132	0xbcbae0cd	-0.022812271
133	0xbf1f75fb	-0.622894
134	0x3eb51be4	0.3537284
135	0xbe65f940	-0.22458363
136	0x3e52aa35	0.20572741
137	0x3bacb2d9	0.0052703437
138	0x3ecdb953	0.40180454
139	0x3e78b38c	0.24287242
140	0x3f1ff111	0.62477213
141	0x3ed49ac1	0.41524318
142	0x3e5468e6	0.2074314
143	0x3e5c889b	0.21536486
144	0xbf325835	-0.69665843
145	0x3ec4fd1f	0.38474366
146	0xbe5c79d2	-0.21530846
147	0x3eb5bc24	0.35495102
148	0xbebe28d6	-0.3714053
149	0xbec7074b	-0.38872752
150	0x3e22e89f	0.1590905
151	0xbf62958d	-0.88509446
152	0x3e19a396	0.1500381
153	0x3fb8fe9b	1.44527
154	0xbe5fe7d8	-0.21865785
155	0xbeadc1a6	-0.33936805
156	0xbd0e9384	-0.03480865
157	0xbf79f698	-0.976419
158	0xbdb32cf8	-0.087488115
159	0xbe4d1652	-0.20028046
160	0xbe9dedef	-0.3084559
161	0xbeb782fd	-0.35842124
162	0xbf34d2a6	-0.70633924
163	0xbee19348	-0.4405768
164	0xbf2497f5	-0.6429437
165	0xbf046c34	-0.51727605
166	0xbeb7e7ed	-0.35919133
167	0x3e0a9fbe	0.135375
168	0x3c55f494	0.0130588
169	0xbe661390	-0.224684
170	0x3e8ef3ea	0.27920467
171	0xbf0e9bde	-0.55706584
172	0x3e05540f	0.13020347
173	0x3e452f52	0.19256333
174	0xbf17b581	-0.5926133
175	0x3e48a39a	0.19593659
176	0xbeafe233	-0.34352264
177	0x3f8f3c08	1.1190195
178	0x3ec7a09c	0.38989723
179	0xbe9534b4	-0.29141772
180	0xbeda5ef0	-0.42650557
181	0x3dee9fcb	0.11651572
182	0x3f0619b6	0.5238298
183	0x3e15913a	0.14606181
184	0x3f139063	0.5764219
185	0x3eae0344	0.33986866
186	0xbeddaaa5	-0.43294254
187	0x3e96a2b7	0.29421017
188	0xbf9391b6	-1.1528842
189	0x3ecda329	0.40163544
190	0x3ec1c600	0.37846375
191	0x3eba41b5	0.36378255
192	0x3db03e91	0.086056836
193	0x3f850a82	1.0393832
194	0xbf84874c	-1.0353789
195	0xbf01179d	-0.50426656
196	0xbc981ced	-0.01856848
197	0x3ea56ab3	0.32307968
198	0xbedff0bd	-0.43738356
199	0x3e907f3f	0.2822208
200	0x3e9c7ec9	0.3056548
201	0x3b5fcde4	0.003414982
202	0xbf2df4c8	-0.6795163
203	0xbec81c31	-0.39084008
204	0xbea8629f	-0.32887742
205	0xbf2422b6	-0.64115465
206	0xbe8461c8	-0.2585585
207	0x3f363aba	0.7118336
208	0x3cf012cb	0.029305836
209	0xbe1ccc39	-0.1531228
210	0x3e96d04f	0.29455802
211	0x3d86ddd4	0.06585279
212	0xbe600ab2	-0.2187908
213	0x3da642fb	0.08118244
214	0x3e450b35	0.19242556
215	0x3e4350f8	0.19073856
216	0x3f82ce65	1.0219237
217	0x3f276127	0.6538262
218	0x3f880d76	1.0629108
219	0xbfbd32e5	-1.4781157
220	0x3e5e3191	0.21698596
221	0x3f196561	0.59920317
222	0x3f150a9f	0.5821933
223	0xbeaeadce	-0.34116977
224	0xbf96d0da	-1.1782486
225	0xbea798e8	-0.32733846
226	0xbceb4d72	-0.028723452
227	0x3b26e5d0	0.0025466569
228	0xbf7d0a5e	-0.98843944
229	0x3f0941b8	0.53615904
230	0xbe9cd1fd	-0.30628958
231	0x3f1d8e0c	0.6154487
232	0x3eafcc61	0.34335616
233	0x3eaf2831	0.3421035
234	0x3f32c396	0.6982969
235	0xbd482e62	-0.04887236
236	0x3f169be3	0.58831614
237	0xbee73b93	-0.4516264
238	0xbe381f67	-0.17980729
239	0xbe45ef8f	-0.19329666
240	0xbec653ae	-0.38735718
241	0x3f0da664	0.55332017
242	0xbe1b334f	-0.15156291
243	0xbec06a32	-0.3758102
244	0x3dbe9c22	0.09307124
245	0xbea284e3	-0.3174201
246	0x3f2ed884	0.68299127
247	0xbf1bcb6a	-0.6085726
248	0x3f0b509e	0.5441989
249	0xbf1fa418	-0.6235976
250	0xbef5a93f	-0.47980687
251	0xbdfa66c5	-0.12226633
252	0x3f4df38c	0.8044975
253	0xbf02a0ee	-0.5102681
254	0xbeb8caf7	-0.3609235
255	0xbeda60c6	-0.42651957

fc1.bias f4 [64]
0	0x3e8b1e64	0.27171624
1	0x3f18f7d8	0.5975318
2	0x3e7821da	0.24231663
3	0xbd568ced	-0.05238049
4	0x3ec6b1ff	0.38807675
5	0x3ea2ac8f	0.31772277
6	0xbf36f476	-0.7146677
7	0x3bef0892	0.007294723
8	0xbe49cf3d	-0.19707961
9	0x3d77f478	0.060535878
10	0xbf22f9c9	-0.6366239
11	0x3f541c4e	0.8285569
12	0x3d2d7ef8	0.042357415
13	0xbdcaa4cb	-0.09894713
14	0xbf806412	-1.0030539
15	0x3ebcd954	0.36884558
16	0x3f644a41	0.891758
17	0xbdf27165	-0.118380345
18	0xbe24d39c	-0.16096348
19	0x3f3b68ec	0.73206973
20	0x3f532c23	0.8248922
21	0xbf4a344d	-0.78986055
22	0x3f2f6664	0.6851561
23	0x3f3f667f	0.7476577
24	0xbe9ed47b	-0.31021485
25	0x3da8f829	0.08250458
26	0xbbd7a7f8	-0.0065813027
27	0xbec2cd78	-0.38047385
28	0x3f811d0e	1.0086992
29	0xbeb5ffc3	-0.35546693
30	0xbf154d9b	-0.5832154
31	0x3bec157c	0.0072047096
32	0xbedc7000	-0.430542
33	0xbf37577c	-0.71617866
34	0x3e037f7a	0.12841597
35	0x3f4b8b09	0.79509026
36	0x3f13e41b	0.57769936
37	0x3d9bf30b	0.07614716
38	0xbe37133f	-0.17878436
39	0x3edb8cf0	0.42880964
40	0x3eb00557	0.34379074
41	0xbee2442b	-0.44192633
42	0x3e6be672	0.23037127
43	0xbec805ef	-0.39067027
44	0x3ee32a77	0.44368336
45	0xbe4eb130	-0.20184779
46	0xbee8b0f1	-0.45447496
47	0xbd3c2bec	-0.045940325
48	0x3f2af059	0.6677299
49	0x3eaf52f8	0.34242988
50	0xbe9d3102	-0.30701452
51	0xbe0a428f	-0.13501953
52	0x3e992175	0.29908338
53	0xbf5ebad6	-0.8700384
54	0x3ec9460d	0.39311257
55	0xbf208a5d	-0.62711126
56	0xbf3fa110	-0.74855137
57	0xbf0efa02	-0.5585023
58	0xbf01cc9b	-0.5070283
59	0x3f2230f1	0.6335593
60	0xbf1c6782	-0.6109544
61	0x3f233866	0.6375793
62	0xbe85629d	-0.26051798
63	0x3ee04e83	0.438099

fc2.weight f4 [64, 64]
0	0xbd45e2c6	-0.04831197
1	0xbe236beb	-0.15959136
2	0x3da05e4b	0.07830485
3	0x3d006a9d	0.031351674
4	0x3d94e2dc	0.072698325
5	0x3d2e2634	0.042516902
6	0xbda8c5d1	-0.082408555
7	0x3d86d819	0.06584186
8	0xbc3a9453	-0.011387902
9	0x3cf3af69	0.029746728
10	0xbdeda273	-0.1160325
11	0xbdad375d	-0.08457825
12	0xbe186b9b	-0.14884798
13	0xbd843b6e	-0.06456648
14	0x3c35a9a6	0.011087811
15	0xbe0a4bd0	-0.13505483
16	0x3ac58038	0.0015068119
17	0x3d51d6c0	0.051230192
18	0xbcc0f09c	-0.023552231
19	0xbdf8c77b	-0.12147423
20	0xbe12c16a	-0.14331594
21	0xbd635851	-0.055504147
22	0x3b450375	0.0030061875
23	0x3db20b16	0.08693521
24	0x3d65623d	0.05600189
25	0xbcf39ad5	-0.029736916
26	0x3cf5f1fc	0.030022614
27	0xbe20c856	-0.15701422
28	0xbe25f355	-0.16206105
29	0x3d2ddbab	0.04244582
30	0xbdda7884	-0.10667518
31	0x3ca56a52	0.020192299
32	0xbdff0f3c	-0.124540776
33	0xbd9f4cca	-0.07778318
34	0xbdeb7bec	-0.114982456
35	0x3cd72afe	0.026265617
36	0xbd4f2d8f	-0.050580557
37	0x3da485e4	0.0803335
38	0x3d1553b1	0.036456767
39	0x3c8dd177	0.017311795
40	0xbca7509e	-0.020424183
41	0xbd9ca265	-0.07648162
42	0xbd896c80	-0.06710148
43	0xbc8ca2fe	-0.017167564
44	0x3cbd1dbf	0.023085473
45	0xbdd3d9ea	-0.10344298
46	0x3db654fa	0.08902927
47	0xbd5ac11f	-0.05340683
48	0xbe0dd3b7	-0.13850294
49	0xbdc83e5b	-0.09777518
50	0x3dc1fd92	0.09472193
51	0x3da5c27a	0.08093734
52	0xbe089e3a	-0.13341609
53	0x3d4d30df	0.050095435
54	0x3c884563	0.016634649
55	0x3d0fca33	0.03510494
56	0x3da7a08d	0.081849195
57	0xbdc7ca05	-0.09755329
58	0x3aa86b44	0.001284935
59	0xbadc086f	-0.0016787181
60	0xbd996ea7	-0.074918084
61	0x3b354ba7	0.00276635
62	0xbd5efcbd	-0.05444025
63	0x3d243fef	0.040100034
64	0xbd9a990f	-0.07548725
65	0xbdaf827b	-0.08569809
66	0x3bcb878d	0.0062112273
67	0x3bfb357c	0.007666288
68	0xbde60859	-0.11232061
69	0xbd0c5bbb	-0.03426717
70	0x3d278d2d	0.04090612
71	0xbc926328	-0.017869547
72	0x3c2adb5f	0.010428279
73	0xbd23a386	-0.03995087
74	0x3cbddeb8	0.02317749
75	0xbde13e3f	-0.109982006
76	0xbdb04970	-0.08607757
77	0xbdaca128	-0.084291756
78	0x3dcc0a83	0.099629425
79	0xbd8b08d2	-0.06788792
80	0xbcb5b9de	-0.022183355
81	0xbd9c8da3	-0.076442026
82	0x3db08629	0.08619339
83	0x3da9ed39	0.082972
84	0xbdf0c4d5	-0.11756293
85	0xbe1658ea	-0.14682356
86	0xbe04c665	-0.12966307
87	0xbd18283f	-0.037147757
88	0xbd0282c4	-0.03186299
89	0xbdcf076b	-0.10108837
90	0xbd83600b	-0.06414803
91	0xbc9fa2f3	-0.01948688
92	0xbdb24234	-0.087040335
93	0x3bda6a2d	0.006665489
94	0xbce5b576	-0.028040629
95	0xbd97d71a	-0.07414074
96	0xbcfa356b	-0.03054305
97	0x3db1f9ed	0.08690248
98	0xbdffaa43	-0.12483647
99	0xbd03469e	-0.032049768
100	0xbda9fc02	-0.0830002
101	0x3dd23655	0.10264269
102	0xbe1f64c8	-0.15565789
103	0xbe104cd8	-0.14091814
104	0x3dd9fa5b	0.10643455
105	0xbdb8de16	-0.090267345
106	0xbc784a7d	-0.015154478
107	0xbd5bd6bc	-0.053671584
108	0xbd0c1804	-0.03420259
109	0xbcfe3e6e	-0.031035628
110	0x3d7b242c	0.061313793
111	0xbcf2c124	-0.029633112
112	0xbe36c71a	-0.17849389
113	0xbda5ecda	-0.081018165
114	0xbd5ef445	-0.054432172
115	0x3cfdb890	0.030971795
116	0xbdd1da1a	-0.10246678
117	0x3da4a5de	0.08039449
118	0xbd234bae	-0.039867096
119	0xbd75b405	-0.059986133
120	0x3da9ed63	0.08297231
121	0x3cd4f423	0.02599532
122	0x3d89b47f	0.0672388
123	0x3d10bdef	0.035337385
124	0xbda98955	-0.08278147
125	0xbdf97660	-0.12180781
126	0xbcee87ca	-0.029117484
127	0x3d8636ea	0.06553443
128	0x3e218fa1	0.15777446
129	0x3d6b903f	0.05751061
130	0x3e817c3f	0.25290105
131	0x3e10392e	0.14084312
132	0x3e003afb	0.125225
133	0x3db79a5e	0.0896499
134	0xbe9e2bb8	-0.3089273
135	0xbe7b9f01	-0.24572374
136	0x3c8ec15a	0.017426182
137	0xbf119711	-0.56871134
138	0xbe33a76f	-0.1754434
139	0x3ea06914	0.31330168
140	0x3ecbbb00	0.39791107
141	0x3dccefd0	0.10006678
142	0xbf2578b8	-0.6463733
143	0xbba9d2d2	-0.0051826024
144	0x3d896575	0.067088045
145	0x3f0e148e	0.55500114
146	0xbbac9901	-0.005267263
147	0x3e6cd149	0.23126711
148	0x3e123b06	0.14280328
149	0xbe2ef7fc	-0.17086786
150	0x3e2f0fbd	0.17095847
151	0x3ec7bd10	0.3901143
152	0xbf055e39	-0.520969
153	0x3dc229dc	0.0948064
154	0x3d3d079a	0.046149828
155	0xbdca3540	-0.09873438
156	0x3e30e17d	0.17273517
157	0xbe2be9dc	-0.16788429
158	0xbd12f2ed	-0.035876203
159	0x3dbdd598	0.092692554
160	0x3e6b8186	0.22998628
161	0xbf1fdf23	-0.62449855
162	0x3eb5a326	0.35476035
163	0x3e3f7f99	0.18701018
164	0x3d95705e	0.07296823
165	0xbe945e5b	-0.28978238
166	0xbe64332a	-0.22285143
167	0x3e44813d	0.19189925
168	0xbd64de49	-0.05587605
169	0xbea13733	-0.31487426
170	0xbe601bcc	-0.21885604
171	0xbdb1fe8e	-0.086911306
172	0xbc434941	-0.011919321
173	0x3e0bd95f	0.13657139
174	0xbe8f89e9	-0.28034905
175	0x3cba39e7	0.022732688
176	0x3e6dcf5b	0.23223631
177	0x3d446137	0.047944274
178	0x3cef1310	0.029183894
179	0xbe7da37a	-0.24769393
180	0x3e3a615e	0.18201205
181	0xbe6b40bf	-0.22973917
182	0x3e9bdf0d	0.30443612
183	0xbdaf11c8	-0.085483134
184	0x3e8de382	0.27712637
185	0xbe243a31	-0.16037823
186	0x3c71a7d4	0.014749486
187	0x3d88f470	0.06687248
188	0xbdf3d108	-0.11905104
189	0x3b6d3940	0.0036197454
190	0xbeb9d68c	-0.362965
191	0x3dffdf16	0.12493722
192	0xbfdd0e2f	-1.7269953
193	0xbdecc24a	-0.11560495
194	0xbf9e31a5	-1.23589
195	0xbee81048	-0.45324922
196	0xbfdc3a45	-1.7205282
197	0x3e62a980	0.22134972
198	0x3f5976d6	0.84946954
199	0xbec0c17a	-0.3764761
200	0xbf6e4a84	-0.9308245
201	0x3ec79e3c	0.3898791
202	0x3ec677a0	0.38763142
203	0xbea0eff6	-0.31433076
204	0x3e42a5f8	0.19008625
205	0x3e0faa60	0.14029837
206	0x3d35c0f9	0.044373486
207	0xbf1b3aef	-0.606368
208	0x3eab25cc	0.33427274
209	0x3e914720	0.28374577
210	0xbf18c85f	-0.5968074
211	0xbf2d9e97	-0.67820114
212	0x3df8a0cf	0.12140047
213	0xbeeda1fe	-0.46412653
214	0x3de9133c	0.11380622
215	0xbdf2fa3a	-0.11864133
216	0x3d93374f	0.07188284
217	0x3dee8a06	0.1164742
218	0xbeac1251	-0.33607724
219	0xbe74e45a	-0.23915234
220	0xbee042c3	-0.43800935
221	0x3e871972	0.263866
222	0xbdc82c2a	-0.097740486
223	0xbc55da8a	-0.013052592
224	0xc017d03a	-2.3720841
225	0xbe56ec03	-0.20988469
226	0x3f042ce1	0.5163098
227	0xbedaae59	-0.42711142
228	0xbfd4a4ea	-1.6612828
229	0x3c934531	0.017977329
230	0x3fb4bb86	1.4119728
231	0xbee4cb49	-0.44686344
232	0x3e619ab9	0.22031678
233	0xbf94b691	-1.1618215
234	0xbdfba85c	-0.122879714
235	0xbfbb6402	-1.4639895
236	0x3f136b7e	0.57585895
237	0x3e6bbcbf	0.2302122
238	0x3c9498ce	0.01813927
239	0x3ef4509a	0.47717744
240	0x3e20e5f9	0.15712728
241	0xbe127ca1	-0.14305355
242	0x3e9e071a	0.30864793
243	0x3ca93fbb	0.020660272
244	0xbe963988	-0.29340768
245	0x3d94b1c8	0.072604716
246	0x3d142785	0.0361705
247	0x3ed55fab	0.4167455
248	0xbf91cb2a	-1.1390126
249	0xbbf1dc55	-0.007381002
250	0xbeab807f	-0.33496472
251	0xbf9d6d6e	-1.229902
252	0xc01daa3b	-2.463515
253	0xbf6ce77f	-0.92540735
254	0x3e223c87	0.15843402
255	0xbe8c96f5	-0.2745892

fc2.bias f4 [64]
0	0xbe212c42	-0.1573954
1	0x3cc4d264	0.024026103
2	0x3e63de36	0.22252735
3	0x3d8ed5dc	0.06974384
4	0xbbcc7c21	-0.0062403833
5	0x3e33f7ff	0.17575072
6	0x3ed519ea	0.41621333
7	0x3d6a3bc7	0.057185914
8	0x3c8cb4d8	0.017176077
9	0x3db72cb1	0.08944071
10	0x3e8f21fe	0.2795562
11	0x3db4e998	0.08833617
12	0x3e797a90	0.2436316
13	0x3cbe53b6	0.023233276
14	0x3d934674	0.07191172
15	0xbde2a19b	-0.1106598
16	0x3d0fef85	0.035140533
17	0x3e55add6	0.20867094
18	0x3e28648e	0.16444609
19	0xbaedba99	-0.0018137275
20	0xbbbb1f87	-0.0057105455
21	0x3e83cb71	0.2574115
22	0x3cb25bf5	0.021772364
23	0x3eeacdf0	0.45860243
24	0x3d07e57a	0.03317783
25	0xbe138b02	-0.14408496
26	0x3e6c4033	0.23071365
27	0x3d547c28	0.051876217
28	0x3ec35210	0.38148546
29	0x3ded1eb0	0.11578119
30	0x3ec2632f	0.37966296
31	0x3ddc82da	0.107671455
32	0x3e44aa5f	0.19205616
33	0xbc84421d	-0.016144807
34	0x3d9d11af	0.076693885
35	0x3f074fac	0.52855945
36	0xbd34471c	-0.044013128
37	0xbdda03ca	-0.10645254
38	0xbc2bf67a	-0.010495776
39	0x3e2e1d1a	0.17003289
40	0x3e953473	0.29141578
41	0xbd880eda	-0.06643458
42	0x3e8e7751	0.27825406
43	0x3e9c9afa	0.30586988
44	0x3e3773a1	0.17915203
45	0x3d722273	0.059114885
46	0x3e86b527	0.26310083
47	0xbc266f55	-0.01015838
48	0xbeac764c	-0.33684003
49	0xbd9dde79	-0.07708449
50	0xbea6a3a0	-0.3254671
51	0x3e497e03	0.19676976
52	0x3ded3ffb	0.11584469
53	0x3b466015	0.0030269672
54	0x3d6ef6ac	0.058340713
55	0xbd64c3ce	-0.055850796
56	0x3dd7bae4	0.105336934
57	0x3e90c6a9	0.28276566
58	0x3e1cf55c	0.15327972
59	0x3dee8db1	0.11648119
60	0x3e647be4	0.22312886
61	0x3ebda796	0.3704192
62	0x3e7851a4	0.24249893
63	0x3e102239	0.14075555

fc3.weight f4 [3, 64]
0	0x3dbdbf58	0.092650115
1	0x3da8f957	0.08250683
2	0xbee4cfbf	-0.44689748
3	0x3fc6ade1	1.5521814
4	0x3f8ba23b	1.0908884
5	0xbe575267	-0.21027528
6	0xbf6a39cc	-0.9149444
7	0xbfabad34	-1.3412232
8	0xbe1a0af9	-0.15043248
9	0xbe231746	-0.15926847
10	0x3ff7a947	1.9348534
11	0xbe168d31	-0.14702298
12	0xbf132b0f	-0.5748758
13	0xbd9d0dd0	-0.0766865
14	0xbe7c54e4	-0.24641758
15	0x3d7aa0cf	0.061188515
16	0x3fd1475d	1.6349903
17	0xbe019d28	-0.12657607
18	0xbe2cfc28	-0.16893065
19	0x3fb48c8b	1.410539
20	0xbe6f5a3e	-0.23374268
21	0x40006b8f	2.0065649
22	0x3d93f36b	0.07224163
23	0xbd9d02c9	-0.07666547
24	0x3fb52fd1	1.4155217
25	0x3da58112	0.08081259
26	0xbe06da4c	-0.13169211
27	0xbe418346	-0.18897733
28	0xbd74b6e3	-0.059744727
29	0xbe6e462d	-0.23268957
30	0x3f3ed657	0.74545807
31	0x3ffbacaa	1.9662068
32	0xbef0f46b	-0.47061476
33	0x3f4bc3d9	0.79595715
34	0x3d8896bb	0.066693746
35	0xbf637d96	-0.88863504
36	0xbfb8f881	-1.4450837
37	0xbb8ee9dc	-0.0043613743
38	0xbe024ce5	-0.12724645
39	0xbf8a1cb2	-1.0790007
40	0x3fad36ec	1.3532386
41	0x3e8a8c49	0.27060154
42	0x4005b266	2.0890136
43	0xbe89a5a1	-0.26884177
44	0xbecd4527	-0.40091822
45	0xbf062915	-0.52406436
46	0xbf3cdb1b	-0.7377183
47	0xbdb5bc6a	-0.08873828
48	0xbfa4a47f	-1.28627
49	0xbf8159c2	-1.0105517
50	0xc0066c00	-2.1003418
51	0xbd5021e8	-0.050813586
52	0x3fa76878	1.3078756
53	0x3fae0606	1.3595588
54	0xbe97a9f0	-0.2962184
55	0xbe97e0a7	-0.29663584
56	0xbe0073dc	-0.12544197
57	0xbf32fbac	-0.6991527
58	0xbe4a2bc2	-0.19743255
59	0xbe578c9a	-0.21049729
60	0xbcd8bdca	-0.026457686
61	0xbeb3c068	-0.35107732
62	0xbf2dbf34	-0.6786988
63	0xbd8c9a4c	-0.06865367
64	0x3c1a73a3	0.009426984
65	0xbe0da557	-0.13832603
66	0xbf020dfb	-0.5080258
67	0x3f243ed1	0.6415835
68	0x3f42e884	0.7613604
69	0xbe22e748	-0.1590854
70	0xbee53c47	-0.4477255
71	0xbf9c3b59	-1.2205611
72	0xbdc2fafa	-0.09520526
73	0xbeb90b37	-0.3614137
74	0x3fdc75bd	1.7223431
75	0xbead2d22	-0.33823496
76	0xbf16b7ab	-0.58874005
77	0xbddd1c2b	-0.10796388
78	0xbd3c7177	-0.046006646
79	0x3dc83aba	0.09776826
80	0x3fb92021	1.446293
81	0xbdf88d9c	-0.12136385
82	0xbd835e2f	-0.064144485
83	0x40055ade	2.083671
84	0xbe0addf4	-0.13561231
85	0x3f8b74bb	1.0894998
86	0xbd6cd0e7	-0.057816412
87	0xbf1c4f0f	-0.61058134
88	0x3f7a974a	0.978871
89	0xbdd05ca4	-0.1017392
90	0xbe55be24	-0.20873314
91	0xbe4354cd	-0.19075318
92	0xbedbe1bc	-0.4294566
93	0xbf03ca30	-0.5148039
94	0x3f4a6c9f	0.7907199
95	0x3f699c90	0.9125452
96	0xbed64b97	-0.41854545
97	0x3f0bb150	0.5456743
98	0xbd4830f2	-0.048874803
99	0xbf991e74	-1.1962419
100	0xbf3c09e2	-0.7345258
101	0x3d5745c1	0.052556757
102	0xbe997f8c	-0.29980123
103	0xbf35b34c	-0.7097671
104	0x3f639335	0.88896495
105	0x3dcaa8bc	0.09895465
106	0x3f83ee8c	1.0307174
107	0xbe31cad3	-0.17362528
108	0xbea7ddc9	-0.32786396
109	0x3dd1a3d4	0.10236326
110	0xbecd4060	-0.40088177
111	0x3c489c5c	0.01224431
112	0xbf242127	-0.64113086
113	0xbf2385e6	-0.6387619
114	0xbfa85d12	-1.3153403
115	0xbe9a33e3	-0.3011771
116	0x3f7c7e6a	0.9863039
117	0x3f704fe8	0.9387193
118	0xbd3dc086	-0.046326183
119	0xbefeb722	-0.49749094
120	0xbc714ae7	-0.014727331
121	0xbec55276	-0.38539475
122	0xbe368d8b	-0.17827432
123	0xbdba3482	-0.09092046
124	0xbec8a847	-0.39190885
125	0xbee9b0f5	-0.4564282
126	0xbec0964a	-0.3761466
127	0x3cfcd7c6	0.030864608
128	0xbc32c570	-0.010911331
129	0xb9db2291	-0.0004179669
130	0xbdbd73d3	-0.09250607
131	0x3facf21b	1.3511385
132	0x3fa67c08	1.3006601
133	0xbe89626c	-0.26832902
134	0xbec6476a	-0.3872636
135	0xbf8a56ea	-1.0807774
136	0xbe6cb177	-0.23114572
137	0xbd8a7bc2	-0.06761886
138	0x3f8ce102	1.1006167
139	0xbe925f6d	-0.2858843
140	0xbf63f5e3	-0.8904707
141	0xbe67c660	-0.22634268
142	0xbdb76d9b	-0.089564525
143	0x3c96e9c0	0.018422008
144	0x400afd0d	2.171695
145	0xbe0e0166	-0.13867721
146	0xbdae01d0	-0.084964395
147	0x3faf4b65	1.3694884
148	0xbdad3570	-0.08457458
149	0x3f90f1a0	1.1323738
150	0x3db61c6b	0.08892139
151	0xbf5a6472	-0.8530952
152	0x3f8f1cf2	1.1180708
153	0x3db599f0	0.08867252
154	0x3f1b2d2f	0.6061582
155	0xbe1112d0	-0.14167333
156	0xbf56046a	-0.83600485
157	0xbe8aa41b	-0.27078328
158	0x3f8fe72b	1.1242422
159	0x400eb081	2.229523
160	0xbf27f7e2	-0.65612614
161	0x3f862f47	1.0483178
162	0xbc08eda9	-0.008357444
163	0xbf886bd4	-1.0657907
164	0xbf9d563a	-1.2291939
165	0x3d472dd5	0.048627693
166	0xbd9d177e	-0.076704964
167	0xbf839626	-1.0280197
168	0x3f9ee8e7	1.2414826
169	0x3dba1ce7	0.09087544
170	0x3fd57da3	1.6678966
171	0xbd9c5bb9	-0.07634682
172	0xbe880eb5	-0.2657372
173	0xbdf65ee3	-0.12029817
174	0xbd21558d	-0.03938823
175	0xbd496560	-0.049168944
176	0xbf8e157c	-1.1100307
177	0xbf700d81	-0.93770605
178	0xc01e3028	-2.4716892
179	0xbdadecbf	-0.08492421
180	0x3fd8c512	1.6935141
181	0x3f7f7d76	0.99800813
182	0xbd2fa986	-0.04288628
183	0xbf440413	-0.76568717
184	0xbe2af03c	-0.16693205
185	0xbee4d75d	-0.4469556
186	0xbdfd70ef	-0.12375056
187	0xbe31e8c8	-0.17373955
188	0xbdfd5723	-0.12370136
189	0xbee6262d	-0.44951
190	0xbf7acf88	-0.9797292
191	0xbe725313	-0.23664503

fc3.bias f4 [3]
0	0x3d870fc5	0.06594805
1	0xbec7d73f	-0.39031407
2	0x3d9c54b0	0.0763334
