model/checkpoint_4800.pth (torch, 21912 bytes, 6 tensors)

fc1.weight f4 [64, 6]
0	0x3eca0131	0.39454034
1	0x3f46e5c6	0.77694356
2	0xbe8e243f	-0.2776203
3	0xbf35cf2c	-0.71019244
4	0xbdd3ba2b	-0.10338243
5	0x3e844323	0.2583247
6	0x3ee69af9	0.4504011
7	0x3f3af79d	0.7303408
8	0xbec57746	-0.3856756
9	0xbc9343a8	-0.017976597
10	0xbd82ffe9	-0.06396467
11	0x3d43fc86	0.047848247
12	0xbf4f6821	-0.81018263
13	0xbea4fcee	-0.3222422
14	0xbf70be98	-0.94040823
15	0x3e1586c3	0.14602189
16	0x3ddb0e21	0.10696054
17	0x3e307241	0.17231084
18	0xbe23c474	-0.1599291
19	0xbf3c0046	-0.7343792
20	0xbd4c81a3	-0.04992832
21	0x3f840dd7	1.0316724
22	0x3e843490	0.25821352
23	0x3e90d685	0.28288665
24	0xbea2d795	-0.318051
25	0x3f7afe8d	0.98044664
26	0x3f4aa044	0.79150796
27	0xbefe2195	-0.49634996
28	0xbeb5e6a9	-0.35527542
29	0x3e0846b9	0.13308229
30	0xbf056c65	-0.5211852
31	0x3f817d3c	1.0116343
32	0xbf490987	-0.7853016
33	0xbeb37507	-0.35050222
34	0xbee2f965	-0.44330898
35	0xbea65115	-0.32483736
36	0xbfbb8a81	-1.4651643
37	0xbeb081a5	-0.3447391
38	0x3f23874a	0.6387831
39	0xbe85d2ab	-0.2613729
40	0xbe7e2afc	-0.24821085
41	0xbd430f69	-0.04762212
42	0xbe9d2cba	-0.30698186
43	0xbf816cd8	-1.0111341
44	0xbf381a84	-0.7191546
45	0xbead57ab	-0.33855948
46	0x3e26cbb8	0.1628865
47	0xbe501030	-0.20318675
48	0xbf569f83	-0.83837146
49	0xbfa74841	-1.3068925
50	0x3f904b8d	1.1273056
51	0x3eb2dc60	0.34933758
52	0x3e5a15bb	0.21297352
53	0x3c49033c	0.012268838
54	0xbe49fe9c	-0.19726032
55	0xbf784cd1	-0.9699221
56	0xbcd73e30	-0.02627477
57	0xbcaa527b	-0.020791283
58	0xbea4e1fe	-0.32203668
59	0xbee75d93	-0.4518858
60	0x3ea56f3a	0.32311422
61	0xbe8861f0	-0.2663722
62	0x3f572c0d	0.8405159
63	0xbb8c4675	-0.00428086
64	0x3f2a1afb	0.6644742
65	0x3e73956b	0.23787467
66	0x3ee0a840	0.43878365
67	0xbf086ff4	-0.53295827
68	0x3e60bdd6	0.21947417
69	0x3ee25f16	0.4421317
70	0xbeb566d7	-0.35430023
71	0xbe4018b3	-0.18759422
72	0x3f23dc60	0.6400814
73	0x3d9ed6f6	0.07755844
74	0x3f0e5d01	0.5561066
75	0x3facb67b	1.3493189
76	0xbe6bf425	-0.23042352
77	0xbef2f4bc	-0.47452343
78	0x3dc4df3d	0.09612892
79	0xbfbe2e61	-1.4857904
80	0xbf58ba80	-0.84659576
81	0x3f7c5025	0.9855979
82	0x3d867fe3	0.06567361
83	0xbeee20f7	-0.46509525
84	0xbcb0637e	-0.021531817
85	0x3e9e8d6d	0.30967274
86	0xbf246a21	-0.6422444
87	0x3ef724ab	0.48270163
88	0x3e9dbc61	0.30807784
89	0xbe21bb38	-0.15794075
90	0x3f865675	1.0495135
91	0x3ed975f9	0.42472818
92	0x3e41622b	0.18885104
93	0x3dd60004	0.10449222
94	0xbed1ab1e	-0.40950865
95	0xbe60a3c8	-0.21937478
96	0x3eef5524	0.46744645
97	0x3f055f1f	0.5209827
98	0xbf19527e	-0.598915
99	0xbf434012	-0.7626964
100	0x3f159998	0.5843749
101	0x3e944050	0.28955317
102	0xbf963a29	-1.1736499
103	0x3d1541cc	0.036439702
104	0xbf690ab1	-0.9103194
105	0x3d8f043b	0.06983229
106	0xbe6d30ce	-0.23163149
107	0xbe867c49	-0.26266697
108	0xbe188f3e	-0.14898393
109	0x3d9ce9db	0.07661792
110	0x3e411295	0.18854745
111	0xbf7647ab	-0.96203107
112	0xbf01fcb6	-0.5077623
113	0x3eae350f	0.34024855
114	0x3f75fe2a	0.9609095
115	0x3c734207	0.014847285
116	0xbe7936df	-0.24337338
117	0xbe39f505	-0.18159874
118	0x3e87acdd	0.26499072
119	0x3e5bcfb3	0.2146595
120	0x3f41d2bf	0.757122
121	0x3e862a94	0.2620436
122	0xbeaa830b	-0.33303103
123	0x3eff529d	0.49867716
124	0xbed71072	-0.42004734
125	0xbe6717a4	-0.22567612
126	0xbf3849e9	-0.7198778
127	0xbf47185a	-0.7777153
128	0xbc19ee0c	-0.009395134
129	0xbee91bda	-0.45529062
130	0xbe35b532	-0.17744902
131	0xbe19e299	-0.15027846
132	0xbde4fe05	-0.11181263
133	0xbf437370	-0.7634802
134	0x3e9eeb40	0.31038857
135	0xbe9c34f5	-0.30509153
136	0x3e5f4260	0.21802664
137	0xbb262ce3	-0.0025356344
138	0x3eaeb602	0.34123236
139	0x3e794c84	0.24345595
140	0x3f20050d	0.62507707
141	0x3ec26e66	0.37974852
142	0x3e4c4bb4	0.19950753
143	0x3e65c221	0.22437336
144	0xbf3e156c	-0.7425144
145	0x3f109203	0.56472796
146	0xbe126da6	-0.1429964
147	0x3edf269b	0.4358414
148	0xbea827a2	-0.32842737
149	0xbea99438	-0.33120894
150	0x3e7baa17	0.24576603
151	0xbf4cd878	-0.80017805
152	0x3e85bf72	0.26122624
153	0x3fc46cbe	1.5345685
154	0xbe5bf1d4	-0.21478969
155	0xbeae8ca1	-0.34091666
156	0xbda3d4c9	-0.0799957
157	0xbf826d61	-1.018963
158	0xbdeabfb9	-0.114623494
159	0xbe203cc4	-0.1564818
160	0xbeb9ad0f	-0.36264846
161	0xbed342dc	-0.41261947
162	0xbf3eec92	-0.7457973
163	0xbece7375	-0.40322462
164	0xbf4074d9	-0.75178295
165	0xbf0de795	-0.5543149
166	0xbeb62070	-0.35571623
167	0x3e2909e3	0.16507678
168	0x3c12194f	0.008917167
169	0xbe5efc5c	-0.21775955
170	0x3e9d54c9	0.30728748
171	0xbf1829fb	-0.5943906
172	0x3e19bed0	0.15014195
173	0x3e658ed1	0.22417761
174	0xbf0391e6	-0.513945
175	0x3e06bd89	0.1315824
176	0xbeb797e4	-0.3585807
177	0x3f96ac87	1.1771401
178	0x3ec2d7bd	0.3805522
179	0xbe9bfa05	-0.30464187
180	0xbeb1f8f1	-0.3476024
181	0xbce6e8e3	-0.02818722
182	0x3eeffd2e	0.46872848
183	0x3da7a0b3	0.08184948
184	0x3f1eb272	0.61991036
185	0x3ebb390a	0.36566955
186	0xbee2f5c2	-0.44328123
187	0x3e19181a	0.149506
188	0xbf86f282	-1.0542758
189	0x3ed3704d	0.41296616
190	0x3ee5a7b5	0.44854513
191	0x3ed6cafd	0.41951743
192	0xbc330666	-0.0109268185
193	0x3f82685b	1.0188097
194	0xbf899aa7	-1.0750321
195	0xbf07a17d	-0.52980787
196	0xbcc0832a	-0.023500044
197	0x3e9f24e3	0.3108283
198	0xbf1722cc	-0.5903747
199	0x3efba0da	0.49146158
200	0x3e8fef9b	0.28112492
201	0xbd72e2bc	-0.059298262
202	0xbf390709	-0.7227636
203	0xbec95982	-0.39326102
204	0xbebf1f82	-0.37328726
205	0xbf24eb08	-0.6442113
206	0xbe8723c6	-0.2639448
207	0x3f3baae2	0.7330762
208	0x3c8bff95	0.017089644
209	0xbe4de80a	-0.20108047
210	0x3e9dc6dc	0.3081578
211	0x3d59a6f5	0.05313774
212	0xbe8b6a91	-0.2722974
213	0x3de9801d	0.11401389
214	0x3e3917e2	0.18075517
215	0x3e52c783	0.2058392
216	0x3f779ff2	0.9672843
217	0x3f6e3c7c	0.9306104
218	0x3f8a55a1	1.0807382
219	0xbfc0de36	-1.5067813
220	0x3e7c9187	0.2466489
221	0x3f25dc9c	0.6478975
222	0x3f48fbdc	0.78509307
223	0xbeb05e1f	-0.3444681
224	0xbfa0be9f	-1.2558173
225	0xbe500bfb	-0.2031707
226	0xbd247a96	-0.04015597
227	0xbc7832c7	-0.015148825
228	0xbf9134a6	-1.1344192
229	0x3f0c7cce	0.54877937
230	0xbe8eacac	-0.27866113
231	0x3f1d7362	0.61504185
232	0x3ec42e10	0.38316393
233	0x3eb73015	0.3577887
234	0x3f324370	0.6963415
235	0x3d57b53e	0.05266308
236	0x3f199f92	0.6000911
237	0xbf0458d9	-0.5169807
238	0xbe4976bc	-0.196742
239	0xbe49060d	-0.19631214
240	0xbeac8ef9	-0.3370283
241	0x3f221547	0.63313717
242	0xbe483795	-0.19552453
243	0xbea42e9d	-0.32066813
244	0x3db17e49	0.08666665
245	0xbe9e7964	-0.3095199
246	0x3f4e41b6	0.80569017
247	0xbf2f3185	-0.68434936
248	0x3f2654d7	0.64973205
249	0xbf0aa413	-0.5415661
250	0xbefd1539	-0.49430254
251	0xbe0eb8e0	-0.13937712
252	0x3f5145a0	0.81746864
253	0xbf02647d	-0.5093458
254	0xbef4ec44	-0.47836506
255	0xbef2586f	-0.47333094

fc1.bias f4 [64]
0	0x3ebc022f	0.36720416
1	0x3f029b0a	0.5101782
2	0x3eab86dc	0.33501327
3	0xbd8a06c6	-0.06739573
4	0x3eb60dcb	0.35557398
5	0x3e8ee82c	0.27911508
6	0xbf4494c4	-0.767895
7	0xbd226171	-0.03964371
8	0xbea4f242	-0.32216078
9	0x3e308e34	0.17241746
10	0xbf0bdb0e	-0.54631126
11	0x3f55eaae	0.8356122
12	0x3c1a11c9	0.009403654
13	0xbd95483d	-0.07289169
14	0xbf926031	-1.1435605
15	0x3e964fb6	0.2935769
16	0x3f4e1e85	0.8051532
17	0xbe29f012	-0.16595486
18	0xbc940ab2	-0.018071506
19	0x3f2938d5	0.66102344
20	0x3f71bd46	0.94429433
21	0xbf4c8313	-0.79887503
22	0x3f35f496	0.71076334
23	0x3f4574bb	0.7713124
24	0xbe5e81c0	-0.21729183
25	0x3d7f97f9	0.06240079
26	0x3d490129	0.049073372
27	0xbee020a9	-0.43774918
28	0x3f85c592	1.0450919
29	0xbefcab0a	-0.49349242
30	0xbf389c8b	-0.72113866
31	0xbd8867cc	-0.06660423
32	0xbee8250f	-0.45340773
33	0xbf36417d	-0.7119368
34	0x3e870282	0.263691
35	0x3f4ca2ac	0.7993572
36	0x3f3cb7ba	0.73717844
37	0x3cda806d	0.026672566
38	0xbe14cc68	-0.145311
39	0x3edf4dbc	0.43613994
40	0x3e966752	0.29375702
41	0xbef192f0	-0.47182417
42	0x3e2fde8d	0.1717474
43	0xbf0718dd	-0.52772313
44	0x3f0aea49	0.5426374
45	0xbe3f2eed	-0.18670245
46	0xbef9fe5a	-0.48826867
47	0xbcb99391	-0.022653373
48	0x3f2f9259	0.68582684
49	0x3e94ddd7	0.290755
50	0xbeae951e	-0.34098142
51	0xbd598f0d	-0.05311494
52	0x3eb61e98	0.35570216
53	0xbf50a9ec	-0.8150928
54	0x3ec93fae	0.39306396
55	0xbef7cf61	-0.48400405
56	0xbf42bd69	-0.76070267
57	0xbf1bc0c9	-0.6084104
58	0xbf2e52ac	-0.680949
59	0x3f2e8119	0.6816574
60	0xbf2cadaa	-0.6745249
61	0x3f2d5278	0.6770396
62	0xbe1fe4c6	-0.15614614
63	0x3ed12aa2	0.4085284

fc2.weight f4 [64, 64]
0	0xbd45e2c6	-0.04831197
1	0xbe236beb	-0.15959136
2	0x3da05e4b	0.07830485
3	0x3d006a9d	0.031351674
4	0x3d94e2dc	0.072698325
5	0x3d2e2634	0.042516902
6	0xbda8c5d1	-0.082408555
7	0x3d86d819	0.06584186
8	0xbc3a9453	-0.011387902
9	0x3cf3af69	0.029746728
10	0xbdeda273	-0.1160325
11	0xbdad375d	-0.08457825
12	0xbe186b9b	-0.14884798
13	0xbd843b6e	-0.06456648
14	0x3c35a9a6	0.011087811
15	0xbe0a4bd0	-0.13505483
16	0x3ac58038	0.0015068119
17	0x3d51d6c0	0.051230192
18	0xbcc0f09c	-0.023552231
19	0xbdf8c77b	-0.12147423
20	0xbe12c16a	-0.14331594
21	0xbd635851	-0.055504147
22	0x3b450375	0.0030061875
23	0x3db20b16	0.08693521
24	0x3d65623d	0.05600189
25	0xbcf39ad5	-0.029736916
26	0x3cf5f1fc	0.030022614
27	0xbe20c856	-0.15701422
28	0xbe25f355	-0.16206105
29	0x3d2ddbab	0.04244582
30	0xbdda7884	-0.10667518
31	0x3ca56a52	0.020192299
32	0xbdff0f3c	-0.124540776
33	0xbd9f4cca	-0.07778318
34	0xbdeb7bec	-0.114982456
35	0x3cd72afe	0.026265617
36	0xbd4f2d8f	-0.050580557
37	0x3da485e4	0.0803335
38	0x3d1553b1	0.036456767
39	0x3c8dd177	0.017311795
40	0xbca7509e	-0.020424183
41	0xbd9ca265	-0.07648162
42	0xbd896c80	-0.06710148
43	0xbc8ca2fe	-0.017167564
44	0x3cbd1dbf	0.023085473
45	0xbdd3d9ea	-0.10344298
46	0x3db654fa	0.08902927
47	0xbd5ac11f	-0.05340683
48	0xbe0dd3b7	-0.13850294
49	0xbdc83e5b	-0.09777518
50	0x3dc1fd92	0.09472193
51	0x3da5c27a	0.08093734
52	0xbe089e3a	-0.13341609
53	0x3d4d30df	0.050095435
54	0x3c884563	0.016634649
55	0x3d0fca33	0.03510494
56	0x3da7a08d	0.081849195
57	0xbdc7ca05	-0.09755329
58	0x3aa86b44	0.001284935
59	0xbadc086f	-0.0016787181
60	0xbd996ea7	-0.074918084
61	0x3b354ba7	0.00276635
62	0xbd5efcbd	-0.05444025
63	0x3d243fef	0.040100034
64	0xbd9a990f	-0.07548725
65	0xbdaf827b	-0.08569809
66	0x3bcb878d	0.0062112273
67	0x3bfb357c	0.007666288
68	0xbde60859	-0.11232061
69	0xbd0c5bbb	-0.03426717
70	0x3d278d2d	0.04090612
71	0xbc926328	-0.017869547
72	0x3c2adb5f	0.010428279
73	0xbd23a386	-0.03995087
74	0x3cbddeb8	0.02317749
75	0xbde13e3f	-0.109982006
76	0xbdb04970	-0.08607757
77	0xbdaca128	-0.084291756
78	0x3dcc0a83	0.099629425
79	0xbd8b08d2	-0.06788792
80	0xbcb5b9de	-0.022183355
81	0xbd9c8da3	-0.076442026
82	0x3db08629	0.08619339
83	0x3da9ed39	0.082972
84	0xbdf0c4d5	-0.11756293
85	0xbe1658ea	-0.14682356
86	0xbe04c665	-0.12966307
87	0xbd18283f	-0.037147757
88	0xbd0282c4	-0.03186299
89	0xbdcf076b	-0.10108837
90	0xbd83600b	-0.06414803
91	0xbc9fa2f3	-0.01948688
92	0xbdb24234	-0.087040335
93	0x3bda6a2d	0.006665489
94	0xbce5b576	-0.028040629
95	0xbd97d71a	-0.07414074
96	0xbcfa356b	-0.03054305
97	0x3db1f9ed	0.08690248
98	0xbdffaa43	-0.12483647
99	0xbd03469e	-0.032049768
100	0xbda9fc02	-0.0830002
101	0x3dd23655	0.10264269
102	0xbe1f64c8	-0.15565789
103	0xbe104cd8	-0.14091814
104	0x3dd9fa5b	0.10643455
105	0xbdb8de16	-0.090267345
106	0xbc784a7d	-0.015154478
107	0xbd5bd6bc	-0.053671584
108	0xbd0c1804	-0.03420259
109	0xbcfe3e6e	-0.031035628
110	0x3d7b242c	0.061313793
111	0xbcf2c124	-0.029633112
112	0xbe36c71a	-0.17849389
113	0xbda5ecda	-0.081018165
114	0xbd5ef445	-0.054432172
115	0x3cfdb890	0.030971795
116	0xbdd1da1a	-0.10246678
117	0x3da4a5de	0.08039449
118	0xbd234bae	-0.039867096
119	0xbd75b405	-0.059986133
120	0x3da9ed63	0.08297231
121	0x3cd4f423	0.02599532
122	0x3d89b47f	0.0672388
123	0x3d10bdef	0.035337385
124	0xbda98955	-0.08278147
125	0xbdf97660	-0.12180781
126	0xbcee87ca	-0.029117484
127	0x3d8636ea	0.06553443
128	0x3dc52ab2	0.09627284
129	0x3bbbba1f	0.0057289745
130	0x3e8cd073	0.27502784
131	0x3e14e615	0.14540894
132	0x3da037b3	0.07823124
133	0x3e0aa742	0.13540366
134	0xbf040d34	-0.51582646
135	0xbe98683d	-0.29767027
136	0xbc6e0408	-0.014527328
137	0xbf28415d	-0.65724736
138	0xbe0000e0	-0.12500334
139	0x3eb5c22c	0.35499704
140	0x3ee22825	0.44171253
141	0x3dee3c32	0.11632575
142	0xbf13798d	-0.57607347
143	0xbdbb6bf2	-0.09151448
144	0x3d9a3e0c	0.07531366
145	0x3f281ef3	0.65672225
146	0x3d96dd6a	0.0736645
147	0x3e8e07ad	0.2774023
148	0x3e658ac3	0.22416215
149	0xbe9b3bde	-0.30319113
150	0x3dd0c89a	0.10194512
151	0x3ec70b18	0.3887565
152	0xbedaf10a	-0.42762023
153	0x3ceb4643	0.028720027
154	0xbda99a2e	-0.082813606
155	0xbdb3809c	-0.08764765
156	0x3e3258cc	0.17416686
157	0xbdc31694	-0.09525791
158	0xbcd69a75	-0.026196698
159	0x3d3962ac	0.045260116
160	0x3e2cf347	0.16889678
161	0xbf5ee2fc	-0.870651
162	0x3ed17c5c	0.4091519
163	0x3e5a31fe	0.21308133
164	0x3de27e6e	0.11059271
165	0xbe5bed59	-0.2147726
166	0xbea5c585	-0.32377258
167	0x3e0937d9	0.1340021
168	0xbcb6a212	-0.022294078
169	0xbf0c1ebc	-0.54734397
170	0xbe84dd88	-0.25950265
171	0x3dbaf115	0.09128014
172	0xbd5f23ef	-0.05447763
173	0x3e2d68b9	0.1693448
174	0xbeb7b5b4	-0.35880816
175	0xbd5df9a2	-0.054193147
176	0x3e71d349	0.23615755
177	0xbca45776	-0.020061236
178	0x3d8b5fa6	0.06805353
179	0xbe97f44c	-0.2967857
180	0x3e054628	0.13015044
181	0xbe0509bc	-0.12991995
182	0x3ec857f4	0.39129603
183	0xbd49e3ad	-0.049289394
184	0x3ea7a9a6	0.3274662
185	0xbec9dee5	-0.39427868
186	0xbd739e18	-0.05947694
187	0xbd2ab82c	-0.041679546
188	0xbe22a518	-0.15883291
189	0x3d669ce5	0.05630197
190	0xbec8f6ad	-0.392507
191	0x3d3b3136	0.045701228
192	0xc0035954	-2.0523272
193	0xbdfe2c13	-0.1241075
194	0xbf8f330d	-1.1187454
195	0xbf201efa	-0.62547266
196	0xbfbacc15	-1.4593531
197	0x3e3f00f3	0.18652706
198	0x3f59ccf8	0.8507838
199	0xbec0919a	-0.37611085
200	0xbfb2b67a	-1.3961937
201	0x3ee35858	0.44403338
202	0x3ec19bad	0.37814084
203	0xbe94fc05	-0.29098526
204	0x3e579c34	0.2105568
205	0x3dcbd1ad	0.09952102
206	0x3d214fb1	0.03938264
207	0xbef73cc9	-0.48288563
208	0x3ed05901	0.40692905
209	0x3e96285f	0.29327676
210	0xbf0b7d90	-0.5448847
211	0xbf116cde	-0.56806743
212	0x3e2a5f6f	0.16637968
213	0xbf0df607	-0.5545353
214	0x3e126a1b	0.14298289
215	0xbd86167c	-0.06547257
216	0xbd5a7aa3	-0.05333961
217	0x3da0bb42	0.078482166
218	0xbe99aae0	-0.3001318
219	0xbebe9e73	-0.37230262
220	0xbf48b8a6	-0.7840675
221	0x3e6db794	0.23214561
222	0xbec35849	-0.38153294
223	0xbd2d3a9e	-0.04229223
224	0xc0247122	-2.569405
225	0xbdc85457	-0.097817115
226	0x3eec1e1d	0.46116725
227	0xbec981e2	-0.39356905
228	0xbff82f4a	-1.9389431
229	0x3e287663	0.16451411
230	0x3fc4b098	1.5366392
231	0xbecaa37f	-0.39577863
232	0x3e6e3713	0.23263197
233	0xbfa8c110	-1.3183918
234	0xbe060af8	-0.13090122
235	0xbf9840fa	-1.1894829
236	0x3f42dbcb	0.7611663
237	0x3ddf9a7d	0.10918138
238	0x3cf56bf0	0.029958695
239	0x3f1562dc	0.5835397
240	0x3e10544e	0.1409466
241	0xbde90040	-0.11377001
242	0x3e75ef43	0.24017052
243	0x3e06f7be	0.13180444
244	0xbe9156d3	-0.28386554
245	0x3d94b1c8	0.072604716
246	0x3e078335	0.13233645
247	0x3ee0c02a	0.4389661
248	0xbf882c36	-1.0638492
249	0x3e0090ab	0.12555186
250	0xbf119c32	-0.5687896
251	0xbfa7e486	-1.3116615
252	0xc0425775	-3.036588
253	0xbf591de0	-0.8481121
254	0x3e476416	0.19471774
255	0xbe9fca36	-0.31208962

fc2.bias f4 [64]
0	0xbe212c42	-0.1573954
1	0x3cc4d264	0.024026103
2	0x3e83e65b	0.25761685
3	0x3d874562	0.066050306
4	0xbc8a6fec	-0.016899072
5	0x3e56e65b	0.20986311
6	0x3ee32a4a	0.44368201
7	0x3d805e37	0.0626797
8	0x3c04ecac	0.008113068
9	0x3dc4d13b	0.0961022
10	0x3eb1be4a	0.34715492
11	0x3da71700	0.08158684
12	0x3e8c5aea	0.27413112
13	0x3bdce07a	0.006740627
14	0x3dc755e9	0.09733183
15	0xbde2a19b	-0.1106598
16	0x3d44a2b5	0.048006732
17	0x3e3d9450	0.18513608
18	0x3e134115	0.14380296
19	0xbb1089e9	-0.0022054857
20	0xb9a0456f	-0.0003056931
21	0x3e721eec	0.23644608
22	0x3cb25bf5	0.021772364
23	0x3ef91ee9	0.48656395
24	0x3d553ffb	0.05206297
25	0xbe138b02	-0.14408496
26	0x3e802a39	0.25032213
27	0x3d5e12c4	0.054217115
28	0x3ed34be9	0.41268852
29	0x3db7b0bc	0.08969256
30	0x3ea355c1	0.31901363
31	0x3de57b09	0.11205108
32	0x3e438f11	0.19097544
33	0xbd54f688	-0.051992923
34	0x3d9d11af	0.076693885
35	0x3f01defb	0.50730866
36	0xba2b9eec	-0.00065468135
37	0xbdda03ca	-0.10645254
38	0xbd58f2e0	-0.052966
39	0x3e4e6aa2	0.20157865
40	0x3ec2538f	0.37954375
41	0xbd880eda	-0.06643458
42	0x3ea67cfd	0.32517233
43	0x3ea1ddb5	0.31614462
44	0x3e3f9351	0.1870854
45	0x3cd7e492	0.026354108
46	0x3e78c492	0.24293736
47	0xbc266f55	-0.01015838
48	0xbe958ad8	-0.29207492
49	0xbde74f91	-0.11294473
50	0xbeaf2719	-0.34209517
51	0x3e2664a8	0.16249335
52	0x3da5554d	0.080729105
53	0xbd70e332	-0.05881042
54	0x3d37dd77	0.04488894
55	0x3b5cc7ae	0.0033688354
56	0x3da27ad0	0.07933581
57	0x3eacec0f	0.33773848
58	0x3e2f4450	0.17115903
59	0x3dd10bf5	0.10207359
60	0x3e43fd4d	0.19139595
61	0x3ec49751	0.38396695
62	0x3e810098	0.25195765
63	0x3e054db3	0.13017921

fc3.weight f4 [3, 64]
0	0x3dbdbf58	0.092650115
1	0x3da8f957	0.08250683
2	0xbf1a415d	-0.60255986
3	0x3fcf5336	1.6197269
4	0x3f92077d	1.1408535
5	0xbe630c78	-0.22172725
6	0xbf6adcaa	-0.91742957
7	0xbfc48f6e	-1.5356271
8	0xbe0181b4	-0.12647134
9	0xbe5f9851	-0.21835448
10	0x400e93d1	2.227772
11	0xbddb61e1	-0.10712028
12	0xbf340378	-0.7031779
13	0xbd0a62ac	-0.033785507
14	0xbe7a316a	-0.24432912
15	0x3d7aa0cf	0.061188515
16	0x3fe8fde1	1.8202478
17	0xbdc2ddc7	-0.09514957
18	0xbe084da0	-0.13310862
19	0x3facaef6	1.3490894
20	0xbe76f69d	-0.24117513
21	0x4001994f	2.0249822
22	0x3d93f36b	0.07224163
23	0xbda6f336	-0.081518576
24	0x3fbd495b	1.4788011
25	0x3da58112	0.08081259
26	0xbd8b2fb7	-0.0679621
27	0xbe2849fb	-0.16434471
28	0xbd898538	-0.067148626
29	0xbe7e9465	-0.24861296
30	0x3f3cd9df	0.73769945
31	0x3ff828ee	1.9387491
32	0xbecc12b0	-0.39858007
33	0x3f58f4a9	0.8474832
34	0x3d8896bb	0.066693746
35	0xbf7386ea	-0.9512774
36	0xbfc92287	-1.5713662
37	0xbb8ee9dc	-0.0043613743
38	0xbdf7469e	-0.12074016
39	0xbf8cefde	-1.1010702
40	0x3fd509ec	1.6643653
41	0x3e8a8c49	0.27060154
42	0x4006cd68	2.106287
43	0xbea4639c	-0.32107246
44	0xbec29444	-0.38003743
45	0xbf2b1933	-0.66835326
46	0xbf5342ee	-0.82524
47	0xbdb5bc6a	-0.08873828
48	0xbfb3a9d5	-1.4036204
49	0xbf844ec7	-1.0336541
50	0xc014bca2	-2.3240132
51	0xbc8e385e	-0.017360862
52	0x3f9fdbb1	1.248892
53	0x3fb89882	1.4421542
54	0xbe87f89a	-0.26556855
55	0xbeb2cde3	-0.34922704
56	0xbddabc69	-0.10680468
57	0xbf2c5d40	-0.6732979
58	0xbe90964e	-0.28239673
59	0xbe2f7643	-0.17134957
60	0xbc8d124c	-0.017220639
61	0xbe9f6c4a	-0.31137305
62	0xbf2ac91c	-0.6671312
63	0xbd382cd8	-0.04496464
64	0x3c1a73a3	0.009426984
65	0xbe0da557	-0.13832603
66	0xbed76920	-0.42072392
67	0x3f597c9f	0.8495578
68	0x3f443fa4	0.7665961
69	0xbe25dd44	-0.16197687
70	0xbf043119	-0.5163742
71	0xbfa0cb10	-1.256197
72	0xbd13f7e3	-0.036125075
73	0xbedb49e8	-0.42829823
74	0x3fc49af4	1.5359788
75	0xbe94a685	-0.29033294
76	0xbf409a3a	-0.7523533
77	0xbdf9c3d9	-0.12195558
78	0xbb4028e8	-0.0029321257
79	0x3dc83aba	0.09776826
80	0x3fd1658e	1.6359117
81	0xbe06bcec	-0.13158005
82	0xbc8d6d97	-0.01726417
83	0x40095796	2.1459708
84	0xbde9f8ac	-0.114243835
85	0x3f95f142	1.1714251
86	0xbd6cd0e7	-0.057816412
87	0xbf31d1c3	-0.69460696
88	0x3f7d8b8f	0.99041075
89	0xbdd05ca4	-0.1017392
90	0xbe5677a0	-0.20944071
91	0xbe0fbc71	-0.14036728
92	0xbee832ed	-0.45351353
93	0xbf1c14f5	-0.6096948
94	0x3f65e266	0.8979858
95	0x3f81b151	1.0132238
96	0xbf015ce2	-0.5053235
97	0x3f06934d	0.52568513
98	0xbd4830f2	-0.048874803
99	0xbfb1c496	-1.3888118
100	0xbf4c7e91	-0.79880625
101	0x3d5745c1	0.052556757
102	0xbeae5ee9	-0.34056786
103	0xbf1f11fc	-0.62136817
104	0x3f820c11	1.0159932
105	0x3dcaa8bc	0.09895465
106	0x3f739484	0.9514849
107	0xbdc0e885	-0.094193496
108	0xbe97fa9e	-0.29683393
109	0x3e6c152f	0.23054956
110	0xbebb7492	-0.36612374
111	0x3c489c5c	0.01224431
112	0xbf3ea3a2	-0.74468434
113	0xbf150bea	-0.58221304
114	0xbfbe50f8	-1.486846
115	0xbe91587d	-0.28387824
116	0x3fe3b316	1.7789028
117	0x3f4df816	0.80456674
118	0xbd79964e	-0.060934357
119	0xbf1ba1a9	-0.6079355
120	0x3b3504b3	0.002762121
121	0xbef0e7fa	-0.47051984
122	0xbddb2627	-0.10700636
123	0xbd426316	-0.047457777
124	0xbebc0653	-0.36723575
125	0xbf104707	-0.5635838
126	0xbe8c8a95	-0.2744948
127	0x3dd402ef	0.10352122
128	0xbc32c570	-0.010911331
129	0xb9db2291	-0.0004179669
130	0xbd4bf5a0	-0.049794793
131	0x3fbcda1a	1.4754059
132	0x3fb795d9	1.4342605
133	0xbe908e2b	-0.28233466
134	0xbeea409f	-0.45752427
135	0xbf8d8fc3	-1.1059498
136	0xbe356085	-0.177126
137	0xbc2ca34a	-0.010536978
138	0x3fb1e32d	1.3897454
139	0xbe82b32c	-0.25527322
140	0xbf8c5e60	-1.0966301
141	0xbe362e10	-0.17791009
142	0xbd35c079	-0.04437301
143	0x3c96e9c0	0.018422008
144	0x400aa912	2.1665692
145	0xbdc31a82	-0.0952654
146	0xbd9adcc3	-0.07561638
147	0x3faf3d94	1.3690667
148	0xbd0c386d	-0.0342335
149	0x3f8998cc	1.0749755
150	0x3db61c6b	0.08892139
151	0xbf66e92f	-0.9019956
152	0x3f9e25bb	1.2355264
153	0x3db599f0	0.08867252
154	0x3f3e255b	0.7427575
155	0xbdb5c560	-0.08875537
156	0xbf63fbd3	-0.8905613
157	0xbe85deca	-0.26146537
158	0x3f98cd10	1.193758
159	0x40202045	2.5019696
160	0xbf495a2d	-0.7865322
161	0x3f857440	1.0426102
162	0xbc08eda9	-0.008357444
163	0xbf8625c7	-1.0480279
164	0xbfa26a3b	-1.2688669
165	0x3d472dd5	0.048627693
166	0xbd238176	-0.039918385
167	0xbf8b8103	-1.0898746
168	0x3fbbd5d8	1.4674635
169	0x3dba1ce7	0.09087544
170	0x3fe3fa2a	1.7810719
171	0xbc16fe0b	-0.009215842
172	0xbe604f81	-0.21905328
173	0xbdec7ab5	-0.11546842
174	0x3c21d7d6	0.009878119
175	0xbd496560	-0.049168944
176	0xbf99ee3f	-1.2025832
177	0xbf4e7182	-0.8064195
178	0xc0318afa	-2.7741075
179	0xbd2eb036	-0.042648517
180	0x3fdbb7e2	1.7165492
181	0x3f9015e2	1.1256678
182	0x3b627ca5	0.0034559157
183	0xbf628c70	-0.8849554
184	0xbdd79d6b	-0.10528072
185	0xbf06ebd2	-0.52703583
186	0xbd9ae399	-0.07562942
187	0xbde96beb	-0.11397537
188	0xbdaabcdb	-0.083368026
189	0xbf077b76	-0.5292276
190	0xbf93aa87	-1.1536416
191	0xbe48274f	-0.19546245

fc3.bias f4 [3]
0	0x3d54bd0d	0.051938105
1	0xbeba0236	-0.36329812
2	0x3e0c39d1	0.1369393
