model/checkpoint_4400.pth (torch, 21912 bytes, 6 tensors)

fc1.weight f4 [64, 6]
0.4304533 0.75250393 -0.28710282 -0.73166 -0.08152007 0.26682302 0.46664238 0.6729808
-0.39223573 0.018014295 -0.0543514 0.039653346 -0.8522469 -0.3401253 -0.9138699 0.12705837
0.0975884 0.15898567 -0.24788086 -0.72051495 -0.10458668 1.0270009 0.2502706 0.28316203
-0.32664427 0.92987096 0.8004038 -0.5302151 -0.35236734 0.13160361 -0.46835345 1.0125072
-0.8143856 -0.34853736 -0.4295022 -0.31362492 -1.4371388 -0.26805496 0.64641577 -0.2343964
-0.23756464 -0.057288732 -0.32449535 -1.0009521 -0.7323956 -0.3024989 0.1617757 -0.19303176
-0.78994036 -1.2861782 1.069032 0.40022126 0.17986381 -0.0030174125 -0.15617593 -0.9710542
-0.037773307 -0.050723616 -0.31651095 -0.44843692 0.3429832 -0.23750257 0.8194555 0.003066747
0.6505732 0.23358235 0.42517975 -0.5282141 0.21366937 0.4307004 -0.3552041 -0.19360727
0.59143525 0.11183209 0.581012 1.3559979 -0.23090436 -0.47440174 0.05557483 -1.4547561
-0.8452894 0.9889968 0.0885382 -0.45601615 -0.067441076 0.288681 -0.5831525 0.49217615
0.31014466 -0.17215917 1.0650555 0.4044191 0.17483985 0.079282865 -0.40530947 -0.22606409
0.49191946 0.5233955 -0.5409593 -0.72517216 0.5815263 0.2741291 -1.1860149 0.013971965
-0.89943874 0.0305877 -0.22551134 -0.26023397 -0.1210653 0.06183218 0.16624081 -1.0266259
-0.48072633 0.3633959 0.8997986 0.053261463 -0.22203799 -0.15176705 0.26035818 0.21932638
0.7514746 0.23286174 -0.33373797 0.4718944 -0.42732716 -0.22622281 -0.73020875 -0.76493496
0.031786248 -0.43146434 -0.16205108 -0.15084891 -0.09820679 -0.7425537 0.34473577 -0.26324818
0.22038604 -0.0056544384 0.3822394 0.24095707 0.61270314 0.39766002 0.20954943 0.21693501
-0.7352299 0.5589621 -0.15219457 0.40308824 -0.33855045 -0.34829715 0.25669238 -0.8024223
0.22693016 1.548787 -0.21457145 -0.34526744 -0.07422288 -1.0113662 -0.10035988 -0.15351398
-0.3511929 -0.39332038 -0.73511475 -0.37996128 -0.7128443 -0.56930476 -0.35653055 0.14082469
0.01911526 -0.21301052 0.28507704 -0.5925927 0.15245362 0.21958217 -0.5521562 0.104925096
-0.3282692 1.1743872 0.385092 -0.3090179 -0.34642994 0.033255067 0.4824119 0.14108247
0.60617983 0.3613598 -0.48046434 0.15047976 -1.064174 0.39991337 0.43125743 0.42128
0.0128138 1.032875 -1.0673996 -0.52199894 -0.02995201 0.31938797 -0.58891547 0.4385351
0.2654672 -0.031673126 -0.71283424 -0.39017963 -0.33566839 -0.64097655 -0.20775387 0.7194448
0.0020127662 -0.19946589 0.31264287 0.05367018 -0.25901133 0.089995414 0.18696247 0.19971453
1.0016681 0.8514978 1.0764045 -1.4645338 0.24426544 0.64006585 0.74598855 -0.34217453
-1.2183194 -0.24073966 -0.037694853 -0.004802132 -1.081035 0.55394083 -0.31187084 0.62577164
0.37352237 0.34598896 0.67567337 0.042611085 0.58761597 -0.5060898 -0.19800349 -0.19413674
-0.32508335 0.63989633 -0.14237748 -0.3706837 0.08021426 -0.31043965 0.72673935 -0.67834246
0.6070266 -0.56611675 -0.5109215 -0.14043713 0.81404483 -0.56280243 -0.41196212 -0.46455115
00000000: 6064 dc3e 19a4 403f 24ff 92be 124e 3bbf
00000010: fff3 a6bd 079d 883e c0eb ee3e 7848 2c3f
00000020: 1fd3 c8be b792 933c 939f 5ebd 8c6b 223d
00000030: da2c 5abf e724 aebe 61f3 69bf 971b 023e
00000040: 6ddc c73d 24cd 223e 7bd4 7dbe ab73 38bf
00000050: 8b31 d6bd c474 833f 7823 803e 9dfa 903e
00000060: eb3d a7be 060c 6e3f 43e7 4c3f 2dbc 07bf
00000070: 7e69 b4be 19c3 063e 06cc efbe d699 813f
00000080: 937b 50bf 7d73 b2be b6e7 dbbe 7293 a0be
00000090: 2af4 b7bf 803e 89be 817b 253f 9c05 70be
000000a0: 2544 73be 97a7 6abd 4124 a6be 331f 80bf
000000b0: 477e 3bbf 23e1 9abe 87a8 253e 1eaa 45be
000000c0: 8839 4abf 7da1 a4bf 0ad6 883f cde9 cc3e
000000d0: 382e 383e c8bf 45bb 95ec 1fbe 0297 78bf
000000e0: 2fb8 1abd 91c3 4fbd b90d a2be 8699 e5be
000000f0: 7e9b af3e e033 73be d6c7 513f 7afb 483b
00000100: f78b 263f 3630 6f3e 29b1 d93e 0a39 07bf
00000110: 25cc 5a3e c384 dc3e 50dd b5be fc40 46be
00000120: 4d68 173f 3908 e53d 34bd 143f 5791 ad3f
00000130: 3172 6cbe c9e4 f2be 6fa2 633d 7335 babf
00000140: e364 58bf e52e 7d3f 8453 b53d f37a e9be
00000150: 8c1e 8abd ffcd 933e 7b49 15bf 83fe fb3e
00000160: 48cb 9e3e 7e4a 30be bd53 883f 0510 cf3e
00000170: 3809 333e 0e5f a23d b984 cfbe 587d 67be
00000180: dedc fb3e 3ffd 053f 4f7c 0abf e2a4 39bf
00000190: e8de 143f a65a 8c3e 56cf 97bf abea 643c
000001a0: 9e41 66bf 0e93 fa3c 72ec 66be 633d 85be
000001b0: 16f1 f7bd bd43 7d3d 083b 2a3e 7a68 83bf
000001c0: c321 f6be 070f ba3e 3359 663f b128 5a3d
000001d0: ed5d 63be d268 1bbe ab4d 853e 1897 603e
000001e0: a460 403f 4f73 6e3e b4df aabe 259c f13e
000001f0: a0ca dabe f4a6 67be f6ee 3abf c7d2 43bf
00000200: 4c32 023d e5e8 dcbe b8f0 25be 2378 1abe
00000210: a420 c9bd 0018 3ebf 3581 b03e 77c8 86be
00000220: e1ac 613e de48 b9bb e2b4 c33e 73bd 763e
00000230: 1dda 1c3f 189a cb3e 2094 563e 3624 5e3e
00000240: 0738 3cbf 2418 0f3f e5d8 1bbe 9561 ce3e
00000250: 7c56 adbe 0154 b2be 2f6d 833e 8c6b 4dbf
00000260: 6160 683e a73e c63f 9eb8 5bbe e5c6 b0be
00000270: 2a02 98bd 7374 81bf 7b89 cdbd c532 1dbe
00000280: 8ecf b3be 4a61 c9be 7b30 3cbf 498a c2be
00000290: f77c 36bf f5bd 11bf 2c8b b6be 5934 103e
000002a0: 9b97 9c3c 6e1f 5abe 9ef5 913e 28b4 17bf
000002b0: cd1c 1c3e 26da 603e 1c5a 0dbf f8e2 d63d
000002c0: e712 a8be 5252 963f c72a c53e 9837 9ebe
000002d0: 445f b1be 7736 083d b1fe f63e ec77 103e
000002e0: 9a2e 1b3f 2704 b93e 6cff f5be 5e17 1a3e
000002f0: db36 88bf 72c1 cc3e c6cd dc3e 03b2 d73e
00000300: f9f0 513c 3f35 843f 8da0 88bf b9a1 05bf
00000310: eb5d f5bc d286 a33e 2ac3 16bf ac87 e03e
00000320: 51eb 873e aebb 01bd 4e7c 36bf a0c5 c7be
00000330: badc abbe 0a17 24bf 6ebd 54be 892d 383f
00000340: 9de8 033b c940 4cbe ba12 a03e 43d5 5b3d
00000350: 229d 84be 844f b83d 1773 3f3e f781 4c3e
00000360: a936 803f c3fb 593f 9fc7 893f d875 bbbf
00000370: b820 7a3e 5bdb 233f 1bf9 3e3f 8031 afbe
00000380: e4f1 9bbf 7584 76be eb65 1abd 345b 9dbb
00000390: 5b5f 8abf 11cf 0d3f 89ad 9fbe 9232 203f
000003a0: 533e bf3e 7725 b13e eef8 2c3f f688 2e3d
000003b0: 006e 163f 1a8f 01bf 6dc1 4abe c8cb 46be
000003c0: 5371 a6be 3fd0 233f 67cb 11be 41ca bdbe
000003d0: 6047 a43d f2f1 9ebe 970b 3a3f daa7 2dbf
000003e0: 1866 1b3f 07ed 10bf c0cb 02bf c0ce 0fbe
000003f0: 3e65 503f d213 10bf b3ec d2be a6d9 edbe

fc1.bias f4 [64]
0.3519873 0.54240614 0.31401986 -0.06415129 0.3737249 0.2978445 -0.7651348 -0.028599283
-0.29078934 0.15264906 -0.57756716 0.82759714 0.025103128 -0.060202517 -1.111438 0.28543425
0.84796023 -0.14912488 -0.054129172 0.6804234 0.92719483 -0.7966193 0.6857708 0.74348766
-0.23041844 0.08655996 0.041501056 -0.44237852 1.0199609 -0.4614426 -0.68840486 -0.06331147
-0.45714876 -0.6843977 0.228924 0.79325724 0.6856821 0.082269 -0.14890917 0.43707895
0.27939114 -0.46367276 0.17272513 -0.4699406 0.5534806 -0.18482582 -0.46814588 -0.015702022
0.6734631 0.27906787 -0.29793936 -0.10397401 0.34188148 -0.8413087 0.3966412 -0.5415943
-0.75278884 -0.59594 -0.6640325 0.654518 -0.65387386 0.6743362 -0.16256566 0.38884223
00000000: ae37 b43e 21db 0a3f 36c7 a03e c061 83bd
00000010: df58 bf3e 137f 983e e0df 43bf 0b49 eabc
00000020: 57e2 94be 0950 1c3e 71db 13bf 68dd 533f
00000030: 13a5 cd3c ea96 76bd 9a43 8ebf 7024 923e
00000040: ec13 593f 31b4 18be 8db6 5dbd 3a30 2e3f
00000050: a45c 6d3f 3eef 4bbf ad8e 2f3f 3555 3e3f
00000060: d0f2 6bbe 5946 b13d 03fd 293d 707f e2be
00000070: 148e 823f 3442 ecbe 4d3b 30bf 72a9 81bd
00000080: 670f eabe b034 2fbf 0e6b 6a3e e812 4b3f
00000090: dd88 2f3f a67c a83d a57b 18be d0c8 df3e
000000a0: 5b0c 8f3e 8466 edbe dbde 303e 0e9c f0be
000000b0: e8b0 0d3f fb42 3dbe d1b0 efbe 87a1 80bc
000000c0: 1468 2c3f fce1 8e3e 828b 98be 53f0 d4bd
000000d0: 170b af3e 0260 57bf 8e14 cb3e eda5 0abf
000000e0: c5b6 40bf 868f 18bf 09fe 29bf 7e8e 273f
000000f0: 4764 27bf 4ca1 2c3f 9d77 26be 5416 c73e

fc2.weight f4 [64, 64]
-0.04831197 -0.15959136 0.07830485 0.031351674 0.072698325 0.042516902 -0.082408555 0.06584186
-0.011387902 0.029746728 -0.1160325 -0.08457825 -0.14884798 -0.06456648 0.011087811 -0.13505483
0.0015068119 0.051230192 -0.023552231 -0.12147423 -0.14331594 -0.055504147 0.0030061875 0.08693521
0.05600189 -0.029736916 0.030022614 -0.15701422 -0.16206105 0.04244582 -0.10667518 0.020192299
-0.124540776 -0.07778318 -0.114982456 0.026265617 -0.050580557 0.0803335 0.036456767 0.017311795
-0.020424183 -0.07648162 -0.06710148 -0.017167564 0.023085473 -0.10344298 0.08902927 -0.05340683
-0.13850294 -0.09777518 0.09472193 0.08093734 -0.13341609 0.050095435 0.016634649 0.03510494
0.081849195 -0.09755329 0.001284935 -0.0016787181 -0.074918084 0.00276635 -0.05444025 0.040100034
-0.07548725 -0.08569809 0.0062112273 0.007666288 -0.11232061 -0.03426717 0.04090612 -0.017869547
0.010428279 -0.03995087 0.02317749 -0.109982006 -0.08607757 -0.084291756 0.099629425 -0.06788792
-0.022183355 -0.076442026 0.08619339 0.082972 -0.11756293 -0.14682356 -0.12966307 -0.037147757
-0.03186299 -0.10108837 -0.06414803 -0.01948688 -0.087040335 0.006665489 -0.028040629 -0.07414074
-0.03054305 0.08690248 -0.12483647 -0.032049768 -0.0830002 0.10264269 -0.15565789 -0.14091814
0.10643455 -0.090267345 -0.015154478 -0.053671584 -0.03420259 -0.031035628 0.061313793 -0.029633112
-0.17849389 -0.081018165 -0.054432172 0.030971795 -0.10246678 0.08039449 -0.039867096 -0.059986133
0.08297231 0.02599532 0.0672388 0.035337385 -0.08278147 -0.12180781 -0.029117484 0.06553443
0.053592093 -0.007354959 0.26396552 0.14750528 0.082151994 0.11645676 -0.4228694 -0.2714355
-0.048248764 -0.63873446 -0.12298236 0.34614876 0.43787006 0.12222663 -0.5725387 -0.037970442
0.057711236 0.6416627 0.026344754 0.22091924 0.20738932 -0.31368384 0.10972587 0.37973285
-0.43209386 0.04164621 -0.057907395 -0.13008589 0.14764608 -0.08663799 -0.021668062 0.06679615
0.14300464 -0.7924727 0.39734155 0.17528789 0.06787032 -0.22693546 -0.2981688 0.15455419
-0.02541316 -0.54349905 -0.28864205 0.029864375 -0.060186114 0.18664423 -0.339751 -0.08949068
0.22880782 0.0074439812 0.07892053 -0.31037822 0.14450225 -0.18117194 0.38672897 -0.060616873
0.3451128 -0.3695882 -0.07409349 -0.011501177 -0.14858592 0.035777032 -0.39609814 0.07218845
-1.8339643 -0.12131618 -1.1824117 -0.5574259 -1.4995521 0.20598546 0.8534216 -0.35538048
-1.2662644 0.44193605 0.36042267 -0.31888503 0.20290276 0.11015368 0.06563791 -0.50778675
0.3956752 0.27837458 -0.49247608 -0.6013137 0.15283771 -0.45629328 0.13101517 -0.08409246
-0.020719985 0.08423279 -0.3050823 -0.3076757 -0.6959422 0.24312805 -0.28792405 -0.09790189
-2.5638256 -0.15671882 0.46525702 -0.4151518 -1.8885484 0.17573081 1.466983 -0.4025886
0.24617122 -1.203183 -0.10962007 -1.358801 0.7294541 0.1410996 0.030202774 0.5545064
0.15263423 -0.11467829 0.25435528 0.096546605 -0.2929422 0.072604716 0.099984564 0.545952
-1.0787432 0.11849145 -0.48439816 -1.3362478 -2.8284514 -0.84906477 0.18373129 -0.26471406
00000000: c6e2 45bd eb6b 23be 4b5e a03d 9d6a 003d
00000010: dce2 943d 3426 2e3d d1c5 a8bd 19d8 863d
00000020: 5394 3abc 69af f33c 73a2 edbd 5d37 adbd
00000030: 9b6b 18be 6e3b 84bd a6a9 353c d04b 0abe
00000040: 3880 c53a c0d6 513d 9cf0 c0bc 7bc7 f8bd
00000050: 6ac1 12be 5158 63bd 7503 453b 160b b23d
00000060: 3d62 653d d59a f3bc fcf1 f53c 56c8 20be
00000070: 55f3 25be abdb 2d3d 8478 dabd 526a a53c
00000080: 3c0f ffbd ca4c 9fbd ec7b ebbd fe2a d73c
00000090: 8f2d 4fbd e485 a43d b153 153d 77d1 8d3c
000000a0: 9e50 a7bc 65a2 9cbd 806c 89bd fea2 8cbc
000000b0: bf1d bd3c ead9 d3bd fa54 b63d 1fc1 5abd
000000c0: b7d3 0dbe 5b3e c8bd 92fd c13d 7ac2 a53d
000000d0: 3a9e 08be df30 4d3d 6345 883c 33ca 0f3d
000000e0: 8da0 a73d 05ca c7bd 446b a83a 6f08 dcba
000000f0: a76e 99bd a74b 353b bdfc 5ebd ef3f 243d
00000100: 0f99 9abd 7b82 afbd 8d87 cb3b 7c35 fb3b
00000110: 5908 e6bd bb5b 0cbd 2d8d 273d 2863 92bc
00000120: 5fdb 2a3c 86a3 23bd b8de bd3c 3f3e e1bd
00000130: 7049 b0bd 28a1 acbd 830a cc3d d208 8bbd
00000140: deb9 b5bc a38d 9cbd 2986 b03d 39ed a93d
00000150: d5c4 f0bd ea58 16be 65c6 04be 3f28 18bd
00000160: c482 02bd 6b07 cfbd 0b60 83bd f3a2 9fbc
00000170: 3442 b2bd 2d6a da3b 76b5 e5bc 1ad7 97bd
00000180: 6b35 fabc edf9 b13d 43aa ffbd 9e46 03bd
00000190: 02fc a9bd 5536 d23d c864 1fbe d84c 10be
000001a0: 5bfa d93d 16de b8bd 7d4a 78bc bcd6 5bbd
000001b0: 0418 0cbd 6e3e febc 2c24 7b3d 24c1 f2bc
000001c0: 1ac7 36be daec a5bd 45f4 5ebd 90b8 fd3c
000001d0: 1ada d1bd dea5 a43d ae4b 23bd 05b4 75bd
000001e0: 63ed a93d 23f4 d43c 7fb4 893d efbd 103d
000001f0: 5589 a9bd 6076 f9bd ca87 eebc ea36 863d
00000200: 6283 5b3d de01 f1bb 7d26 873e a00b 173e
00000210: 4e3f a83d e280 ee3d 5782 d8be 98f9 8abe
00000220: 7fa0 45bd 1a84 23bf 2dde fbbd 693a b13e
00000230: 8130 e03e f551 fa3d e591 12bf e586 1bbd
00000240: 9e62 6c3d 0244 243f f4d0 d73c a738 623e
00000250: de5d 543e 2b9b a0be f5b7 e03d 586c c23e
00000260: 683b ddbe 3795 2a3d 4e30 6dbd 3c35 05be
00000270: 8930 173e 426f b1bd 3881 b1bc 6bcc 883d
00000280: cf6f 123e 7edf 4abf 5a70 cb3e ab7e 333e
00000290: 98ff 8a3d c561 68be 95a9 98be 7443 1e3e
000002a0: 422f d0bc c122 0bbf e4c8 93be 22a6 f43c
000002b0: b785 76bd aa1f 3f3e d8f3 adbe e446 b7bd
000002c0: 994c 6a3e a4ec f33b 16a1 a13d e5e9 9ebe
000002d0: 66f8 133e 2385 39be 5701 c63e 6649 78bd
000002e0: a0b2 b03e aa3a bdbe 54be 97bd 6f6f 3cbc
000002f0: e826 18be f08a 123d 60cd cabe 8ad7 933d
00000300: 58bf eabf 9e74 f8bd 4459 97bf 77b3 0ebf
00000310: 53f1 bfbf daed 523e d779 5a3f 6ef4 b5be
00000320: f414 a2bf 7145 e23e 5289 b83e e644 a3be
00000330: bec5 4f3e 4198 e13d 2b6d 863d 50fe 01bf
00000340: f195 ca3e 1d87 8e3e d325 fcbe b2ef 19bf
00000350: 7d81 1c3e 469f e9be d728 063e ab38 acbd
00000360: f5bc a9bc 3e82 ac3d bf33 9cbe ab87 9dbe
00000370: 4529 32bf 8ff6 783e c86a 93be c980 c8bd
00000380: b815 24c0 e67a 20be 2b36 ee3e c78e d4be
00000390: f4bb f1bf c7f2 333e 19c6 bb3f 1820 cebe
000003a0: 4f14 7c3e e701 9abf 7d80 e0bd 31ed adbf
000003b0: 81bd 3a3f 6a7c 103e cf6b f73c 22f4 0d3f
000003c0: 264c 1c3e 74dc eabd db3a 823e 3aba c53d
000003d0: 85fc 95be c8b1 943d b5c4 cc3d 83c3 0b3f
000003e0: 4214 8abf a5ab f23d 0903 f8be 2b0a abbf
000003f0: 5905 35c0 4f5c 59bf 0e24 3c3e 9a88 87be

fc2.bias f4 [64]
-0.1573954 0.024026103 0.23795366 0.06119499 -0.0072991285 0.20625742 0.43612042 0.07205202
0.014071929 0.091326825 0.31566152 0.07738848 0.26856956 0.012625174 0.09385519 -0.1106598
0.037750587 0.18413338 0.15573728 0.005051988 -0.0053395433 0.26768368 0.021772364 0.47329468
0.048894193 -0.14408496 0.24172173 0.050685592 0.40752244 0.07856011 0.3346638 0.114662275
0.19644411 -0.03598793 0.076693885 0.51340646 -0.017370088 -0.10645254 -0.044472706 0.20470318
0.3597013 -0.06643458 0.3120682 0.30518365 0.17702289 0.04914382 0.23923351 -0.01015838
-0.29425034 -0.09552599 -0.3422211 0.16795301 0.081510976 -0.04366797 0.05505683 -0.006911491
0.08931911 0.32306287 0.16527838 0.105745085 0.19437033 0.38950035 0.24695419 0.13742141
00000000: 422c 21be 64d2 c43c 20aa 733e 99a7 7a3d
00000010: 872d efbb 2535 533e 2d4b df3e 0290 933d
00000020: f38d 663c 8f09 bb3d 639e a13e da7d 9e3d
00000030: f381 893e d1d9 4e3c 2637 c03d 9ba1 e2bd
00000040: 5ca0 1a3d 768d 3c3e 9879 1f3e 268b a53b
00000050: 56f7 aebb d60d 893e f55b b23c ae53 f23e
00000060: 4745 483d 028b 13be e785 773e b29b 4f3d
00000070: c8a6 d03e 1fe4 a03d 0e59 ab3e 0ed4 ea3d
00000080: a528 493e 1468 13bd af11 9d3d 9b6e 033f
00000090: b74b 8ebc ca03 dabd 0329 36bd b69d 513e
000000a0: c52a b83e da0e 88bd 67c7 9f3e 0841 9c3e
000000b0: 7d45 353e 084b 493d a1f9 743e 556f 26bc
000000c0: fba7 96be 21a3 c3bd 9b37 afbe e0fb 2b3e
000000d0: 3aef a63d 2fdd 32bd 4583 613d ca79 e2bb
000000e0: f0ec b63d 7f68 a53e bc3e 293e e190 d83d
000000f0: 0409 473e 976c c73e 8fe1 7c3e 33b8 0c3e

fc3.weight f4 [3, 64]
0.092650115 0.08250683 -0.55117893 1.5912716 1.1258318 -0.21746121 -0.933131 -1.4767083
-0.12644501 -0.20757675 2.1300547 -0.11660561 -0.6446214 -0.045136407 -0.23738177 0.061188515
1.7652564 -0.100919336 -0.13912515 1.401119 -0.23541456 1.9817832 0.07224163 -0.08787844
1.5488403 0.08081259 -0.073403314 -0.16876817 -0.06430881 -0.23713687 0.720425 1.9194766
-0.41608185 0.8084589 0.066693746 -0.94007635 -1.5477923 -0.0043613743 -0.12167442 -1.1006082
1.5770113 0.27060154 2.095517 -0.30972084 -0.38415053 -0.6005258 -0.8116649 -0.08873828
-1.3774742 -1.0089366 -2.30918 -0.020100923 1.2255039 1.4558712 -0.26697105 -0.33379483
-0.103592604 -0.65386754 -0.25184792 -0.17683144 -0.016858254 -0.31741273 -0.68773574 -0.06859393
0.009426984 -0.13832603 -0.4517318 0.78352475 0.84826 -0.15809105 -0.47889417 -1.2894984
-0.050070845 -0.4262482 1.6000316 -0.3027894 -0.72843033 -0.12620263 0.0012292463 0.09776826
1.5942419 -0.113845214 -0.015985478 2.1645608 -0.11732391 1.1822897 -0.057816412 -0.69072914
0.9338591 -0.1017392 -0.19387308 -0.14732943 -0.46099102 -0.56109065 0.8623228 1.0572011
-0.48895985 0.5231916 -0.048874803 -1.3586327 -0.7545173 0.052556757 -0.3203847 -0.63854116
1.0305598 0.09895465 0.9493246 -0.12277927 -0.2943872 0.16715235 -0.37901348 0.01224431
-0.7087267 -0.6152977 -1.4385897 -0.30431584 1.6980132 0.83202595 -0.053275593 -0.6036067
0.0036643234 -0.4691071 -0.11088391 -0.053639617 -0.38757205 -0.5486208 -0.28041676 0.11498856
-0.010911331 -0.0004179669 -0.06853354 1.3825254 1.397467 -0.27784705 -0.45878422 -1.0902818
-0.19492912 -0.03157895 1.2905005 -0.26324728 -1.0620583 -0.19319735 -0.056824356 0.018422008
2.1806278 -0.10470343 -0.081037074 1.2681671 -0.047731474 1.0418093 0.08892139 -0.8879362
1.1941463 0.08867252 0.7038864 -0.104301356 -0.8853581 -0.25413585 1.2065037 2.3987336
-0.7484772 1.0459502 -0.008357444 -1.0470363 -1.2384018 0.048627693 -0.04382757 -1.0599054
1.4173163 0.09087544 1.7673308 -0.024503183 -0.23701899 -0.10950134 0.011599861 -0.049168944
-1.1698114 -0.84477556 -2.6872988 -0.049892053 1.7162336 1.1266907 -0.0034718008 -0.8534085
-0.1292444 -0.5127513 -0.07744248 -0.13646875 -0.09250335 -0.5019673 -1.1142346 -0.21742797
00000000: 58bf bd3d 57f9 a83d 101a 0dbf caae cb3f
00000010: 421b 903f 27ae 5ebe ace1 6ebf c704 bdbf
00000020: cd7a 01be 008f 54be d152 0840 ecce eebd
00000030: e805 25bf f4e0 38bd 3514 73be cfa0 7a3d
00000040: ecf3 e13f ccae cebd d376 0ebe de57 b33f
00000050: 8410 71be 12ab fd3f 6bf3 933d 9df9 b3bd
00000060: 6640 c63f 1281 a53d 7a54 96bd 90d1 2cbe
00000070: 56b4 83bd 02d4 72be c66d 383f 69b1 f53f
00000080: ae08 d5be 2af7 4e3f bb96 883d d8a8 70bf
00000090: 0f1e c6bf dce9 8ebb 7030 f9bd bbe0 8cbf
000000a0: 82db c93f 498c 8a3e f31c 0640 bb93 9ebe
000000b0: 61af c4be 0fbc 19bf 45c9 4fbf 6abc b5bd
000000c0: 1351 b0bf d624 81bf 9bc9 13c0 b1aa a4bc
000000d0: 50dd 9c3f fd59 ba3f 6eb0 88be 28e7 aabe
000000e0: 5c28 d4bd dd63 27bf 36f2 80be 4d13 35be
000000f0: 521a 8abc ec83 a2be 730f 30bf f97a 8cbd
00000100: a373 1a3c 57a5 0dbe 6449 e7be 1495 483f
00000110: 9127 593f 9fe2 21be 9e31 f5be 490e a5bf
00000120: 1617 4dbd 343d dabe d6cd cc3f 3607 9bbe
00000130: 697a 3abf 433b 01be a91e a13a ba3a c83d
00000140: 1e10 cc3f ae27 e9bd faf3 82bc 2a88 0a40
00000150: 8547 f0bd 4555 973f e7d0 6cbd a0d3 30bf
00000160: 6411 6f3f a45c d0bd aa86 46be 87dd 16be
00000170: 0407 ecbe a3a3 0fbf 30c1 5c3f 5e52 873f
00000180: f258 fabe e2ef 053f f230 48bd ade7 adbf
00000190: 0c28 41bf c145 573d 7709 a4be 6f77 23bf
000001a0: 62e9 833f bca8 ca3d f006 733f b373 fbbd
000001b0: ebb9 96be fc29 2b3e 0e0e c2be 5c9c 483c
000001c0: 1d6f 35bf 2684 1dbf b523 b8bf 49cf 9bbe
000001d0: 7f58 d93f a7ff 543f 8237 5abd f885 1abf
000001e0: 2525 703b ce2e f0be 1a17 e3bd 37b5 5bbd
000001f0: d86f c6be 6a72 0cbf c992 8fbe 1f7f eb3d
00000200: 70c5 32bc 9122 dbb9 505b 8cbd 98f6 b03f
00000210: 33e0 b23f f841 8ebe c4e5 eabe 5b8e 8bbf
00000220: 809b 47be ee58 01bd 1f2f a53f 59c8 86be
00000230: 87f1 87bf 87d5 45be a8c0 68bd c0e9 963c
00000240: 688f 0b40 c06e d6bd c4f6 a5bd 4d53 a23f
00000250: 1482 43bd 025a 853f 6b1c b63d c94f 63bf
00000260: c9d9 983f f099 b53d e631 343f f39b d5bd
00000270: d4a6 62bf 181e 82be b76e 9a3f da84 1940
00000280: 349c 3fbf b2e1 853f a9ed 08bc 4905 86bf
00000290: f383 9ebf d52d 473d 8a84 33bd fbaa 87bf
000002a0: 9f6a b53f e71c ba3d e537 e23f e6ba c8bc
000002b0: 1bb5 72be 3d42 e0bd 580d 3e3c 6065 49bd
000002c0: 61bc 95bf 3643 58bf b4fc 2bc0 9c5b 4cbd
000002d0: 8bad db3f 6737 903f 2787 63bb fb78 5abf
000002e0: a558 04be ab43 03bf 2a9a 9ebd 77be 0bbe
000002f0: 6572 bdbd ee80 00bf 3d9f 8ebf 70a5 5ebe

fc3.bias f4 [3]
0.06712235 -0.37509415 0.11413163
00000000: 7177 893d 570c c0be d8bd e93d
