model/checkpoint_1000.pth (torch, 21912 bytes, 6 tensors)

fc1.weight f4 [64, 6]
0.31750166 0.7066824 -0.40816712 -0.68604034 -0.08163292 0.1941801 0.20406893 0.41600218
-0.15226778 0.1024272 -0.12743855 -0.034975197 -0.5863344 -0.5842615 -0.76680756 0.10472952
0.22219771 0.25009894 -0.2603488 -0.48910433 -0.3434512 0.70121884 0.022827726 0.1860499
0.3118801 0.7756241 0.5481041 -0.5350348 -0.3003606 -0.024694432 -0.23439234 0.8589606
-0.63997656 -0.38819402 -0.3771766 -0.2787218 -1.3663508 0.057600524 0.5963159 -0.2551612
-0.19959745 -0.010561602 -0.27460298 -0.87834775 -0.7844971 -0.4060356 0.10486191 -0.14585446
-0.22954245 -0.6706843 0.33821654 0.52566046 0.09976825 0.10955476 -0.00070261693 -0.9348106
0.038242552 -0.23065414 -0.24525876 -0.38559484 0.0018004237 -0.0142789725 0.36331418 0.18531755
0.4187341 0.0533586 0.24556114 -0.35718945 0.20365174 0.58728284 -0.262263 -0.13101046
0.47495666 0.026835198 0.5133047 0.7221902 -0.17920215 -0.35106558 0.1915441 -1.0633898
-1.1017416 0.74363774 0.07628318 -0.35713324 -0.17049228 0.35385287 -0.50535476 0.23571327
0.23275603 -0.10233329 0.77691317 0.24648565 0.46112695 -0.14794391 -0.31562957 -0.10346381
0.7495012 0.30359238 -0.22099206 -0.6572957 0.51439124 0.13419944 -1.0211858 0.15030184
-0.7747797 -0.1948032 -0.19513254 -0.21758929 -0.18416962 -0.1114884 -0.1606459 -0.360062
-0.40894562 0.296311 0.34120002 -0.261148 -0.31897074 -0.05243616 0.18874422 0.16672616
0.58812886 0.042924978 -0.23214434 0.1880219 -0.3268508 -0.20147099 -0.57458353 -0.6052782
-0.077684395 -0.29910666 -0.15260552 -0.098469615 -0.06072445 -0.15220772 0.3640218 -0.13754678
0.01746386 -0.035392992 0.4780227 0.28188348 0.6218757 0.2412838 0.21602786 0.22398674
-0.58307636 0.23027748 -0.2687367 0.2902329 -0.32502764 -0.41189948 -0.037566125 -0.8012297
-0.06197108 1.1578324 -0.17974041 -0.2649947 0.025718948 -0.74277866 0.05364115 -0.50947845
-0.25474975 -0.1585249 -0.8077259 -0.33633542 -0.376745 -0.40395656 -0.28701144 0.16957268
-0.2107797 -0.19609632 0.38199985 -0.4331761 0.109039076 0.15242457 -0.7393876 0.33105865
-0.362101 0.42497557 0.40572968 -0.22862254 -0.28986827 0.051954243 0.4283017 0.17295848
0.46370685 0.28589752 -0.37499037 0.13005464 -0.78581583 0.6034654 0.39400202 0.33945107
0.037866954 0.8861289 -0.84854853 -0.584416 -0.05765622 0.28438002 -0.24571519 0.28151646
0.23243266 0.1582955 -0.52184176 -0.33684143 -0.23067096 -0.4534055 -0.24251977 0.5780586
-0.012802344 -0.06990625 0.14500074 0.0052449657 0.0061702295 0.03644221 0.09980464 0.13520004
0.23532443 0.17844296 1.0363017 -1.1262571 0.3187004 0.40737432 0.2911035 -0.36084238
-1.0245271 0.1517291 -0.0048514544 -0.06765445 -0.8749784 0.50888425 -0.066115566 0.46824992
0.28314307 0.30776668 0.6425671 0.005130072 0.49225318 -0.37685797 -0.096892476 -0.16569701
0.107919626 0.5972164 -0.18800378 -0.24275118 0.087060735 -0.44312456 0.53544354 -0.54115444
0.240023 -0.33884263 -0.4037402 -0.13620235 0.59574354 -0.09425466 -0.44965726 -0.29961744
00000000: 948f a23e 23e9 343f 48fb d0be 57a0 2fbf
00000010: 292f a7bd 26d7 463e 72f7 503e 3dfe d43e
00000020: 16ec 1bbe 5ac5 d13d 407f 02be 2742 0fbd
00000030: 031a 16bf 2992 15bf 804d 44bf 6e7c d63d
00000040: cc87 633e f80c 803e 704c 85be e26b fabe
00000050: d6d8 afbe 1483 333f 3601 bb3c dd83 3e3e
00000060: c0ae 9f3e 4d8f 463f 8d50 0c3f 0af8 08bf
00000070: ddc8 99be fa4b cabc 8c04 70be d8e4 5b3f
00000080: 81d5 23bf 5ec1 c6be 4b1d c1be a0b4 8ebe
00000090: 95e4 aebf 87ee 6b3d 29a8 183f 7da4 82be
000000a0: 4663 4cbe 920a 2dbc c398 8cbe 66db 60bf
000000b0: cdd4 48bf e6e3 cfbe d7c1 d63d df5a 15be
000000c0: 2d0d 6bbe f7b1 2bbf b82a ad3e af91 063f
000000d0: 4c53 cc3d 3f5e e03d d32f 38ba bf4f 6fbf
000000e0: 39a4 1c3d 9930 6cbe 1d25 7bbe b06c c5be
000000f0: 32fc eb3a 5af2 69bc 5104 ba3e e2c3 3d3e
00000100: 5164 d63e 8c8e 5a3d 6174 7b3e 89e1 b6be
00000110: 158a 503e 2b58 163f 5647 86be 9b27 06be
00000120: 852d f33e 7dd5 db3c f067 033f 75e1 383f
00000130: c580 37be debe b3be 2324 443e 281d 88bf
00000140: de05 8dbf 0b5f 3e3f 5b3a 9c3d 2bda b6be
00000150: 8795 2ebe 342c b53e ee5e 01bf d25e 713e
00000160: 9957 6e3e 1e94 d1bd c8e3 463f bc66 7c3e
00000170: d518 ec3e 9c7e 17be 339a a1be d6e4 d3bd
00000180: 50df 3f3f 7670 9b3e be4b 62be 8844 28bf
00000190: 25af 033f 946b 093e 37b6 82bf bae8 193e
000001a0: f657 46bf 7d7a 47be d3d0 47be bacf 5ebe
000001b0: f696 3cbe 0854 e4bd 5c80 24be 0c5a b8be
000001c0: 5261 d1be 13b6 973e c5b1 ae3e 31b5 85be
000001d0: 2250 a3be 4dc7 56bd 2a46 413e 43ba 2a3e
000001e0: 9d8f 163f 1ad2 2f3d 3fb7 6dbe d088 403e
000001f0: fd58 a7be 694e 4ebe e817 13bf 83f3 1abf
00000200: ff18 9fbd 8224 99be 9f44 1cbe 70aa c9bd
00000210: 33ba 78bd 57dc 1bbe 1161 ba3e 10d9 0cbe
00000220: 5e10 8f3c 3ef8 10bd 64bf f43e 0853 903e
00000230: 3f33 1f3f 1a13 773e 6836 5d3e c85c 653e
00000240: 7e44 15bf dccd 6b3e db97 89be 6899 943e
00000250: 066a a6be 7de4 d2be f0de 19bd 641d 4dbf
00000260: 63d5 7dbd da33 943f df0d 38be 63ad 87be
00000270: 8bb0 d23c be26 3ebf d3b6 5b3d 2e6d 02bf
00000280: 8f6e 82be 5a54 22be 20c7 4ebf 2834 acbe
00000290: b8e4 c0be 65d3 cebe 2af3 92be 76a4 2d3e
000002a0: a2d6 57be 79cd 48be 7c95 c33e 42c9 ddbe
000002b0: e14f df3d 3015 1c3e 8148 3dbf 8580 a93e
000002c0: 4d65 b9be 6696 d93e cdbb cf3e 071c 6abe
000002d0: 9d69 94be f9cd 543d 5c4a db3e 071c 313e
000002e0: fc6a ed3e 2961 923e bdfe bfbe 0b2d 053e
000002f0: 3a2b 49bf b57c 1a3f a2ba c93e 88cc ad3e
00000300: 611a 1b3d 58d9 623f 7a3a 59bf 499c 15bf
00000310: ee28 6cbd 429a 913e c39c 7bbe ed22 903e
00000320: d402 6e3e 3718 223e 6c97 05bf 7b76 acbe
00000330: 0235 6cbe c424 e8be 1a57 78be a6fb 133f
00000340: ecc0 51bc 022b 8fbd 137b 143e f6dd ab3b
00000350: a32f ca3b 6d44 153d 6066 cc3d e171 0a3e
00000360: e3f8 703e c0b9 363e 89a5 843f 3129 90bf
00000370: b32c a33e 5e93 d03e 850b 953e 55c0 b8be
00000380: b423 83bf e05e 1b3e f3f8 9ebb 6b8e 8abd
00000390: 96fe 5fbf 3d46 023f 9967 87bd 74be ef3e
000003a0: 21f8 903e 9893 9d3e 477f 243f 2a1a a83b
000003b0: 9c08 fc3e 87f3 c0be 906f c6bd 7aac 29be
000003c0: f704 dd3d 2de3 183f 1084 40be c493 78be
000003d0: e64c b23d 39e1 e2be d412 093f 1989 0abf
000003e0: 97c8 753e c87c adbe 09b7 cebe a178 0bbe
000003f0: a682 183f 9608 c1bd 7a39 e6be 7567 99be

fc1.bias f4 [64]
0.24134311 0.6325946 0.30157542 0.22574444 0.16498733 0.42026582 -0.4380013 0.24657845
-0.2696113 -0.06431619 -0.63532954 0.66396105 0.28481302 -0.02827453 -0.6906803 0.60798943
0.7710442 -0.092767864 -0.26601714 0.7122433 0.61465514 -0.5149257 0.680498 0.64011604
-0.50712764 0.09872797 -0.09349428 -0.20046276 0.79745024 -0.26265287 -0.43058458 -0.018872155
-0.048069492 -0.5375332 0.18312192 0.62030435 0.17301849 0.18682258 0.06341434 0.39160657
0.52096593 -0.4240539 -0.034401827 -0.28242928 0.249808 0.029120917 -0.2548223 0.21874848
0.6849724 0.15696505 -0.43949372 -0.29998782 0.14164107 -0.66837907 0.3725257 -0.48977345
-0.6862849 -0.35276905 -0.1421374 0.4293013 -0.5180797 0.74391747 -0.23394383 0.5358157
00000000: a622 773e b8f1 213f 1868 9a3e 8d29 673e
00000010: 70f2 283e 152d d73e b541 e0be 107f 7c3e
00000020: 7e0a 8abe 35b8 83bd f5a4 22bf 5af9 293f
00000030: 03d3 913e fd9f e7bc 6dd0 30bf 32a5 1b3f
00000040: 2763 453f 14fd bdbd 6633 88be 9455 363f
00000050: 0a5a 1d3f 2cd2 03bf 1e35 2e3f a5de 233f
00000060: 1ed3 01bf e431 ca3d ee79 bfbd 1c46 4dbe
00000070: b325 4c3f 707a 86be 9575 dcbe c799 9abc
00000080: 84e4 44bd c79b 09bf 5084 3b3e 44cc 1e3f
00000090: c22b 313e 6b4e 3f3e 61df 813d a880 c83e
000000a0: 065e 053f 981d d9be eee8 0cbd 929a 90be
000000b0: abcd 7f3e fd8e ee3c 1278 82be 9aff 5f3e
000000c0: 5a5a 2f3f 72bb 203e 5205 e1be 0198 99be
000000d0: 5b0a 113e e41a 2bbf b0bb be3e 96c3 fabe
000000e0: 5eb0 2fbf 259e b4be 778c 11be 61cd db3e
000000f0: dfa0 04bf 6071 3e3f f98e 6fbe 382b 093f

fc2.weight f4 [64, 64]
-0.030020406 -0.14194757 0.08076097 0.046759605 0.09194844 0.042516902 -0.08250862 0.06584186
-0.011436546 0.029746728 -0.1160325 -0.06614469 -0.14884798 -0.06456648 0.011087811 -0.12569286
0.0015068119 0.051230192 -0.0045710583 -0.104107134 -0.12422236 -0.055504147 0.020983668 0.10550098
0.05600189 -0.029954426 0.030022614 -0.14490306 -0.14273928 0.04244582 -0.09080123 0.03902708
-0.1065214 -0.07778318 -0.115069255 0.045583226 -0.03520509 0.0803335 0.05527418 0.033129588
-0.020424183 -0.05906918 -0.047867797 -0.0045730034 0.0417922 -0.10344298 0.08902927 -0.033723097
-0.13850294 -0.09777518 0.09472193 0.10037759 -0.13446462 0.068730235 0.032507244 0.05312668
0.081849195 -0.08848731 0.019299384 0.016967075 -0.05797794 0.021128297 -0.05444025 0.056529626
-0.07548725 -0.08569809 0.0062112273 0.007666288 -0.11232061 -0.03426717 0.04090612 -0.017869547
0.010428279 -0.03995087 0.02317749 -0.109982006 -0.08607757 -0.084291756 0.099629425 -0.06788792
-0.022183355 -0.076442026 0.08619339 0.082972 -0.11756293 -0.14682356 -0.12966307 -0.037147757
-0.03186299 -0.10108837 -0.06414803 -0.01948688 -0.087040335 0.006665489 -0.028040629 -0.07414074
-0.03054305 0.08690248 -0.12483647 -0.032049768 -0.0830002 0.10264269 -0.15565789 -0.14091814
0.10643455 -0.090267345 -0.015154478 -0.053671584 -0.03420259 -0.031035628 0.061313793 -0.029633112
-0.17849389 -0.081018165 -0.054432172 0.030971795 -0.10246678 0.08039449 -0.039867096 -0.059986133
0.08297231 0.02599532 0.0672388 0.035337385 -0.08278147 -0.12180781 -0.029117484 0.06553443
0.16315554 0.034805648 0.2264903 0.19635437 0.089466296 0.0355942 -0.10220612 0.09443093
0.12073215 -0.30801582 -0.0974506 0.16509996 0.16101046 0.21451734 -0.30531374 0.011157442
0.07214372 0.38583133 -0.010213622 0.21574803 -0.00646126 -0.13145745 0.26080894 0.30262664
-0.48969418 0.010024504 0.1645887 -0.018833859 0.13892704 -0.14582287 -0.10073164 0.015745405
0.080084264 -0.32840127 0.17587088 0.08959706 0.038637634 -0.07329717 -0.08001421 0.32036555
0.09879984 0.17393637 0.055997696 -0.15616716 0.058752503 0.07762375 -0.13671866 -0.05574891
0.25203222 0.12584503 -0.14272603 -0.20915179 0.012415413 -0.07801808 0.21920036 -0.056092776
0.22463949 -0.14348511 -0.10456813 0.08719803 -0.17683184 0.020511977 -0.17837128 0.19667225
-1.3480954 0.13163131 -1.839756 -0.2866364 -1.1497793 0.1478896 0.6756414 -0.5387197
-0.29744652 0.14417784 0.28634918 -0.2390312 0.21816637 0.1017276 0.14634915 -0.48493642
0.3598068 0.20982327 -0.51722664 -0.42966044 0.022937723 -0.027176844 0.02373365 -0.07659933
0.19287027 0.03389736 -0.47239906 0.02294497 -0.30857077 0.28919157 -0.05968462 -0.013633129
-2.0426252 0.12634985 0.3094877 -0.32162586 -0.84251744 0.08858129 0.94148314 -0.4091322
0.20916219 -0.5947748 -0.6157819 -1.3189428 -0.13415006 0.2674905 0.019065695 0.25877044
0.10799833 -0.1786403 0.30809876 -0.35599983 -0.5041102 0.106493786 0.086978845 0.6665164
-1.1168889 0.005494791 -0.56975955 -0.29584306 -1.7730249 -1.2316874 0.17685768 -0.25303164
00000000: 5bed f5bc b45a 11be 0266 a53d 0087 3f3d
00000010: 774f bc3d 3426 2e3d 48fa a8bd 19d8 863d
00000020: 5a60 3bbc 69af f33c 73a2 edbd de76 87bd
00000030: 9b6b 18be 6e3b 84bd a6a9 353c a1b5 00be
00000040: 3880 c53a c0d6 513d d1c8 95bb 1f36 d5bd
00000050: 4b68 febd 5158 63bd f1e5 ab3c e610 d83d
00000060: 3d62 653d fc62 f5bc fcf1 f53c 7861 14be
00000070: 3f2a 12be abdb 2d3d fff5 b9bd dcda 1f3d
00000080: e427 dabd ca4c 9fbd 6ea9 ebbd 7ab5 3a3d
00000090: 3633 10bd e485 a43d 2e67 623d e4b2 073d
000000a0: 9e50 a7bc 86f2 71bd 0611 44bd 22d9 95bb
000000b0: 4c2e 2b3d ead9 d3bd fa54 b63d 3b21 0abd
000000c0: b7d3 0dbe 5b3e c8bd 92fd c13d c492 cd3d
000000d0: 18b1 09be 70c2 8c3d 5126 053d 5d9b 593d
000000e0: 8da0 a73d d638 b5bd be19 9e3c 89fe 8a3c
000000f0: 477a 6dbd 4015 ad3c bdfc 5ebd 9c8b 673d
00000100: 0f99 9abd 7b82 afbd 8d87 cb3b 7c35 fb3b
00000110: 5908 e6bd bb5b 0cbd 2d8d 273d 2863 92bc
00000120: 5fdb 2a3c 86a3 23bd b8de bd3c 3f3e e1bd
00000130: 7049 b0bd 28a1 acbd 830a cc3d d208 8bbd
00000140: deb9 b5bc a38d 9cbd 2986 b03d 39ed a93d
00000150: d5c4 f0bd ea58 16be 65c6 04be 3f28 18bd
00000160: c482 02bd 6b07 cfbd 0b60 83bd f3a2 9fbc
00000170: 3442 b2bd 2d6a da3b 76b5 e5bc 1ad7 97bd
00000180: 6b35 fabc edf9 b13d 43aa ffbd 9e46 03bd
00000190: 02fc a9bd 5536 d23d c864 1fbe d84c 10be
000001a0: 5bfa d93d 16de b8bd 7d4a 78bc bcd6 5bbd
000001b0: 0418 0cbd 6e3e febc 2c24 7b3d 24c1 f2bc
000001c0: 1ac7 36be daec a5bd 45f4 5ebd 90b8 fd3c
000001d0: 1ada d1bd dea5 a43d ae4b 23bd 05b4 75bd
000001e0: 63ed a93d 23f4 d43c 7fb4 893d efbd 103d
000001f0: 5589 a9bd 6076 f9bd ca87 eebc ea36 863d
00000200: 3f12 273e 5e90 0e3d 13ed 673e 1f11 493e
00000210: 1b3a b73d 39cb 113d 7151 d1bd 0165 c13d
00000220: 6b42 f73d 40b4 9dbe 2e94 c7bd f70f 293e
00000230: eddf 243e 6faa 5b3e 1552 9cbe b4cd 363c
00000240: 16c0 933d af8b c53e 0957 27bc 0ded 5c3e
00000250: fab8 d3bb c89c 06be c088 853e e1f1 9a3e
00000260: 32b9 fabe d13d 243c f189 283e 7749 9abc
00000270: e442 0e3e 9752 15be 644c cebd 82fc 803c
00000280: 3803 a43d 3624 a8be 7f17 343e aa7e b73d
00000290: 7f42 1e3d d41c 96bd 7dde a3bd f406 a43e
000002a0: 9257 ca3d 601c 323e d75d 653d 49ea 1fbe
000002b0: 77a6 703d 33f9 9e3d faff 0bbe f858 64bd
000002c0: 5e0a 813e 85dd 003e c626 12be e32b 56be
000002d0: 046a 4b3c f1c7 9fbd 0f76 603e 8ac1 65bd
000002e0: e507 663e c3ed 12be d127 d6bd e194 b23d
000002f0: 6813 35be bc08 a83c f6a6 36be 7364 493e
00000300: 648e acbf 5cca 063e 207d ebbf 02c2 92be
00000310: f82b 93bf 5f70 173e d6f6 2c3f 89e9 09bf
00000320: e94a 98be 5ba3 133e 5c9c 923e 98c4 74be
00000330: 0167 5f3e 8f56 d03d 8ddc 153e 9649 f8be
00000340: 9938 b83e e9db 563e f768 04bf 74fc dbbe
00000350: e4e7 bb3c f9a1 debc 126d c23c 1ce0 9cbd
00000360: c97f 453e f5d7 0a3d 4ade f1be 17f7 bb3c
00000370: fdfc 9dbe eb10 943e dc77 74bd 7d5d 5fbc
00000380: 5fba 02c0 db61 013e 2c75 9e3e 25ac a4be
00000390: 39af 57bf 1b6a b53d 0a05 713f c779 d1be
000003a0: 9d2e 563e 2943 18bf e2a3 1dbf 1ed3 a8bf
000003b0: a25e 09be 84f4 883e a92f 9c3c 8f7d 843e
000003c0: 3a2e dd3d 7ced 36be 1fbf 9d3e 9c45 b6be
000003d0: 5e0d 01bf 6a19 da3d f721 b23d d2a0 2a3f
000003e0: 37f6 8ebf a60d b43b c3db 11bf be78 97be
000003f0: 7bf2 e2bf efa7 9dbf 2e1a 353e 5d8d 81be

fc2.bias f4 [64]
-0.13806535 0.024026103 0.14621063 -0.01417116 0.022456404 0.3017927 0.3304225 0.033786587
0.18032826 0.21315758 0.061993413 0.25324786 0.08159504 0.20309138 0.23794046 -0.1106598
-0.10664197 0.38089907 0.35744208 -0.12378389 0.12836741 0.11861641 0.027605804 0.38310137
-0.028646452 -0.1362805 0.19454876 0.21763869 0.31051517 0.19047064 0.26052877 0.003187328
0.23415783 -0.08137238 0.09256934 0.39347804 0.0801473 -0.10645254 0.13798775 0.1301181
-0.031910192 -0.06643458 0.09416078 0.3896551 0.3455181 0.23956205 0.3359796 -0.01015838
-0.1559472 0.14070229 -0.05768083 0.3351841 -0.04154144 -0.049705226 0.21193989 -0.035328846
0.28644398 0.19315991 0.27402052 0.289128 0.3444084 0.36893708 0.130235 0.29042628
00000000: 0161 0dbe 64d2 c43c 3db8 153e 272e 68bc
00000010: 7ef6 b73c 9384 9a3e 232d a93e ce63 0a3d
00000020: f9a7 383e fb45 5a3e ceec 7d3d b4a9 813e
00000030: 4d1b a73d 30f7 4f3e aaa6 733e 9ba1 e2bd
00000040: 1b67 dabd 3405 c33e a602 b73e 6882 fdbd
00000050: bf72 033e 29ed f23d 9125 e23c dd25 c43e
00000060: f7ab eabc 1e8d 0bbe ca37 473e addc 5e3e
00000070: d8fb 9e3e bc0a 433e 0764 853e 7ee2 503b
00000080: 12c7 6f3e 90a6 a6bd fe94 bd3d f475 c93e
00000090: 4524 a43d ca03 dabd a94c 0d3e ae3d 053e
000000a0: 43b4 02bd da0e 88bd 5ed7 c03d e080 c73e
000000b0: c0e7 b03e c14f 753e 8505 ac3e 556f 26bc
000000c0: 9fb0 1fbe 4314 103e bc42 6cbd 409d ab3e
000000d0: 5b27 2abd b597 4bbd c506 593e fbb4 10bd
000000e0: c9a8 923e b6cb 453e 6b4c 8c3e 9608 943e
000000f0: 4c56 b03e 52e5 bc3e 535c 053e c1b2 943e

fc3.weight f4 [3, 64]
0.092650115 0.08250683 -0.13585821 1.1535054 0.963231 -0.3004639 -0.49925208 -1.1365404
-0.24824579 -0.21622452 1.3060601 -0.24295498 -0.14357103 -0.20498945 -0.23863201 0.061188515
1.2332891 -0.20402527 -0.24081172 1.062645 -0.2900624 1.182339 0.08812094 -0.19454819
0.9330017 0.09381843 -0.23958957 -0.2588827 -0.17472474 -0.11229263 0.60875314 0.954845
-0.19718882 0.70785165 0.066693746 -0.4784613 -1.095277 -0.0043613743 -0.21090621 -0.77426124
0.76977164 0.27060154 1.2888937 -0.2071533 -0.42342314 -0.33732098 -0.3101865 -0.08873828
-0.8681648 -0.67474586 -1.357168 -0.17306155 1.2751719 0.66633344 -0.30951867 -0.17887886
-0.20356 -0.37320504 -0.20494673 -0.28419808 -0.13988733 -0.19911994 -0.32818764 -0.15651157
0.009426984 -0.13832603 -0.24929856 0.9921464 0.7904541 -0.19540228 -0.1863724 -0.99316883
-0.1681142 -0.27892336 1.2465919 -0.33877304 -0.24971475 -0.21292615 -0.18603249 0.09776826
1.0679516 -0.22554298 -0.17405416 1.1398416 -0.18579976 0.49621522 -0.042708702 -0.36040896
0.76668054 -0.09765471 -0.24623059 -0.24086095 -0.1568381 -0.31959623 0.6771388 1.1802106
-0.25270674 0.6908136 -0.048874803 -0.5864549 -0.87163 0.052556757 -0.29825005 -0.6746557
0.74234515 0.09895465 1.0904558 -0.26889575 -0.38370937 -0.0880002 -0.2738847 0.01224431
-0.5571484 -0.6947435 -0.99004364 -0.29099536 1.0647919 0.67293155 -0.18641505 -0.40876713
-0.16658191 -0.1559469 -0.28522155 -0.2388601 -0.3136048 -0.32260537 -0.22050346 -0.09156581
-0.0029364226 -0.0004179669 -0.19481942 0.9273337 0.6903431 -0.25669828 -0.1644743 -0.9827351
-0.27901968 -0.17094953 1.1310952 -0.3506527 -0.17274542 -0.24016182 -0.2268608 0.018422008
1.264001 -0.22051656 -0.16665876 0.93476933 -0.18741143 0.8502299 0.10047857 -0.4755033
0.54786146 0.09165919 -0.050099824 -0.2373203 -0.40634456 -0.27713755 0.82143074 1.4119436
-0.2841693 0.8321502 0.0075233346 -0.6595331 -1.0040051 0.048627693 -0.17404498 -0.6982145
0.6812887 0.09087544 1.2400433 -0.1825916 -0.3708368 -0.18500099 -0.12765053 -0.049168944
-0.60752696 -0.76376325 -1.2840539 -0.1753568 1.2354639 0.62355405 -0.16915348 -0.49495074
-0.23108187 -0.2121849 -0.21805131 -0.26015097 -0.22839887 -0.20697471 -0.3542618 -0.25103208
00000000: 58bf bd3d 57f9 a83d 6a1e 0bbe 11a6 933f
00000010: 4f96 763f 68d6 99be f89d ffbe 287a 91bf
00000020: 2534 7ebe f669 5dbe fa2c a73f 31c9 78be
00000030: 4904 13be c1e8 51be f35b 74be cfa0 7a3d
00000040: 6bdc 9d3f 00ec 50be 5997 76be c004 883f
00000050: 0f83 94be e256 973f c078 b43d a437 47be
00000060: 33d9 6e3f e123 c03d f856 75be 468c 84be
00000070: 0beb 32be aef9 e5bd 3fd7 1b3f b970 743f
00000080: deeb 49be c435 353f bb96 883d e1f8 f4be
00000090: 0932 8cbf dce9 8ebb ccf7 57be fc35 46bf
000000a0: c10f 453f 498c 8a3e 78fa a43f ff1f 54be
000000b0: ebca d8be 56b5 acbe c4d0 9ebe 6abc b5bd
000000c0: 0c40 5ebf 25bc 2cbf aeb7 adbf 0c37 31be
000000d0: d538 a33f d494 2a3f 3b79 9ebe 052c 37be
000000e0: 0872 50be bb14 bfbe 8edd 51be 6982 91be
000000f0: a03e 0fbe 19e6 4bbe 3608 a8be 9244 20be
00000100: a373 1a3c 57a5 0dbe 1f48 7fbe 4efd 7d3f
00000110: 335b 4a3f 8917 48be 68d8 3ebe 5040 7ebf
00000120: 2126 2cbe 0bcf 8ebe 5390 9f3f a973 adbe
00000130: 39b5 7fbe 5009 5abe 4d7f 3ebe ba3a c83d
00000140: a3b2 883f bdf4 66be 413b 32be 54e6 913f
00000150: 4b42 3ebe ec0f fe3e 52ef 2ebd 8687 b8be
00000160: 2d45 443f 31ff c7bd df23 7cbe 41a4 76be
00000170: 2b9a 20be 1ea2 a3be f858 2d3f 2411 973f
00000180: c762 81be 29d9 303f f230 48bd e921 16bf
00000190: 2523 5fbf c145 573d 3bb4 98be 3cb6 2cbf
000001a0: 550a 3e3f bca8 ca3d 0e94 8b3f b4ac 89be
000001b0: 8e75 c4be 7339 b4bd 9e3a 8cbe 5c9c 483c
000001c0: 47a1 0ebf b6da 31bf 8073 7dbf 58fd 94be
000001d0: 1a4b 883f 3e45 2c3f 96e3 3ebe ed49 d1be
000001e0: 7394 2abe 8bb0 1fbe 8f08 92be be97 74be
000001f0: cf90 a0be 882c a5be a9cb 61be db86 bbbd
00000200: ff70 40bb 9122 dbb9 be7e 47be be65 6d3f
00000210: 53ba 303f f56d 83be f36b 28be 8794 7bbf
00000220: abdb 8ebe 650d 2fbe bac7 903f c088 b3be
00000230: 2de4 30be fbec 75be 334e 68be c0e9 963c
00000240: c9ca a13f 18cf 61be 98a8 2abe 0b4d 6f3f
00000250: c8e8 3fbe aba8 593f b5c7 cd3d 2b75 f3be
00000260: a640 0c3f d0b7 bb3d 7935 4dbd 1804 73be
00000270: 650c d0be f9e4 8dbe 4949 523f 91ba b43f
00000280: a37e 91be cc07 553f 4e86 f63b 29d7 28bf
00000290: 3d83 80bf d52d 473d d938 32be 2fbe 32bf
000002a0: f068 2e3f e71c ba3d bdb9 9e3f 4bf9 3abe
000002b0: 52de bdbe e670 3dbe d2b6 02be 6065 49bd
000002c0: e386 1bbf fd85 43bf e15b a4bf bc90 33be
000002d0: ae23 9e3f 3da1 1f3f 9236 2dbe 2f6a fdbe
000002e0: baa0 6cbe 0047 59be d848 5fbe 8232 85be
000002f0: 65e1 69be 2ef1 53be cd61 b5be 4787 80be

fc3.bias f4 [3]
-0.050465424 -0.25075397 -0.09838858
00000000: d5b4 4ebd d362 80be f47f c9bd
