model/checkpoint_8200.pth (torch, 21912 bytes, 6 tensors)

fc1.weight f4 [64, 6]
0	0x3eab4cf6	0.33457154
1	0x3f5e957f	0.8694686
2	0xbe63b5a7	-0.22237264
3	0xbf21f8cc	-0.6327026
4	0xbdb5cc45	-0.08876852
5	0x3e8bd2ec	0.27309358
6	0x3ed9bb72	0.42525822
7	0x3f9b94c9	1.2154781
8	0xbeb72d12	-0.35776573
9	0x3e12b2c8	0.14326012
10	0xbd8a6ee4	-0.06759432
11	0x3dd99104	0.10623363
12	0xbf385181	-0.71999365
13	0xbea0542c	-0.31314218
14	0xbf87983c	-1.0593333
15	0x3e02cc82	0.12773326
16	0x3e13cee0	0.14434385
17	0x3e450104	0.19238669
18	0xbdd4834b	-0.10376605
19	0xbf428a61	-0.759924
20	0xbd30b32d	-0.043139625
21	0x3f9bcfc2	1.2172778
22	0x3e725304	0.2366448
23	0x3e8b2524	0.27176774
24	0xbe46e422	-0.19422963
25	0x3f8cd443	1.1002277
26	0x3f412e4e	0.7546128
27	0xbee082ed	-0.43849888
28	0xbec88b08	-0.39168572
29	0x3e09a006	0.1343995
30	0xbef4ac95	-0.4778792
31	0x3f66376d	0.89928323
32	0xbf235dc5	-0.63814956
33	0xbef15e8e	-0.47142452
34	0xbf02cfeb	-0.5109851
35	0xbec315cd	-0.3810257
36	0xbfbf021c	-1.4922519
37	0xbeaa66d7	-0.33281586
38	0x3f6cdaeb	0.9252154
39	0xbe5f0823	-0.21780448
40	0xbec9b0f3	-0.39392814
41	0xbdd6766b	-0.10471805
42	0xbe8307e1	-0.2559195
43	0xbf717166	-0.9431366
44	0xbf6aa31c	-0.91655135
45	0xbee0aa56	-0.43879956
46	0x3e327cd2	0.17430428
47	0xbe56ac6f	-0.20964216
48	0xbf5e6c12	-0.8688365
49	0xbfc6be96	-1.5526912
50	0x3fbb0d0a	1.4613354
51	0x3ebb35da	0.36564523
52	0x3e84be7c	0.25926578
53	0x3cd94816	0.026523631
54	0xbeafe1bc	-0.3435191
55	0xbf76e023	-0.96435755
56	0xbd4c5fc9	-0.049896035
57	0xbb07ab80	-0.0020701587
58	0xbea15890	-0.3151288
59	0xbee8b522	-0.45450693
60	0x3e91a956	0.28449506
61	0xbe839650	-0.25700617
62	0x3f5b05d5	0.85555774
63	0x3d0abf1b	0.03387366
64	0x3f3f7743	0.74791354
65	0x3e936e40	0.28795052
66	0x3ebdc55d	0.3706464
67	0xbf061ad0	-0.5238466
68	0x3e9a3306	0.30117053
69	0x3e8bdc9d	0.27316752
70	0xbeb47732	-0.3524719
71	0xbe36f185	-0.1786557
72	0x3f56a4b2	0.83845055
73	0x3dc1e859	0.09468145
74	0x3f08830c	0.5332496
75	0x3fa1ca32	1.263983
76	0xbe46978e	-0.19393751
77	0xbef3fd4f	-0.47654197
78	0x3d40c09b	0.047058683
79	0xbfb8ec3e	-1.4447095
80	0xbf4c3661	-0.79770476
81	0x3f8a443c	1.0802073
82	0x3d9791dc	0.07400867
83	0xbef2b32d	-0.47402325
84	0xbe42560d	-0.18978138
85	0x3eb2ee1f	0.34947297
86	0xbf33b559	-0.7019859
87	0x3f182677	0.5943369
88	0x3eb63f56	0.35595196
89	0xbe40a03b	-0.18811123
90	0x3f84f377	1.03868
91	0x3f1bf9c0	0.60927963
92	0x3e7cca54	0.24686557
93	0xbdb364da	-0.0875947
94	0xbee131ab	-0.43983206
95	0xbe20cf3e	-0.15704057
96	0x3ebe646a	0.37185985
97	0x3f274e98	0.653543
98	0xbf430452	-0.7617847
99	0xbf635039	-0.88794285
100	0x3f21be75	0.6318124
101	0x3ec1c598	0.37846065
102	0xbf9053cb	-1.1275572
103	0x3e2d349b	0.16914599
104	0xbf79db11	-0.97599894
105	0x3ddc959d	0.10770724
106	0xbe790124	-0.24316841
107	0xbe842d3d	-0.25815764
108	0xbeb514d3	-0.3536745
109	0x3e81d861	0.25360397
110	0x3e874b74	0.26424754
111	0xbf5b4319	-0.8564926
112	0xbef9e44d	-0.48806992
113	0x3eadafee	0.33923286
114	0x3f8a367d	1.0797879
115	0x3d4cf35f	0.050036784
116	0xbec118c5	-0.3771421
117	0xbe9d8386	-0.30764407
118	0x3e9f878b	0.311581
119	0x3e6c3bbe	0.23069665
120	0x3f353ee9	0.7079912
121	0x3ec35726	0.38152426
122	0xbecd7e4d	-0.40135422
123	0x3f38107c	0.71900153
124	0xbecb15d4	-0.3966509
125	0xbe70b785	-0.23507507
126	0xbf59c097	-0.85059494
127	0xbf5cc82d	-0.86242944
128	0xbc526bc9	-0.012843081
129	0xbf07c05b	-0.53027886
130	0xbe70099e	-0.23441169
131	0xbe463551	-0.19356276
132	0xbeb3c966	-0.35114592
133	0xbf4b538e	-0.7942437
134	0x3e8526b5	0.26006094
135	0xbf04d1af	-0.5188245
136	0x3e525954	0.20541888
137	0x3d04c95c	0.032418594
138	0x3e994781	0.29937366
139	0x3e854e52	0.26036316
140	0x3f30f16c	0.6911838
141	0x3edec165	0.43506923
142	0x3e4e56ac	0.2015025
143	0x3e783b8f	0.2424147
144	0xbf27547d	-0.65363294
145	0x3f2615c9	0.6487699
146	0xbe4b02f2	-0.19825342
147	0x3ee31f66	0.44359893
148	0xbeb763e3	-0.35818395
149	0xbeba54c7	-0.36392805
150	0x3e7b80a4	0.24560791
151	0xbf62ce4b	-0.8859603
152	0x3dd171b2	0.10226764
153	0x3fcf9806	1.6218269
154	0xbe751c7b	-0.23936646
155	0xbeb80202	-0.35939032
156	0xbc4c8d3f	-0.012484848
157	0xbf988454	-1.1915383
158	0xbe157fcd	-0.14599533
159	0xbd33182a	-0.043724217
160	0xbeebd246	-0.46058863
161	0xbefd1ead	-0.49437466
162	0xbf0425b2	-0.5162002
163	0xbef964c0	-0.4870968
164	0xbf4c4e94	-0.798074
165	0xbf36b5bc	-0.71371055
166	0xbebf86b0	-0.37407446
167	0x3e4b6554	0.19862872
168	0x3d1bd641	0.038046125
169	0xbe4ad117	-0.19806324
170	0x3ec2ebb7	0.3807046
171	0xbf19f0f1	-0.6013327
172	0x3e09bbb2	0.13450506
173	0x3e6fe887	0.23428546
174	0xbecdabf8	-0.40170264
175	0x3e16e2dd	0.14734979
176	0xbf260d02	-0.648636
177	0x3fa6d482	1.3033602
178	0x3eb91cc1	0.3615475
179	0xbeb24efa	-0.3482588
180	0xbeb7df82	-0.3591271
181	0xbdb28685	-0.08717064
182	0x3f08cd9f	0.5343875
183	0x3bb4ff40	0.0055235922
184	0x3f3824db	0.71931237
185	0x3ed856e4	0.42253792
186	0xbf020365	-0.5078643
187	0x3e40f570	0.18843627
188	0xbf4212ab	-0.75809735
189	0x3eff7bd9	0.49899176
190	0x3eef80fb	0.46778092
191	0x3ee07806	0.4384157
192	0x388b3fae	6.639898e-05
193	0x3f8363f3	1.0264877
194	0xbf8c6066	-1.0966918
195	0xbf0b11f3	-0.54324263
196	0xbc163d37	-0.009169868
197	0x3ea56a8a	0.32307845
198	0xbf135bae	-0.5756177
199	0x3f225432	0.6340972
200	0x3e50101b	0.20318644
201	0x3d538cca	0.05164794
202	0xbf4a7418	-0.79083395
203	0xbed0a82f	-0.40753314
204	0xbf124ab2	-0.57145226
205	0xbf117598	-0.5682006
206	0xbeb9e059	-0.36303976
207	0x3f6d4ae4	0.926924
208	0x3c6e23da	0.014534915
209	0xbe81eeb6	-0.25377434
210	0x3d85e002	0.06536867
211	0x3d09ba83	0.033625137
212	0xbeda9e9e	-0.4269914
213	0x3d969a21	0.073536165
214	0x3e6a0fdf	0.22857617
215	0x3e632530	0.22182155
216	0x3f81f9ff	1.0154418
217	0x3f878fcf	1.0590762
218	0x3f96ea62	1.1790278
219	0xbfbda785	-1.4816748
220	0x3ea0d227	0.31410334
221	0x3f376e22	0.71652424
222	0x3f8304b3	1.0235809
223	0xbec2cc4a	-0.38046485
224	0xbfb02434	-1.3761048
225	0xbdc1e712	-0.09467901
226	0xbdf72672	-0.1206788
227	0xbcf3c97e	-0.029759165
228	0xbf9c7ee7	-1.2226228
229	0x3f3e0b6b	0.7423617
230	0xbea1a0a4	-0.31567872
231	0x3f2612e7	0.6487259
232	0x3ed0f78a	0.40813857
233	0x3ebcb5a1	0.36857322
234	0x3f3e1f50	0.7426653
235	0x3d0231c9	0.03178576
236	0x3f3621c3	0.71145266
237	0xbf17b22b	-0.5925624
238	0xbe5a74b5	-0.21333583
239	0xbe5d9ce2	-0.21641877
240	0xbecad033	-0.39611968
241	0x3f20c20b	0.62796086
242	0xbda7c6a4	-0.081921846
243	0xbe1bbedc	-0.15209526
244	0x3d8472b4	0.064671904
245	0xbe999faf	-0.3000464
246	0x3f68fea8	0.91013575
247	0xbf49c005	-0.78808624
248	0x3f05d462	0.52277195
249	0xbedb4162	-0.4282332
250	0xbf18199d	-0.5941408
251	0xbe3f285f	-0.18667744
252	0x3f4af445	0.79278976
253	0xbee24d47	-0.44199583
254	0xbf40acbc	-0.7526357
255	0xbf06c0cd	-0.5263794

fc1.bias f4 [64]
0	0x3ea1186a	0.3146394
1	0x3ee0b236	0.43885964
2	0x3ecb5f96	0.39721364
3	0xbc5deed0	-0.013545707
4	0x3edc8041	0.430666
5	0x3ed4955a	0.41520196
6	0xbf5172ca	-0.8181578
7	0xbe040abe	-0.12894723
8	0xbf0fecff	-0.56221
9	0x3e85a800	0.26104736
10	0xbef50131	-0.4785247
11	0x3f710ac2	0.9415704
12	0x3cdf1321	0.027230801
13	0xbcad5d90	-0.021162778
14	0xbfabdb3a	-1.3426278
15	0x3ed1eba3	0.4100009
16	0x3f215e2a	0.6303431
17	0xbe5ef6af	-0.2177379
18	0xbab01aef	-0.0013435761
19	0x3f1b366e	0.6062993
20	0x3f5729e8	0.8404832
21	0xbf6006b2	-0.87510216
22	0x3f3977a9	0.7244821
23	0x3f5bf17e	0.8591536
24	0xbe1662e2	-0.14686158
25	0xbd7a8b67	-0.0611681
26	0x3a749bdf	0.0009331088
27	0xbf13696b	-0.5758273
28	0x3f8bff02	1.0937197
29	0xbf21faf3	-0.63273543
30	0xbf462827	-0.7740502
31	0xbe83cc56	-0.25741833
32	0xbef6a004	-0.48168957
33	0xbf3e250c	-0.7427528
34	0x3eb71ec6	0.35765666
35	0x3f4df7d1	0.8045626
36	0x3f4408e2	0.76576054
37	0xbd56e288	-0.05246213
38	0xbebbae7b	-0.36656556
39	0x3eff4961	0.4986067
40	0x3eda2051	0.4260278
41	0xbf0047b3	-0.50109404
42	0x3d674936	0.056466304
43	0xbf3c5fb3	-0.73583525
44	0x3ecda9b8	0.40168548
45	0xbe086593	-0.13319997
46	0xbf031908	-0.5121007
47	0x3cc8542b	0.024454197
48	0x3f42cd79	0.76094776
49	0x3eb8f670	0.36125517
50	0xbe56272e	-0.20913383
51	0xbd0935cf	-0.03349858
52	0x3ede52f4	0.43422663
53	0xbf68b0ff	-0.90895075
54	0x3e96c689	0.29448345
55	0xbefafe25	-0.49022022
56	0xbf55809f	-0.83399385
57	0xbf2a9f19	-0.66649014
58	0xbf62d734	-0.88609624
59	0x3f3b4f07	0.7316746
60	0xbf4bc224	-0.7959311
61	0x3f350fb9	0.70727116
62	0x3c8e9dd3	0.01740924
63	0x3eff2dbc	0.4983958

fc2.weight f4 [64, 64]
0	0xbd45e2c6	-0.04831197
1	0xbe236beb	-0.15959136
2	0x3da05e4b	0.07830485
3	0x3d006a9d	0.031351674
4	0x3d94e2dc	0.072698325
5	0x3d2e2634	0.042516902
6	0xbda8c5d1	-0.082408555
7	0x3d86d819	0.06584186
8	0xbc3a9453	-0.011387902
9	0x3cf3af69	0.029746728
10	0xbdeda273	-0.1160325
11	0xbdad375d	-0.08457825
12	0xbe186b9b	-0.14884798
13	0xbd843b6e	-0.06456648
14	0x3c35a9a6	0.011087811
15	0xbe0a4bd0	-0.13505483
16	0x3ac58038	0.0015068119
17	0x3d51d6c0	0.051230192
18	0xbcc0f09c	-0.023552231
19	0xbdf8c77b	-0.12147423
20	0xbe12c16a	-0.14331594
21	0xbd635851	-0.055504147
22	0x3b450375	0.0030061875
23	0x3db20b16	0.08693521
24	0x3d65623d	0.05600189
25	0xbcf39ad5	-0.029736916
26	0x3cf5f1fc	0.030022614
27	0xbe20c856	-0.15701422
28	0xbe25f355	-0.16206105
29	0x3d2ddbab	0.04244582
30	0xbdda7884	-0.10667518
31	0x3ca56a52	0.020192299
32	0xbdff0f3c	-0.124540776
33	0xbd9f4cca	-0.07778318
34	0xbdeb7bec	-0.114982456
35	0x3cd72afe	0.026265617
36	0xbd4f2d8f	-0.050580557
37	0x3da485e4	0.0803335
38	0x3d1553b1	0.036456767
39	0x3c8dd177	0.017311795
40	0xbca7509e	-0.020424183
41	0xbd9ca265	-0.07648162
42	0xbd896c80	-0.06710148
43	0xbc8ca2fe	-0.017167564
44	0x3cbd1dbf	0.023085473
45	0xbdd3d9ea	-0.10344298
46	0x3db654fa	0.08902927
47	0xbd5ac11f	-0.05340683
48	0xbe0dd3b7	-0.13850294
49	0xbdc83e5b	-0.09777518
50	0x3dc1fd92	0.09472193
51	0x3da5c27a	0.08093734
52	0xbe089e3a	-0.13341609
53	0x3d4d30df	0.050095435
54	0x3c884563	0.016634649
55	0x3d0fca33	0.03510494
56	0x3da7a08d	0.081849195
57	0xbdc7ca05	-0.09755329
58	0x3aa86b44	0.001284935
59	0xbadc086f	-0.0016787181
60	0xbd996ea7	-0.074918084
61	0x3b354ba7	0.00276635
62	0xbd5efcbd	-0.05444025
63	0x3d243fef	0.040100034
64	0xbd9a990f	-0.07548725
65	0xbdaf827b	-0.08569809
66	0x3bcb878d	0.0062112273
67	0x3bfb357c	0.007666288
68	0xbde60859	-0.11232061
69	0xbd0c5bbb	-0.03426717
70	0x3d278d2d	0.04090612
71	0xbc926328	-0.017869547
72	0x3c2adb5f	0.010428279
73	0xbd23a386	-0.03995087
74	0x3cbddeb8	0.02317749
75	0xbde13e3f	-0.109982006
76	0xbdb04970	-0.08607757
77	0xbdaca128	-0.084291756
78	0x3dcc0a83	0.099629425
79	0xbd8b08d2	-0.06788792
80	0xbcb5b9de	-0.022183355
81	0xbd9c8da3	-0.076442026
82	0x3db08629	0.08619339
83	0x3da9ed39	0.082972
84	0xbdf0c4d5	-0.11756293
85	0xbe1658ea	-0.14682356
86	0xbe04c665	-0.12966307
87	0xbd18283f	-0.037147757
88	0xbd0282c4	-0.03186299
89	0xbdcf076b	-0.10108837
90	0xbd83600b	-0.06414803
91	0xbc9fa2f3	-0.01948688
92	0xbdb24234	-0.087040335
93	0x3bda6a2d	0.006665489
94	0xbce5b576	-0.028040629
95	0xbd97d71a	-0.07414074
96	0xbcfa356b	-0.03054305
97	0x3db1f9ed	0.08690248
98	0xbdffaa43	-0.12483647
99	0xbd03469e	-0.032049768
100	0xbda9fc02	-0.0830002
101	0x3dd23655	0.10264269
102	0xbe1f64c8	-0.15565789
103	0xbe104cd8	-0.14091814
104	0x3dd9fa5b	0.10643455
105	0xbdb8de16	-0.090267345
106	0xbc784a7d	-0.015154478
107	0xbd5bd6bc	-0.053671584
108	0xbd0c1804	-0.03420259
109	0xbcfe3e6e	-0.031035628
110	0x3d7b242c	0.061313793
111	0xbcf2c124	-0.029633112
112	0xbe36c71a	-0.17849389
113	0xbda5ecda	-0.081018165
114	0xbd5ef445	-0.054432172
115	0x3cfdb890	0.030971795
116	0xbdd1da1a	-0.10246678
117	0x3da4a5de	0.08039449
118	0xbd234bae	-0.039867096
119	0xbd75b405	-0.059986133
120	0x3da9ed63	0.08297231
121	0x3cd4f423	0.02599532
122	0x3d89b47f	0.0672388
123	0x3d10bdef	0.035337385
124	0xbda98955	-0.08278147
125	0xbdf97660	-0.12180781
126	0xbcee87ca	-0.029117484
127	0x3d8636ea	0.06553443
128	0x3e53abb8	0.20670974
129	0x3cca0d05	0.024664411
130	0x3e882bcc	0.26595914
131	0x3e141194	0.1445983
132	0xbd67cde5	-0.05659284
133	0x3ecf7e3e	0.40526003
134	0xbe264413	-0.16236906
135	0xbe2cfd84	-0.16893584
136	0x3cf1670f	0.029468087
137	0xbf26186b	-0.6488101
138	0xbe187522	-0.14888433
139	0x3edb54e1	0.42838195
140	0x3eaecc02	0.3414002
141	0x3e478b92	0.19486836
142	0xbf1e525e	-0.6184443
143	0xbea60dab	-0.32432303
144	0x3e17df61	0.14831306
145	0x3f56fe48	0.8398175
146	0x3df28847	0.11842399
147	0x3eb72dc6	0.3577711
148	0x3e967363	0.29384908
149	0xbe71bddd	-0.23607583
150	0x3d953b13	0.07286658
151	0x3e864170	0.262218
152	0xbeb1976d	-0.3468584
153	0x3b817562	0.0039507607
154	0x3d3845a0	0.044988275
155	0x3db86ae0	0.0900476
156	0x3e3bdaae	0.18345138
157	0xbdbfb5b7	-0.09360831
158	0x3aa1f9b0	0.0012357738
159	0xbe2fedb4	-0.1718052
160	0x3ece679c	0.40313423
161	0xbf80c0ad	-1.00588
162	0x3ef93e74	0.4868046
163	0x3e8f7c24	0.280244
164	0x3da8e0d5	0.08246008
165	0xbedf34d2	-0.43594986
166	0xbe5b384d	-0.21408196
167	0xbcc0de14	-0.023543395
168	0xbb8f5eec	-0.0043753292
169	0xbf72904a	-0.9475142
170	0xbc6431ce	-0.01392789
171	0x3e2b2938	0.16714942
172	0xbcf61917	-0.03004126
173	0x3e254102	0.1613808
174	0xbec674cc	-0.38760984
175	0x3e1fbbd3	0.15598993
176	0x3e8b62f8	0.27223945
177	0xbe6a43ef	-0.22877477
178	0x3d33fe9b	0.043943983
179	0xbe8b95a8	-0.27262616
180	0x3e2c9b74	0.16856176
181	0xbbb00a03	-0.0053722872
182	0x3e4a4ecc	0.19756621
183	0xbd3bb1db	-0.045823913
184	0xbdfdfcf6	-0.12401764
185	0xbf2d8693	-0.6778347
186	0x3e8dab08	0.2766955
187	0xbe6271cd	-0.22113724
188	0xbea91ef6	-0.33031434
189	0x3e663d3f	0.22484301
190	0xbec5d303	-0.38637552
191	0xbd690f4e	-0.05689936
192	0xc02beda8	-2.6863804
193	0xbed5c70f	-0.41753432
194	0xbf3602b5	-0.7109788
195	0xbee24c8f	-0.44199035
196	0xbf2b9e65	-0.67038566
197	0x3e438e50	0.19097257
198	0x3f4db177	0.80348915
199	0xbe9d3c41	-0.30710033
200	0xbff11897	-1.8835629
201	0x3ed4012c	0.41407144
202	0x3e8c0826	0.27349967
203	0xbeb075ef	-0.34464976
204	0x3e58f3b1	0.21186711
205	0x3dc81328	0.09769279
206	0x3e7a6f1d	0.24456449
207	0xbefc0b17	-0.4922721
208	0x3ed7861c	0.42094505
209	0x3e348a08	0.1763078
210	0xbf039887	-0.51404613
211	0xbf222539	-0.6333805
212	0x3a858432	0.0010186492
213	0xbf4be5e3	-0.79647654
214	0x3e16dc4b	0.14732473
215	0xbdc43954	-0.09581247
216	0xbe2a1bbe	-0.16612145
217	0x3d42d583	0.047566902
218	0xbebbb195	-0.36658922
219	0xbf65e99e	-0.89809597
220	0xbf6fa15f	-0.9360561
221	0x3e8cc2cc	0.27492368
222	0xbf318dbb	-0.6935689
223	0x3e5e4fe5	0.21710165
224	0xc0442d5d	-3.0652688
225	0xbd8dc756	-0.06922786
226	0x3eeb5343	0.4596196
227	0xbe61bdfa	-0.22045127
228	0xbfc0b6b5	-1.5055758
229	0xbdee6495	-0.11640278
230	0x3fea5cb4	1.8309541
231	0xbef30864	-0.4746734
232	0x3e772880	0.24136543
233	0xbe5af963	-0.21384196
234	0x3ead4efb	0.3384932
235	0xbf5abad9	-0.85441357
236	0x3f0a7e6f	0.5409917
237	0x3d48b69d	0.04900228
238	0x3dd0e19c	0.101992816
239	0x3f3bbabd	0.73331815
240	0x3dd5825f	0.10425257
241	0xbdb39a58	-0.08769673
242	0x3e787f0b	0.24267213
243	0x3d395345	0.045245428
244	0xbe7bb5fd	-0.24581142
245	0x3d94b1c8	0.072604716
246	0x3e586154	0.21130878
247	0x3f35743f	0.708805
248	0xbf5834e7	-0.8445572
249	0x3da03149	0.078219004
250	0xbf8d942e	-1.1060846
251	0xbfb212bd	-1.3911968
252	0xc04ae36a	-3.1701303
253	0xbf3b7b8f	-0.7323541
254	0x3e909ec3	0.28246126
255	0xbea59253	-0.323382

fc2.bias f4 [64]
0	0xbe212c42	-0.1573954
1	0x3cc4d264	0.024026103
2	0x3ec3f3da	0.3827198
3	0xbccf6bfe	-0.02532005
4	0xbc84dcb7	-0.016218526
5	0x3e39d6b2	0.18148306
6	0x3ef73c82	0.4828835
7	0x3ca366fb	0.019946566
8	0xbd3b0593	-0.045659613
9	0x3de361ad	0.111026146
10	0x3ed33933	0.41254577
11	0x3d8a75dd	0.06760762
12	0x3e9db44d	0.3080162
13	0xbceaccbc	-0.028662078
14	0x3d3155ab	0.04329459
15	0xbde2a19b	-0.1106598
16	0x3dcce020	0.10003686
17	0x3e458543	0.19289117
18	0x3da4b35e	0.08042024
19	0xbd578c89	-0.05262426
20	0xbc9fd59b	-0.019511035
21	0x3e650d54	0.22368366
22	0x3cb25bf5	0.021772364
23	0x3f0e75b3	0.55648345
24	0x3ceb9919	0.028759526
25	0xbe138b02	-0.14408496
26	0x3e9688b6	0.29401177
27	0xbd1342c9	-0.035952363
28	0x3ed82d88	0.42222238
29	0x3e17eec9	0.14837183
30	0x3e812114	0.2522055
31	0x3e3afe30	0.18261027
32	0x3dd3b7dd	0.103378035
33	0xbd7e55f5	-0.062093694
34	0x3d9d11af	0.076693885
35	0x3f101107	0.5627598
36	0x3dab793e	0.083727345
37	0xbdda03ca	-0.10645254
38	0x3de2c0fb	0.11071964
39	0x3e772b88	0.241377
40	0x3ed02237	0.40651104
41	0xbd880eda	-0.06643458
42	0x3ea75a01	0.32685855
43	0x3ead19df	0.338088
44	0x3e262c28	0.16227782
45	0x3db22085	0.08697609
46	0x3e961391	0.29311803
47	0xbc266f55	-0.01015838
48	0xbe90e1ba	-0.28297216
49	0xbe5b980e	-0.21444723
50	0xbe408668	-0.18801272
51	0x3e7c0208	0.2461015
52	0x3d7be1f5	0.061494786
53	0xbd975eba	-0.073911145
54	0xbce1a8ce	-0.027546313
55	0x3d61d148	0.055131227
56	0x3d9769bb	0.07393213
57	0x3ec1b8ba	0.37836248
58	0x3e9b9803	0.30389413
59	0x3cfa4087	0.030548347
60	0x3e920b53	0.28524265
61	0x3ece9756	0.40349835
62	0x3e869125	0.2628261
63	0x3dc98aa8	0.098409

fc3.weight f4 [3, 64]
0	0x3dbdbf58	0.092650115
1	0x3da8f957	0.08250683
2	0xbf381405	-0.7190555
3	0x3fc2f19f	1.5229987
4	0x3fb132dc	1.3843646
5	0xbe304375	-0.17213233
6	0xbf71b2ed	-0.94413644
7	0xc0076247	-2.1153734
8	0xb996c95e	-0.0002876026
9	0xbee13d0e	-0.43991894
10	0x4030cb53	2.76241
11	0xbc3ec99b	-0.011644746
12	0xbf559333	-0.83427733
13	0x3c6619dc	0.014044251
14	0xbe53ff39	-0.20702828
15	0x3d7aa0cf	0.061188515
16	0x3fe7b78d	1.810289
17	0xbeac955e	-0.33707708
18	0xbe0ce09c	-0.13757557
19	0x3fb3590d	1.4011551
20	0xbe4b83ca	-0.19874492
21	0x4014f74a	2.3275933
22	0x3d93f36b	0.07224163
23	0xbccfbf29	-0.025359707
24	0x3fc992eb	1.5747961
25	0x3da58112	0.08081259
26	0xbb270be6	-0.002548927
27	0xbdbd88e5	-0.09254626
28	0xbb99fa41	-0.004699022
29	0xbecf5f32	-0.40502316
30	0x3f590913	0.8477947
31	0x40061d2d	2.0955307
32	0xbe467f38	-0.19384468
33	0x3f8774ba	1.0582497
34	0x3d8896bb	0.066693746
35	0xbf7cff11	-0.988267
36	0xbfde60db	-1.7373308
37	0xbb8ee9dc	-0.0043613743
38	0xbd7eb4e2	-0.062184222
39	0xbf91aa42	-1.1380084
40	0x400b40c1	2.1758273
41	0x3e8a8c49	0.27060154
42	0x4007d1d6	2.1221824
43	0xbef33057	-0.47497818
44	0xbe90c210	-0.28273058
45	0xbf9337e2	-1.1501429
46	0xbf6d34ae	-0.9265851
47	0xbdb5bc6a	-0.08873828
48	0xbfbf2730	-1.4933834
49	0xbf6cb70d	-0.92466813
50	0xc010ca95	-2.2623646
51	0x3dd9ddf2	0.10638036
52	0x3fc71166	1.5552185
53	0x3fabe197	1.342822
54	0xbe800e27	-0.25010797
55	0xbe904c57	-0.28183243
56	0xbda2b6e6	-0.07945041
57	0xbf3526c9	-0.70762306
58	0xbf15b2c7	-0.5847592
59	0xbd8a6681	-0.06757832
60	0x3e3a13a9	0.18171562
61	0xbeb1a377	-0.34695026
62	0xbef596c3	-0.47966585
63	0x3e4ba5d6	0.1988748
64	0x3c1a73a3	0.009426984
65	0xbe0da557	-0.13832603
66	0xbeac9370	-0.33706236
67	0x3f7c20b2	0.9848739
68	0x3f33f1d9	0.70290905
69	0xbde595e3	-0.11210229
70	0xbeb5a372	-0.3547626
71	0xbfa93c40	-1.3221512
72	0x3e117b8e	0.14207289
73	0xbef8c9a3	-0.48591337
74	0x3fe87b72	1.8162673
75	0xbec6a51b	-0.3879784
76	0xbf2cf8d1	-0.67567164
77	0xbdc9909e	-0.09842037
78	0x3d6afc3f	0.057369467
79	0x3dc83aba	0.09776826
80	0x3fd85c43	1.6903156
81	0xbe312ef3	-0.17303066
82	0x3d7b77b8	0.06139347
83	0x40144607	2.3167741
84	0xbdc6e041	-0.09710742
85	0x3fcb5edd	1.5888325
86	0xbd6cd0e7	-0.057816412
87	0xbf35e916	-0.71058786
88	0x3faa87e4	1.332272
89	0xbdd05ca4	-0.1017392
90	0xbe630bf8	-0.22172534
91	0xbe1fe382	-0.15614131
92	0xbee71604	-0.45133984
93	0xbf29ff0b	-0.6640479
94	0x3f47e107	0.7807774
95	0x3f8bed53	1.0931801
96	0xbe80e976	-0.25178117
97	0x3f4e49b8	0.80581236
98	0xbd4830f2	-0.048874803
99	0xbfacf8dc	-1.3513446
100	0xbf49a827	-0.78772205
101	0x3d5745c1	0.052556757
102	0xbf3ceb30	-0.7379637
103	0xbf25d6d7	-0.64780945
104	0x3fa40a19	1.2815582
105	0x3dcaa8bc	0.09895465
106	0x3f30b7d5	0.69030505
107	0xbe03cc07	-0.12870799
108	0xbeaa9f24	-0.3332454
109	0xbc08a63c	-0.008340415
110	0xbe9bf52d	-0.30460492
111	0x3c489c5c	0.01224431
112	0xbf4eb77a	-0.80748713
113	0xbeed729c	-0.46376503
114	0xbf9242a6	-1.142659
115	0xbed34af1	-0.41268113
116	0x3fd96027	1.6982468
117	0x3f759769	0.9593416
118	0xbc0fca43	-0.00877625
119	0xbf2b5af8	-0.6693568
120	0x3e255326	0.16145
121	0xbf18d705	-0.59703094
122	0xbe89c577	-0.26908466
123	0x3e2294ea	0.15877119
124	0xbf050475	-0.51959926
125	0xbf588740	-0.84581375
126	0x3c42a96c	0.011881214
127	0x3f28f95c	0.6600549
128	0xbc32c570	-0.010911331
129	0xb9db2291	-0.0004179669
130	0x3de120fb	0.10992619
131	0x3faafd4f	1.3358554
132	0x3fcaf192	1.5854971
133	0xbeb24c6e	-0.34823936
134	0xbeeab42e	-0.4584059
135	0xbfbade75	-1.4599138
136	0xbe10fb38	-0.14158332
137	0xbe6efdbc	-0.2333898
138	0x40049a3b	2.0719135
139	0xbe4f854a	-0.2026569
140	0xbf9e57a9	-1.2370502
141	0xbe250294	-0.16114265
142	0x3da595a8	0.08085185
143	0x3c96e9c0	0.018422008
144	0x401aeea5	2.4208157
145	0xbdbf8381	-0.09351254
146	0xbe37f7c1	-0.17965604
147	0x3f8e74d4	1.1129403
148	0x3db33427	0.08750182
149	0x3fec5123	1.8462261
150	0x3db61c6b	0.08892139
151	0xbf6cd622	-0.9251424
152	0x3faf74c3	1.3707508
153	0x3db599f0	0.08867252
154	0x3f5d7004	0.8649905
155	0xbc99c1f6	-0.018769246
156	0xbf6811ed	-0.9065235
157	0xbe94ebd2	-0.29086167
158	0x3fa65c00	1.2996826
159	0x40568bae	3.3522754
160	0xbf7488cd	-0.9552124
161	0x3f82802d	1.0195366
162	0xbc08eda9	-0.008357444
163	0xbf83a415	-1.0284449
164	0xbfb3ca76	-1.4046161
165	0x3d472dd5	0.048627693
166	0x3d182d6b	0.03715269
167	0xbf9c63f2	-1.2218001
168	0x3ffe684e	1.9875581
169	0x3dba1ce7	0.09087544
170	0x3ff6a104	1.9267888
171	0xbe74ea79	-0.23917569
172	0xbdda17b3	-0.106490515
173	0xbe534132	-0.20630339
174	0x3cb74892	0.022373471
175	0xbd496560	-0.049168944
176	0xbfa6a86e	-1.3020151
177	0xbf43b761	-0.7645169
178	0xc0403e2e	-3.0037951
179	0xbd65028c	-0.055910632
180	0x3fe4f4c2	1.7887194
181	0x3fae2275	1.3604265
182	0x3dab02d0	0.08350146
183	0xbf946418	-1.1593046
184	0xbe30b719	-0.17257346
185	0xbf09904e	-0.53735816
186	0x3d624f00	0.05525112
187	0xbc0646c2	-0.008195581
188	0xbdc8ca19	-0.09804172
189	0xbf0a2bdc	-0.53973174
190	0xbfabb4cc	-1.341455
191	0xbe89da9d	-0.269246

fc3.bias f4 [3]
0	0x3deb6932	0.11494674
1	0xbed4b1e1	-0.4154196
2	0x3e280373	0.16407566
