model/checkpoint_7800.pth (torch, 21912 bytes, 6 tensors)

fc1.weight f4 [64, 6]
0.32100102 0.8565609 -0.21767144 -0.64151627 -0.08867194 0.2730512 0.42347154 1.161579
-0.3057903 0.16396135 -0.08153587 0.087107085 -0.71547234 -0.3307082 -1.0642985 0.13910434
0.14803939 0.19168147 -0.08353463 -0.7733104 -0.022527682 1.1994183 0.2385815 0.2728564
-0.20981392 1.1175323 0.76392496 -0.4245866 -0.37796578 0.13966104 -0.4870278 0.8762219
-0.64301276 -0.44250077 -0.49490395 -0.3849068 -1.5250165 -0.33362818 0.8572255 -0.18336493
-0.3871626 -0.11353783 -0.2529709 -0.9404999 -0.89364445 -0.40520453 0.16553631 -0.2053751
-0.85751355 -1.5480572 1.4307786 0.36601636 0.24991323 0.033533745 -0.29974523 -0.95015067
-0.041622385 0.015891565 -0.32687962 -0.4602999 0.29481444 -0.20987546 0.8498374 0.050909948
0.740011 0.2857979 0.37074 -0.5218612 0.28183705 0.2722516 -0.34845114 -0.18023606
0.82929176 0.0925621 0.540035 1.2705463 -0.1980785 -0.47148803 0.020268315 -1.4329593
-0.7843111 1.0912621 0.06864941 -0.48032048 -0.20344745 0.3600364 -0.69975895 0.5580889
0.36259127 -0.18335077 1.0346838 0.58989197 0.2576065 -0.055713013 -0.43161935 -0.17192216
0.35875964 0.6497771 -0.7673765 -0.88805383 0.6308655 0.371048 -1.1219476 0.114868015
-0.98089087 0.09741586 -0.24926421 -0.26701957 -0.3257523 0.27984878 0.24121575 -0.8668328
-0.4739598 0.36107308 1.048864 0.050351698 -0.36673126 -0.3096917 0.30473077 0.23458959
0.6963442 0.36258084 -0.3867986 0.70653456 -0.39691567 -0.24286512 -0.82022184 -0.85469514
-0.05433885 -0.5222732 -0.22246425 -0.18598178 -0.32257143 -0.7957587 0.27453256 -0.49181008
0.21343403 0.025620608 0.29301015 0.21790913 0.70461476 0.4130148 0.20647977 0.24903433
-0.6800527 0.6576331 -0.1979037 0.4875565 -0.35459206 -0.35713467 0.24762607 -0.88091683
0.09985818 1.6219171 -0.24042763 -0.359369 0.014255676 -1.1227391 -0.12222781 -0.04347458
-0.46131745 -0.49257848 -0.5360512 -0.50657403 -0.7754324 -0.7162907 -0.3670914 0.19143455
0.02122136 -0.19655341 0.36610538 -0.6003121 0.13646196 0.23816375 -0.40178755 0.1380393
-0.6301143 1.3155174 0.36175862 -0.34420446 -0.36014453 -0.089365445 0.5354853 0.0002667445
0.70383114 0.42272922 -0.5411709 0.18240564 -0.75371575 0.44931147 0.472764 0.434593
-0.011466815 1.0240953 -1.0772696 -0.5740662 -0.010246467 0.32698786 -0.56702065 0.6511558
0.20056705 0.0719855 -0.7807023 -0.413425 -0.5430176 -0.55291873 -0.36655256 0.94535226
0.016484698 -0.23890807 0.06648686 0.023751207 -0.4298659 0.07361221 0.23126653 0.22098583
1.0069387 1.0336611 1.2028159 -1.5015123 0.3080815 0.7139513 1.0169507 -0.31517047
-1.3730655 -0.08061303 -0.13610011 -0.052745666 -1.195189 0.73910266 -0.33131555 0.6624239
0.41749138 0.37839806 0.7438291 0.009856946 0.6758823 -0.5991366 -0.2150025 -0.21414457
-0.3891947 0.62764084 -0.12998272 -0.12823234 0.06117851 -0.29892975 0.8545754 -0.7990021
0.5406766 -0.41788605 -0.5933806 -0.18134136 0.8135478 -0.4571421 -0.6930066 -0.5341477
00000000: 3f5a a43e 9347 5b3f 43e5 5ebe 693a 24bf
00000010: a299 b5bd 5ecd 8b3e 43d1 d83e 9fae 943f
00000020: 8c90 9cbe 7ce5 273e 47fc a6bd 3365 b23d
00000030: 3229 37bf 9652 a9be ef3a 88bf 5e71 0e3e
00000040: a397 173e 2648 443e 3414 abbd acf7 45bf
00000050: f98b b8bc 8a86 993f b54e 743e d6b3 8b3e
00000060: 76d9 56be 4c0b 8f3f 9690 433f 6a63 d9be
00000070: bb84 c1be 4e03 0f3e b55b f9be 1450 603f
00000080: 7c9c 24bf 768f e2be 0d64 fdbe 8112 c5be
00000090: be33 c3bf 50d1 aabe 2173 5b3f 04c4 3bbe
000000a0: 2d3a c6be 8686 e8bd 6785 81be 9ac4 70bf
000000b0: e2c5 64bf f876 cfbe 5a82 293e da4d 52be
000000c0: 0286 5bbf bd26 c6bf c123 b73f 7f66 bb3e
000000d0: 41e9 7f3e ae5a 093d 3578 99be 133d 73bf
000000e0: 3c7c 2abd 072f 823c c45c a7be 6eac ebbe
000000f0: ebf1 963e 98e9 56be f28e 593f f386 503d
00000100: 5c71 3d3f 1a54 923e a2d1 bd3e b298 05bf
00000110: f24c 903e 9064 8b3e 3068 b2be cd8f 38be
00000120: 774c 543f 3391 bd3d bc3f 0a3f 43a1 a23f
00000130: 17d5 4abe e166 f1be bd09 a63c 366b b7bf
00000140: 9dc8 48bf 7aae 8b3f 1098 8c3d 91ec f5be
00000150: 8754 50be b156 b83e 6723 33bf eade 0e3f
00000160: 90a5 b93e 4ec0 3bbe 8570 843f 2903 173f
00000170: 00e5 833e 5433 64bd 36fd dcbe 5d0c 30be
00000180: 58af b73e cb57 263f c972 44bf 7f57 63bf
00000190: 6780 213f 01fa bd3e fb9b 8fbf ec3f eb3d
000001a0: aa1b 7bbf f781 c73d 1e3f 7fbe cab6 88be
000001b0: 01c9 a6be 5748 8f3e 4301 773e c1e8 5dbf
000001c0: dcaa f2be 92de b83e 2d41 863f 953d 4e3d
000001d0: 33c4 bbbe e98f 9ebe ac05 9c3e 4138 703e
000001e0: 9d43 323f 32a4 b93e 770a c6be 73df 343f
000001f0: 8838 cbbe a2b1 78be 0ffa 51bf 4dcd 5abf
00000200: 6a92 5ebd b2b3 05bf abcd 63be 0272 3ebe
00000210: 1528 a5be d8b6 4bbf 888f 8c3e 88ce fbbe
00000220: 738e 5a3e 4fe2 d13c 6d05 963e 9223 5f3e
00000230: a261 343f ad76 d33e 6f6f 533e db02 7f3e
00000240: ef17 2ebf a55a 283f 44a7 4abe 01a1 f93e
00000250: 178d b5be 5bda b6be b091 7d3e c483 61bf
00000260: 7282 cc3d fb9a cf3f a932 76be 37ff b7be
00000270: a490 693c eab5 8fbf 9352 fabd 6712 32bd
00000280: cd31 ecbe 3f33 fcbe a73a 09bf d6ae 01bf
00000290: bd82 46bf d45e 37bf 67f3 bbbe 6b07 443e
000002a0: 6bd8 ad3c 4c45 49be 2a72 bb3e 0eae 19bf
000002b0: afbc 0b3e 33e1 733e 19b7 cdbe 2d5a 0d3e
000002c0: 2c4f 21bf e062 a83f 6d38 b93e 913b b0be
000002d0: dd64 b8be 3b05 b7bd 9115 093f d7d9 8b39
000002e0: 472e 343f f76f d83e 2d8a 0abf 8bc8 3a3e
000002f0: 84f3 40bf 270c e63e 1f0e f23e f982 de3e
00000300: 4fdf 3bbc 8e15 833f f8e3 89bf 01f6 12bf
00000310: cce0 27bc f46a a73e 4428 11bf 26b2 263f
00000320: 7361 4d3e 226d 933d 1bdc 47bf 71ac d3be
00000330: 3403 0bbf 158c 0dbf c7ac bbbe 9b02 723f
00000340: eb0a 873c 51a4 74be 432a 883d e491 c23c
00000350: 6217 dcbe 00c2 963d 22d1 6c3e 1c4a 623e
00000360: 5ee3 803f 024f 843f dff5 993f 8e31 c0bf
00000370: dcbc 9d3e 83c5 363f 712b 823f 065e a1be
00000380: 9cc0 afbf 7218 a5bd d45d 0bbe d70b 58bd
00000390: f4fb 98bf d535 3d3f 31a2 a9be 9d94 293f
000003a0: 6ec1 d53e 64bd c13e 956b 3e3f 077f 213c
000003b0: 9f06 2d3f 0461 19bf 9e29 5cbe b748 5bbe
000003c0: 8744 c7be 12ad 203f 311a 05be 574f 03be
000003d0: 5196 7a3d 520d 99be 74c5 5a3f 678b 4cbf
000003e0: c869 0a3f 29f5 d5be cae7 17bf 8db1 39be
000003f0: ab44 503f 880e eabe e168 31bf e7bd 08bf

fc1.bias f4 [64]
0.3293261 0.45832095 0.41346243 -0.046476793 0.42888197 0.40660372 -0.7801026 -0.13194786
-0.5380257 0.25900763 -0.47665003 0.9332414 0.030728986 -0.02134896 -1.326586 0.39005035
0.63147557 -0.22529142 -0.0081333695 0.62634116 0.85020584 -0.8735763 0.7131043 0.86105955
-0.15566808 -0.042917155 0.0032605724 -0.5604082 1.0943693 -0.6102455 -0.75995433 -0.23005058
-0.47997186 -0.7585835 0.3402168 0.79205644 0.7581363 -0.05020918 -0.35367167 0.48873496
0.44359282 -0.4767028 0.09673054 -0.7382139 0.419848 -0.13514964 -0.48712572 0.025178093
0.7611753 0.35449734 -0.21161032 -0.019252907 0.42726088 -0.9185176 0.325636 -0.48631096
-0.8392011 -0.6661383 -0.8530063 0.7359873 -0.7821974 0.71677125 -0.0063466793 0.478631
00000000: 6e9d a83e 0ba9 ea3e 59b1 d33e 735e 3ebd
00000010: 6b96 db3e 5d2e d03e ceb4 47bf 571d 07be
00000020: 0dbc 09bf a69c 843e 790b f4be e9e8 6e3f
00000030: 5bbb fb3c 04e4 aebc 92cd a9bf aeb4 c73e
00000040: 62a8 213f cbb2 66be d341 05bc e557 203f
00000050: 17a7 593f b2a2 5fbf 018e 363f 666e 5c3f
00000060: 7467 1fbe e6c9 2fbd 54af 553b e976 0fbf
00000070: 4b14 8c3f 0d39 1cbf 5e8c 42bf 6192 6bbe
00000080: dfbe f5be 8732 42bf e530 ae3e 36c4 4a3f
00000090: 3815 423f 24a8 4dbd 7414 b5be 783b fa3e
000000a0: 991e e33e 6412 f4be a91a c63d 96fb 3cbf
000000b0: 51f6 d63e ab64 0abe 8b68 f9be 4a42 ce3c
000000c0: 62dc 423f ad80 b53e 60b0 58be 46b8 9dbc
000000d0: f0c1 da3e f823 6bbf c3b9 a63e c0fd f8be
000000e0: e2d5 56bf 0a88 2abf 9f5e 5abf aa69 3c3f
000000f0: 173e 48bf 527e 373f cef7 cfbb 1f0f f53e

fc2.weight f4 [64, 64]
-0.04831197 -0.15959136 0.07830485 0.031351674 0.072698325 0.042516902 -0.082408555 0.06584186
-0.011387902 0.029746728 -0.1160325 -0.08457825 -0.14884798 -0.06456648 0.011087811 -0.13505483
0.0015068119 0.051230192 -0.023552231 -0.12147423 -0.14331594 -0.055504147 0.0030061875 0.08693521
0.05600189 -0.029736916 0.030022614 -0.15701422 -0.16206105 0.04244582 -0.10667518 0.020192299
-0.124540776 -0.07778318 -0.114982456 0.026265617 -0.050580557 0.0803335 0.036456767 0.017311795
-0.020424183 -0.07648162 -0.06710148 -0.017167564 0.023085473 -0.10344298 0.08902927 -0.05340683
-0.13850294 -0.09777518 0.09472193 0.08093734 -0.13341609 0.050095435 0.016634649 0.03510494
0.081849195 -0.09755329 0.001284935 -0.0016787181 -0.074918084 0.00276635 -0.05444025 0.040100034
-0.07548725 -0.08569809 0.0062112273 0.007666288 -0.11232061 -0.03426717 0.04090612 -0.017869547
0.010428279 -0.03995087 0.02317749 -0.109982006 -0.08607757 -0.084291756 0.099629425 -0.06788792
-0.022183355 -0.076442026 0.08619339 0.082972 -0.11756293 -0.14682356 -0.12966307 -0.037147757
-0.03186299 -0.10108837 -0.06414803 -0.01948688 -0.087040335 0.006665489 -0.028040629 -0.07414074
-0.03054305 0.08690248 -0.12483647 -0.032049768 -0.0830002 0.10264269 -0.15565789 -0.14091814
0.10643455 -0.090267345 -0.015154478 -0.053671584 -0.03420259 -0.031035628 0.061313793 -0.029633112
-0.17849389 -0.081018165 -0.054432172 0.030971795 -0.10246678 0.08039449 -0.039867096 -0.059986133
0.08297231 0.02599532 0.0672388 0.035337385 -0.08278147 -0.12180781 -0.029117484 0.06553443
0.18157071 0.021005437 0.2813066 0.1374868 -0.04333548 0.36156052 -0.18629017 -0.19287214
0.019395653 -0.6469916 -0.15283349 0.42584413 0.35430434 0.18801996 -0.62595063 -0.3210645
0.15836167 0.8131385 0.12879768 0.36276993 0.29059827 -0.17086123 0.06913823 0.2649446
-0.3677819 0.032685854 0.05027247 0.0651113 0.18695092 -0.08507979 -0.016823234 -0.16113167
0.34832445 -0.9920398 0.49216 0.28447732 0.09261974 -0.4278481 -0.22433257 -0.009810939
0.00041915712 -0.872057 -0.05241675 0.1753689 -0.034508802 0.18276848 -0.38697806 0.098214485
0.27601355 -0.20937514 0.056916684 -0.2937539 0.17115726 -0.025201706 0.22125727 -0.047989007
-0.06184923 -0.6398752 0.17633247 -0.22302856 -0.305552 0.23430744 -0.37523156 -0.036441676
-2.6215532 -0.37523913 -0.74377114 -0.4325579 -0.74988025 0.19344875 0.8692904 -0.30860138
-1.8373134 0.42801514 0.28854626 -0.33188587 0.21525683 0.106396444 0.2280814 -0.4872332
0.40311614 0.21511754 -0.5270041 -0.64138055 0.026268763 -0.8258869 0.14900383 -0.06896253
-0.13826752 0.051557664 -0.3433402 -0.7140953 -0.9633315 0.2785482 -0.5636382 0.23341587
-3.0560455 -0.040301982 0.4775203 -0.22494872 -1.533472 -0.10521023 1.863565 -0.4732643
0.24074484 -0.2905376 0.32371414 -0.84288657 0.5426792 0.07629759 0.09539375 0.7250528
0.11130043 -0.098337404 0.25603667 0.0948133 -0.24938378 0.072604716 0.21008652 0.7037013
-0.8685885 0.09956549 -0.9272671 -1.3527936 -3.1179702 -0.7409734 0.26575246 -0.34381774
00000000: c6e2 45bd eb6b 23be 4b5e a03d 9d6a 003d
00000010: dce2 943d 3426 2e3d d1c5 a8bd 19d8 863d
00000020: 5394 3abc 69af f33c 73a2 edbd 5d37 adbd
00000030: 9b6b 18be 6e3b 84bd a6a9 353c d04b 0abe
00000040: 3880 c53a c0d6 513d 9cf0 c0bc 7bc7 f8bd
00000050: 6ac1 12be 5158 63bd 7503 453b 160b b23d
00000060: 3d62 653d d59a f3bc fcf1 f53c 56c8 20be
00000070: 55f3 25be abdb 2d3d 8478 dabd 526a a53c
00000080: 3c0f ffbd ca4c 9fbd ec7b ebbd fe2a d73c
00000090: 8f2d 4fbd e485 a43d b153 153d 77d1 8d3c
000000a0: 9e50 a7bc 65a2 9cbd 806c 89bd fea2 8cbc
000000b0: bf1d bd3c ead9 d3bd fa54 b63d 1fc1 5abd
000000c0: b7d3 0dbe 5b3e c8bd 92fd c13d 7ac2 a53d
000000d0: 3a9e 08be df30 4d3d 6345 883c 33ca 0f3d
000000e0: 8da0 a73d 05ca c7bd 446b a83a 6f08 dcba
000000f0: a76e 99bd a74b 353b bdfc 5ebd ef3f 243d
00000100: 0f99 9abd 7b82 afbd 8d87 cb3b 7c35 fb3b
00000110: 5908 e6bd bb5b 0cbd 2d8d 273d 2863 92bc
00000120: 5fdb 2a3c 86a3 23bd b8de bd3c 3f3e e1bd
00000130: 7049 b0bd 28a1 acbd 830a cc3d d208 8bbd
00000140: deb9 b5bc a38d 9cbd 2986 b03d 39ed a93d
00000150: d5c4 f0bd ea58 16be 65c6 04be 3f28 18bd
00000160: c482 02bd 6b07 cfbd 0b60 83bd f3a2 9fbc
00000170: 3442 b2bd 2d6a da3b 76b5 e5bc 1ad7 97bd
00000180: 6b35 fabc edf9 b13d 43aa ffbd 9e46 03bd
00000190: 02fc a9bd 5536 d23d c864 1fbe d84c 10be
000001a0: 5bfa d93d 16de b8bd 7d4a 78bc bcd6 5bbd
000001b0: 0418 0cbd 6e3e febc 2c24 7b3d 24c1 f2bc
000001c0: 1ac7 36be daec a5bd 45f4 5ebd 90b8 fd3c
000001d0: 1ada d1bd dea5 a43d ae4b 23bd 05b4 75bd
000001e0: 63ed a93d 23f4 d43c 7fb4 893d efbd 103d
000001f0: 5589 a9bd 6076 f9bd ca87 eebc ea36 863d
00000200: aced 393e 9813 ac3c 6b07 903e 57c9 0c3e
00000210: 8b80 31bd 761e b93e dac2 3ebe 4680 45be
00000220: a2e3 9e3c 3ea1 25bf 6280 1cbe 3e08 da3e
00000230: 6167 b53e 4e88 403e 4d3e 20bf 9162 a4be
00000240: 9029 223e d829 503f 8ae3 033e fbbc b93e
00000250: 4cc9 943e 3ff6 2ebe 5898 8d3d d2a6 873e
00000260: e94d bcbe 9ae1 053d 81ea 4d3d 1359 853d
00000270: 1070 3f3e 503e aebd e1d0 89bc b3ff 24be
00000280: 9557 b23e 52f6 7dbf 65fc fb3e 03a7 913e
00000290: 6baf bd3d e80e dbbe 70b7 65be 10be 20bc
000002a0: 51c2 db39 213f 5fbf f2b2 56bd e893 333e
000002b0: 1a59 0dbd a927 3b3e fd21 c6be ad24 c93d
000002c0: a651 8d3e 7066 56be 7821 693d e966 96be
000002d0: d943 2f3e cf73 cebc 4491 623e 1f90 44bd
000002e0: 9e55 7dbd dcce 23bf 8090 343e 9961 64be
000002f0: 5071 9cbe 4aee 6f3e 5a1e c0be de43 15bd
00000300: 87c7 27c0 581f c0be c967 3ebf 3b78 ddbe
00000310: 27f8 3fbf 6e17 463e d189 5e3f 0001 9ebe
00000320: 162d ebbf cd24 db3e 56bc 933e f2ec a9be
00000330: 496c 5c3e 61e6 d93d 2c8e 693e a176 f9be
00000340: 3d65 ce3e c647 5c3e bee9 06bf 8431 24bf
00000350: 9731 d73c 536d 53bf 7694 183e 3a3c 8dbd
00000360: 0096 0dbe 212e 533d 49ca afbe f3ce 36bf
00000370: e59c 76bf df9d 8e3e 984a 10bf 9204 6f3e
00000380: 4096 43c0 b113 25bd 8a7d f43e f558 66be
00000390: cf48 c4bf 7678 d7bd 4c89 ee3f b34f f2be
000003a0: d185 763e 58c1 94be dcbd a53e 6ac7 57bf
000003b0: 06ed 0a3f e941 9c3d cc5d c33d 0f9d 393f
000003c0: 7bf1 e33d 1f65 c9bd 3d17 833e 7a2d c23d
000003d0: 765e 7fbe c8b1 943d ec20 573e c525 343f
000003e0: d15b 5ebf fee8 cb3d 6061 6dbf 5728 adbf
000003f0: d38c 47c0 6fb0 3dbf b510 883e e108 b0be

fc2.bias f4 [64]
-0.1573954 0.024026103 0.36900228 -0.0054779057 -0.013453101 0.1798827 0.47423 0.01453624
-0.044845656 0.10644051 0.42439556 0.06687079 0.3023214 -0.042757872 0.05168593 -0.1106598
0.09591162 0.18284896 0.07636928 -0.032203108 -0.021296827 0.22413132 0.021772364 0.5414369
0.011632826 -0.14408496 0.299576 -0.02933106 0.4208332 0.14085628 0.2678578 0.166095
0.11323467 -0.057240795 0.076693885 0.5547584 0.072445065 -0.10645254 0.07991418 0.23112461
0.40432376 -0.06643458 0.33003053 0.32909888 0.16389315 0.074534565 0.27925897 -0.01015838
-0.2963842 -0.20868552 -0.19457868 0.24548826 0.05308708 -0.08630707 -0.019619647 0.05262192
0.06424768 0.36925113 0.28373313 0.03251615 0.2908474 0.38687176 0.2557282 0.10633172
00000000: 422c 21be 64d2 c43c deed bc3e 0180 b3bb
00000010: 656a 5cbc 2c33 383e 46ce f23e 6929 6e3c
00000020: 14b0 37bd 7bfd d93d 604a d93e 8ef3 883d
00000030: dfc9 9a3e e122 2fbd a0b4 533d 9ba1 e2bd
00000040: 506d c43d c23c 3b3e 7f67 9c3d 68e7 03bd
00000050: af76 aebc ae82 653e f55b b23c 9c9b 0a3f
00000060: 9c97 3e3c 028b 13be 0762 993e b147 f0bc
00000070: 7377 d73e a13c 103e a824 893e cf14 2a3e
00000080: 94e7 e73d 5375 6abd af11 9d3d a604 0e3f
00000090: 145e 943d ca03 dabd 0caa a33d eeab 6c3e
000000a0: 8603 cf3e da0e 88bd c3f9 a83e a67f a83e
000000b0: 9bd3 273e 94a5 983d 08fb 8e3e 556f 26bc
000000c0: abbf 97be a8b1 55be a23f 47be 4661 7b3e
000000d0: d771 593d c3c1 b0bd 62b9 a0bc 158a 573d
000000e0: 4a94 833d 7c0e bd3e 7845 913e a82f 053d
000000f0: f3e9 943e 0e14 c63e ceee 823e 72c4 d93d

fc3.weight f4 [3, 64]
0.092650115 0.08250683 -0.7107052 1.5538191 1.3307896 -0.18291073 -0.967274 -2.0740733
-0.0016816233 -0.4136408 2.788133 -0.008635362 -0.83758813 0.023933856 -0.22232264 0.061188515
1.8391596 -0.284831 -0.13417944 1.3995534 -0.20591629 2.2800806 0.07224163 -0.031722944
1.5427097 0.08081259 -0.013340567 -0.09587358 -0.013653231 -0.39430037 0.85028994 2.0023935
-0.20042193 1.0379324 0.066693746 -0.9834877 -1.7403617 -0.0043613743 -0.044499792 -1.1352618
2.118366 0.27060154 2.113195 -0.4591759 -0.3003993 -1.1300864 -0.9097789 -0.08873828
-1.4691961 -0.9330287 -2.2461843 0.09993281 1.5140073 1.3559511 -0.24965577 -0.30036676
-0.0821968 -0.7080763 -0.5617503 -0.06624156 0.15760945 -0.3483628 -0.531112 0.16120338
0.009426984 -0.13832603 -0.3044469 0.9729301 0.6980936 -0.09532514 -0.35959652 -1.2994255
0.14971617 -0.5015889 1.7448117 -0.33798942 -0.6651893 -0.07997168 0.054871395 0.09776826
1.708645 -0.19388454 0.07202904 2.2942984 -0.09586822 1.6328845 -0.057816412 -0.70565784
1.2731823 -0.1017392 -0.23180597 -0.1477643 -0.44223464 -0.6936992 0.7997756 1.1716908
-0.27392483 0.76524717 -0.048874803 -1.4024466 -0.79700875 0.052556757 -0.6971342 -0.6566986
1.2582701 0.09895465 0.72263557 -0.109656915 -0.32196647 0.028531512 -0.33905447 0.01224431
-0.81488 -0.48870882 -1.2362169 -0.40068746 1.7620795 0.9699549 -0.032269463 -0.6535886
0.15668274 -0.598456 -0.27064642 0.12238121 -0.50577813 -0.8327141 -0.021330714 0.623711
-0.010911331 -0.0004179669 0.08284338 1.3293217 1.5659493 -0.34999186 -0.4591434 -1.4254985
-0.14843044 -0.20852938 2.062114 -0.21294065 -1.2293622 -0.16349335 0.061782062 0.018422008
2.3862872 -0.08548633 -0.1818666 1.1265996 0.06938434 1.7589958 0.08892139 -0.9266347
1.379195 0.08867252 0.88192797 -0.024267713 -0.90289986 -0.29147217 1.2664698 3.293183
-0.9413075 0.9981217 -0.008357444 -1.0268644 -1.3555527 0.048627693 0.04342618 -1.1949368
1.9787308 0.09087544 1.9289372 -0.19714224 -0.12074713 -0.19267778 0.021611389 -0.049168944
-1.3114985 -0.77496874 -2.9355032 -0.059855197 1.7739607 1.3204201 0.07653396 -1.1374907
-0.15459484 -0.544671 0.016953763 -0.025047032 -0.10495273 -0.54682446 -1.3216181 -0.27379933
00000000: 58bf bd3d 57f9 a83d c7f0 35bf 8be3 c63f
00000010: 5057 aa3f f34c 3bbe 459f 77bf 9ebd 04c0
00000020: ea69 dcba bac8 d3be c570 3240 557b 0dbc
00000030: 2d6c 56bf ef10 c43c 8ca8 63be cfa0 7a3d
00000040: 9569 eb3f 5ed5 91be 5666 09be 9124 b33f
00000050: b8db 52be d7ec 1140 6bf3 933d ebef 01bd
00000060: 8377 c53f 1281 a53d 6592 5abc 5e59 c4bd
00000070: cdb1 5fbc bde1 c9be 9aac 593f 3727 0040
00000080: 683b 4dbe f8da 843f bb96 883d dac5 7bbf
00000090: 2cc4 debf dce9 8ebb 6a45 36bd 4250 91bf
000000a0: 4f93 0740 498c 8a3e 963e 0740 1b19 ebbe
000000b0: f0cd 99be aca6 90bf 45e7 68bf 6abc b5bd
000000c0: 9e0e bcbf f8da 6ebf 7cc1 0fc0 93a9 cc3d
000000d0: feca c13f ce8f ad3f c3a5 7fbe acc9 99be
000000e0: cc56 a8bd 7d44 35bf dece 0fbf a8a9 87bd
000000f0: 5f64 213e 9c5c b2be f5f6 07bf 8012 253e
00000100: a373 1a3c 57a5 0dbe 77e0 9bbe f211 793f
00000110: 43b6 323f d439 c3bd 091d b8be 9353 a6bf
00000120: 324f 193e 2168 00bf fd55 df3f f30c adbe
00000130: d949 2abf 31c8 a3bd d4c0 603d ba3a c83d
00000140: e1b4 da3f ab89 46be f683 933d c9d5 1240
00000150: 8f56 c4bd 5c02 d13f e7d0 6cbd fea5 34bf
00000160: a3f7 a23f a45c d0bd 8b5e 6dbe 864f 17be
00000170: 946c e2be 4596 31bf 18be 4c3f f7f9 953f
00000180: e03f 8cbe 3de7 433f f230 48bd 5f83 b3bf
00000190: c408 4cbf c145 573d 6377 32bf 661d 28bf
000001a0: ff0e a13f bca8 ca3d a5fe 383f ce93 e0bd
000001b0: cad8 a4be ebba e93c 8c98 adbe 5c9c 483c
000001c0: fa9b 50bf 0b38 fabe 5b3c 9ebf e826 cdbe
000001d0: d28b e13f f74e 783f fc2c 04bd 9551 27bf
000001e0: 7171 203e 6a34 19bf 2b92 8abe 00a3 fa3d
000001f0: ad7a 01bf c02c 55bf c0bd aebc 86ab 1f3f
00000200: 70c5 32bc 9122 dbb9 caa9 a93d 3727 aa3f
00000210: 0771 c83f 2232 b3be d814 ebbe bc76 b6bf
00000220: 26fe 17be ba88 55be adf9 0340 1d0d 5abe
00000230: be5b 9dbf cd6a 27be 300f 7d3d c0e9 963c
00000240: eeb8 1840 7513 afbd 3d3b 3abe 6a34 903f
00000250: 6019 8e3d c626 e13f 6b1c b63d ef37 6dbf
00000260: 7689 b03f f099 b53d 08c6 613f 15cd c6bc
00000270: 7224 67bf d73b 95be af1b a23f 83c3 5240
00000280: 87f9 70bf e784 7f3f a9ed 08bc 4b70 83bf
00000290: c082 adbf d52d 473d a6df 313d b0f3 98bf
000002a0: 0d47 fd3f e71c ba3d 6ae7 f63f a8df 49be
000002b0: 454a f7bd 534d 45be 5e0a b13c 6065 49bd
000002c0: 2fdf a7bf 5a64 46bf 49df 3bc0 b92a 75bd
000002d0: 2511 e33f 8703 a93f d6bd 9c3d 4c99 91bf
000002e0: 1c4e 1ebe 8f6f 0bbf 9ee2 8a3c 6f2f cdbc
000002f0: 75f1 d6bd b0fc 0bbf c82a a9bf 6d2f 8cbe

fc3.bias f4 [3]
0.111905895 -0.39205465 0.15777533
00000000: eb2e e53d 63bb c8be db8f 213e
