model/checkpoint_8600.pth (torch, 21912 bytes, 6 tensors)

fc1.weight f4 [64, 6]
0	0x3ea75824	0.32684433
1	0x3f681007	0.90649456
2	0xbe545b44	-0.2073794
3	0xbf18e2fc	-0.5972135
4	0xbdcaf3c6	-0.09909777
5	0x3e8cad41	0.27475932
6	0x3ed45c6b	0.4147676
7	0x3f9f9ad4	1.2469125
8	0xbec4120b	-0.38295016
9	0x3e32ee49	0.17473711
10	0xbd6b2371	-0.057406846
11	0x3dee933d	0.11649177
12	0xbf36a655	-0.7134755
13	0xbea5dbaf	-0.32394168
14	0xbf86d20c	-1.0532851
15	0x3e191ddf	0.14952801
16	0x3e0baf92	0.13641194
17	0x3e41b4e8	0.18916667
18	0xbe00039c	-0.12501377
19	0xbf3ca19c	-0.73684096
20	0xbd659557	-0.056050625
21	0x3f9d6999	1.2297851
22	0x3e5358c2	0.20639327
23	0x3e8ea216	0.27858037
24	0xbe35494b	-0.1770374
25	0x3f8e4c49	1.111703
26	0x3f448975	0.7677224
27	0xbee433da	-0.4457081
28	0xbec4491e	-0.38337034
29	0x3e04ae83	0.12957196
30	0xbefdbbdf	-0.49557397
31	0x3f62eeed	0.8864582
32	0xbf240a94	-0.6407864
33	0xbee44008	-0.44580102
34	0xbf069221	-0.52566725
35	0xbec31876	-0.381046
36	0xbfba72a8	-1.456624
37	0xbe9f217c	-0.31080234
38	0x3f78b590	0.9715204
39	0xbe3beae1	-0.18351318
40	0xbec7456b	-0.3892015
41	0xbdf2c2b3	-0.11853542
42	0xbe63c50a	-0.22243133
43	0xbf6d6050	-0.92725086
44	0xbf7701e5	-0.96487266
45	0xbef1924c	-0.47181928
46	0x3e274e0d	0.16338368
47	0xbe60ba32	-0.21946028
48	0xbf5b9ae0	-0.85783195
49	0xbfc8357e	-1.5641325
50	0x3fc0b1aa	1.5054219
51	0x3eb9dfb1	0.36303475
52	0x3e80557d	0.25065222
53	0x3ce44d04	0.027868755
54	0xbeb2bc2c	-0.3490919
55	0xbf755d43	-0.9584543
56	0xbd93e5f8	-0.072215974
57	0x3cc07c5d	0.023496801
58	0xbea17608	-0.31535363
59	0xbeec9c06	-0.46212786
60	0x3e8cdfdd	0.27514544
61	0xbea0204e	-0.31274647
62	0x3f5e80e5	0.8691543
63	0x3cb05552	0.021525059
64	0x3f3f62c4	0.7476008
65	0x3e986374	0.29763377
66	0x3ebdd583	0.3707696
67	0xbf03537e	-0.51299274
68	0x3e9c8d89	0.30576733
69	0x3e83197f	0.2560539
70	0xbeb5ed33	-0.3553253
71	0xbe34f262	-0.17670587
72	0x3f559326	0.83427656
73	0x3e024b81	0.12724115
74	0x3f0551d3	0.5207798
75	0x3fa52337	1.2901372
76	0xbe43bd22	-0.19115117
77	0xbef31f52	-0.47484833
78	0x3cc863aa	0.024461586
79	0xbfbb6145	-1.4639059
80	0xbf4f0fd9	-0.80883557
81	0x3f83f66f	1.030958
82	0x3d8b93eb	0.068153225
83	0xbef57b01	-0.47945407
84	0xbe072902	-0.13199237
85	0x3ebd7a0a	0.3700717
86	0xbf33c6a3	-0.7022497
87	0x3f1789ec	0.5919483
88	0x3eb52f16	0.35387486
89	0xbe43bfb8	-0.19116104
90	0x3f861e1e	1.0477941
91	0x3f161ce0	0.5863781
92	0x3e6de5c8	0.23232186
93	0xbdd6b1a5	-0.10483102
94	0xbee5fc19	-0.44918898
95	0xbe1fbd61	-0.15599586
96	0x3ebc0c4c	0.36728132
97	0x3f2b43dc	0.6690042
98	0xbf453ff4	-0.7705071
99	0xbf640e9e	-0.89084804
100	0x3f220752	0.6329242
101	0x3ec22508	0.37918878
102	0xbf92dcc8	-1.1473627
103	0x3e4beae4	0.19913822
104	0xbf76b13d	-0.96364194
105	0x3ddb1811	0.1069795
106	0xbe72ec93	-0.23723058
107	0xbe802cb8	-0.25034118
108	0xbebc6c31	-0.36801293
109	0x3e7e00ce	0.24804994
110	0x3e88e787	0.2673914
111	0xbf5475fc	-0.8299253
112	0xbeeed4e6	-0.46646804
113	0x3eacdd32	0.3376251
114	0x3f8a1954	1.078898
115	0x3d514624	0.051092282
116	0xbeab115c	-0.33411682
117	0xbea7b743	-0.32757005
118	0x3ead51fc	0.33851612
119	0x3e759932	0.2398422
120	0x3f353a7c	0.70792365
121	0x3ec186e3	0.37798223
122	0xbed5ae11	-0.41734365
123	0x3f3c525c	0.7356317
124	0xbecc2536	-0.3987214
125	0xbe74b7fc	-0.2389831
126	0xbf558581	-0.83406836
127	0xbf5cae17	-0.8620314
128	0xbcd36f81	-0.025810005
129	0xbf07c8fd	-0.5304106
130	0xbe6a4e63	-0.22881465
131	0xbe484a23	-0.19559531
132	0xbebf9b36	-0.37423104
133	0xbf4372a4	-0.763468
134	0x3e864a6d	0.26228657
135	0xbf07b707	-0.5301365
136	0x3e651c3c	0.22374052
137	0x3d3d2235	0.0461752
138	0x3ea83ae4	0.3285743
139	0x3e83e509	0.25760677
140	0x3f32e11e	0.6987475
141	0x3eda22ee	0.42604774
142	0x3e53c059	0.20678844
143	0x3e758002	0.23974612
144	0xbf26bd43	-0.6513254
145	0x3f31715e	0.6931361
146	0xbe5b94cf	-0.21443485
147	0x3edad67d	0.42741767
148	0xbeb3f45c	-0.3514737
149	0xbeb5c122	-0.3549891
150	0x3e77572d	0.24154349
151	0xbf5e5a93	-0.86856955
152	0x3dad617a	0.08465858
153	0x3fd1ad2e	1.6380975
154	0xbe7d0560	-0.24709082
155	0xbebc9057	-0.36828873
156	0xbcb1b9e1	-0.02169508
157	0xbf9f3c7f	-1.2440337
158	0xbe2f3743	-0.17110924
159	0xbd5105e0	-0.051030993
160	0xbee8323e	-0.45350832
161	0xbf01f5d1	-0.5076571
162	0xbf042261	-0.5161496
163	0xbeebef4e	-0.46081012
164	0xbf4dee05	-0.80441314
165	0xbf2ba858	-0.6705375
166	0xbec0cc9b	-0.37656102
167	0x3e46535a	0.19367734
168	0x3d8579c0	0.065173626
169	0xbe582fbf	-0.21111964
170	0x3ec23335	0.37929693
171	0xbf1765eb	-0.5913989
172	0x3e0a181a	0.13485757
173	0x3e6eaf83	0.2330914
174	0xbeda952b	-0.4269193
175	0x3e284e32	0.16436079
176	0xbf31d5c8	-0.6946683
177	0x3fa8c8b6	1.3186252
178	0x3eb6db72	0.35714298
179	0xbeb52108	-0.35376763
180	0xbebff6a3	-0.37492856
181	0xbda42643	-0.0801511
182	0x3f097861	0.5369931
183	0xbca3bbc6	-0.019986998
184	0x3f396553	0.72420233
185	0x3edb9006	0.4288332
186	0xbedd333c	-0.4320315
187	0x3e87aad5	0.26497522
188	0xbf54bd39	-0.8310123
189	0x3f09e514	0.5386517
190	0x3eee057c	0.4648856
191	0x3ee28758	0.44243884
192	0xbcfb6488	-0.030687585
193	0x3f83154e	1.0240877
194	0xbf8be817	-1.0930203
195	0xbf0c1ff1	-0.5473624
196	0xbb877d2e	-0.0041347956
197	0x3ea6cd83	0.32578668
198	0xbf1216d8	-0.57066107
199	0x3f23a0c9	0.63917214
200	0x3e2a9e1a	0.16661873
201	0x3d83a3b7	0.064277105
202	0xbf4c9b86	-0.7992481
203	0xbed3b5b5	-0.4134957
204	0xbf14ad0e	-0.5807656
205	0xbf1380f6	-0.57618654
206	0xbebf9cf8	-0.37424445
207	0x3f7473e4	0.95489335
208	0x3cbec384	0.023286588
209	0xbe803e5e	-0.25047582
210	0x3d6bf1d9	0.05760369
211	0x3d5d13a1	0.053973798
212	0xbee083b7	-0.4385049
213	0x3d935299	0.07193489
214	0x3e6594d0	0.22420049
215	0x3e5cb57b	0.21553604
216	0x3f840442	1.0313799
217	0x3f862333	1.0479492
218	0x3f999f31	1.2001706
219	0xbfbb6941	-1.4641496
220	0x3e9e6857	0.3093898
221	0x3f3943b8	0.72368956
222	0x3f87304b	1.0561613
223	0xbec42fd7	-0.3831775
224	0xbfb00654	-1.3751931
225	0xbdb7a22e	-0.0896648
226	0xbdfc9279	-0.12332625
227	0xbd3cfe3b	-0.04614089
228	0xbf9c9963	-1.223431
229	0x3f404dad	0.75118524
230	0xbea53182	-0.32264334
231	0x3f2c0f08	0.67210436
232	0x3ec5671d	0.38555232
233	0x3ebadf07	0.3649828
234	0x3f3991cc	0.72488093
235	0x3d4afab6	0.049555503
236	0x3f3cd429	0.7376123
237	0xbf13d59b	-0.5774781
238	0xbe58fbf5	-0.21189864
239	0xbe5edb83	-0.21763425
240	0xbecf96e7	-0.40544817
241	0x3f22612b	0.63429517
242	0xbdc9a2c3	-0.098454975
243	0xbe070084	-0.1318379
244	0x3da28e48	0.07937294
245	0xbe9c52b6	-0.30531853
246	0x3f70b371	0.94023806
247	0xbf4fde05	-0.8119815
248	0x3f061f7b	0.52391785
249	0xbed2f8aa	-0.4120534
250	0xbf16b487	-0.5886921
251	0xbe2f8d2a	-0.17143694
252	0x3f45da10	0.7728586
253	0xbed42a9a	-0.41438752
254	0xbf47fba3	-0.7811834
255	0xbf0c4503	-0.54792804

fc1.bias f4 [64]
0	0x3e966e75	0.29381147
1	0x3ee3aa45	0.44465843
2	0x3ecd3fe1	0.40087798
3	0xbb971b69	-0.004611422
4	0x3ed400fb	0.41406998
5	0x3edcebe0	0.43148708
6	0xbf582c9c	-0.8444307
7	0xbe03b99f	-0.12863778
8	0xbf1bfaa1	-0.60929304
9	0x3e89f2f2	0.26943165
10	0xbef99a7c	-0.48750675
11	0x3f7108b8	0.9415393
12	0x3c8ea7f2	0.017414067
13	0xbd08d3a8	-0.033404976
14	0xbfb0120f	-1.3755511
15	0x3ed68f3c	0.41906154
16	0x3f206118	0.62648153
17	0xbe7dec69	-0.24797215
18	0xbcdddc86	-0.027082693
19	0x3f11cf96	0.56957376
20	0x3f54f062	0.83179295
21	0xbf680ead	-0.90647393
22	0x3f314ad9	0.69254833
23	0x3f5756e0	0.84116936
24	0xbe231c55	-0.15928777
25	0xbda76572	-0.08173646
26	0x3ade20ad	0.0016946994
27	0xbf1df456	-0.6170095
28	0x3f8ca090	1.09865
29	0xbf1e6449	-0.61871773
30	0xbf4456e3	-0.7669508
31	0xbe917a45	-0.28413597
32	0xbf00c707	-0.5030369
33	0xbf3bf913	-0.7342693
34	0x3ea5daba	0.32393438
35	0x3f51f53a	0.8201481
36	0x3f3b6c2b	0.73211926
37	0xbdc3656c	-0.09540829
38	0xbebd86df	-0.3701696
39	0x3f033790	0.51256657
40	0x3eeae39b	0.45876774
41	0xbf057046	-0.5212444
42	0x3c5dbd5c	0.013533916
43	0xbf3fbe90	-0.7490015
44	0x3ec709a4	0.38874543
45	0xbde3af74	-0.111174494
46	0xbf04d725	-0.51890785
47	0x3d45581d	0.048179734
48	0x3f42b577	0.76058143
49	0x3eb84856	0.35992688
50	0xbe49963b	-0.19686215
51	0xbd60d1cc	-0.054887578
52	0x3ee51462	0.44742113
53	0xbf6b8295	-0.9199613
54	0x3e8eecd8	0.27915072
55	0xbeefba44	-0.46821797
56	0xbf554687	-0.8331074
57	0xbf2e22f1	-0.68022066
58	0xbf719ab8	-0.9437671
59	0x3f40a878	0.7525706
60	0xbf421769	-0.7581697
61	0x3f2f76f1	0.68540865
62	0x3cd7738b	0.026300212
63	0x3ef6fa33	0.48237762

fc2.weight f4 [64, 64]
0	0xbd45e2c6	-0.04831197
1	0xbe236beb	-0.15959136
2	0x3da05e4b	0.07830485
3	0x3d006a9d	0.031351674
4	0x3d94e2dc	0.072698325
5	0x3d2e2634	0.042516902
6	0xbda8c5d1	-0.082408555
7	0x3d86d819	0.06584186
8	0xbc3a9453	-0.011387902
9	0x3cf3af69	0.029746728
10	0xbdeda273	-0.1160325
11	0xbdad375d	-0.08457825
12	0xbe186b9b	-0.14884798
13	0xbd843b6e	-0.06456648
14	0x3c35a9a6	0.011087811
15	0xbe0a4bd0	-0.13505483
16	0x3ac58038	0.0015068119
17	0x3d51d6c0	0.051230192
18	0xbcc0f09c	-0.023552231
19	0xbdf8c77b	-0.12147423
20	0xbe12c16a	-0.14331594
21	0xbd635851	-0.055504147
22	0x3b450375	0.0030061875
23	0x3db20b16	0.08693521
24	0x3d65623d	0.05600189
25	0xbcf39ad5	-0.029736916
26	0x3cf5f1fc	0.030022614
27	0xbe20c856	-0.15701422
28	0xbe25f355	-0.16206105
29	0x3d2ddbab	0.04244582
30	0xbdda7884	-0.10667518
31	0x3ca56a52	0.020192299
32	0xbdff0f3c	-0.124540776
33	0xbd9f4cca	-0.07778318
34	0xbdeb7bec	-0.114982456
35	0x3cd72afe	0.026265617
36	0xbd4f2d8f	-0.050580557
37	0x3da485e4	0.0803335
38	0x3d1553b1	0.036456767
39	0x3c8dd177	0.017311795
40	0xbca7509e	-0.020424183
41	0xbd9ca265	-0.07648162
42	0xbd896c80	-0.06710148
43	0xbc8ca2fe	-0.017167564
44	0x3cbd1dbf	0.023085473
45	0xbdd3d9ea	-0.10344298
46	0x3db654fa	0.08902927
47	0xbd5ac11f	-0.05340683
48	0xbe0dd3b7	-0.13850294
49	0xbdc83e5b	-0.09777518
50	0x3dc1fd92	0.09472193
51	0x3da5c27a	0.08093734
52	0xbe089e3a	-0.13341609
53	0x3d4d30df	0.050095435
54	0x3c884563	0.016634649
55	0x3d0fca33	0.03510494
56	0x3da7a08d	0.081849195
57	0xbdc7ca05	-0.09755329
58	0x3aa86b44	0.001284935
59	0xbadc086f	-0.0016787181
60	0xbd996ea7	-0.074918084
61	0x3b354ba7	0.00276635
62	0xbd5efcbd	-0.05444025
63	0x3d243fef	0.040100034
64	0xbd9a990f	-0.07548725
65	0xbdaf827b	-0.08569809
66	0x3bcb878d	0.0062112273
67	0x3bfb357c	0.007666288
68	0xbde60859	-0.11232061
69	0xbd0c5bbb	-0.03426717
70	0x3d278d2d	0.04090612
71	0xbc926328	-0.017869547
72	0x3c2adb5f	0.010428279
73	0xbd23a386	-0.03995087
74	0x3cbddeb8	0.02317749
75	0xbde13e3f	-0.109982006
76	0xbdb04970	-0.08607757
77	0xbdaca128	-0.084291756
78	0x3dcc0a83	0.099629425
79	0xbd8b08d2	-0.06788792
80	0xbcb5b9de	-0.022183355
81	0xbd9c8da3	-0.076442026
82	0x3db08629	0.08619339
83	0x3da9ed39	0.082972
84	0xbdf0c4d5	-0.11756293
85	0xbe1658ea	-0.14682356
86	0xbe04c665	-0.12966307
87	0xbd18283f	-0.037147757
88	0xbd0282c4	-0.03186299
89	0xbdcf076b	-0.10108837
90	0xbd83600b	-0.06414803
91	0xbc9fa2f3	-0.01948688
92	0xbdb24234	-0.087040335
93	0x3bda6a2d	0.006665489
94	0xbce5b576	-0.028040629
95	0xbd97d71a	-0.07414074
96	0xbcfa356b	-0.03054305
97	0x3db1f9ed	0.08690248
98	0xbdffaa43	-0.12483647
99	0xbd03469e	-0.032049768
100	0xbda9fc02	-0.0830002
101	0x3dd23655	0.10264269
102	0xbe1f64c8	-0.15565789
103	0xbe104cd8	-0.14091814
104	0x3dd9fa5b	0.10643455
105	0xbdb8de16	-0.090267345
106	0xbc784a7d	-0.015154478
107	0xbd5bd6bc	-0.053671584
108	0xbd0c1804	-0.03420259
109	0xbcfe3e6e	-0.031035628
110	0x3d7b242c	0.061313793
111	0xbcf2c124	-0.029633112
112	0xbe36c71a	-0.17849389
113	0xbda5ecda	-0.081018165
114	0xbd5ef445	-0.054432172
115	0x3cfdb890	0.030971795
116	0xbdd1da1a	-0.10246678
117	0x3da4a5de	0.08039449
118	0xbd234bae	-0.039867096
119	0xbd75b405	-0.059986133
120	0x3da9ed63	0.08297231
121	0x3cd4f423	0.02599532
122	0x3d89b47f	0.0672388
123	0x3d10bdef	0.035337385
124	0xbda98955	-0.08278147
125	0xbdf97660	-0.12180781
126	0xbcee87ca	-0.029117484
127	0x3d8636ea	0.06553443
128	0x3e7500d1	0.23926093
129	0x3ca338bb	0.019924512
130	0x3e72fee4	0.23730046
131	0x3e0c27a7	0.13687001
132	0xbdc3eeb9	-0.09567017
133	0x3ed04bd2	0.40682846
134	0xbe17e5d9	-0.14833774
135	0xbe0e3abf	-0.13889597
136	0x3d646a7e	0.05576562
137	0xbf25af58	-0.6472068
138	0xbe19632a	-0.14979234
139	0x3ee41404	0.4454652
140	0x3eabe560	0.33573437
141	0x3e5f068b	0.2177984
142	0xbf2397cd	-0.63903505
143	0xbeab3659	-0.334399
144	0x3e04d431	0.1297157
145	0x3f581248	0.84402895
146	0x3dcea932	0.10090865
147	0x3eb3f29d	0.35146037
148	0x3e9737d5	0.29534784
149	0xbe90e666	-0.2830078
150	0x3da7adef	0.08187472
151	0x3e8c0e2d	0.27354565
152	0xbeae3b87	-0.3402979
153	0x3c03ffce	0.008056594
154	0x3d5f6a21	0.05454457
155	0x3db1065c	0.08643791
156	0x3e4a1346	0.19733915
157	0xbdcc5555	-0.09977213
158	0x3c4cc289	0.012497553
159	0xbe6c8901	-0.23099138
160	0x3edb3280	0.42811966
161	0xbf8711ac	-1.0552268
162	0x3eff1a86	0.49824923
163	0x3e8f0b18	0.2793815
164	0x3dd4c21c	0.10388586
165	0xbeeed193	-0.46644267
166	0xbe5e875a	-0.2173132
167	0xbd340b04	-0.043955818
168	0xbc20456c	-0.009782176
169	0xbf7b1984	-0.9808581
170	0xbc91f12b	-0.017815193
171	0x3e08f319	0.13373984
172	0xbc8fb88f	-0.01754406
173	0x3e272b46	0.16325101
174	0xbec2be0b	-0.38035616
175	0x3e299098	0.16559064
176	0x3e87e1fb	0.26539597
177	0xbe739e3c	-0.2379083
178	0x3d42bd56	0.047543846
179	0xbe91cb48	-0.28475404
180	0x3e325834	0.1741646
181	0xbc437fc6	-0.011932319
182	0x3e3902e6	0.18067512
183	0x3bc71dac	0.006076535
184	0xbe31d9b4	-0.17368203
185	0xbf382450	-0.7193041
186	0x3e9ac524	0.3022853
187	0xbe53248a	-0.20619407
188	0xbeb6903c	-0.35656917
189	0x3e5e30da	0.21698323
190	0xbecf8608	-0.40531945
191	0xbd28bfc0	-0.041198492
192	0xc0381f10	-2.876896
193	0xbef705c2	-0.4824658
194	0xbf30b8ef	-0.69032186
195	0xbee9612a	-0.45581943
196	0xbf2e78ef	-0.6815328
197	0x3e5e27e9	0.21694912
198	0x3f59030f	0.8477029
199	0xbe9a2028	-0.30102658
200	0xbff9b601	-1.9508668
201	0x3eda9022	0.4268809
202	0x3e862699	0.26201323
203	0xbea99c31	-0.33126977
204	0x3e5fd84f	0.21859859
205	0x3dd6f364	0.10495642
206	0x3e8440ac	0.2583059
207	0xbef982a9	-0.48732498
208	0x3ee667c5	0.45001045
209	0x3e268cc9	0.16264643
210	0xbedc2621	-0.4299784
211	0xbf2063cd	-0.62652284
212	0xbc0311e8	-0.007999875
213	0xbf2a2e3d	-0.66476804
214	0x3df8872b	0.12135156
215	0xbe166d67	-0.14690171
216	0xbe253a86	-0.16135606
217	0x3d6e64b7	0.058201518
218	0xbec15344	-0.3775884
219	0xbf5a9a8c	-0.8539207
220	0xbf7aa187	-0.9790272
221	0x3e8a69a2	0.27033716
222	0xbf514b9c	-0.81755996
223	0x3e2149ef	0.1575086
224	0xc0488ced	-3.1336014
225	0xbd6f5689	-0.058432136
226	0x3ee93ca8	0.4555409
227	0xbe7fb742	-0.24972251
228	0xbfc262f2	-1.5186446
229	0xbda83c7d	-0.08214662
230	0x3fe40b2c	1.7815909
231	0xbeeed458	-0.4664638
232	0x3e726601	0.23671724
233	0xbbc0d325	-0.0058845454
234	0x3ee49e66	0.44652098
235	0xbf438003	-0.76367205
236	0x3f051e87	0.51999706
237	0x3d5ff25b	0.054674488
238	0x3df27aa0	0.11839795
239	0x3f389680	0.72104645
240	0x3dac7dd2	0.08422436
241	0xbdb06d43	-0.0861459
242	0x3e775dd7	0.24156891
243	0x3ddf18c4	0.108933955
244	0xbe75c425	-0.24000604
245	0x3d94b1c8	0.072604716
246	0x3e63a8cb	0.22232358
247	0x3f5174fd	0.81819135
248	0xbf4e13d3	-0.80499
249	0xbcba6c69	-0.022756772
250	0xbf95c04e	-1.1699312
251	0xbfb7aa02	-1.4348757
252	0xc0503076	-3.2529578
253	0xbf34b667	-0.70590824
254	0x3e97364b	0.2953361
255	0xbeb38063	-0.3505889

fc2.bias f4 [64]
0	0xbe212c42	-0.1573954
1	0x3cc4d264	0.024026103
2	0x3ec9bbcf	0.394011
3	0xbd499bbd	-0.04922079
4	0x3b826cd2	0.0039802575
5	0x3e321b7f	0.17393301
6	0x3efd8979	0.49518946
7	0x3c942bac	0.01808723
8	0xbd43c009	-0.04779056
9	0x3de43135	0.11142198
10	0x3ed6372d	0.4183897
11	0x3d866cde	0.065637335
12	0x3e9af5dd	0.30265704
13	0xbcf19eb2	-0.029494617
14	0x3d0e04e3	0.03467263
15	0xbde2a19b	-0.1106598
16	0x3dca0f5f	0.09866213
17	0x3e4e687b	0.20157044
18	0x3d9e04a2	0.077157274
19	0xbd0a9c56	-0.0338405
20	0xbcdd35aa	-0.027003128
21	0x3e6280d6	0.2211946
22	0x3cb25bf5	0.021772364
23	0x3f0eac10	0.55731297
24	0x3cfee401	0.03111458
25	0xbe138b02	-0.14408496
26	0x3e98a25b	0.29811367
27	0xbd3c399d	-0.04595338
28	0x3ed6616e	0.41871208
29	0x3e15beda	0.14623585
30	0x3e6dbca3	0.2321649
31	0x3e3a6640	0.18203068
32	0x3dd4f199	0.103976436
33	0xbd7229a7	-0.059121754
34	0x3d9d11af	0.076693885
35	0x3f130caa	0.574412
36	0x3db19bd3	0.08672299
37	0xbdda03ca	-0.10645254
38	0x3e0776af	0.13228868
39	0x3e7484c1	0.23878767
40	0x3ed5c32b	0.41750464
41	0xbd880eda	-0.06643458
42	0x3ea5c25a	0.3237484
43	0x3eb0d652	0.34538513
44	0x3e13c7e7	0.14431725
45	0x3db0789b	0.08616754
46	0x3e988cda	0.2979496
47	0xbc266f55	-0.01015838
48	0xbe8dda77	-0.27705738
49	0xbe658dc1	-0.22417356
50	0xbe34d731	-0.17660214
51	0x3e829cec	0.25510347
52	0x3d7cf462	0.0617565
53	0xbd802224	-0.06256512
54	0xbd0b34bf	-0.03398585
55	0x3d656ec4	0.056013837
56	0x3d6f3ef2	0.05840964
57	0x3ec5d522	0.3863917
58	0x3ea93284	0.33046353
59	0x3d1ebb11	0.03875262
60	0x3e96ed94	0.29478133
61	0x3ed08e9a	0.40733796
62	0x3e89104b	0.26770243
63	0x3dd5c7a4	0.10438469

fc3.weight f4 [3, 64]
0	0x3dbdbf58	0.092650115
1	0x3da8f957	0.08250683
2	0xbf3f605c	-0.7475641
3	0x3fc263aa	1.5186665
4	0x3fb7bd39	1.4354621
5	0xbe286458	-0.16444528
6	0xbf712361	-0.9419461
7	0xc00883b8	-2.1330395
8	0xbbb602ea	-0.0055545466
9	0xbee227d8	-0.44171023
10	0x402f31a4	2.7374048
11	0xbae17dd5	-0.0017203639
12	0xbf5be1a9	-0.85891205
13	0x3c10d8f5	0.008840789
14	0xbe48c5da	-0.19606724
15	0x3d7aa0cf	0.061188515
16	0x3fe6ea9d	1.8040348
17	0xbeb96eb3	-0.3621727
18	0xbe13d225	-0.14435633
19	0x3fb141ab	1.3848165
20	0xbe3ce997	-0.18448482
21	0x40166c77	2.3503702
22	0x3d93f36b	0.07224163
23	0xbcad8caa	-0.021185238
24	0x3fcb7868	1.589612
25	0x3da58112	0.08081259
26	0xbb35cd68	-0.002774084
27	0xbdc4e052	-0.09613098
28	0x3a596506	0.0008292947
29	0xbecf35ad	-0.4047064
30	0x3f58412e	0.84474456
31	0x400718dd	2.1108925
32	0xbe544d47	-0.20732604
33	0x3f88365c	1.0641589
34	0x3d8896bb	0.066693746
35	0xbf7f9c93	-0.9984829
36	0xbfe0fece	-1.757776
37	0xbb8ee9dc	-0.0043613743
38	0xbdaad195	-0.08340756
39	0xbf91eff3	-1.1401352
40	0x400c898d	2.1958954
41	0x3e8a8c49	0.27060154
42	0x400c5357	2.1925867
43	0xbf00b201	-0.5027161
44	0xbe89612e	-0.26831955
45	0xbf970f23	-1.1801494
46	0xbf705f26	-0.93895185
47	0xbdb5bc6a	-0.08873828
48	0xbfbe93f8	-1.4888906
49	0xbf698a54	-0.91226697
50	0xc0122090	-2.2832375
51	0x3e06eac8	0.131755
52	0x3fc9d59d	1.5768315
53	0x3fac5573	1.3463577
54	0xbe80add5	-0.25132623
55	0xbe893ab0	-0.26802588
56	0xbd90f039	-0.07077069
57	0xbf33107d	-0.69947034
58	0xbf1e32ef	-0.6179647
59	0xbd82e319	-0.06390972
60	0x3e48b6e1	0.19601013
61	0xbeb08831	-0.34478906
62	0xbee9ba82	-0.45650107
63	0x3e86dcea	0.2634042
64	0x3c1a73a3	0.009426984
65	0xbe0da557	-0.13832603
66	0xbeba43fe	-0.3638
67	0x3f7c08f3	0.98451155
68	0x3f35093d	0.7071722
69	0xbddf8f2b	-0.10915979
70	0xbebbacc0	-0.36655235
71	0xbfa968f7	-1.3235158
72	0x3dfdb7fc	0.12388608
73	0xbef442bc	-0.47707164
74	0x3ff0e994	1.8821282
75	0xbee4d89d	-0.44696513
76	0xbf29a053	-0.6626026
77	0xbdc06fa7	-0.09396296
78	0x3d91631d	0.070989825
79	0x3dc83aba	0.09776826
80	0x3fd96703	1.6984562
81	0xbe2dacf3	-0.16960506
82	0x3d45765e	0.048208587
83	0x40157638	2.3353405
84	0xbdc5684a	-0.09639032
85	0x3fbb9f7b	1.4658045
86	0xbd6cd0e7	-0.057816412
87	0xbf330ab3	-0.699382
88	0x3faf789b	1.3708681
89	0xbdd05ca4	-0.1017392
90	0xbe5afe36	-0.21386036
91	0xbe332d31	-0.17497708
92	0xbef01d40	-0.46897316
93	0xbf2561d2	-0.64602387
94	0x3f4bfa06	0.7967838
95	0x3f94b1f7	1.161681
96	0xbe5949f5	-0.21219619
97	0x3f516fbc	0.8181112
98	0xbd4830f2	-0.048874803
99	0xbfaa6168	-1.3310976
100	0xbf434296	-0.7627348
101	0x3d5745c1	0.052556757
102	0xbf41fff4	-0.7578118
103	0xbf210aa3	-0.62906855
104	0x3fa79885	1.309342
105	0x3dcaa8bc	0.09895465
106	0x3f2fff73	0.6874916
107	0xbe1b0e5b	-0.15142195
108	0xbea6e7af	-0.32598636
109	0xbd475b6a	-0.048671164
110	0xbe8ab63a	-0.27092153
111	0x3c489c5c	0.01224431
112	0xbf48ff63	-0.7851469
113	0xbee5c648	-0.4487784
114	0xbf8c9f8c	-1.098619
115	0xbee8a468	-0.45437932
116	0x3fd0f8be	1.632591
117	0x3f701ca8	0.93793726
118	0x3ca4db0d	0.020123983
119	0xbf2c93ff	-0.67413324
120	0x3e40153b	0.18758099
121	0xbf19565d	-0.59897405
122	0xbe9a0d30	-0.30088186
123	0x3e54b6f5	0.20772918
124	0xbf062c24	-0.52411103
125	0xbf5928e0	-0.84827995
126	0x3d5eb245	0.05436923
127	0x3f39d861	0.72595793
128	0xbc32c570	-0.010911331
129	0xb9db2291	-0.0004179669
130	0x3e0bd474	0.13655263
131	0x3fb6733f	1.425392
132	0x3fc94133	1.5723022
133	0xbeb2bf2b	-0.34911475
134	0xbee9e406	-0.4568178
135	0xbfb7933a	-1.4341805
136	0xbe0048a8	-0.12527716
137	0xbe8ca0d9	-0.27466467
138	0x40002f32	2.0028806
139	0xbe3e42d5	-0.18580182
140	0xbf9b6751	-1.2140905
141	0xbe1dcede	-0.15410945
142	0x3dbb6ac0	0.0915122
143	0x3c96e9c0	0.018422008
144	0x401d7350	2.460163
145	0xbdbde2ec	-0.092717975
146	0xbe31d255	-0.17365392
147	0x3f92b3cf	1.1461123
148	0x3db91c8e	0.090386495
149	0x3ff2f7d0	1.8981876
150	0x3db61c6b	0.08892139
151	0xbf6d6b9a	-0.9274231
152	0x3fb234e1	1.3922387
153	0x3db599f0	0.08867252
154	0x3f5aca0d	0.85464555
155	0xbc08f732	-0.008359717
156	0xbf681a23	-0.9066488
157	0xbe980907	-0.29694387
158	0x3faaaa3b	1.33332
159	0x405b2590	3.4241676
160	0xbf760bc8	-0.96111727
161	0x3f86fb5a	1.0545456
162	0xbc08eda9	-0.008357444
163	0xbf837571	-1.0270215
164	0xbfb6e6a6	-1.4289138
165	0x3d472dd5	0.048627693
166	0x3cdba7b3	0.026813364
167	0xbf9f9518	-1.2467375
168	0x400299f9	2.0406477
169	0x3dba1ce7	0.09087544
170	0x3ffa29be	1.9543989
171	0xbe8a5186	-0.27015322
172	0xbdc881a6	-0.097903535
173	0xbe46b3ef	-0.19404577
174	0x3ce3a2f8	0.02778767
175	0xbd496560	-0.049168944
176	0xbfa74606	-1.3068244
177	0xbf3fd67b	-0.74936646
178	0xc0400519	-3.0003111
179	0xbd84a213	-0.06476226
180	0x3fe55894	1.7917657
181	0x3facd4d0	1.3502445
182	0x3dac7e82	0.08422567
183	0xbf98305e	-1.188976
184	0xbe3a59ee	-0.18198368
185	0xbf09acd4	-0.5377934
186	0x3dc183d0	0.09448969
187	0x3c05f620	0.008176357
188	0xbdbb80de	-0.09155439
189	0xbf0722d3	-0.5278751
190	0xbfac4b23	-1.346043
191	0xbe812902	-0.252266

fc3.bias f4 [3]
0	0x3dfba789	0.12287814
1	0xbed085a3	-0.40726957
2	0x3e2c72ce	0.1684067
